results/model.pth (torch, 172170 bytes, 43 tensors)

modality_encoders.eeg.0.weight f4 [32, 6]
000000 03 f1 2c be e3 20 6e be 45 35 d4 3d 6f f3 a6 be
       -0.16888814 -0.23254733 0.10361723 -0.326076
000010 a0 95 3f 3d dd 7f 6c be 25 e6 57 bd 92 50 0e be
       0.046773553 -0.23095651 -0.052709717 -0.13897923
000020 ac bd 67 be af 8f 27 3e aa e5 10 3e 6e d3 88 be
       -0.22630948 0.16363405 0.1415011 -0.26723808
000030 32 dd c6 be c7 cc ac 3e 80 c6 f1 bd 25 18 c8 be
       -0.38840634 0.33749983 -0.11805439 -0.3908092
000040 8c b8 b4 be 41 a1 3c 3e de 18 be 3e 3d 4f 7a bd
       -0.35297048 0.18420888 0.37128347 -0.061110724
000050 79 d9 dd bd 57 6a bd 3e aa 0d 31 3e 79 cd 0b be
       -0.10832495 0.36995193 0.17290369 -0.136526
000060 1d 45 a9 be df 01 91 be 28 ac 67 3e ed 2d c3 be
       -0.33060542 -0.2832174 0.22624266 -0.38120976
000070 4e 81 c0 be 0c 35 1b 3e 7e 17 90 be 3d 18 13 3e
       -0.37598652 0.15156955 -0.28142923 0.14364715
000080 14 97 8f 3e 0b 60 da bd 7e 17 55 be 2b c5 b1 3e
       0.2804495 -0.1066285 -0.20809743 0.3472074
000090 7e 02 91 3e c9 d5 cc 3e 30 3c cf be ae 13 39 be
       0.28322214 0.40006855 -0.40475607 -0.18073913
0000a0 96 fe be be 20 b6 dc 3d 18 6f 89 be 57 4b 9e 3d
       -0.3730361 0.10776925 -0.2684257 0.07729214
0000b0 43 17 43 be 5c 69 b9 3e b2 46 9c be d7 c2 6c be
       -0.19051842 0.36213195 -0.30522686 -0.231212
0000c0 d5 d0 36 3e d6 82 94 bd f1 9f 2e 3e 0c 39 cf 3e
       0.178531 -0.072515175 0.170532 0.4047321
0000d0 d0 88 1b be 9c 1b 28 3e 3b 41 cd 3e 9e 51 4b 3d
       -0.15188909 0.16416782 0.4008883 0.049638383
0000e0 8c e7 be 3e 49 5f 18 3e db ac cb be e7 e7 97 3e
       0.3728603 0.14880098 -0.39780316 0.29669115
0000f0 5c 78 a8 bb 98 94 b5 bc 4c 11 25 3c d1 4e 38 3e
       -0.005141301 -0.022165582 0.010074925 0.17998816
000100 88 d4 65 3d 37 25 94 3e 3d 54 81 be a3 35 83 3e
       0.05611089 0.28934643 -0.2525958 0.2562686
000110 f4 3a 8f 3e 31 05 60 be 35 e0 db 3d 51 de 93 3e
       0.27974665 -0.2187698 0.107361235 0.2888055
000120 0a 54 96 3e 24 bb 3b 3e 4a 55 70 3e c2 af 18 be
       0.29360992 0.18333107 0.23470035 -0.14910796
000130 ec a5 3d 3e 3f cc de 3d 27 1f 99 be ad a1 b7 3e
       0.18520325 0.108788006 -0.2990658 0.35865536
000140 67 48 6b bd 37 db 8b 3e fb f3 5a 3e a8 ce be bc
       -0.057442095 0.27315685 0.21382134 -0.0232919
000150 2f 89 b1 3e 96 ee 2a 3e dd 03 8f be 75 9c 9d be
       0.34674975 0.16692576 -0.27932635 -0.3078343
000160 97 dd b8 3e f2 0f 8d 3e 9c 74 11 be 10 36 1d 3e
       0.3610656 0.27551228 -0.14204639 0.15352654
000170 49 d6 c3 3e 5a 8e 5f be 09 32 94 bb 0b db 76 3e
       0.38249424 -0.21831647 -0.004522566 0.24106996
000180 56 90 5c be bd 9d 9d bc 3a 10 02 be ec c7 89 be
       -0.21539435 -0.019240255 -0.12701502 -0.2691034
000190 3b f9 a3 3e 6f cd ab 3e 9c 38 51 3e 44 03 9a be
       0.32026085 0.3355517 0.20431751 -0.30080616
0001a0 42 f5 95 be 24 2c c4 be ca 6e 47 3e 40 7a 4a 3e
       -0.2928868 -0.38314927 0.19475856 0.19773197
0001b0 85 db c0 3e b1 2c 17 be 34 db 0e 3e d5 e2 07 3c
       0.3766748 -0.14763142 0.13950807 0.008293827
0001c0 59 71 90 3c ef e2 51 be f8 6f 92 3e d7 80 a4 be
       0.017632173 -0.20496725 0.2860105 -0.32129547
0001d0 76 aa c4 be 26 bb 47 be 46 d3 62 3e ab 63 54 bc
       -0.384113 -0.19504985 0.22150907 -0.012963216
0001e0 03 8e 42 be 2d eb 92 be 07 2a 9a be 9f 38 a4 3d
       -0.18999486 -0.2869505 -0.3011019 0.08018612
0001f0 d6 eb f8 bd 5c e2 a2 be 46 31 6f bd 89 7f 66 be
       -0.12154357 -0.31813323 -0.0583966 -0.22509588
000200 d6 c1 73 3e ce 5e b9 3e b0 9c 49 3e a1 1f c5 be
       0.23804411 0.36205143 0.19688678 -0.38500693
000210 a1 95 b4 3c 55 3b 4a be a6 1c ba 3e 06 4a ba 3d
       0.022044005 -0.19749196 0.36349982 0.0909615
000220 28 13 af 3e 2c fc 8c 3d 75 64 a1 3d 2c c5 da 3d
       0.34194303 0.068840355 0.07880489 0.10682139
000230 cc ea cb be 9e 49 a7 be 38 68 81 3d c6 e4 48 bd
       -0.39827573 -0.32673353 0.06318706 -0.0490463
000240 3a 06 dc bd cc b8 4e be 56 db 92 be e7 64 81 3e
       -0.10743375 -0.20187682 -0.28682965 0.25272295
000250 88 e7 a9 3e f3 71 4a 3e 44 ff 0b 3d c5 fd 80 3a
       0.33184457 0.1977003 0.034178987 0.0009841254
000260 05 2e 9f bd a1 e2 39 be bd 78 5b 3e a8 15 68 3e
       -0.077724494 -0.18152858 0.21432777 0.22664511
000270 c9 61 ea 3c d2 25 c7 bd ca 4a 1a 3d d7 a2 b9 be
       0.02861108 -0.097240105 0.03766898 -0.3625705
000280 bd a9 96 be 1e a9 c8 3e 83 29 b3 3b 40 0d e3 3d
       -0.29426375 0.39191526 0.005467595 0.110865116
000290 1a 0a 12 bb 3a 53 bb be 7e 87 72 3e 00 a7 da 3d
       -0.0022283853 -0.36586934 0.23684499 0.10676384
0002a0 34 93 ae 3e 98 c0 ec 3d 82 6c 71 3d 45 a5 6b bd
       0.34096682 0.11560172 0.05894137 -0.05753066
0002b0 58 b0 7d be 3b e1 39 3e 3e d7 2e 3e 27 ff 0e 3e
       -0.24774301 0.18152325 0.17074296 0.1396452
0002c0 f7 15 e2 3d f5 9c d6 3d e0 02 64 3e 1d 79 b1 be
       0.11039346 0.10479156 0.22266722 -0.34662715
0002d0 e2 b4 c7 be 3f 42 b4 be 14 67 96 3e 4b 05 0a 3e
       -0.3900519 -0.35206792 0.29375517 0.13478582
0002e0 eb d8 d7 3c fc 09 a3 be 90 8c 0a bd 8c ad 85 be
       0.026348552 -0.31843555 -0.033825457 -0.26108968
0002f0 b9 97 8f bd 29 12 10 3e 11 80 10 3e c3 2d 60 bd
       -0.07011361 0.14069428 0.14111353 -0.05473114

modality_encoders.eeg.0.bias f4 [32]
000000 ee 67 ac 3d 8b 0f 8e bd c0 76 1f 3e 1d 54 b0 3e
       0.084182605 -0.06936558 0.15572643 0.34439173
000010 ca e5 58 be 1e 00 86 3e ae 61 6b 3e 6b 60 54 3d
       -0.21181408 0.26171964 0.2298648 0.051849764
000020 fc 89 ee 3c 78 09 a1 be e4 d2 2c be a7 88 ed bb
       0.02911853 -0.31452537 -0.16877323 -0.0072489562
000030 48 a6 5f 3e e3 21 62 be 4a d5 86 be f9 4d 1e 3e
       0.21840775 -0.2208324 -0.26334602 0.15459432
000040 23 fc c0 3e e1 62 94 3e 44 cb ae 3e 30 3c 1b be
       0.37692365 0.2898169 0.34139454 -0.15159678
000050 bf 4c dd bd ad 52 bf be 9b 09 91 be fd f4 f8 bc
       -0.10805654 -0.37367764 -0.2832764 -0.030390257
000060 21 14 b8 bd c6 34 83 bd 77 67 29 be 98 9d ac 3e
       -0.08988214 -0.0640655 -0.16543375 0.33713984
000070 b8 c1 e2 bd 16 03 c1 be c8 cb 64 3e 63 db 99 3e
       -0.11072105 -0.37697667 0.22343361 0.3005019

modality_encoders.eeg.3.weight f4 [16, 32]
000000 c2 c4 a1 bd ea b8 a3 bd 38 4d 3b 3d d8 71 18 3e
       -0.07898857 -0.07994254 0.04572794 0.14887178
000010 15 d0 21 3e 9e 51 82 bd 50 49 07 3e 33 81 13 be
       0.15802033 -0.063632235 0.1321156 -0.14404754
000020 53 8d 91 bd 6a 34 46 bd a8 a4 0a be 1a 74 bb 3c
       -0.071070336 -0.04838983 -0.13539374 0.02288251
000030 06 da f4 bb 43 8a 32 3e 78 83 1f bd 3d 33 c0 3d
       -0.0074722795 0.17435555 -0.038943738 0.09384773
000040 18 1d 23 bd d0 40 22 be 33 6a f7 3d 1f 8d 3d 3d
       -0.039822668 -0.15845037 0.12080803 0.04627716
000050 be 7e 22 3e b0 81 e1 3d dd 26 dc bd 1c 93 f3 bd
       0.15868661 0.11011064 -0.107496 -0.11893293
000060 60 26 81 3d ca 10 95 bd 20 85 15 be 50 0e b9 bd
       0.063061476 -0.07278593 -0.14601564 -0.09035933
000070 df 00 c8 3d 3f 6a ef 3d 5a ee 17 be 31 8a f7 bd
       0.09765791 0.11690187 -0.14837018 -0.12086905
000080 7b 02 11 be 8f 54 98 3d a3 09 03 be 00 59 3c bd
       -0.14161102 0.07438003 -0.12796645 -0.045983315
000090 f4 49 58 bd c1 0d 24 3e 20 ab cd 3c 47 2f bf 3b
       -0.052804902 0.16020872 0.025106013 0.0058344933
0000a0 65 af 0d bc 0c a1 c7 bd bb 42 79 bd f5 33 87 3d
       -0.008647774 -0.09747514 -0.060854655 0.06601707
0000b0 92 a5 4d bd ea b3 1f be 17 75 59 3d b7 d3 07 bc
       -0.05020673 -0.15595976 0.05309018 -0.008290223
0000c0 a2 8c 15 be 72 06 1e 3e ec 07 13 be f5 a7 22 be
       -0.14604428 0.15432146 -0.1435849 -0.15884383
0000d0 1b 8b 88 3d ad a0 fd 3b a6 a4 0f be 8e aa 9d 3a
       0.06667157 0.0077401013 -0.14027652 0.0012028979
0000e0 5b ae bf 3c c9 82 6b bd f5 0a 14 bd aa 7e cf 3d
       0.023398569 -0.057497773 -0.036143262 0.10131581
0000f0 c1 61 3a bd 20 ec bc bd f4 a3 e9 3d 22 0c ce 3d
       -0.04550338 -0.09224725 0.11408225 0.10060908
000100 49 4f 11 be 93 2b 1a 3c 0b a0 ed bb 45 9e 12 be
       -0.14190401 0.009409803 -0.0072517446 -0.14318188
000110 10 a7 ff 3d 12 cb e6 3d 17 2c 00 3e c7 56 8f 3c
       0.124830365 0.11269201 0.12516819 0.017497433
000120 15 71 c6 bd e0 79 72 bd 8c e3 a2 bd 73 5a 21 be
       -0.096895374 -0.05919826 -0.07953557 -0.1575716
000130 c6 e3 5f 3c f7 d9 01 be fe aa fe bd 3a a9 2a 3d
       0.013665145 -0.12680803 -0.12434958 0.041665293
000140 2a 25 6f bd ea 21 18 3d dc 68 0e 3e 3d 32 a0 bc
       -0.05838505 0.037141718 0.13907188 -0.019555205
000150 1a 93 22 be 92 24 04 3e b8 81 e0 3d 5e 38 43 3d
       -0.15876427 0.12904575 0.10962242 0.047661178
000160 66 b4 05 3d 3d 3f 25 3e e2 b6 2f bd e6 2e 18 be
       0.032642744 0.16137405 -0.04289902 -0.1486164
000170 ae 0b 1a be d2 42 42 bc af b1 ac bc d9 69 ac 3d
       -0.15043518 -0.0118567515 -0.02108082 0.08418626
000180 72 c0 97 3c 8a a7 ae 3d 22 99 25 be d6 e2 c1 bd
       0.018524382 0.08528049 -0.16171697 -0.09467094
000190 4d 7c 5e 3c 03 57 9f 3d 2e 2d 2e be 9e 3a 06 be
       0.01357944 0.07780268 -0.17009422 -0.13108298
0001a0 82 b8 d9 3d f9 8b 8f bd d6 83 84 bc 6e 93 02 3e
       0.10630895 -0.070091195 -0.016176146 0.12751552
0001b0 26 3d ad bd ed 1c 23 be 31 01 f9 3b dd 80 09 be
       -0.08458929 -0.15929003 0.007599019 -0.13428064
0001c0 cb 02 91 bd 6f e1 99 3c 9b 12 db bd 8c e8 df 3d
       -0.07080611 0.018784253 -0.10696908 0.10933027
0001d0 83 5a 06 be c1 29 09 bd 2d 5d 26 be a0 a8 2a 3c
       -0.13120465 -0.033487085 -0.16246481 0.01041618
0001e0 64 e8 91 3b 97 33 09 3e be f3 24 be 89 49 64 ba
       0.004452752 0.13398586 -0.16108605 -0.00087084674
0001f0 d8 61 9c 3d 71 2e 94 bd 33 33 95 bd 61 f4 e2 3d
       0.0763585 -0.072354205 -0.07285156 0.11081768
000200 78 bc 18 be 89 76 02 3e 91 33 6d 3d 63 52 19 3c
       -0.14915645 0.1274053 0.057910506 0.009358021
000210 db c1 d9 3d e8 d0 f4 3d 2a 1f 6a 3c fa 5b 09 bd
       0.10632678 0.11953908 0.014289657 -0.03353498
000220 55 f0 45 bb c3 0f 96 bd 7d 83 04 3e 78 3f 44 bc
       -0.0030203064 -0.07327225 0.12940784 -0.011978023
000230 09 d6 c8 bc 2e e9 3a bd d6 5b f2 3d e6 8d f9 3c
       -0.024516122 -0.045632534 0.118339226 0.03046317
000240 fc 78 87 bd ac 21 96 3d 71 24 0f 3b 90 82 d1 3c
       -0.06614873 0.07330641 0.002184179 0.025574952
000250 51 6d 1a be 29 a2 12 3e 67 26 05 be d3 a2 e5 3d
       -0.15080763 0.14319672 -0.1300293 0.11212697
000260 dc 95 fb 3d 3c 6f f9 3b 03 d4 12 be 99 9f af bd
       0.12284443 0.007612137 -0.14338689 -0.08575363
000270 9c 9e a7 3d 08 34 b0 3d 5c fa c4 3d 03 6e 0f be
       0.08184549 0.08603674 0.09618065 -0.1400681
000280 39 2d 04 bd d4 56 5b 3d ab 54 93 3d f3 9d 1d 3e
       -0.03226969 0.053549603 0.071938835 0.15392284
000290 2c 04 d1 3d da d9 6c bd df 43 8d 3d 9a 01 bb 3d
       0.10205874 -0.057824947 0.06897711 0.09131165
0002a0 33 a1 e1 bd 7e e3 28 3e c4 d9 89 3d ab 5d f3 3d
       -0.110170744 0.16493031 0.067309886 0.118831
0002b0 62 35 65 3d d8 21 06 be 56 15 da 3d 74 83 11 3e
       0.055959113 -0.13098848 0.10648601 0.14210302
0002c0 de f5 1c 3c 64 b8 ff 3c 40 c6 1e 3e a7 64 f3 3d
       0.009580104 0.031215854 0.15505314 0.11884432
0002d0 2d 93 89 3c 07 26 a4 bd f3 96 0b be 1a c0 44 3d
       0.016793812 -0.08015066 -0.13631801 0.048034765
0002e0 13 df 1a be 11 04 29 be 43 ae 34 be cb 45 99 bd
       -0.15124159 -0.16505457 -0.176446 -0.07484015
0002f0 38 d8 b1 bc 3f b2 02 3e 36 ae 42 3c 4a e3 2a be
       -0.021709546 0.12763308 0.011882355 -0.16688266
000300 d5 cc 04 be 01 28 da 3d 78 d0 a1 bd 77 24 e8 3d
       -0.12968762 0.106521614 -0.079010904 0.1133508
000310 5f 97 ba 3d 92 07 c3 3b d7 47 e9 bd 85 b6 c6 bd
       0.09110903 0.00595183 -0.113906555 -0.097027816
000320 55 e2 84 bc 55 6c 7e bd d8 b2 2b 3e 9a f9 ca bd
       -0.016221205 -0.062115032 0.16767442 -0.09910889
000330 e6 cb 39 3e 93 81 97 bc 8e fa 10 3e 31 69 a2 3d
       0.18144187 -0.018494403 0.14158079 0.0793022
000340 68 a6 71 bc 5a 50 12 bd ce f8 34 3e c9 d5 9e 3c
       -0.014749147 -0.03572116 0.17673036 0.01938905
000350 ed 0a 30 be f7 65 19 3e 63 87 b9 bc 27 b2 01 be
       -0.17191668 0.14980303 -0.022647565 -0.12665616
000360 bd 91 fb bd 80 30 05 be 53 96 0c be c4 ed 66 3d
       -0.12283657 -0.13006783 -0.13729219 0.056379095
000370 6a ff 86 3d 0c f9 77 bd 89 41 64 3c 52 ce 5b bc
       0.06591685 -0.060540244 0.01393164 -0.01341589
000380 3a 62 1e 3e 32 13 28 be d1 36 c1 3d 1e 68 13 3e
       0.15467158 -0.16413572 0.094342835 0.14395186
000390 00 5a 83 3d c1 bb 27 be 61 7f 14 be 2e 7e 30 3c
       0.064136505 -0.16380216 -0.14501716 0.010772271
0003a0 5d 1b cd 3d b7 33 b8 bd 18 18 77 3c ef b8 53 bd
       0.10014985 -0.08994239 0.015081428 -0.05169004
0003b0 74 a7 80 3c e4 8c e7 3d a3 a4 14 be 22 36 55 3d
       0.015704848 0.1130617 -0.14515929 0.05205358
0003c0 de 93 bb 3d 29 8d ae bd bc b4 ff bd 44 d2 fa 3d
       0.09159063 -0.08523018 -0.12485644 0.12247136
0003d0 41 4d 30 bd c4 3e dd 3c a0 4a 12 3e 7b a5 f6 bd
       -0.043042425 0.027007468 0.1428628 -0.12043282
0003e0 57 22 21 be a7 51 ad 3d c7 5b 31 3e 37 78 7e bd
       -0.15735756 0.084628396 0.17320167 -0.062126365
0003f0 4d a2 2a 3e f8 7f 12 be 6b be 87 bd c4 4e a6 3d
       0.16663475 -0.14306629 -0.06628116 0.08120492

modality_encoders.eeg.3.bias f4 [16]
000000 dc 4f a7 bd 4e 29 9f 3d f0 cb 06 be 55 b5 f7 bd
       -0.08169529 0.0777155 -0.13163733 -0.12095133
000010 1b a0 a3 3d 1d 62 ac 3b dd f1 c2 bc 9e fa 78 bb
       0.07989522 0.0052607195 -0.02379697 -0.0037991176
000020 ec 75 8c 3d 21 ea 78 3d cb f7 c5 bd dc 09 16 be
       0.06858429 0.060770158 -0.096664034 -0.14652199
000030 24 fa 03 bc 55 db 38 be 52 51 1c 3e 9f 88 25 3e
       -0.008055244 -0.18052419 0.15265396 0.16165398

modality_encoders.weather.0.weight f4 [32, 12]
000000 8c d2 04 be fb 20 57 be 95 ac 63 3e bb 68 a9 3d
       -0.12970942 -0.21008675 0.22233804 0.08271929
000010 f4 cc 85 3e f0 98 8f bd 95 12 21 be 23 8c d0 bd
       0.2613293 -0.070115924 -0.15729745 -0.10182979
000020 05 0f 09 3e 02 10 39 be 31 c8 c4 bc 82 62 8f be
       0.13384636 -0.18072513 -0.02402124 -0.28004843
000030 4e 7e 32 3e a4 f9 48 3e 6f da 80 be 19 2b 6b 3c
       0.17430994 0.1962648 -0.25166652 0.014353537
000040 fe ce ff bb b6 2c 83 3e 25 03 7a 3e 46 ce 45 be
       -0.007806658 0.2562005 0.24415262 -0.19316968
000050 10 34 41 3e 0b 7d 24 be 65 f5 68 3e de 51 5b 3d
       0.18867517 -0.16063325 0.2274986 0.05354487
000060 f4 d2 d0 3d b1 41 99 bd 2d 7e 8e be 35 64 99 bd
       0.10196486 -0.07483233 -0.2783064 -0.07489816
000070 4c 82 43 3e 46 6b 8f 3e 94 e8 f8 bd 09 46 11 3e
       0.19092673 0.2801153 -0.12153736 0.14186873
000080 59 dc 89 3e dc 25 07 3c 60 08 43 be b2 b5 01 3e
       0.26925924 0.0082487725 -0.19046164 0.12666968
000090 64 0d 8e 3e d6 99 15 be 5f 91 46 be 18 24 27 3e
       0.2774459 -0.14609465 -0.19391392 0.16322362
0000a0 07 f9 0c be 31 fa 63 3e 19 6a 25 3e ac ba 2d 3e
       -0.13766871 0.22263409 0.16153754 0.16965741
0000b0 b0 61 bd bd 86 43 3f be 81 51 81 3e d1 5b 70 be
       -0.09247148 -0.18678102 0.25257495 -0.23472525
0000c0 7c 99 fb 3d 83 35 46 bd b3 99 7a 3e 2f 3b 39 3d
       0.12285134 -0.048390877 0.24472694 0.045222457
0000d0 0f 00 74 be ac ef 85 3e 05 ea 59 be c3 8b 63 3e
       -0.23828147 0.26159418 -0.21280678 0.22221284
0000e0 98 9c d2 3d a7 a5 87 3d c2 0b 92 be 4b b4 1f be
       0.10283774 0.066233926 -0.28524595 -0.1559612
0000f0 22 2c 89 be 19 d4 8d bd 72 dc b7 3d d8 08 44 3e
       -0.26791483 -0.0692522 0.089775935 0.19143999
000100 e6 9f 7d be b4 80 23 3e 46 57 41 be 70 bb 96 3d
       -0.24768028 0.15967065 -0.18880948 0.073599696
000110 21 70 e0 bd a7 a5 86 be cd 0d 13 bd a8 56 58 3e
       -0.10958887 -0.26298258 -0.035901833 0.21126807
000120 1e 3f 32 3e 8d f1 6d 3d 5c 46 08 3d 21 b0 e6 bd
       0.1740689 0.05809169 0.033270225 -0.11264063
000130 75 21 93 3e 3d ca 66 be cf f0 23 3e 4e 24 b9 3d
       0.28736463 -0.22538085 0.1600983 0.09040128
000140 8b 6d 2b be 63 a6 2f 3e 55 05 13 bd d4 45 80 3d
       -0.16741006 0.17153315 -0.035893757 0.06263319
000150 88 0e 88 3d 89 f8 8f be 53 71 0b be 68 cf 26 be
       0.066433966 -0.28119305 -0.13617449 -0.16290057
000160 8d e8 5f 3e 93 b6 2d 3e 89 d9 7f 3e 92 ec e5 bb
       0.21866055 0.16964178 0.24985327 -0.007016727
000170 26 6b 1c be 13 45 71 be 19 f0 0e 3d f6 91 48 be
       -0.15275249 -0.23561506 0.034896944 -0.1958693
000180 b0 d8 97 3d b2 c3 3d bd 61 fa 53 3d d9 1e 8c be
       0.07414377 -0.046329208 0.05175245 -0.27367285
000190 46 33 e1 3d 3c e6 6c 3e 18 a4 fc bd 34 21 53 3e
       0.10996108 0.23134702 -0.12335986 0.20618135
0001a0 d2 00 d6 bd 00 cd 05 3e d9 1a fe 3d 5a 0e 16 be
       -0.10449375 0.13066483 0.124074645 -0.14653912
0001b0 71 08 8a be b8 5c 49 be 23 fc 2c bd 18 95 34 be
       -0.26959565 -0.19664276 -0.042232644 -0.17635
0001c0 99 1d bb 3d e0 68 94 bd a1 15 80 3e 81 aa 52 be
       0.09136505 -0.07246566 0.25016502 -0.20572855
0001d0 9b a5 52 be 05 12 8b be fb 44 8e be fe 57 57 3e
       -0.20570986 -0.27162185 -0.27787003 0.2102966
0001e0 61 34 8e 3d 74 0b d5 3d 6f b6 3e be 24 cd 7b bd
       0.06943584 0.10402575 -0.1862428 -0.061474934
0001f0 a5 7d 0f be ba f4 16 3e d6 7f 9f bd ab a5 6a 3e
       -0.14012773 0.14741793 -0.07788055 0.2291476
000200 23 8b 8a be 3a 7d 73 be bd 9b 12 3e b7 d2 2b 3e
       -0.27059278 -0.23778239 0.14317222 0.167796
000210 e6 79 85 bd d5 ad 95 3e 54 f0 8d bc ee 5e 4d 3d
       -0.06517391 0.29234186 -0.017326511 0.05013936
000220 66 9e 7c be 17 bc e8 bd 80 79 57 be c6 5f 52 be
       -0.24669799 -0.11364 -0.21042442 -0.20544347
000230 71 a2 6a 3e 1a 4d 86 be a3 c3 79 bd c1 b6 80 3e
       0.22913529 -0.262307 -0.06097759 0.2513943
000240 6e f0 ca 3c 12 6d 46 be ad 00 d8 bd 07 80 2f be
       0.024772849 -0.19377545 -0.10547004 -0.17138682
000250 ad de ca bc 05 71 4f be bf 0c bd bc 4a 71 cc 3d
       -0.024764383 -0.20257957 -0.023077367 0.09982546
000260 ab 8b e8 3c 01 d3 57 3e 28 35 1b be 04 2c 4b 3e
       0.028386911 0.21076585 -0.15156996 0.1984101
000270 7f a0 34 3e 1b 3c 86 3e 7b 5e 92 3e 68 ef b7 bd
       0.1763935 0.26217732 0.28587708 -0.0898121
000280 e1 16 cf bc f3 b5 19 3d a9 61 39 3d 10 f5 8b 3e
       -0.025279464 0.037527036 0.04525915 0.27335405
000290 e4 d6 83 3e 52 5f af 3b 4e 82 1f be 00 2a 3f be
       0.25749886 0.0053519392 -0.15577051 -0.18668365
0002a0 c8 49 a1 bc f8 df 58 be eb 5b 82 3e 73 94 20 3e
       -0.019688502 -0.21179187 0.25460753 0.15681629
0002b0 bb 89 f7 3d ef 2b 1a 3e 70 4b 04 be 09 a6 28 be
       0.12086817 0.15055822 -0.12919402 -0.16469587
0002c0 b9 4d af 3b 70 80 0f bd 11 2d e1 bd b1 9f 0b be
       0.0053498414 -0.035034597 -0.10994924 -0.13635136
0002d0 0c 64 18 3e 6a d5 d7 3d 29 f0 ab 3c 0a 50 d6 bd
       0.14881915 0.105387524 0.02098854 -0.10464485
0002e0 83 33 8e be 0e 7d a6 3d 69 bb 29 be c6 27 a6 3d
       -0.27773675 0.08129321 -0.16575398 0.08113055
0002f0 81 ec b7 3d c9 d5 2d be 2c bc 37 3e 59 06 b6 bd
       0.089806564 -0.16976084 0.17942876 -0.088879295
000300 d1 df 82 3d ea ee 7b be 93 f6 8c 3e 19 3c f9 3d
       0.06390346 -0.24602857 0.2753187 0.12169666
000310 36 1e 2e 3e 30 a4 d0 bc 0d ee 8f be c1 1c 01 be
       0.17003712 -0.025468916 -0.28111306 -0.12608625
000320 a3 37 5d 3e 6e c4 2b be fb 29 82 be 8b 22 3d bd
       0.21603255 -0.1677415 -0.25422654 -0.04617552
000330 0c 08 ff 3d 52 84 24 be 7b 39 5f 3d 89 c2 88 be
       0.12452707 -0.16066101 0.054498177 -0.2671092
000340 54 ca e6 3d bd 71 fe bd 78 f2 30 bd a9 93 02 be
       0.1126906 -0.124240376 -0.043199986 -0.1275164
000350 a3 bc ee 3d 5a c7 42 be f5 33 df bd 03 bb 38 bd
       0.11657073 -0.19021359 -0.10898582 -0.045100223
000360 0e 3a 5e 3e 23 5b 10 3e 0f 97 86 be 98 8c 3f 3c
       0.21701834 0.14097266 -0.26287124 0.011691235
000370 3c 2e 1a 3e dc 02 fc bc 6c 4f 43 be e2 8f 45 3b
       0.150567 -0.030763082 -0.19073266 0.0030145575
000380 b9 29 a4 3d 5b 17 2c be af 67 eb 3d 10 fc 88 be
       0.080157705 -0.16805784 0.114943855 -0.26754808
000390 14 46 81 3e ab c3 84 3e 4e cd 6b be ab f4 a7 3d
       0.25248778 0.25930533 -0.23027536 0.082009636
0003a0 07 77 6f 3e c8 5a 83 be c1 2f 90 3e 6a 29 d2 bd
       0.23385249 -0.25655198 0.28161433 -0.10261805
0003b0 fa 47 2a 3e b2 c6 c5 bd d7 4e 6b 3e 70 c0 fc 3c
       0.1662902 -0.09657039 0.22979294 0.03085348
0003c0 a1 d9 10 be b5 2e 20 be 0c 22 02 bd 54 4a 05 be
       -0.14145519 -0.15642817 -0.03177075 -0.13016635
0003d0 08 e8 23 3e 29 cc 1b be 92 6b 0f 3e 7d d9 6f 3c
       0.16006482 -0.152146 0.14005879 0.014639256
0003e0 24 a6 3c 3e 20 42 4a 3e cb ad 4d be 74 21 01 3d
       0.18422753 0.19751787 -0.20085828 0.031526044
0003f0 21 02 89 be dc db 12 be ff 23 92 3e 41 db 2e 3e
       -0.26759437 -0.14341682 0.28543088 0.17075826

modality_encoders.weather.0.bias f4 [32]
000000 0c 4b 57 3d 12 df e6 bd 9b 03 48 3d 9e 44 9b 3d
       0.052561805 -0.11273016 0.048831563 0.07581447
000010 47 5c 18 3e b2 02 ef bd 6a ce 82 be 0b 17 e7 3d
       0.14878951 -0.11670436 -0.25548106 0.11283692
000020 ad ac 90 be 93 0a 4c 3e 10 f6 85 3e ce f7 7e be
       -0.2825674 0.19925909 0.26164293 -0.24899217
000030 58 ed 17 be 9d ac 54 bd 2d f3 37 3e a7 86 8c be
       -0.14836633 -0.05192243 0.17963858 -0.27446482
000040 12 3c 15 be 83 37 36 3e 9d 68 5a 3e 7d d5 57 bd
       -0.14573696 0.17794614 0.2132897 -0.052693833
000050 8d 9d 45 be 38 1f eb bd d0 c7 0f 3e f4 8b 2a 3d
       -0.19298382 -0.11480564 0.14041066 0.041637376
000060 26 98 4b 3d 60 b1 89 3e 6b 60 82 be 98 e6 e9 bd
       0.049705647 0.2689314 -0.25464186 -0.114209354
000070 03 75 90 be 77 52 28 3d f2 44 77 be 85 9e aa 3d
       -0.28214273 0.04109427 -0.24147394 0.083310165

modality_encoders.weather.3.weight f4 [16, 32]
000000 f4 53 49 3c 03 75 21 3c 2d f6 84 bc ba fe 95 3c
       0.012288082 0.009854558 -0.016230667 0.01830994
000010 9a de 20 3e 95 4e 19 3e 6c 36 a0 bd 8e 1a 8c bd
       0.15709916 0.14971383 -0.0782288 -0.068410024
000020 0b e9 c0 3c d3 16 a0 3d ed a8 1d be 77 8d 23 3e
       0.023548624 0.078168534 -0.15396471 0.15971933
000030 b8 04 76 bd b5 6d 04 3e b4 c6 e2 bb 19 4c 97 bd
       -0.060063094 0.12932475 -0.00692066 -0.07387561
000040 10 84 1a 3e 92 12 81 bd 2b a0 fb 3c 58 a6 1d be
       0.1508944 -0.0630237 0.030716022 -0.15395486
000050 7c 2c 2c 3e 71 2b 05 3e 3f 3a 00 be e0 be 40 3b
       0.16813844 0.13004853 -0.12522219 0.0029410645
000060 d7 65 b0 3d 25 ab 1b be e2 2a 53 3d bf b8 05 be
       0.086131744 -0.15202005 0.051554568 -0.13058756
000070 7f 82 2b be fe a0 fe 3d b8 cd f9 bd 27 8b f5 bd
       -0.16748999 0.124330506 -0.12197441 -0.11989432
000080 51 bd 37 bd 38 5f ff bd 1f c8 e1 bd 2d 93 ad 3d
       -0.04485828 -0.124693334 -0.11024498 0.08475337
000090 c5 c6 de 3d ee 48 30 be 32 0e 6b bd 1c 26 01 3e
       0.10877756 -0.1721532 -0.057386585 0.12612194
0000a0 a2 9b 02 bd 71 ac 7d 3d 8e 04 03 3e d7 c5 28 3c
       -0.031886704 0.06193203 0.12794706 0.010301075
0000b0 a7 1d 29 3e d7 5c 1a 3e 77 c3 3a bc 0f ed 2c be
       0.16515218 0.15074478 -0.0113991415 -0.16887306
0000c0 9e 68 c0 bc d4 d2 26 be 4f bd 02 3d d0 b0 03 3e
       -0.023487385 -0.16291362 0.03191882 0.12860417
0000d0 85 f2 e0 3d 2f ff e0 3d ac eb 2e 3e 2f 38 59 bd
       0.10983757 0.109861724 0.17082089 -0.053032096
0000e0 89 02 1f 3e ca ed e3 3d b9 e4 f0 3d 57 48 8e bc
       0.15528311 0.11129339 0.117623754 -0.017368479
0000f0 f6 a1 91 3d d4 76 10 3e 92 8d 79 bd 97 ce af 3c
       0.0711097 0.1410783 -0.060926028 0.021460814
000100 36 47 b2 bd 5d da 0c be aa 8e b0 3c 73 fc 8f 3d
       -0.08704989 -0.13755174 0.021552403 0.07030573
000110 a9 bc 9f 3d 7f 25 13 be 3e 05 57 bc 96 0e 56 3d
       0.07799656 -0.14369772 -0.013123808 0.052260004
000120 96 07 38 3d 59 2c 39 bd e8 1c 04 3e ae e7 1c 3e
       0.04492911 -0.04520831 0.12901652 0.15322754
000130 d5 32 59 bd b0 1f 28 3e 5e ce eb 3c d1 dd b7 bc
       -0.053026993 0.16418338 0.028784927 -0.022444637
000140 e5 5a 22 3e df f6 da bd f3 37 11 be f5 84 b9 3d
       0.15854986 -0.10691618 -0.14181499 0.09058563
000150 21 af b5 bd 43 c5 63 bd 73 29 2d 3e f0 fb 38 be
       -0.08871294 -0.055608045 0.16910343 -0.18064857
000160 d1 6a ca 3c 1a 41 ae 3d 64 06 ae 3d 91 e9 5f bd
       0.024709137 0.08508511 0.08497313 -0.054666106
000170 4a d1 01 3e 70 76 4f bd 76 a0 1b 3e 7b f2 21 be
       0.12677494 -0.05065006 0.1519793 -0.15815155
000180 36 7b b3 bd 86 80 27 3e 80 51 28 be a1 74 4a 3d
       -0.08763735 0.16357622 -0.1643734 0.049427632
000190 67 9e 1a bd 4d 60 0e be 43 13 83 bd ec 16 c2 3d
       -0.03774872 -0.13903923 -0.06400158 0.09477028
0001a0 ee cf 87 bd bb dd ea bd 00 13 91 3d 45 6b 0e be
       -0.06631456 -0.11468073 0.07083702 -0.13908108
0001b0 bb e2 1e 3e 79 43 dd bd c5 87 62 3d 5c ac ed bd
       0.15516178 -0.10803885 0.05530526 -0.116051406
0001c0 f3 57 0a 3e d7 26 5c bd 53 90 9c bd 0b 2d 96 bb
       0.13510112 -0.053747978 -0.07644715 -0.0045830063
0001d0 b8 a2 1a be be a5 c1 3d 53 ce 1b be 4b fe ca bd
       -0.15101135 0.09455441 -0.15215425 -0.09911784
0001e0 46 d9 84 3c 15 dc 9f 3d f3 7e 1c 3e 35 e5 21 be
       0.016216885 0.07805649 0.15282802 -0.15810092
0001f0 4a bc 21 3e 88 35 8d 3d f7 0f 1c 3e 8d 28 f2 3d
       0.15794483 0.06894976 0.15240465 0.11824141
000200 b5 21 2f bd 1b 88 e4 bb ac 51 fc 3c 73 6a 27 3e
       -0.042756755 -0.006974233 0.030800663 0.16349201
000210 50 7c 36 3d a1 ac 28 be 88 40 a2 3d 17 26 6d bd
       0.044552147 -0.16472103 0.079224646 -0.057897653
000220 23 ff 18 3e 8b 66 00 bd 09 dc d2 3d 21 d0 20 be
       0.14941077 -0.031347793 0.102958746 -0.15704395
000230 bd 8b 28 be a8 d0 1c be c3 05 29 3d f6 5d 35 bc
       -0.16459556 -0.15313971 0.04126526 -0.011069765
000240 2f 28 b3 bb 30 71 b4 3d dc c3 f0 bb 72 58 e5 3d
       -0.0054674367 0.08810651 -0.007347567 0.1119851
000250 13 fb 2b 3e 47 31 14 3e 2d 10 e6 3d ae 67 27 be
       0.16794996 0.14471923 0.11233554 -0.16348144
000260 de f8 4c bd ec 0b 15 3d 20 48 8e bd 7e d9 45 3c
       -0.050042026 0.036388323 -0.069473505 0.01207578
000270 70 a8 08 3e b8 8f 32 be 39 5a 4a 3d 0f ce 16 bd
       0.13345504 -0.17437637 0.04940245 -0.036817607
000280 10 24 23 3e 26 7f 7a bd fb ae d8 bd fc 63 be 3c
       0.15931726 -0.061156414 -0.1058025 0.023241036
000290 10 c4 24 3e 53 1f 7e 3c 44 10 bc bd d9 95 2b 3e
       0.16090417 0.015510398 -0.0918279 0.16756381
0002a0 59 4f e6 bd 16 9b 6a 3c 7c bd d8 bd b8 d3 69 3d
       -0.11245603 0.014319202 -0.10583016 0.057086676
0002b0 14 ea 34 3e 9a ad ca 3d a5 76 b4 bc 08 36 89 bc
       0.17667419 0.09896393 -0.02202923 -0.016749397
0002c0 48 7d 18 3e 08 11 25 3d f3 12 08 be 7c 11 d6 bd
       0.14891541 0.040299445 -0.13288479 -0.10452554
0002d0 49 11 c5 bc 65 b1 39 bd 99 b2 ac 3d a8 d4 6d 3d
       -0.024056094 -0.045335192 0.08432502 0.058064133
0002e0 48 08 cb bd 6d ea 8d bd 4d aa ef bd 45 3a f1 3d
       -0.09913689 -0.06929479 -0.11702404 0.11778692
0002f0 20 38 e8 bd b4 4b 4a 3d ef 7e 06 be 1c e2 2b be
       -0.1133883 0.049388602 -0.13134359 -0.16785473
000300 bb a8 4f 3d 27 e3 56 bd 69 c8 16 3e da 91 48 3b
       0.050698023 -0.052462723 0.14724888 0.0030604512
000310 b4 12 22 3d df 6e 33 be b6 a9 b6 bd 6a b8 12 3e
       0.039568618 -0.17522763 -0.089190885 0.14328161
000320 59 fd f3 bc bc 07 bd bc 59 d5 af bd 6a 7d ce 3d
       -0.029783892 -0.023074977 -0.08585615 0.100825146
000330 50 10 de bd 89 4c 02 be 3b 65 0a bb 90 5d 04 3e
       -0.10842955 -0.12724508 -0.0021117467 0.12926316
000340 e6 82 cf bd 22 9e 62 bc af be 8e 3d 6a c8 68 3d
       -0.10132389 -0.013831647 0.06969964 0.056831755
000350 c7 c1 fd bd f1 05 27 3e de c0 0f 3e b1 9c 9c 3d
       -0.12390476 0.1631086 0.14038417 0.07647074
000360 04 0e 32 3e 80 00 ed bd 75 83 de 3d 7f 75 c6 bc
       0.17388159 -0.11572361 0.10864917 -0.024225948
000370 cd 7f fc bd 4f 48 62 bd 92 20 22 3e dc 1b 9c bd
       -0.123290636 -0.05524474 0.15832737 -0.07622501
000380 04 16 0e bd 46 f1 b8 bd 07 dc 11 3e 46 1f 13 be
       -0.034688964 -0.09030394 0.1424409 -0.14367399
000390 e7 dc 85 3d b0 6f 16 be 42 19 43 bd 9e 82 63 bd
       0.065362744 -0.14691043 -0.04763151 -0.055544488
0003a0 2d 31 fd bd e1 f0 1e 3e b0 af 22 bd 37 42 34 3d
       -0.12362895 0.15521576 -0.03971833 0.04400846
0003b0 71 86 30 be 38 3a 7d 3c 16 82 10 be fe 2a f4 bc
       -0.17238785 0.015455775 -0.14112124 -0.029805657
0003c0 1d e2 75 3c 91 51 17 be 8f ae 8b 3b 65 7c 26 be
       0.015007523 -0.14777209 0.0042627524 -0.1625839
0003d0 0b c9 2c be 6e 03 b6 3d 95 3c 09 3e 8e 64 61 3d
       -0.16873567 0.08887373 0.13402016 0.055027537
0003e0 ed 00 c4 3d 4a 7c 43 3d a7 ba 9d 3c 9a 3a dc bd
       0.09570489 0.047725953 0.019254042 -0.10753365
0003f0 91 b9 23 3e 08 37 e1 bd d5 23 69 3d 28 3a 06 3e
       0.15988757 -0.109968245 0.056918938 0.13108122

modality_encoders.weather.3.bias f4 [16]
000000 3f fa db bd 35 ea 05 be ec 84 0c be d9 c8 22 3d
       -0.1074109 -0.13077624 -0.1372258 0.039742325
000010 5b 65 73 bc f1 25 11 3e 52 32 10 be 39 49 fe bc
       -0.014855708 0.1417463 -0.14081696 -0.031040775
000020 4e 34 bd bd f7 93 00 3e ad c8 ea 3d 7f a6 09 be
       -0.09238492 0.12556444 0.11464057 -0.1344242
000030 4f 2e fd 3d 37 6d 92 3d ba 0e fc bd 08 16 9e bc
       0.12362348 0.07149737 -0.12307496 -0.019297615

modality_encoders.sleep.0.weight f4 [32, 9]
000000 a0 9d 92 be 06 14 1a be 63 e7 4f be 4b 88 79 3e
       -0.28635883 -0.15046701 -0.20303111 0.24368398
000010 46 73 36 3e 82 a0 89 be 8a 3a 97 3e 56 92 fe bb
       0.17817411 -0.2688027 0.2953685 -0.0077689094
000020 66 9b 29 be 98 b3 79 be 5b 4f 03 3e 44 f9 86 be
       -0.16563186 -0.24384916 0.1282324 -0.2636205
000030 92 65 8e be 38 17 85 be e7 0f a7 3e f6 e5 20 be
       -0.27811867 -0.25994277 0.3262932 -0.15712723
000040 cc d2 0a 3e 2b 94 08 3e ff b1 96 be 52 11 73 3e
       0.13556975 0.13337772 -0.29432675 0.23737076
000050 2b 47 83 be 80 62 4b 3e e2 93 82 3e ab 45 e8 3b
       -0.25640234 0.19861794 0.2550345 0.007088383
000060 40 bb 76 3e aa 77 60 3e 14 61 93 3e 96 b1 16 3e
       0.24094868 0.21920648 0.28785002 0.14716181
000070 bf 99 a8 bd 70 37 ae 3d 90 f1 a8 bd ce db 89 3e
       -0.0823245 0.085066676 -0.082491994 0.2692551
000080 23 65 5a be 30 af 3d 3e 47 3d 9a 3e 06 21 7a 3e
       -0.21327643 0.1852386 0.30124876 0.2442666
000090 fb 33 c8 bd 9b 65 93 3d ae 05 49 3e 10 38 ee bd
       -0.097755395 0.07197114 0.19631073 -0.11631787
0000a0 3b 58 8d 3e 63 cd 36 3e 78 56 98 be cb 68 ea bd
       0.27606377 0.17851786 -0.2975347 -0.11445769
0000b0 1b 43 be bd dc 38 23 be 7e 60 63 be 04 c9 97 bd
       -0.09290143 -0.15939659 -0.22204778 -0.074113876
0000c0 e6 ab 88 3e cb 28 10 3e ee cc 49 be 1f c4 80 3e
       0.26693648 0.14078061 -0.1970708 0.2514963
0000d0 d9 66 40 3e ca 05 2a bd 76 11 d4 3d 78 a0 00 be
       0.18789233 -0.041509427 0.10354893 -0.12561214
0000e0 13 80 83 3e 20 00 ae bd 8b f0 a7 bd 30 ce a7 3d
       0.2568365 -0.084961176 -0.08200177 0.08193624
0000f0 96 32 0c be 86 5f 3f be 90 22 e3 3d eb 20 83 be
       -0.13691172 -0.18688783 0.11090577 -0.25611052
000100 80 70 36 3c ab 54 c1 bb 60 b5 3c 3d 16 00 8b bd
       0.0111352205 -0.005899986 0.04607141 -0.06787126
000110 10 4f e7 bd 56 b6 5e 3d ee 70 a9 be 03 bc 61 be
       -0.11294377 0.054373108 -0.3309397 -0.22044377
000120 56 ed 0a 3d 26 09 09 3e 03 a2 7d 3e c8 e6 0d be
       0.033917747 0.13382396 0.24768834 -0.13857567
000130 a3 a5 40 3e e3 e9 64 be 60 72 2f 3d 5b 84 92 be
       0.18813185 -0.22354846 0.042833686 -0.28616604
000140 76 42 0c 3e 33 7d 20 3e ee 37 0c be 1b 43 48 be
       0.13697228 0.1567276 -0.1369321 -0.19556849
000150 a0 d9 38 3e 60 ac 68 3d ab fc 1a bb 56 32 84 bb
       0.18051767 0.056805015 -0.0023649137 -0.004034321
000160 98 62 92 be f6 99 81 3e ec 6a 97 be 5b 09 0d 3e
       -0.28590846 0.25312775 -0.29573762 0.137731
000170 e0 e7 0d bd ee 0d 1c be c3 6d 7f be 4b 10 56 3d
       -0.03464496 -0.15239689 -0.24944215 0.052261632
000180 c3 65 76 be 56 ff f8 bc cb af 04 3d d6 88 06 3d
       -0.24062257 -0.030395191 0.03239421 0.03284534
000190 b8 4a 70 be f0 b8 b1 3d c0 9b 8b be d2 7c 9d be
       -0.23466003 0.08677852 -0.27267265 -0.30759293
0001a0 2b 5e be 3c 1b 49 5a 3e f6 74 53 bd f8 68 8a be
       0.023238262 0.2131695 -0.051625215 -0.2703321
0001b0 59 9b 3e 3e 6f b3 57 bd eb d8 88 3e c8 fe a8 be
       0.18613948 -0.052661356 0.26727995 -0.33006883
0001c0 7c 0d 84 3e 80 7d ce bd a3 f9 03 be 43 f1 30 3e
       0.25791538 -0.10082531 -0.12888198 0.17279534
0001d0 47 5f 3c be 32 02 05 be 65 32 75 bd 9a e0 ac be
       -0.1839572 -0.12989119 -0.059862513 -0.33765107
0001e0 76 6e 0e bd 96 ca 2a 3d 00 35 22 3c 1e 95 34 be
       -0.034773313 0.041697107 0.0099003315 -0.17635009
0001f0 8c 76 4c 3e ad 1d 9f be 02 72 52 3e 98 35 18 be
       0.19967097 -0.31077328 0.20551303 -0.14864194
000200 e8 9f 55 39 6b 25 98 bd ab dc 8e bc 2a dc a9 be
       0.00020372833 -0.07429012 -0.017439207 -0.33175784
000210 0e 42 5d be 92 53 7c 3e 51 33 82 3e f0 55 a4 3d
       -0.21607229 0.24641255 0.25429776 0.08024204
000220 76 0f 4d 3d fb 3c a3 be a0 d6 33 bd 00 92 77 be
       0.050063573 -0.31882462 -0.043905854 -0.24176788
000230 44 5d 8a be 18 26 17 3e fe 51 31 be 4e 2a 9f be
       -0.2702428 0.14760625 -0.17316434 -0.31086963
000240 0b 7a 89 3d 8c f5 a7 be 40 24 f6 bc 76 ee 6f bd
       0.06712731 -0.32804525 -0.030046582 -0.058577023
000250 2b b2 00 be 20 0b b5 3d 5f a3 a3 3e 38 c0 8f be
       -0.12567966 0.088400126 0.3196058 -0.2807634
000260 00 d1 95 bb 40 23 15 be c1 bd a2 3e 57 83 bd 3d
       -0.004572034 -0.14564228 0.31785396 0.09253567
000270 00 e3 33 3e f6 f3 20 3d a8 64 2a 3e 36 76 a9 be
       0.17567062 0.03929516 0.1663996 -0.33098
000280 1e 32 b4 3b 7d ab 1c be fb ef 71 be 9b db 33 be
       0.0054991385 -0.15299793 -0.23626702 -0.17564242
000290 60 44 49 3e b3 ad 89 3e 60 af 9c bd fb 13 b5 bd
       0.19654989 0.26890334 -0.076506376 -0.088417016
0002a0 34 4b 89 be cb 6c c5 bd 40 ca b8 3c 80 6b 40 3e
       -0.26815188 -0.09639891 0.022557378 0.18791008
0002b0 5f a1 99 3e 56 68 44 be 4b e6 50 3d 4e 96 1a 3e
       0.3000593 -0.19180426 0.051000874 0.15096399
0002c0 0f c8 9d be d6 92 0e 3d 3b c5 94 be a8 f9 08 3e
       -0.30816695 0.034808002 -0.29056725 0.13376486
0002d0 b9 73 85 3e f0 1a f6 bd 17 e4 71 3e 9e 93 33 3e
       0.26064852 -0.12016857 0.23622166 0.1753678
0002e0 c0 37 8e bc a6 0e ef bd 60 5b 85 3d 57 de 3a 3e
       -0.017360568 -0.11672716 0.06511569 0.18248878
0002f0 f7 39 62 3e 1e 14 a4 3d 9f da 2f be dd 31 39 bd
       0.22092424 0.080116495 -0.17173241 -0.04521357
000300 b0 f7 8b be 43 38 13 3e 90 ef e9 bd 9b 19 43 3e
       -0.27337408 0.14376931 -0.11422646 0.19052736
000310 5a 53 f7 3d e0 45 89 3e 59 05 96 bb c5 b1 12 be
       0.12076445 0.26811123 -0.004578274 -0.14325626
000320 35 11 3f 3e d0 a2 05 3e c6 59 aa bd 70 1b c6 bd
       0.18658908 0.1305039 -0.08317904 -0.09673202
000330 70 b1 d7 bd 15 92 59 3e b0 73 9c be 9f 89 db 3d
       -0.105318904 0.21247132 -0.30557013 0.107196085
000340 ab 22 72 3e e8 a8 a2 be 1a ef 8d be f3 10 75 3e
       0.23646037 -0.3176949 -0.27721483 0.23932247
000350 96 26 51 be 06 43 64 be aa 15 46 3e 75 c0 96 3d
       -0.20424876 -0.22291192 0.19344202 0.07360927
000360 a3 46 9c 3e 81 e3 28 be 36 1b de 3c 20 ac 46 3d
       0.30522642 -0.16493036 0.027112585 0.048503995
000370 40 cf 61 bd cb 4f 91 be 4f 9d a2 be 6f c3 05 3e
       -0.05512929 -0.2838119 -0.31760642 0.13062833
000380 c7 57 8e 3c da ad 87 3e 2a c1 3a be fc 44 7b be
       0.01737584 0.26499826 -0.18237749 -0.24538034
000390 0c 1f 86 3e 93 14 71 3e 9a bd 96 be 8e eb 87 3e
       0.26195562 0.23543005 -0.2944153 0.265469
0003a0 63 4d 55 3e 69 3a 95 bd 4b 5c c0 3d f6 00 2f 3d
       0.20830302 -0.072865315 0.093926035 0.042725526
0003b0 9b 7c e1 bd 4b bd c8 bd 53 76 11 3e 38 68 a2 3e
       -0.11010095 -0.0980173 0.14205293 0.31720138
0003c0 16 61 e5 bc c0 46 5e be a6 3b 89 3e 0b 69 b3 ba
       -0.028000396 -0.21706676 0.2680332 -0.0013687921
0003d0 df ec b5 3d 56 50 fd 3d 4b 39 07 3d b4 5e 85 3e
       0.0888307 0.123688385 0.033013623 0.26048815
0003e0 4e bc 28 be 80 e7 f2 3d 5b f6 85 3e 39 c5 8a be
       -0.16478083 0.11860561 0.26164517 -0.27103594
0003f0 c4 80 80 be 3e 36 5b be f3 78 2e 3e 47 de 84 3e
       -0.2509824 -0.2140741 0.17038326 0.25950834

modality_encoders.sleep.0.bias f4 [32]
000000 13 a7 34 be db fe 02 3e 7f cd 25 3e a7 63 b2 bd
       -0.17641859 0.12792532 0.16191672 -0.087104134
000010 30 cd 5e 3e dc 4a d4 bd ab 01 53 3d 00 25 3c be
       0.2175796 -0.10365841 0.051515263 -0.1837349
000020 70 fe 1b be 73 d2 7d be d8 c6 30 be 50 fd 92 3e
       -0.15233779 -0.24787311 -0.17263353 0.28708887
000030 c4 d1 54 be fa 37 30 3e a8 01 8f be c0 90 50 bd
       -0.20783144 0.17208853 -0.2793095 -0.050919294
000040 d6 86 68 3c 03 39 78 be 18 7f 12 be 7e de 1b be
       0.014192304 -0.24240498 -0.14306295 -0.15221593
000050 2e de 76 be d7 8f 94 be 36 68 73 3e fe f5 07 3e
       -0.24108192 -0.2901599 0.23770222 0.13277432
000060 f4 c6 75 3e 1a 6e 78 3c 90 19 8b 3d 34 e6 38 be
       0.24001676 0.015162969 0.06791985 -0.18056566
000070 5e e2 2b 3e 89 20 aa 3d bf 02 20 be db 0d 34 bd
       0.16785571 0.08306987 -0.15626048 -0.043958526

modality_encoders.sleep.3.weight f4 [16, 32]
000000 9c a2 9c 3d 87 89 10 be 4c cb 1c 3e c7 4e 07 bd
       0.07648203 -0.14114963 0.15311927 -0.033034112
000010 b8 b8 8d bd b8 9f 1a be 13 42 2c be 47 a3 ce 3d
       -0.06919998 -0.1509999 -0.1682208 0.100897364
000020 bf 3f 6c 3d f6 90 0d be 59 12 10 be c1 02 28 be
       0.05767798 -0.1382483 -0.14069499 -0.164073
000030 2f 27 25 bd 7d 21 bf 3d ff db 0f bb 79 11 26 be
       -0.04032057 0.09332559 -0.0021951196 -0.16217603
000040 a2 9f 9b 3b c1 6f 9e 3d eb 5d 66 3d fb 50 d3 bc
       0.0047492543 0.07736159 0.05624191 -0.02579545
000050 82 67 0f be 42 de a0 bd 6e c7 cf bd dd f6 e9 3d
       -0.14004329 -0.07854892 -0.1014546 0.114240386
000060 5f b6 bc 3d fd ea c6 3d 58 b2 1a be 97 41 d8 bc
       0.09214472 0.09712789 -0.15107095 -0.026398463
000070 e8 36 cb bc e0 93 02 3e c2 29 9e bd be 75 27 be
       -0.024806455 0.12751722 -0.077228084 -0.16353509
000080 9b 10 af bb 59 6a 8d 3d 61 7c 2b be 72 9d da 3d
       -0.0053425557 0.0690505 -0.16746666 0.106745616
000090 7a d7 9a 3d 56 00 23 be 77 c6 b7 bd e2 46 ba 3c
       0.0756063 -0.15918097 -0.08973401 0.022738878
0000a0 5b 19 0b 3e c0 1f 85 bd 55 dd ff 3c c1 c9 94 3d
       0.13583891 -0.065001965 0.031233469 0.07265044
0000b0 f2 ca e2 bd 83 36 09 bd 5b b5 01 3e 41 e8 76 3d
       -0.11073865 -0.033499252 0.12666838 0.06028009
0000c0 0b bd 86 3d 2c 58 bb bd 76 4c 62 bc ae e4 07 3c
       0.06579026 -0.09147677 -0.013812175 0.008294268
0000d0 76 ce 02 3d c8 56 06 be 51 a7 65 bc f9 ea d4 3d
       0.031935178 -0.13119042 -0.014016942 0.1039638
0000e0 45 77 0d 3d ae ee e5 3d 26 b4 fa 3c 26 2d 19 3d
       0.034537572 0.11227165 0.03060348 0.037396573
0000f0 30 27 d7 bd c5 75 6c bd 2a 5c f4 3d 55 4a 03 bd
       -0.10505521 -0.0577295 0.119316414 -0.03205331
000100 2d 94 1d 3e 5c c9 fa 3d df cd 0a be f4 da 3a bd
       0.15388556 0.122454375 -0.13555096 -0.045618966
000110 51 3f 98 bd 30 1b 04 3e ef 75 f8 bd 9f 25 2a 3d
       -0.07433952 0.12900996 -0.12131869 0.041539785
000120 9d c1 20 be a0 ba 32 3e 94 9a c4 bc 4f 7d 16 be
       -0.15698858 0.17454004 -0.02399949 -0.14696239
000130 c6 77 f7 bc 8e 28 80 bc e0 d0 42 3d 41 b8 55 3d
       -0.03020848 -0.015644338 0.04756248 0.05217767
000140 6c 34 e6 bd 0a a2 13 3e f3 00 9c 3c 46 cc 03 3e
       -0.112404674 0.14417282 0.019043421 0.12870893
000150 20 f1 bc 3d cc 38 14 be 72 8b b1 bd e7 93 2d be
       0.092256784 -0.14474791 -0.08669175 -0.16950952
000160 90 a7 c9 3d 81 cd 92 bc b3 8c 24 be 08 25 1c 3e
       0.09846413 -0.017920258 -0.16069297 0.15248501
000170 0a 53 e8 3d 33 86 39 3c 26 cd b1 3d b5 aa fd 3d
       0.113439634 0.0113234995 0.08681707 0.123860754
000180 ce 30 06 be b4 f0 96 3d a2 14 2a 3c c7 77 1a 3d
       -0.13104555 0.07370129 0.010380896 0.037711885
000190 27 00 29 3c 5e c4 30 3d fe ec 78 3c 50 bc fc 3d
       0.010314978 0.04315602 0.015193222 0.12340605
0001a0 82 10 0f be 43 8d 68 bd 5f 9b 9f bc 53 fe 6a 3d
       -0.13971141 -0.056775343 -0.019483266 0.05737145
0001b0 24 1d 9a bd d2 81 07 3e 3f fe a3 3d 54 99 e8 bc
       -0.075250894 0.13233116 0.08007478 -0.028393425
0001c0 50 b6 e1 3d ea f7 25 be 07 67 30 be e0 73 0b 3d
       0.110211015 -0.16207853 -0.17226802 0.034046054
0001d0 0d f7 81 3d 92 5d c0 3d d7 87 c6 bc d6 9b 16 3e
       0.06345949 0.09392847 -0.024234695 0.14707884
0001e0 97 29 53 3c 48 3f 1e 3d 66 32 15 be 53 90 73 bd
       0.012888334 0.03863457 -0.14570007 -0.05946381
0001f0 bd 98 1b 3c 36 00 c1 ba 90 54 05 be 27 18 c7 3d
       0.009496865 -0.0014724794 -0.1302054 0.097214036
000200 d2 08 2f be 7e 5b e8 3d 8d 65 b1 3d 32 c8 33 3e
       -0.17093208 0.11345576 0.086619474 0.17556837
000210 54 c0 ba bd 1a a6 80 bd a4 8b 48 3d 39 a3 d0 3d
       -0.09118715 -0.06281681 0.048961297 0.10187382
000220 22 77 55 bd 04 60 19 3e 1d 7f 48 bc ab 27 8a bd
       -0.052115567 0.14978033 -0.012237337 -0.06745847
000230 04 71 30 bc 9e a6 1d 3e 63 50 21 be 06 e6 47 bd
       -0.0107691325 0.1539559 -0.15753321 -0.04880335
000240 e1 0d b0 bd e3 db f9 bd c9 17 7f 3d e2 4f 04 be
       -0.08596397 -0.12200143 0.062278543 -0.12921098
000250 6f 8a ab 3d 79 5e 1b 3e 09 18 e7 3d c8 e0 14 3d
       0.083760135 0.15172757 0.11283881 0.03634718
000260 06 2e 17 3e e2 d1 1d bd 2d da 1f be d6 11 15 3e
       0.1476365 -0.038530238 -0.15610571 0.14557585
000270 7e bc 31 be 7c 4d 4b 3d f3 23 9d bd 6c 98 1f 3d
       -0.1735706 0.04963444 -0.076728724 0.03896372
000280 ac 74 c2 bd 2c b2 1b 3e 87 f7 c4 bd 56 f4 67 3d
       -0.0949491 0.15204686 -0.096175246 0.0566295
000290 6c 43 2a 3e e4 50 5e 3d bf 08 2d 3e 72 3f d6 bd
       0.16627282 0.054276362 0.16897868 -0.1046132
0002a0 23 5a 1b bd 1a a8 ab bd a6 3c 2d 3e 09 42 df bd
       -0.037927758 -0.08381672 0.16917667 -0.10901267
0002b0 68 08 b2 bd f8 45 1f bd 98 4b 22 be 4b 9c 70 3d
       -0.086930096 -0.038885087 -0.15849149 0.058742803
0002c0 44 fa 10 bc 6f 58 92 3d b0 7b 37 3d 0c da f3 3d
       -0.0088487305 0.071457736 0.044795692 0.119068235
0002d0 a9 b3 8a 3c 49 4c 09 be 09 13 d5 bd 15 47 d9 bd
       0.016931372 -0.13408007 -0.10404021 -0.10609261
0002e0 86 73 c3 bc 0a 2c 72 bd 03 e6 1f 3d 33 c5 9b bd
       -0.023858797 -0.05912403 0.039037716 -0.07605972
0002f0 58 48 2c be 0c f1 e5 3d 19 dd 1a bc d7 27 d7 3c
       -0.16824472 0.11227617 -0.009452128 0.026264114
000300 d2 2c af bd 29 e4 47 bd dd 31 01 3e 01 48 c8 bd
       -0.08553471 -0.048801575 0.12616678 -0.09779359
000310 4c 9e a3 bd 8e 53 24 3e 50 8e 27 3e b9 d0 0c 3d
       -0.07989177 0.16047499 0.16362882 0.03437874
000320 00 c3 71 bd 24 ce 7d 3d e7 0b 0c be 73 a0 ce bd
       -0.059023857 0.06196417 -0.13676415 -0.10089197
000330 c1 f1 27 be 97 76 1b be 19 39 5d bd 92 6d 2d be
       -0.16400816 -0.15181957 -0.05400953 -0.16936329
000340 0b b0 bc bd 82 cb ca bd 2d 54 06 3e f8 78 5d 3d
       -0.09213265 -0.09902097 0.13118048 0.054070443
000350 9d 22 da 3c 7f b7 19 be fd 4c 89 bd aa 41 0b bd
       0.026627833 -0.15011404 -0.067041375 -0.03399817
000360 1d f7 96 3d 39 d8 50 bd 50 11 af bc a6 2d 7e bd
       0.07371352 -0.050987456 -0.02137056 -0.062055252
000370 de 26 9c ba e3 7b 35 3e c3 a2 0b 3e 33 8f eb bd
       -0.0011913439 0.1772304 0.13636307 -0.115019225
000380 e2 08 1d be 92 cf 3a 3d 82 36 7b bd 95 8c f0 bb
       -0.1533542 0.04560811 -0.06133128 -0.0073409774
000390 69 13 1b be d7 bb 67 bc 01 74 58 bd 47 08 9b 3d
       -0.15144123 -0.014143906 -0.052845005 0.07569938
0003a0 3c d6 b4 3c d2 0b 18 3e d2 f2 83 3d 5d 4a ff 3d
       0.022074811 0.14848259 0.06442799 0.124653555
0003b0 51 24 1c 3e 97 da c3 bc 65 31 96 bd ec 2e 1c 3e
       0.15248229 -0.023907943 -0.0733364 0.15252274
0003c0 9d a9 f9 3d 64 b4 bd bd 28 27 13 bd c5 70 ea bd
       0.12190554 -0.092629224 -0.035926014 -0.1144729
0003d0 d0 b1 1b be 70 0b 81 bd d4 09 b0 bc 44 ef 17 be
       -0.15204549 -0.0630101 -0.021489061 -0.14837366
0003e0 e3 a4 6b bd 74 0c 71 3c 42 52 7a 3a 1b ba 23 3e
       -0.057530295 0.014712442 0.00095490005 0.15988962
0003f0 c8 df 8a 3d fb f7 a5 bd f9 81 06 bd 8f dd 24 be
       0.06780964 -0.08103939 -0.032838795 -0.16100143

modality_encoders.sleep.3.bias f4 [16]
000000 31 1b 99 3d c1 c4 a5 bd ef e0 33 3e b0 d1 97 3d
       0.074758895 -0.080941685 0.17566274 0.074130416
000010 74 d7 34 bc c4 2c 23 3c 54 d4 c6 bc d0 9c c7 bd
       -0.011037696 0.009959403 -0.024271168 -0.097467065
000020 e1 83 01 3e 1f 60 23 3d d4 88 d2 3d 7a 68 31 3e
       0.12647964 0.03988659 0.10280004 0.17325011
000030 00 06 bf 3d d7 16 84 3d 2c f1 fe bd 35 70 19 bd
       0.09327316 0.06449669 -0.12448344 -0.037460525

modality_encoders.stress.0.bias f4 [32]
000000 00 00 00 00 00 00 00 00 00 00 00 00 00 00 00 00
       0.0 0.0 0.0 0.0
000010 00 00 00 00 00 00 00 00 00 00 00 00 00 00 00 00
       0.0 0.0 0.0 0.0
000020 00 00 00 00 00 00 00 00 00 00 00 00 00 00 00 00
       0.0 0.0 0.0 0.0
000030 00 00 00 00 00 00 00 00 00 00 00 00 00 00 00 00
       0.0 0.0 0.0 0.0
000040 00 00 00 00 00 00 00 00 00 00 00 00 00 00 00 00
       0.0 0.0 0.0 0.0
000050 00 00 00 00 00 00 00 00 00 00 00 00 00 00 00 00
       0.0 0.0 0.0 0.0
000060 00 00 00 00 00 00 00 00 00 00 00 00 00 00 00 00
       0.0 0.0 0.0 0.0
000070 00 00 00 00 00 00 00 00 00 00 00 00 00 00 00 00
       0.0 0.0 0.0 0.0
