results/migraine/best_model.pth (torch, 799074 bytes, 45 tensors)

modality_encoders.eeg.0.weight f4 [64, 6]
0	0x3e9fce66	0.31212157
1	0x3ead7da9	0.33884934
2	0xbdc3df9c	-0.095641345
3	0x3ec002d1	0.3750215
4	0xbdb730dc	-0.08944866
5	0x3da8b737	0.082380705
6	0xbe4b8726	-0.19875774
7	0x3e7582e6	0.23975715
8	0x3eb8434b	0.3598884
9	0xbe995863	-0.29950246
10	0x3eb5ae9f	0.35484788
11	0x3d9c7b85	0.07640747
12	0x3e9a6d9b	0.30161747
13	0x3d627709	0.055289302
14	0x3e4993b2	0.19685248
15	0xbd6c18f5	-0.05764099
16	0x3ea1220a	0.31471282
17	0x3d7729f2	0.060342737
18	0xbe432922	-0.1905866
19	0x3dd51e5b	0.104061805
20	0xbe409bf6	-0.18809494
21	0xbd441a17	-0.047876444
22	0xbe29cb00	-0.16581345
23	0x3e8aa8ee	0.27082008
24	0xbea4ff23	-0.32225904
25	0xbe40b941	-0.18820669
26	0xbdec1767	-0.11527901
27	0xbe7b5c16	-0.24546847
28	0x3d1dd378	0.03853175
29	0xbece72a2	-0.40321833
30	0x3ebcc54c	0.36869276
31	0xbeb18efb	-0.34679398
32	0x3ea15f20	0.31517887
33	0x3d8b244d	0.06794033
34	0xbe07bdd4	-0.13256007
35	0x3e812a74	0.25227702
36	0x3d824e40	0.06362581
37	0x3ea8e20f	0.3298497
38	0x3d36cd81	0.044629578
39	0xbe03d730	-0.12875056
40	0x3de0a4f8	0.10968965
41	0xbde2bb29	-0.11070854
42	0x3e2ff01c	0.17181438
43	0x3eba9ed8	0.36449313
44	0x3e71a7d8	0.23599184
45	0xbe36c223	-0.17847495
46	0x3e7152c6	0.23566732
47	0x3d959950	0.07304633
48	0x3e544c6d	0.20732279
49	0xbe7ecd23	-0.24882941
50	0xbecee9ed	-0.40412846
51	0xbe21843e	-0.15773103
52	0xbea05355	-0.31313577
53	0x3eab82f9	0.33498362
54	0x3df0d223	0.117588304
55	0x3e2d2911	0.16910197
56	0x3e043639	0.1291131
57	0xbbe8b6dc	-0.0071018767
58	0x3ea3954f	0.3194985
59	0xbe948387	-0.29006597
60	0x3cd292f1	0.025704833
61	0xbe8eaaac	-0.27864587
62	0x3e00e7c8	0.12588418
63	0xbe0ff7bd	-0.14059348
64	0x3e00189f	0.12509392
65	0xbdae3158	-0.08505505
66	0x3ead5cb1	0.3385978
67	0xbe77c6de	-0.24196956
68	0xbe79526c	-0.24347848
69	0xbe795646	-0.24349317
70	0x3ebc011d	0.367196
71	0x3e0b507c	0.13604921
72	0x3ec921f6	0.39283723
73	0xbeac8078	-0.33691764
74	0xbecf5337	-0.40493175
75	0xbea38839	-0.31939867
76	0xbe8c9b8a	-0.27462417
77	0x3e295355	0.16535695
78	0x3e15b139	0.14618386
79	0x3eadaeb3	0.33922347
80	0xbe57e3c3	-0.21082978
81	0xbe8e7e58	-0.27830768
82	0x3e5dce64	0.21660763
83	0xbe28f9e7	-0.1650158
84	0x3e7db8e4	0.24777561
85	0xbdc667c1	-0.09687758
86	0x3e6f2444	0.23353678
87	0xbea2677f	-0.31719586
88	0xbe52f78a	-0.20602241
89	0x3dfee7a9	0.124465294
90	0x3db0c19b	0.08630677
91	0xbdd52b4a	-0.10408647
92	0x3e792f43	0.24334435
93	0x3e8e188a	0.27753097
94	0xbe9793f8	-0.2960508
95	0xbe5f2e7e	-0.21795079
96	0x3ebf6500	0.37381744
97	0xbe0d0ff9	-0.13775624
98	0xbe14344a	-0.14473072
99	0xbeca3fea	-0.39501888
100	0xbe6f6714	-0.23379165
101	0x3dd0dbe6	0.10198192
102	0xbd5cb78e	-0.05388599
103	0xbe97ba1a	-0.29634172
104	0x3c1ce54e	0.009576155
105	0xbe8ec7a3	-0.27886686
106	0xbeb155a4	-0.3463565
107	0xbe6633d4	-0.22480708
108	0xbeb6f088	-0.35730386
109	0xbe8517ce	-0.25994724
110	0x3ed0f0fe	0.40808862
111	0x3d9deabd	0.077107884
112	0x3e00d334	0.12580568
113	0xbec2f3dd	-0.38076678
114	0xbe8947ea	-0.2681268
115	0xbe0b262e	-0.13588783
116	0x3d82bda0	0.06383824
117	0xbeb7ec85	-0.35922638
118	0xbe341ff7	-0.17590319
119	0xbe7a456b	-0.24440543
120	0x3a944a32	0.0011313616
121	0xbe1b8e6e	-0.15191051
122	0xbce7c02d	-0.028289879
123	0xbe8da3ea	-0.2766412
124	0xbe8f78f4	-0.28021967
125	0xbe73e392	-0.2381728
126	0xbe0f189e	-0.13974234
127	0xbea4fa5c	-0.3222226
128	0x3eaf4275	0.3423039
129	0xbda5ef2e	-0.081022605
130	0x3eb3d7c3	0.3512555
131	0x3e024177	0.12720285
132	0xbeb1000a	-0.34570342
133	0x3e90a6c0	0.2825222
134	0xbde60be9	-0.112327404
135	0xbe203f7f	-0.15649222
136	0xbead8102	-0.33887488
137	0xbecfcd75	-0.4058644
138	0x3def3708	0.11680418
139	0xbdb6a3a8	-0.08917934
140	0x3e22c14d	0.15894051
141	0xbeab89a3	-0.33503446
142	0x3e9b2f53	0.30309543
143	0xbe996f28	-0.29967618
144	0xbd905ef3	-0.0704936
145	0x3daea268	0.0852707
146	0x3e57d130	0.21075892
147	0x3ea8bf1d	0.32958308
148	0x3ebe695c	0.37189758
149	0xbea5bd34	-0.32370913
150	0x3dd26ac8	0.10274273
151	0xbe33d003	-0.17559819
152	0xbd373eff	-0.044737812
153	0xbe9c73a6	-0.30556983
154	0x3ebe63f9	0.37185648
155	0xbe9969a2	-0.29963404
156	0x3e5f6ce4	0.21818882
157	0x3e12eb03	0.14347462
158	0x3e07d8bc	0.13266271
159	0xbe6203df	-0.22071789
160	0x3ebdfded	0.37107792
161	0x3db7bb4f	0.08971273
162	0x3d571c28	0.052517086
163	0xbeb833e0	-0.35977077
164	0x3e2f7db3	0.17137794
165	0xbd7adcb9	-0.061245654
166	0xbe3f8464	-0.18702847
167	0x3eb38a2a	0.35066348
168	0x3dba67e4	0.09101847
169	0xbe674b8e	-0.22587416
170	0xbe5396e9	-0.20663036
171	0xbc9fb67a	-0.019496191
172	0x3e696bbd	0.22795005
173	0xbdd5a661	-0.10432125
174	0xbe6e86d6	-0.23293623
175	0xbe0f282f	-0.13980173
176	0xbe9c27eb	-0.30499205
177	0x3e1516c0	0.1455946
178	0x3ea1cad5	0.3160006
179	0xbec4c866	-0.38434142
180	0x3dc22edd	0.09481595
181	0x3e57f593	0.21089773
182	0x3d979bae	0.074027404
183	0xbe14e067	-0.14538728
184	0x3e5a322b	0.213082
185	0x3e5bb056	0.21453986
186	0x3e1c51a2	0.15265515
187	0xbd92eb5b	-0.07173797
188	0xbddd65fb	-0.10810467
189	0x3d32e453	0.04367478
190	0xbd93b2fd	-0.07211874
191	0xbdf9280d	-0.12165842
192	0x3e859be9	0.26095513
193	0x3eb3a267	0.3508484
194	0xbd258aba	-0.040415503
195	0xbdbb32d0	-0.09140551
196	0x3bc33544	0.0059572775
197	0xbcc7afbb	-0.024375787
198	0x3dc9018e	0.0981475
199	0x3dea4d1e	0.1144049
200	0xbebdd8c0	-0.3707943
201	0xbe1a465d	-0.15065904
202	0x3eb00648	0.34379792
203	0x3e22da1d	0.15903516
204	0xbca65742	-0.02030528
205	0xbe7c0ae1	-0.24613525
206	0xbe7fc349	-0.24976839
207	0xbebb3c6a	-0.3656953
208	0xbe084473	-0.13307361
209	0x3e0d2d0c	0.13786715
210	0x3e854716	0.26030797
211	0x3e4102c7	0.18848716
212	0xbeb8c3c7	-0.36086866
213	0xbe7b65b8	-0.24550521
214	0xbd83f307	-0.06442838
215	0x3eca32cc	0.3949188
216	0x3d71e4e4	0.059056178
217	0xbdd88604	-0.105724365
218	0x3e2cf3be	0.16889855
219	0xbe1f39e2	-0.15549424
220	0xbe874a9a	-0.26424104
221	0x3e989036	0.29797524
222	0xbe3e161d	-0.18563123
223	0xbda79bd7	-0.08184021
224	0xbecfefe6	-0.40612715
225	0x3e8be49f	0.27322862
226	0x3e9e5cf8	0.30930305
227	0x3e185b30	0.14878535
228	0xbe91bf17	-0.28466102
229	0xbece4b14	-0.40291655
230	0xbea9c3a2	-0.33157068
231	0x3e9bde5d	0.30443087
232	0x3e48b4d8	0.19600236
233	0x3eafe4d6	0.34354275
234	0x3e5b0079	0.21386899
235	0x3dd39bc5	0.10332445
236	0xbb830060	-0.0039978474
237	0xbe9ef69e	-0.3104753
238	0xbeb315d0	-0.3497758
239	0xbec3826f	-0.3818545
240	0x3e2b21da	0.16712132
241	0xbe4d3f51	-0.20043685
242	0xbda8440a	-0.082161024
243	0xbe70967c	-0.23494905
244	0xbd985b13	-0.07439246
245	0xbe931e26	-0.2873394
246	0xbe889439	-0.26675585
247	0x3e0aaba4	0.13542038
248	0xbdf87bd2	-0.12132992
249	0x3e8109fc	0.2520293
250	0xbe061ce7	-0.13096963
251	0xbe995520	-0.29947758
252	0xbd9384ef	-0.072030894
253	0xbe4aa598	-0.19789732
254	0xbdffcba4	-0.12490013
255	0xbec6fd36	-0.3886506

modality_encoders.eeg.0.bias f4 [64]
0	0x3bbbda04	0.0057327766
1	0x3ebe2bcf	0.37142798
2	0xbeb21936	-0.3478486
3	0xbe1fad37	-0.1559342
4	0x3e73d3a3	0.23811202
5	0xbdb6285e	-0.08894418
6	0xbdab25f9	-0.08356852
7	0xbe2e3cfb	-0.1701545
8	0x3e9014b8	0.28140807
9	0x3e4d0d93	0.2002471
10	0x3e05f684	0.1308232
11	0xbe6aed44	-0.22942072
12	0xbea9aca8	-0.3313954
13	0x3d34dd54	0.044156387
14	0x3df7b76e	0.12095533
15	0xbe410455	-0.18849309
16	0xbde9efce	-0.11422692
17	0x3e8d2ae0	0.27571774
18	0x3d0534ad	0.03252094
19	0x3c96e474	0.018419482
20	0xbdcdc349	-0.10047013
21	0xbebd4a09	-0.36970547
22	0xbec4891a	-0.3838585
23	0xbe47d519	-0.19514884
24	0xbe54807a	-0.20752135
25	0x3e023e6b	0.12719123
26	0xbdf36541	-0.11884547
27	0xbe238c88	-0.15971577
28	0x3ec749f5	0.38923612
29	0x3e119d75	0.14220221
30	0x3e950359	0.29104117
31	0xbe4a61ab	-0.1976382
32	0xbe2ac20e	-0.16675588
33	0x3e19a620	0.15004778
34	0xbe8b4455	-0.2720057
35	0xbe88a3a7	-0.26687357
36	0xbca1882f	-0.019718258
37	0xbe18e7a7	-0.14932118
38	0xbe9cb224	-0.3060466
39	0x3e77f7c7	0.24215613
40	0x3ea816b1	0.32829812
41	0x3d87a23c	0.066227406
42	0xbd919327	-0.07108145
43	0xbec19ccc	-0.3781494
44	0xbe1844c6	-0.14869985
45	0x3dd4db6d	0.10393415
46	0x3e451f2a	0.1925017
47	0xbd5364bb	-0.051609736
48	0xbe254699	-0.16140212
49	0x3e68f23f	0.2274866
50	0xbea67749	-0.32512882
51	0x3e841b3b	0.25802025
52	0xbe222ede	-0.15838191
53	0x3bccbf68	0.0062484033
54	0xbda539a3	-0.08067634
55	0x3d4abbe5	0.049495596
56	0xbdfcaa74	-0.12337199
57	0x3e97fc82	0.29684836
58	0xbc2de365	-0.010613297
59	0x3ea329d1	0.3186784
60	0x3ec8f8bf	0.39252278
61	0xbe4bab1a	-0.19889489
62	0xbe987bfa	-0.29782087
63	0x3ea7b31e	0.32753843

modality_encoders.eeg.3.weight f4 [32, 64]
0	0x3dc89aec	0.09795174
1	0xbdc377d6	-0.09544341
2	0xbc1e5130	-0.009662911
3	0xbdfc72c6	-0.12326579
4	0xbdd18fb6	-0.10232489
5	0x3cc5c728	0.024142817
6	0x3d0835b0	0.033254325
7	0x3cd91190	0.026497632
8	0xbd0b592c	-0.034020588
9	0x3dec2e0e	0.11532222
10	0x3c9268d0	0.017872244
11	0xbd970fcc	-0.0737606
12	0xbbe7e3e0	-0.0070767254
13	0x3cf5e8a0	0.03001815
14	0x3d334c74	0.043774083
15	0xbdb50340	-0.088385105
16	0x3d3fe46c	0.0468487
17	0xbd82c924	-0.06386021
18	0xbdd4b882	-0.103867546
19	0xbd8bd440	-0.06827593
20	0x3df6e388	0.12055117
21	0x3ddad7f6	0.106857225
22	0x3de53e78	0.111935556
23	0x3d96465e	0.0733764
24	0x3dc16524	0.09443119
25	0xbc890fe8	-0.016731218
26	0xbd8cdbbc	-0.068778485
27	0x3d7fd2fc	0.06245707
28	0xbd84a7a0	-0.064772844
29	0xbdacc402	-0.08435823
30	0xbd237fc0	-0.039916754
31	0x3cd6e558	0.026232406
32	0x3d83c9b6	0.06434958
33	0xbd46dd8c	-0.048551127
34	0xbd96ac48	-0.07357079
35	0x3c8a2168	0.016861632
36	0xbd96e518	-0.07367915
37	0xbda6abf6	-0.08138268
38	0x3d8570c4	0.06515649
39	0xbcac0428	-0.020998076
40	0x3de9edd0	0.11422312
41	0x3df90848	0.12159783
42	0x3d19245c	0.03738819
43	0x3d303570	0.043019712
44	0x3cebcf80	0.028785467
45	0x3b004b40	0.0019576102
46	0xbc14f4c0	-0.009091556
47	0x3ae12f00	0.0017180145
48	0x3d3f3188	0.046678096
49	0x3dee0576	0.11622135
50	0xbd04b080	-0.032394886
51	0xbd586e34	-0.052839473
52	0xbcf7fa10	-0.030270606
53	0xbd775c10	-0.060390532
54	0x3cae1ea0	0.021254838
55	0x3dbf173e	0.09330605
56	0x3dc82fac	0.09774718
57	0x3d6b1280	0.05739069
58	0xbdbc6602	-0.09199144
59	0xbd89657c	-0.0670881
60	0xbce0fc08	-0.027463928
61	0xbcbcbf78	-0.023040518
62	0x3c287180	0.010280967
63	0xbdeb002e	-0.11474644
64	0x3d1f5b78	0.03890559
65	0xbdc34b96	-0.09535901
66	0xbda1fb8e	-0.079093084
67	0xbdd4d57c	-0.103922814
68	0x3ddf0ece	0.10891496
69	0xbdf26aa6	-0.11836748
70	0x3dc11e2e	0.094295844
71	0xbb89b1e0	-0.0042021126
72	0xbc6e2e10	-0.014537349
73	0x3da01f5c	0.07818481
74	0xbc3d4ab0	-0.011553451
75	0x3da08d2c	0.078394264
76	0x3db91782	0.09037687
77	0xbdde4304	-0.10852626
78	0x3d450268	0.048097998
79	0x3cc14f48	0.023597375
80	0x3cdc2c08	0.026876464
81	0x3c957ec8	0.01824893
82	0x3d0c0c40	0.03419137
83	0xbd764e64	-0.060133353
84	0xbc830300	-0.015992641
85	0x3df33b10	0.118765
86	0x3dabfe54	0.083981186
87	0xbb99e160	-0.0046960562
88	0xbdf0c6a2	-0.11756636
89	0x3bb384c0	0.0054784715
90	0xbdae5448	-0.08512169
91	0x3dd02d52	0.10164894
92	0xbd9b6a14	-0.07588592
93	0xbc13de70	-0.009025201
94	0xbce344f0	-0.027742833
95	0x3cb63988	0.02224423
96	0x3df0e730	0.117628455
97	0x3c429970	0.011877403
98	0x3d944418	0.0723955
99	0x3dc6b676	0.097027704
100	0x3dceabf2	0.1009139
101	0xbd30d1e8	-0.043168932
102	0xbce50640	-0.027957082
103	0x3d76c08c	0.06024222
104	0xbd0bb550	-0.03410846
105	0x3d6fc04c	0.058532998
106	0xbcdfb600	-0.027308464
107	0xbdada1f2	-0.08478154
108	0x3d5067fc	0.050880417
109	0x3c9cff68	0.019164756
110	0x3d64463c	0.055731043
111	0x3dfe551a	0.124185756
112	0x3daec796	0.08534162
113	0x3df2aee4	0.11849764
114	0x3bdb3ac0	0.006690353
115	0xbddc36e4	-0.10752657
116	0xbdb3974a	-0.087690905
117	0xbd9f053e	-0.07764672
118	0xbde1997e	-0.110156044
119	0xbd8051c2	-0.06265594
120	0xbdebaa54	-0.11507097
121	0xbdec3084	-0.11532691
122	0xbd98f956	-0.07469432
123	0xbdfc5f9c	-0.123229235
124	0xbd9d22d0	-0.076726556
125	0x3d433ae4	0.047663584
126	0x3dd5847c	0.1042566
127	0xbd184d0c	-0.037182853
128	0xbd14ee10	-0.036359847
129	0x3d88b12a	0.06674416
130	0xbd7c9b1c	-0.06167136
131	0xbd72171c	-0.05910407
132	0x3d9dbaaa	0.07701619
133	0xbddf0da0	-0.10891271
134	0x3c7a6b30	0.015284345
135	0x3de22552	0.110422745
136	0x3caf9a28	0.021435812
137	0x3d0b3c38	0.033992976
138	0xbd951796	-0.07279889
139	0xbae20b00	-0.001724571
140	0x3be13760	0.0068730563
141	0x3cfb5320	0.030679286
142	0x3d46ef80	0.04856825
143	0x3dde720e	0.10861598
144	0xbdc36798	-0.09541243
145	0x3b758ec0	0.0037469119
146	0xbd7fd054	-0.062454537
147	0xbdca832a	-0.09888299
148	0xbc23ffc0	-0.010009706
149	0xbde15734	-0.11002961
150	0x3db2a986	0.0872374
151	0x3c6d3050	0.014476851
152	0xbd89f928	-0.06736976
153	0x3d85c7be	0.065322384
154	0xbdf2491a	-0.11830349
155	0xbd460a8c	-0.048349902
156	0xbcc77e90	-0.024352342
157	0xbdd9893c	-0.106218785
158	0xbda2c994	-0.07948604
159	0xbca722c8	-0.020402327
160	0x3dc23e66	0.09484558
161	0x3df7351e	0.12070678
162	0x3da2e218	0.0795328
163	0xbd98dd1e	-0.0746405
164	0xbda77b0a	-0.08177765
165	0x3ddf68d2	0.10908665
166	0x3d351a74	0.04421468
167	0x3b59a480	0.0033209622
168	0x3c8a9480	0.016916513
169	0xbdcdbf12	-0.100462094
170	0xbd2af308	-0.04173568
171	0x3df66e24	0.120327264
172	0xbcfc8d28	-0.030829027
173	0xbbcd78e0	-0.006270513
174	0xbdd49094	-0.103791386
175	0xbd8f354e	-0.06992589
176	0xbb274700	-0.0025524497
177	0xbd9f044e	-0.07764493
178	0xbc7df8c0	-0.015501201
179	0x3d505cf4	0.050869897
180	0xbdfa69d4	-0.12227216
181	0x3d1811f8	0.03712651
182	0xbda944f0	-0.08265102
183	0xbd79e1d4	-0.061006382
184	0x3d448fd0	0.047988713
185	0x3dcb8d00	0.09939003
186	0xbd0bef1c	-0.03416358
187	0xbd52361c	-0.051321134
188	0xbde77c00	-0.11302948
189	0xbd840224	-0.06445721
190	0xbde029be	-0.10945462
191	0xbcea5d08	-0.028608814
192	0x3cd0f3e8	0.025506929
193	0xbdefd716	-0.11710946
194	0x3ddf845e	0.10913919
195	0x3da09cb0	0.07842386
196	0xbdfa9c32	-0.12236823
197	0xbd748c50	-0.059704125
198	0x3d26fdd0	0.0407694
199	0xbcd26400	-0.02568245
200	0xbc5f2f10	-0.01362206
201	0xbd672d10	-0.05643946
202	0x3dcd9fcc	0.100402445
203	0xbd8f1a82	-0.06987478
204	0x3dd44b7c	0.1036596
205	0x3c042440	0.008065283
206	0x3ccdd8a8	0.025127724
207	0x3dc7b6b8	0.09751648
208	0xbca8b850	-0.0205957
209	0xbd91c07c	-0.071167916
210	0xbca59da8	-0.020216778
211	0x3dcfa132	0.101381674
212	0xbdbdf2e2	-0.09274842
213	0x3ce86d90	0.028372556
214	0xbdfb9838	-0.12284893
215	0x3d8638aa	0.065537766
216	0x3d3d2ae0	0.046183467
217	0x3bada380	0.0052990317
218	0x3d5bbf34	0.053649142
219	0x39136c00	0.00014059246
220	0x3d8da888	0.069169104
221	0xbdcaa7a4	-0.09895256
222	0xbc966080	-0.018356562
223	0x3d632174	0.055451825
224	0x3dfeedda	0.1244771
225	0x3d82677a	0.06367393
226	0xbdba281a	-0.0908968
227	0x3dc4e388	0.09613711
228	0xbce459a8	-0.027874783
229	0xbcdaa388	-0.026689306
230	0xbde8ae4e	-0.11361371
231	0xbca13138	-0.01967679
232	0x3db5135e	0.088415846
233	0x3c8ecaa0	0.017430604
234	0xbd951bb4	-0.072806746
235	0x3d1d998c	0.03847651
236	0xbd242b80	-0.040080547
237	0x3de9b9fa	0.11412425
238	0xbdde3246	-0.10849433
239	0xbd21ba70	-0.03948444
240	0xbdf72fd4	-0.12069669
241	0xbd49a41c	-0.049228773
242	0x3d216824	0.039405957
243	0x3df66dea	0.12032683
244	0x3cabfa20	0.020993292
245	0x3dfaf8c6	0.12254481
246	0x3cc85908	0.024456516
247	0x3d93d966	0.072192
248	0x3dcd39bc	0.100207776
249	0x3dd5ff12	0.104490414
250	0xbd8f4a0e	-0.06996547
251	0x3deb5d24	0.114923745
252	0x3d9b1372	0.07572068
253	0xbd6f6684	-0.058447376
254	0xbd745400	-0.05965042
255	0xbdd6b812	-0.104843274

modality_encoders.eeg.3.bias f4 [32]
0	0x3d72bcec	0.0592622
1	0x3d3b45e4	0.04572095
2	0x3db99704	0.09062007
3	0xbbb88da0	-0.0056321174
4	0x3dd3bc5a	0.103386596
5	0xbd4ff7c8	-0.050773412
6	0xbd6bcda0	-0.057569146
7	0xbd3d148c	-0.046162173
8	0xbdf02e66	-0.117276
9	0xbda80c74	-0.082055
10	0xbde7a5e0	-0.11310935
11	0xbbf21060	-0.007387206
12	0x3a9a7580	0.0011784285
13	0xbd04e2b4	-0.032442763
14	0xbdaef23a	-0.08542295
15	0x3de84410	0.11341107
16	0xbd29a56c	-0.041417524
17	0x3d73febc	0.059569106
18	0x3db247f0	0.08705127
19	0xbda8488a	-0.08216961
20	0xbc800610	-0.01562789
21	0x3d93f5aa	0.07224591
22	0x3df827ea	0.12116988
23	0xbc813060	-0.015770137
24	0x3db980e8	0.0905779
25	0xbdc8ecfe	-0.09810828
26	0xbda65552	-0.08121742
27	0x3dd2848e	0.10279189
28	0xbc41e760	-0.011834949
29	0x3dfce87e	0.12349032
30	0x3c14ecc0	0.009089649
31	0xbd5454c0	-0.051838636

modality_encoders.sleep.0.weight f4 [64, 24]
0	0x3e468334	0.19385988
1	0x3e36c98c	0.17850322
2	0x3c9b3054	0.018943943
3	0xbdfd6c00	-0.12374115
4	0xbc10cd0c	-0.0088379495
5	0xbdc90ba6	-0.09816675
6	0x3e184fad	0.14874144
7	0x3c1aec4d	0.009455753
8	0x3d3003f3	0.042972516
9	0x3dfd87ca	0.12379415
10	0x3d8a796a	0.06761439
11	0xbe027c72	-0.12742785
12	0x3e2da3fd	0.16957088
13	0x3e006988	0.12540257
14	0xbe01099e	-0.12601325
15	0x3e1e0b02	0.15433887
16	0x3d6d33cc	0.057910725
17	0xbd249578	-0.040181607
18	0xbe157c56	-0.14598212
19	0xbd0aba15	-0.033868868
20	0xbe4cef73	-0.20013218
21	0x3dee9ac0	0.1165061
22	0x3e1762c0	0.14783764
23	0xbd70b59d	-0.05876695
24	0x3e41c65b	0.18923323
25	0xbd9acc86	-0.07558541
26	0x3d0f2df6	0.03495594
27	0xbe11aabf	-0.1422529
28	0xbc0d6508	-0.008630045
29	0x3da8fc9e	0.08251308
30	0x3db41124	0.08792332
31	0xbbe04a49	-0.006844793
32	0xbdd2ce13	-0.10293212
33	0x3e121aa8	0.14267981
34	0x3e0a6318	0.13514364
35	0x3d062d32	0.032757945
36	0xbdc03fda	-0.09387179
37	0x3d3145e0	0.04327953
38	0x3a0f15ac	0.00054582465
39	0x3e3ef6d3	0.18648843
40	0x3cf7ce44	0.030249722
41	0x3c80f97d	0.015743965
42	0x3c649e94	0.013953824
43	0x3dde6789	0.108595915
44	0xbb254a1f	-0.0025221182
45	0x3e3329ba	0.17496386
46	0x3dd9cc42	0.10634662
47	0xbe1df18b	-0.15424173
48	0xb61cc471	-2.3360155e-06
49	0xbe316b97	-0.17326199
50	0xbe207d60	-0.15672827
51	0x3d227271	0.03965992
52	0x3d3be2b8	0.045870513
53	0xbc925631	-0.017863365
54	0x3e46ab2c	0.19401234
55	0xbde09452	-0.1096579
56	0xbdaf327e	-0.085545525
57	0xbd05e586	-0.032689594
58	0x3aa237d6	0.001237626
59	0xbc8da357	-0.0172898
60	0x3e3c33bc	0.1837911
61	0xbdb08f71	-0.08621109
62	0xbddaab67	-0.10677224
63	0x3c8fb96e	0.017544474
64	0x3e1cfe59	0.15331401
65	0x3d467384	0.048450008
66	0x3de13712	0.10996832
67	0x3d21daef	0.039515432
68	0x3e3225e4	0.17397267
69	0x3dfb16a5	0.122601785
70	0x3e159208	0.14606488
71	0xbce13a08	-0.027493492
72	0xbe2d0ca0	-0.16899347
73	0xbdc64e64	-0.096829206
74	0x3d8e6a45	0.06953863
75	0x3e12a3b5	0.14320262
76	0xbda35520	-0.07975221
77	0x3e2cf321	0.16889621
78	0x3cf0563c	0.029337995
79	0x3a548b56	0.0008107921
80	0x3c0260da	0.0079576615
81	0xbd13b6f1	-0.03606314
82	0x3e43af61	0.1910987
83	0x3c11433c	0.008866128
84	0x3e00074e	0.12502787
85	0xbe306b1d	-0.1722836
86	0xbdd762df	-0.10516905
87	0x3cbc03d0	0.022951037
88	0x3e26e7a8	0.16299307
89	0x3dc706cb	0.097180925
90	0x3d1f3de4	0.038877383
91	0xbe4e835a	-0.20167294
92	0x3b7b7d93	0.0038374409
93	0xbe09f9fd	-0.13474269
94	0xbe327a9f	-0.17429589
95	0x3ce4a90a	0.027912635
96	0xbe044003	-0.12915044
97	0x3e3db7b3	0.18527107
98	0xbde339c2	-0.11095001
99	0x3d86b916	0.06578271
100	0x3df560ab	0.119813286
101	0xbe2275e7	-0.15865289
102	0x3dd5f29e	0.10446666
103	0xbcdfe62a	-0.02733143
104	0x3dd89db2	0.10576953
105	0x3e4a4768	0.19753802
106	0xbdb22829	-0.08699066
107	0xbdb50eb7	-0.08840697
108	0x3e261444	0.16218668
109	0x3cb9f29f	0.022698699
110	0xbca6c589	-0.020357864
111	0x3e1e9448	0.15486252
112	0xbdc9fa00	-0.09862137
113	0xbc2521ce	-0.01007886
114	0x3e0f92ac	0.14020795
115	0x3da36087	0.079773955
116	0xbe073303	-0.13203053
117	0x3d595075	0.053055245
118	0xbe1f5dee	-0.15563175
119	0xbde307a2	-0.1108544
120	0x3e066783	0.13125424
121	0xbd5ed434	-0.05440159
122	0xbdd4ef51	-0.103972085
123	0x3c6d0e85	0.014468794
124	0x3d4c50f4	0.04988189
125	0xbe01eeab	-0.12688701
126	0xbe0cf522	-0.13765386
127	0xbe4a6eb5	-0.19768794
128	0x3d580854	0.052742317
129	0xbe06de2e	-0.13170692
130	0x3c7ede73	0.015555966
131	0xbd3affbb	-0.04565404
132	0xbe08abff	-0.13346861
133	0xbd8565e8	-0.06513578
134	0xbe20ac8b	-0.1569082
135	0xbddd491f	-0.10804962
136	0xbbd07eff	-0.0063627954
137	0xbe32b271	-0.17450882
138	0xbe3751fc	-0.17902368
139	0x3e1c922b	0.15290134
140	0x3c9d5974	0.019207694
141	0xbdb8e1f0	-0.09027469
142	0xbbde6444	-0.006786855
143	0x3e1b0117	0.15137134
144	0xbe2e617d	-0.17029376
145	0xbddda429	-0.10822327
146	0xbe172731	-0.14761044
147	0xbc732394	-0.014840025
148	0xbbe62dbe	-0.007024496
149	0xbe22e498	-0.15907514
150	0x3e111460	0.14167929
151	0xbe208354	-0.15675098
152	0x3e4326c6	0.1905776
153	0xbe0fe293	-0.14051275
154	0xbce52a5a	-0.027974296
155	0x3d1c569f	0.038168546
156	0xbdb9cfe8	-0.09072858
157	0x3e4039f8	0.18772113
158	0xbe101b93	-0.14073019
159	0xbc395f7f	-0.011314272
160	0xbe197a40	-0.14988041
161	0x3d68176a	0.056662954
162	0x3e3235df	0.17403363
163	0x3e41e30f	0.18934272
164	0x3cc682e7	0.024232341
165	0xbdd14afb	-0.102193795
166	0x3e4b235a	0.19837704
167	0x3c799774	0.015233863
168	0x3e0d6b95	0.1381057
169	0xbdd923f8	-0.106025636
170	0xbdc20332	-0.09473266
171	0xbe2d845e	-0.16945025
172	0x3e4053de	0.18781993
173	0x3d0ab1d0	0.03386098
174	0xbe161e42	-0.1465998
175	0x3c8f9f40	0.017531991
176	0xbdb34d5c	-0.087549895
177	0x3c2712a5	0.010197316
178	0x3d8ac259	0.0677535
179	0xbdcf72f8	-0.101293504
180	0x3d11e5cc	0.035619542
181	0xbe03f92f	-0.12888025
182	0x3d211c89	0.039333854
183	0xbe49d1c6	-0.19708928
184	0x3d053b8a	0.032527484
185	0x3e4fab22	0.20280126
186	0x3e4088ab	0.18802135
187	0x3d987ed2	0.07446064
188	0x3e19ce2d	0.15020056
189	0x3e4b3971	0.19846131
190	0x3d6cec47	0.05784252
191	0x3d8b6d0f	0.06807911
192	0x3cd970e9	0.026543098
193	0x3e390ded	0.18071719
194	0x3e338f32	0.17535093
195	0xbdc49731	-0.0959915
196	0xbc097c50	-0.008391455
197	0xbdd2a138	-0.10284656
198	0x3d9601f7	0.073245935
199	0xbe4a8aac	-0.19779462
200	0x3d93eeed	0.07223306
201	0xbd6576d9	-0.056021545
202	0x3d979af8	0.07402605
203	0x3d827990	0.063708425
204	0xbdd00716	-0.101576015
205	0x3dd8e308	0.10590178
206	0x3db185fc	0.086681336
207	0xbe31ad9e	-0.17351386
208	0x3e508da1	0.20366527
209	0x3e33ead6	0.17570052
210	0x3e020cec	0.12700242
211	0xbca9ba05	-0.020718584
212	0x3d941bd2	0.07231869
213	0xbde22b65	-0.11043433
214	0xbd8e0d41	-0.06936122
215	0x3dc54cf1	0.09633816
216	0x3dba19d0	0.090869546
217	0x3da58a47	0.08083015
218	0xbe475a6f	-0.19468091
219	0x3e2d368e	0.16915342
220	0xbdae9cc7	-0.08525997
221	0x3e34e45a	0.17665234
222	0x3e2c398f	0.16818832
223	0x3d9af2fd	0.075658776
224	0x3e503f66	0.20336685
225	0x3df00cf7	0.11721223
226	0x3df52d9d	0.11971591
227	0xbd8df4f6	-0.06931488
228	0x3e41ddad	0.18932219
229	0x3d5b22b3	0.05349989
230	0x3df6ff25	0.12060384
231	0xbd3d0c0d	-0.04615407
232	0x3e176101	0.14783098
233	0x3e396cc4	0.18107897
234	0xbe202a0c	-0.1564104
235	0x3e2b5ba9	0.16734184
236	0xbe0a2427	-0.13490354
237	0xbe0fe828	-0.14053404
238	0xbe2ead79	-0.17058362
239	0x3d7198da	0.05898366
240	0xbe1cf0b6	-0.15326199
241	0xbd9d5de4	-0.07683924
242	0xbdd2255b	-0.10261031
243	0x3d5f7563	0.054555308
244	0xbe4d35f6	-0.20040116
245	0xbdbfa653	-0.09357896
246	0x3ac3b9f3	0.0014932737
247	0x3c962a72	0.018330786
248	0xbdbcccc6	-0.09218745
249	0x3d95c554	0.07313028
250	0xbe09e763	-0.13467173
251	0xbe310501	-0.17287065
252	0xbcedb9e2	-0.0290193
253	0xbde2041a	-0.110359386
254	0x3e03c114	0.12866622
255	0xbe0edf09	-0.13952269

modality_encoders.sleep.0.bias f4 [64]
0	0x3ddf000a	0.10888679
1	0xbe45c97e	-0.19315144
2	0x3e0b5c90	0.13609529
3	0xbcc49b19	-0.023999738
4	0x3dec9957	0.11552685
5	0x3d6f6d0c	0.058453605
6	0xbc305dd0	-0.010764554
7	0x3e132230	0.1436851
8	0xbdf3b3ff	-0.11899566
9	0x3d6bc783	0.057563316
10	0x3db742e3	0.089483045
11	0xbd94c674	-0.072644144
12	0x3d9771bf	0.07394742
13	0xbe4ec168	-0.20190966
14	0xbdd3245e	-0.10309671
15	0x3dcb4198	0.099246204
16	0x3dd77823	0.10520961
17	0xbe3fdca1	-0.18736507
18	0x3d90ac29	0.07064087
19	0x3c9d3ba6	0.019193482
20	0x3e4c096e	0.19925472
21	0xbe4be0c4	-0.1990996
22	0xbd47452d	-0.048649956
23	0xbdecc169	-0.115603276
24	0xbdfe5f44	-0.12420514
25	0xbd088e6e	-0.033338957
26	0xbe401bad	-0.18760557
27	0x3e23c278	0.15992153
28	0xbd93e7b4	-0.07221928
29	0x3d927ae8	0.07152349
30	0xbdf5fdab	-0.12011274
31	0x3a9043c6	0.0011006526
32	0xbe141434	-0.14460832
33	0x3e283d2f	0.1642959
34	0x3e304906	0.17215356
35	0x3e248fd7	0.16070496
36	0xbd9258e2	-0.07145859
37	0x3e0217e2	0.12704423
38	0xbe2ea3ae	-0.17054626
39	0x3dbfd10a	0.09366043
40	0xbcce6760	-0.025195777
41	0xbe2d3646	-0.16915235
42	0xbe27c073	-0.16382007
43	0xbe4399f8	-0.19101703
44	0x3d1cad25	0.03825106
45	0xbd9733c2	-0.07382919
46	0xbdc08970	-0.09401214
47	0x3e46fdb0	0.19432712
48	0xbd7ebcbe	-0.062191717
49	0x3d8d0182	0.06885053
50	0xbd13301f	-0.035934564
51	0x3dfc1d6e	0.12310301
52	0x3d7980cb	0.060913842
53	0x3e045dab	0.12926356
54	0x3d5a51bb	0.0533006
55	0xbd373eb7	-0.044737544
56	0x3e38bdac	0.18041104
57	0xbc6e6c97	-0.014552257
58	0xbdfa42ba	-0.12219758
59	0x3d8217bc	0.06352183
60	0xbccae9c5	-0.024769673
61	0xbe1b04a2	-0.15138486
62	0x3cdabf10	0.026702434
63	0xbd4243f1	-0.047428075

modality_encoders.sleep.3.weight f4 [32, 64]
0	0xbd4be504	-0.049778953
1	0xbd745c38	-0.05965826
2	0xbd59e308	-0.05319503
3	0xbd4f5740	-0.050620317
4	0x3c493bf0	0.012282357
5	0x3df7503e	0.12075852
6	0xbd960cf4	-0.07326689
7	0xbd6edbb0	-0.05831498
8	0xbdab9bda	-0.08379336
9	0xbb9b6ce0	-0.0047432035
10	0x3c0f97e0	0.008764237
11	0xbdafb77a	-0.08579917
12	0x3d69ddb4	0.0570962
13	0xbde5991a	-0.112108424
14	0x3decf1aa	0.11569531
15	0x3cc0b470	0.02352354
16	0xbc4e6890	-0.012598172
17	0xbd375464	-0.044758216
18	0x3d65e350	0.056124985
19	0x3dbaf09c	0.09127924
20	0xbda77256	-0.08176105
21	0xbd005634	-0.03133221
22	0x3dbc74b6	0.09201948
23	0xbcbfe798	-0.023425862
24	0xbdbc80cc	-0.092042536
25	0xbd248a10	-0.04017073
26	0x3b8d7d00	0.0043178797
27	0xbcbf2ac8	-0.02333583
28	0xbdaf6f8e	-0.08566199
29	0xbda061ca	-0.07831152
30	0x3d0a7064	0.03379859
31	0x3dafa6e0	0.08576751
32	0x3de8e37c	0.11371514
33	0xbc677bf0	-0.01412867
34	0x3d44fe60	0.048094153
35	0xbdcb5212	-0.09927763
36	0x3d8869fa	0.066608384
37	0x3df49f04	0.11944392
38	0x3d854f8e	0.065093145
39	0xbd4a6f54	-0.049422577
40	0x3dd0b8c0	0.10191488
41	0xbdf273ae	-0.118384704
42	0xbc75c0d0	-0.014999583
43	0xbcfdb8f0	-0.030971974
44	0xbdff59f6	-0.124683306
45	0xbd920ab4	-0.07130948
46	0xbdba849a	-0.09107323
47	0x3d099c58	0.033596367
48	0xbc2a5a80	-0.010397553
49	0x3d6b25e8	0.057409197
50	0xbce65a78	-0.02811931
51	0x3dd32b54	0.103109986
52	0x3c67f920	0.014158517
53	0x3dd43588	0.10361773
54	0x3dcfe264	0.101506025
55	0xbdd919ec	-0.10600647
56	0xbdabec12	-0.08394636
57	0x3d9a3216	0.075290844
58	0x3df1dc92	0.118096486
59	0xbdda7ff2	-0.10668935
60	0x3aefcb80	0.0018294901
61	0xbd44d814	-0.04805763
62	0x3df103b6	0.11768286
63	0x3dd4aa50	0.10384047
64	0x3dba5146	0.09097533
65	0x3d89c3c8	0.067267954
66	0xbc401ac0	-0.011725128
67	0x3dec388e	0.115342245
68	0xbd6f9728	-0.058493763
69	0x3bca7100	0.0061780214
70	0xbd06b748	-0.032889634
71	0xbdbac0e4	-0.09118822
72	0xbd72a144	-0.059235826
73	0x3cf84768	0.030307487
74	0xbc36b990	-0.01115264
75	0xbda9965e	-0.082806334
76	0xbc822eb8	-0.015891418
77	0x3cb0d9d8	0.021588251
78	0xbdb31c5a	-0.08745642
79	0x3d9a9b8a	0.07549198
80	0xbdd9a5ea	-0.10627349
81	0x3a9cc080	0.0011959225
82	0xbdd169f4	-0.10225287
83	0xbde6d962	-0.11271931
84	0xbc7e67e0	-0.015527695
85	0x3de856d8	0.11344689
86	0x3df20204	0.11816791
87	0x3d380468	0.044926077
88	0x3dc66ce2	0.096887365
89	0xbd8bf12c	-0.06833109
90	0x3d90204e	0.07037412
91	0x3d9c33ca	0.076270655
92	0xbdf4a8c0	-0.11946249
93	0xbdc42e4a	-0.095791414
94	0x3d5d3200	0.05400276
95	0x3c3d3f60	0.011550754
96	0xbdad4802	-0.08461
97	0xbdca03f2	-0.09864034
98	0x3db904c8	0.09034115
99	0x3c5fb9f0	0.013655171
100	0xb9910a00	-0.00027664006
101	0xbdf77aa2	-0.12083937
102	0x3de09cd4	0.109674126
103	0xbda93b38	-0.08263248
104	0x3d64240c	0.05569844
105	0xbc764230	-0.015030429
106	0x3b8578a0	0.0040732175
107	0x3d7b65b4	0.06137629
108	0xbd08642c	-0.033298656
109	0xbd0fa3b8	-0.035068244
110	0x3dcc143e	0.099647984
111	0xbdc42af0	-0.09578502
112	0x3d63d82c	0.05562608
113	0xbd0421d8	-0.03225884
114	0xbd2b134c	-0.04176645
115	0x3dab5eec	0.08367714
116	0x3cace078	0.021103129
117	0xbdee5700	-0.11637688
118	0x3de4c47c	0.11170289
119	0xbd7e0e50	-0.06202537
120	0x3ddd4eec	0.10806069
121	0xbd20b030	-0.039230525
122	0x3df99c28	0.121879876
123	0x3d170a74	0.036875203
124	0xbbc5de80	-0.006038487
125	0x3d437284	0.047716632
126	0xbb7ebf40	-0.0038871318
127	0xbd7df194	-0.061997965
128	0x3d8c08ca	0.06837614
129	0x3da60bf2	0.08107747
130	0xbc804910	-0.015659839
131	0x3df0cc74	0.11757746
132	0x3c020f60	0.007938236
133	0xbd876302	-0.06610681
134	0xbd8b81cc	-0.06811866
135	0x3dac3e88	0.084103644
136	0xbd4f67a0	-0.050635934
137	0x3da1b104	0.07895091
138	0xbdf8ad40	-0.1214242
139	0x3b8d1860	0.0043058842
140	0xbdb0e1d0	-0.0863682
141	0x3d359e4c	0.044340417
142	0x3dcfe742	0.10151531
143	0x3d497a64	0.049188986
144	0xbd300a0c	-0.04297833
145	0xbdf02806	-0.11726384
146	0xbd7295f0	-0.059225023
147	0xbd96fe3c	-0.0737271
148	0x3df47578	0.11936468
149	0xbd89a44a	-0.06720789
150	0x3d45f770	0.048331678
151	0x3dcd8210	0.10034573
152	0x3d3895cc	0.045064732
153	0xbde0a436	-0.10968821
154	0xbc68a4f0	-0.01419948
155	0xbd17f5ec	-0.037099764
156	0x3da4f1a4	0.08053902
157	0xbc401c50	-0.0117255
158	0xbbd80aa0	-0.0065930635
159	0x3de3baf0	0.1111964
160	0x3cf3ac50	0.029745251
161	0x3d6d5704	0.057944313
162	0xbd24d148	-0.04023865
163	0x3da76ad6	0.08174674
164	0x3c933b58	0.017972633
165	0xbccdb1c0	-0.025109172
166	0x3cc556a0	0.024089158
167	0xbdc98252	-0.0983931
168	0x3b969c20	0.0045962483
169	0x3d6acf54	0.05732663
170	0xbdefb6fc	-0.117048234
171	0xbd87fb6a	-0.0663975
172	0x3da063b6	0.07831518
173	0x3b39c740	0.0028347522
174	0xbb8b84e0	-0.0042577833
175	0x3c50fef0	0.012756094
176	0xbd65cbb0	-0.056102455
177	0x3dd3b136	0.10336535
178	0xbc4b1090	-0.0123940855
179	0xbd3a6c9c	-0.045513734
180	0x3d86c17a	0.065798715
181	0xbdd514c0	-0.104043484
182	0xbcbce160	-0.023056686
183	0x3c4e6a20	0.012598544
184	0xbd1ee534	-0.038792804
185	0x3d8b5442	0.0680318
186	0xbdda9fb0	-0.10674989
187	0xbd139b38	-0.0360367
188	0xbd573148	-0.052537233
189	0x3dece2a2	0.11566664
190	0x3d4c54e4	0.049885646
191	0xbdbef76c	-0.09324536
192	0x3d466ee0	0.048445582
193	0xbb2dba80	-0.0026508868
194	0x3dea595e	0.11442827
195	0x3d8d46fe	0.06898306
196	0xbd9582d6	-0.073003456
197	0x3de43220	0.11142373
198	0xbcb725e0	-0.022356927
199	0xbce92ca8	-0.028463677
200	0x3d191a28	0.03737846
201	0x3dfe56ba	0.124188855
202	0x3d1a7c38	0.03771612
203	0xbdf7014c	-0.12060794
204	0xbd237178	-0.039903134
205	0x3dee6240	0.116398335
206	0xbd3474b4	-0.04405661
207	0xbd765210	-0.060136855
208	0xbdcc0de2	-0.099635854
209	0xbd8d50be	-0.06900166
210	0xbd8bf77e	-0.06834315
211	0x3cf48f10	0.029853374
212	0x3d4c8e9c	0.04994069
213	0x3df451ee	0.11929689
214	0x3da80136	0.08203356
215	0x3af21700	0.0018469989
216	0x3d8a0f4c	0.06741199
217	0x3d92538a	0.0714484
218	0xbddcce70	-0.10781562
219	0x3d812d26	0.063074395
220	0xbdaf1f0a	-0.08550842
221	0x3dc5b000	0.0965271
222	0xbd5eb0e4	-0.054367915
223	0x3cd477b0	0.025935978
224	0xbaae5500	-0.0013300478
225	0x3d6d89fc	0.05799292
226	0x3c9f45f0	0.019442528
227	0xbdb9b37c	-0.09067437
228	0x3d4f680c	0.050636336
229	0x3d970372	0.07373704
230	0xbd8550d0	-0.065095544
231	0xbda611a4	-0.081088334
232	0xbdae51b6	-0.08511679
233	0xbd791dc8	-0.060819417
234	0xbc811a10	-0.015759498
235	0x3c192140	0.009346306
236	0xba671e00	-0.0008816421
237	0xbd076b20	-0.033061147
238	0x3d9edce8	0.07756978
239	0x3bd87680	0.006605923
240	0xbd94a5a6	-0.072581574
241	0xbd078034	-0.03308125
242	0xbd9682e6	-0.07349186
243	0xbd34a074	-0.044098333
244	0xbdf17c6a	-0.11791308
245	0x3cb2ec80	0.021841288
246	0xbdc65bb4	-0.0968546
247	0x3d460620	0.048345685
248	0x3daf5ec4	0.08562997
249	0xbdbe720a	-0.09299095
250	0xbd871968	-0.06596643
251	0xbdca4664	-0.09876707
252	0x3d08a344	0.033358827
253	0x3cc62390	0.02418688
254	0xbd842240	-0.06451845
255	0x3d9aa50a	0.0755101

modality_encoders.sleep.3.bias f4 [32]
0	0xbd8ab77a	-0.067732766
1	0x3d3cd018	0.04609689
2	0x3d968660	0.07349849
3	0x3d7f7220	0.062364697
4	0xbd708d74	-0.05872865
5	0x3c500520	0.012696534
6	0xbdb7f100	-0.08981514
7	0xbc661770	-0.014043674
8	0xbdb1a4ba	-0.08673997
9	0x3d925890	0.07145798
10	0x3dfa79d8	0.12230271
11	0xbdf7efa6	-0.12106256
12	0xbd6f365c	-0.05840145
13	0xbd589184	-0.05287315
14	0xbdb341c2	-0.08752777
15	0x3de8f20a	0.1137429
16	0xbdc5bea2	-0.09655501
17	0xbd85d6b6	-0.065350935
18	0xbdd4aae0	-0.10384154
19	0xb9d96e00	-0.00041471422
20	0xbdbd7d1e	-0.0925238
21	0xbdac71cc	-0.084201425
22	0x3dfe906a	0.124298885
23	0x3d64cac4	0.055857435
24	0x3d593688	0.05303052
25	0x3db58de6	0.088649556
26	0x3cb0efd0	0.021598727
27	0x3ca62aa0	0.020283997
28	0xbdc04704	-0.09388545
29	0x3d0fd660	0.035116553
30	0xbdc800ca	-0.097657755
31	0xba0e9200	-0.0005438626

modality_encoders.stress.0.weight f4 [64, 14]
0	0xbe13afba	-0.14422503
1	0xbe1b1fca	-0.15148845
2	0xbe203ca0	-0.15648127
3	0xbe047b80	-0.12937737
4	0xbe22c27f	-0.15894507
5	0xbe15ab6c	-0.14616174
6	0xbdc76234	-0.09735528
7	0xbe7a0f55	-0.24419911
8	0x3e5b0fe2	0.21392778
9	0x3db7ee89	0.08981044
10	0xbe881b51	-0.2658334
11	0xbe88c52f	-0.2671294
12	0xbe09d3e5	-0.13459738
13	0x3dd334af	0.10312783
14	0x3e7a7f01	0.2446251
15	0xbd2a85e2	-0.041631587
16	0x3e22d5f6	0.15901932
17	0xbe139cc5	-0.14415272
18	0xbd633792	-0.055472918
19	0xbd29b4b8	-0.041432112
20	0xbe853946	-0.2602026
21	0x3ab6c1af	0.001394322
22	0x3d90dd89	0.070735045
23	0x3e26ceda	0.16289845
24	0xbe53c168	-0.20679247
25	0xbda4ce13	-0.08047118
26	0x3c253103	0.010082486
27	0x3ce83ff0	0.0283508
28	0x3d389e69	0.045072947
29	0xbe4b4b83	-0.19853024
30	0x3e5467d6	0.20742735
31	0xbe774e12	-0.24150875
32	0xbdbe04af	-0.09278237
33	0x3e086138	0.13318336
34	0xbd88824b	-0.066654764
35	0xbe03de07	-0.12877665
36	0xbe86feda	-0.2636631
37	0x3e3c7e1a	0.18407479
38	0xbbc4a442	-0.0060010264
39	0x3e043107	0.12909327
40	0x3d2ea5aa	0.04263846
41	0xbe4b869a	-0.19875565
42	0xbdc168ef	-0.094438426
43	0x3e4323ab	0.19056575
44	0xbe06054f	-0.13087963
45	0xbdfc3183	-0.12314131
46	0x3e161404	0.14656073
47	0xbded38c0	-0.1158309
48	0x3d32b424	0.043628827
49	0xbe050bdb	-0.12992804
50	0x3da87bd6	0.08226745
51	0x3cdeb771	0.027187081
52	0xbe593b69	-0.2121407
53	0xbe4f9309	-0.20270933
54	0x3dc943fe	0.098274216
55	0xbdb3413d	-0.087526776
56	0x3e15ea21	0.14640094
57	0x3c63df61	0.013908238
58	0xbdbb2d9a	-0.09139557
59	0xbd3e7ddb	-0.046506744
60	0xbdf96079	-0.12176604
61	0x3e070bdc	0.13188118
62	0x3e5914c6	0.2119933
63	0xbc086257	-0.008324227
64	0xbe306e9d	-0.17229696
65	0x3e44bcc3	0.19212632
66	0x3e5eb0e2	0.21747163
67	0x3e3a9167	0.18219529
68	0xbb9e8179	-0.0048372117
69	0x3d868cbf	0.06569814
70	0x3c5eb8b6	0.013593843
71	0xbdcfe5a7	-0.101512246
72	0xbe877e54	-0.26463568
73	0xbd05cdce	-0.032666974
74	0x3decbb39	0.115591474
75	0x3e1fa36b	0.15589683
76	0x3d822e7e	0.06356524
77	0x3df99873	0.121872805
78	0x3e2b4f19	0.16729392
79	0xbd53a1ee	-0.0516681
80	0x3e32b5a5	0.17452104
81	0xbbb7f2a1	-0.0056136404
82	0xbdc1d89e	-0.094651446
83	0xbdd48cc9	-0.10378415
84	0xbe1f7fbb	-0.15576069
85	0xbe52c8d0	-0.20584416
86	0x3d7ac68e	0.061224513
87	0x3e7ce3e7	0.24696313
88	0x3d1b9eba	0.03799317
89	0x3d13f410	0.036121428
90	0xbdcd55ad	-0.10026107
91	0xbdd7c366	-0.10535316
92	0xbdab8d81	-0.08376599
93	0x3dbd7562	0.092509046
94	0x3d3cbbd2	0.046077557
95	0xbdc91b2b	-0.09819635
96	0x3d568065	0.05236854
97	0xbd3f4329	-0.04669491
98	0xbc952233	-0.018204784
99	0x3e420dc7	0.18950568
100	0xbde41483	-0.11136725
101	0x3e7f5ae7	0.2493702
102	0xbe15b107	-0.14618312
103	0x3e7d8d05	0.24760826
104	0x3dcda060	0.10040355
105	0x3ddbc700	0.107313156
106	0xbd7a6973	-0.06113572
107	0xbd952a00	-0.072834015
108	0xbe482f11	-0.19549204
109	0xbe833969	-0.25629738
110	0x3e3f9d4e	0.1871235
111	0x3e84bca9	0.25925186
112	0x3d9cf54a	0.07663973
113	0xbdd618fb	-0.104539834
114	0x3d706ced	0.05869763
115	0xbc23fdee	-0.010009272
116	0xbe6c915f	-0.2310233
117	0xbe5b2e41	-0.21404363
118	0x3dbe0a15	0.09279267
119	0xbd9fd040	-0.078033924
120	0xbd822f8b	-0.06356724
121	0xbe25015b	-0.16113798
122	0x3df163f6	0.11786644
123	0xbe0a1aba	-0.13486758
124	0xbdaecd1a	-0.08535214
125	0x3e126caf	0.14299272
126	0x3e838bc7	0.2569258
127	0x3e73faf3	0.23826198
128	0x3dd77758	0.1052081
129	0x3c1b8c0e	0.009493841
130	0x3e4db074	0.20086843
131	0x3e71f7fb	0.23629753
132	0x3df5baa1	0.11998487
133	0x3da0e62b	0.07856401
134	0x3d83fc3c	0.06444594
135	0x3cdec9e2	0.027195875
136	0x3e34a2eb	0.17640273
137	0x3d9ad550	0.075602174
138	0xbe66bf4a	-0.22533908
139	0xbe21a9b4	-0.15787393
140	0xbe78882d	-0.24270697
141	0xbda48016	-0.08032243
142	0x3c5fcd76	0.013659826
143	0xbde80f72	-0.11331071
144	0xbe7bb14f	-0.24579357
145	0xbe31fcf6	-0.17381653
146	0x3de8f2a2	0.113744035
147	0xbc9a39d6	-0.018826406
148	0xbd37870e	-0.044806533
149	0x3d313bce	0.043269925
150	0xbd673ca9	-0.056454334
151	0xbe152553	-0.1456502
152	0xbdfb2c59	-0.12264318
153	0xbddf19ad	-0.10893569
154	0xbe801576	-0.25016373
155	0xbe7c6402	-0.24647525
156	0xbdcf61cb	-0.101260744
157	0x3dcd663b	0.100292645
158	0x3e85d254	0.2613703
159	0xbbed0898	-0.0072336905
160	0x3e3ae47f	0.18251227
161	0x3db4fc06	0.08837132
162	0xbe59f7b0	-0.21285892
163	0xbe08ea94	-0.13370734
164	0xbd962ecc	-0.073331445
165	0xbe619108	-0.22027981
166	0x3d1950d9	0.037430618
167	0x3d820387	0.06348329
168	0xbe5556f1	-0.20833947
169	0xbd6666b8	-0.056250304
170	0xbe716615	-0.23574097
171	0x3e8843ec	0.2661432
172	0x3e21dec5	0.15807636
173	0xbdce791b	-0.10081693
174	0x3e6b4640	0.22976017
175	0xbe2b4bc6	-0.16728124
176	0x3e663d84	0.22484404
177	0xbdd2a4b3	-0.1028532
178	0x3d9fecbb	0.07808825
179	0x3e3e2d38	0.18571937
180	0x3dfed504	0.12442973
181	0x3d84a3cf	0.064765565
182	0xbcfc77b8	-0.030818805
183	0x3b00f05e	0.001967452
184	0x3e69adef	0.22820257
185	0xbdb2e04a	-0.08734186
186	0xbdb196bd	-0.08671329
187	0x3d0be479	0.034153435
188	0xbe04c9dc	-0.12967628
189	0xbdcef097	-0.101044826
190	0x3cab152b	0.020884117
191	0x3e4dd321	0.2010007
192	0x3db27679	0.08714003
193	0xbe291b24	-0.1651426
194	0x3e254088	0.16137898
195	0xbdc9944e	-0.0984274
196	0x3d8d2835	0.068924345
197	0x3c80ee3a	0.015738595
198	0x3e43748f	0.19087432
199	0xbd748296	-0.05969485
200	0xbdde6683	-0.10859396
201	0xbd5a12ee	-0.05324071
202	0x3b1f2ffe	0.002429008
203	0xbe0126cc	-0.12612456
204	0x3e3c19b6	0.18369183
205	0xbe12ba5f	-0.14328907
206	0x3d2d2d5c	0.042279586
207	0xbe521ee4	-0.20519596
208	0xbd07edae	-0.033185653
209	0xbd6be000	-0.05758667
210	0xbddaf929	-0.10692055
211	0x3e0f1103	0.13971333
212	0xbe745e23	-0.23864035
213	0x3ce5a3b8	0.028032169
214	0xbcccd01c	-0.025001578
215	0xbe0e549c	-0.13899463
216	0x3e54d3fa	0.20783988
217	0x3e2bcdd6	0.16777739
218	0x3da5677c	0.08076379
219	0x3baa5d8f	0.0051991413
220	0x3e17afd7	0.14813171
221	0xbdf06d7a	-0.11739631
222	0xbe5eb2ea	-0.21747938
223	0x3e834f3c	0.2564639
224	0xbdcce57e	-0.1000471
225	0x3d5b9653	0.053610157
226	0x3baee579	0.005337414
227	0x3e66660d	0.22499867
228	0x3e881c30	0.26584005
229	0xbe382090	-0.17981172
230	0xbb3ace1f	-0.0028504205
231	0xbe5ddf9a	-0.21667328
232	0x3e30c2ad	0.17261763
233	0x3e82a687	0.25517675
234	0xbdd138f0	-0.10215938
235	0x3d466819	0.04843912
236	0xbd710835	-0.058845717
237	0xbd8499f8	-0.0647468
238	0x3e594e8f	0.21221374
239	0xbe7e473e	-0.24831864
240	0xbd15e72c	-0.036597416
241	0xba8fa837	-0.0010960166
242	0xbe715f86	-0.23571596
243	0x3de11103	0.10989573
244	0x3e36811d	0.1782269
245	0xbe596578	-0.21230114
246	0x3dd3c7b2	0.10340823
247	0xbc8da735	-0.017291645
248	0x3e8033a9	0.25039414
249	0xbe80f3a2	-0.25185877
250	0x3e6858e2	0.22690156
251	0xbdcb5786	-0.09928803
252	0x3e66b3fd	0.22529598
253	0xbe0b9a5d	-0.13633104
254	0x3d396a7f	0.04526758
255	0x3d7f5e92	0.06234605

modality_encoders.stress.0.bias f4 [64]
0	0x3dae04ca	0.08497007
1	0x3e306f39	0.17229928
2	0xbd4483f4	-0.047977403
3	0x3df94bd4	0.12172666
4	0x3e524688	0.20534718
5	0x3e202723	0.1563993
6	0x3e05576c	0.1302163
7	0x3e266f25	0.16253336
8	0xbe753df2	-0.23949412
9	0x3d68c243	0.056825887
10	0x3e530cf9	0.20610417
11	0xbe58d682	-0.21175578
12	0xbe6fe54b	-0.23427312
13	0xbe62002e	-0.22070381
14	0x3da80e7a	0.08205886
15	0x3e7dfd2b	0.24803607
16	0xbcc6957f	-0.024241207
17	0xbdd995e7	-0.10624295
18	0x3c8191cb	0.01581659
19	0xbe61a788	-0.22036564
20	0x3d3d807e	0.046265118
21	0xbe33ed81	-0.1757107
22	0xbe38342f	-0.17988656
23	0xbe47a306	-0.19495782
24	0xbd9af5fc	-0.07566449
25	0x3e325b16	0.17417559
26	0x3d5e58a1	0.05428374
27	0x3e3e75bd	0.18599601
28	0xbe84040e	-0.25784343
29	0xbe5ee0ed	-0.2176549
30	0x3e27af62	0.16375497
31	0x3e5793ef	0.21052526
32	0x3e686a06	0.22696695
33	0xbe7e2b49	-0.248212
34	0x3df52bdd	0.11971257
35	0xbe86ee8b	-0.2635387
36	0xbda1e039	-0.07904095
37	0x3bb168c5	0.005414101
38	0x3dfff4f0	0.1249789
39	0xbda734ba	-0.08164354
40	0xbe6ca341	-0.23109151
41	0xbe84f87b	-0.25970826
42	0xbddb7ff1	-0.10717762
43	0x3e5090a4	0.20367676
44	0x3ded7cb8	0.11596054
45	0x3e075e7d	0.13219638
46	0xbe5d566e	-0.21615002
47	0xbe75e81b	-0.24014322
48	0x3e7d386e	0.24728557
49	0x3e32c34f	0.17457317
50	0xbdebeb69	-0.1151951
51	0x3cb81894	0.022472657
52	0x3e45297b	0.19254105
53	0x3e765ac5	0.24058063
54	0xbe5c356e	-0.21504757
55	0xbe07a417	-0.13246189
56	0x3dd4b374	0.103857905
57	0x3e511987	0.20419894
58	0x3d3e7377	0.046496835
59	0xbc871e5a	-0.016493965
60	0x3c299d22	0.010352405
61	0x3e790ba3	0.24320845
62	0xbe56dee4	-0.20983464
63	0x3df95b99	0.12175674

modality_encoders.stress.3.weight f4 [32, 64]
0	0xbdb747de	-0.089492545
1	0x3c42b8f0	0.011884913
2	0xbdf1d494	-0.11808124
3	0x3da5ce4c	0.08095989
4	0xbd8ea27a	-0.06964584
5	0x3c080ba0	0.008303553
6	0xbda08d50	-0.07839453
7	0x3c3b8df0	0.011447415
8	0xbd79530c	-0.060870215
9	0xbd82ec32	-0.06392707
10	0xbd5de1d0	-0.05417043
11	0x3d9ed6d8	0.07755822
12	0x3c8f1a80	0.01746869
13	0xbd03e040	-0.032196283
14	0x3dda09c8	0.10646397
15	0x3cc8ac28	0.024496153
16	0xbd25b0b8	-0.040451735
17	0xbbb93680	-0.005652249
18	0xbd483020	-0.04887402
19	0xbd4b1d14	-0.049588278
20	0xbd1fe29c	-0.03903447
21	0x3cf40868	0.029789165
22	0xbde3f344	-0.111303836
23	0xbdc75d96	-0.09734647
24	0x3dabd906	0.08391003
25	0xbcf54028	-0.029937819
26	0xbb973b40	-0.0046152174
27	0x3d32d11c	0.043656453
28	0xbd6503a0	-0.05591166
29	0x3db35698	0.08756751
30	0xbce7cb08	-0.028295055
31	0x3bf99740	0.0076169074
32	0xbdb18c36	-0.08669321
33	0x3d5032f8	0.050829858
34	0xbdb5f4b6	-0.088845655
35	0x3d9bb0ee	0.07602106
36	0xbc90f928	-0.017696932
37	0xbd3aff30	-0.045653522
38	0xbd2b648c	-0.041843936
39	0x3d435708	0.04769042
40	0x3dfabb36	0.12242739
41	0x3d0b1a08	0.033960372
42	0x3d9ce9d8	0.0766179
43	0xbdd7ca16	-0.10536592
44	0xbcf1a8f8	-0.029499516
45	0xbd90fa62	-0.07079007
46	0xbdb7bcd6	-0.089715645
47	0x3cafd2f8	0.021462902
48	0xbd201010	-0.03907782
49	0x3ce7cd28	0.028296068
50	0xbd4b94e4	-0.04970254
51	0xbde96e14	-0.11397949
52	0xbd83bf72	-0.06433
53	0xbdf61186	-0.12015061
54	0x3cddc5c0	0.027071834
55	0xbdc02ff6	-0.09384148
56	0x3dc4c99a	0.09608765
57	0x3d5d987c	0.0541005
58	0xbd8fa33c	-0.07013556
59	0xbd1251dc	-0.0357226
60	0xbde55cfc	-0.11199376
61	0x3db86dfe	0.09005354
62	0xbd64f518	-0.055897802
63	0xbcd71da8	-0.026259258
64	0x3c174b00	0.00923419
65	0x3d788ce8	0.060681254
66	0xbd18a388	-0.03726533
67	0x3d7b0570	0.061284482
68	0x3d83a9fc	0.06428906
69	0xbc7d0bc0	-0.015444696
70	0x3da9bd7a	0.08288093
71	0xbde07d9a	-0.109614566
72	0xbd8b6550	-0.06806433
73	0xbc20b820	-0.009809524
74	0xbc508580	-0.012727141
75	0x3d35a478	0.044346303
76	0x3db8e5fa	0.090282395
77	0xbdb8da58	-0.09026021
78	0x3d8655f2	0.065593615
79	0x3cf5b298	0.029992387
80	0x3dd49bcc	0.103812784
81	0x3d88a2fc	0.06671712
82	0xbcde9358	-0.027169868
83	0xbc9133e8	-0.017724946
84	0xbdaa5be8	-0.08318311
85	0x3ce1f160	0.027580917
86	0x3dc854fc	0.097818345
87	0x3d302ea4	0.04301323
88	0x3dcefce2	0.10106827
89	0x3d4c7ec0	0.049925566
90	0x3cc50898	0.02405195
91	0xbcddb068	-0.027061656
92	0xbddd2a68	-0.10799104
93	0xbcbff580	-0.023432493
94	0x3dd94f6a	0.1061085
95	0x3dde9746	0.10868697
96	0xbd2d3880	-0.04229021
97	0x3dd21f00	0.10259819
98	0x3dd3071c	0.103040904
99	0xbdda7068	-0.10665971
100	0xbdfc85e0	-0.12330222
101	0xbd7f01a4	-0.062257424
102	0xbc4f3c70	-0.012648687
103	0x3d46551c	0.04842101
104	0x3d565fc4	0.052337423
105	0x3da22db4	0.079188734
106	0xbd7abe50	-0.061216652
107	0x3dab3a2c	0.08360705
108	0x3ce97568	0.028498366
109	0xbdb5bd72	-0.088740245
110	0xbdbd31f2	-0.09238042
111	0x3d3604e8	0.044438273
112	0x3dee5bb2	0.11638583
113	0xbda9f724	-0.082990915
114	0x3c72aba0	0.014811426
115	0xbdf259e8	-0.118335545
116	0x3da6bf4c	0.08141956
117	0x3d16f390	0.036853373
118	0xbd026840	-0.0318377
119	0x3d874136	0.06604235
120	0x3d545760	0.05184114
121	0x3dac8d78	0.084254205
122	0x3c4cd0f0	0.012500986
123	0x3aa1bb00	0.0012339056
124	0x3d75b004	0.059982315
125	0x3d2cabd4	0.042156056
126	0xbdd8fa5e	-0.10594629
127	0xbd448808	-0.047981292
128	0x3d9e4720	0.0772841
129	0xbd8265c6	-0.06367068
130	0x3dc606cc	0.09669265
131	0xbcc47fa0	-0.023986638
132	0x3df534be	0.119729504
133	0xbd967c1e	-0.07347892
134	0x3db50db8	0.08840507
135	0xbd621c4c	-0.055202767
136	0x3db508ba	0.08839555
137	0x3d8d5aa2	0.069020525
138	0x3d4e2c30	0.05033511
139	0x3d15d2a8	0.03657785
140	0x3d98efa8	0.07467586
141	0xbd4c168c	-0.04982619
142	0xbd2515b0	-0.040303886
143	0x3d0b19bc	0.03396009
144	0xbdb59394	-0.08866039
145	0x3bf36a00	0.0074284077
146	0x3d55ae9c	0.052168474
147	0xbde8945c	-0.11356422
148	0xbbdcb1a0	-0.0067350417
149	0x3be811c0	0.007082194
150	0xbdc51670	-0.0962342
151	0x3dc8f966	0.09813194
152	0x3bb95920	0.0056563765
153	0xbdf0e52a	-0.117624596
154	0xbd319888	-0.043358356
155	0x3cb991a0	0.022652447
156	0x3db973ac	0.09055266
157	0xbd255a04	-0.04036905
158	0x3ddfed66	0.10933952
159	0xbd58918c	-0.05287318
160	0xbdce5cc0	-0.100762844
161	0xbd0be320	-0.03415215
162	0xbda70d9a	-0.08156891
163	0x3d2a2a20	0.04154408
164	0x3da90d6a	0.08254512
165	0xbdd81524	-0.10550907
166	0xbdbb6800	-0.09150696
167	0x3d8e4856	0.06947391
168	0xbcdba8f0	-0.026813954
169	0x3de96e94	0.11398044
170	0x3de868c2	0.11348106
171	0xbda9e262	-0.08295132
172	0x3d96ca10	0.07362759
173	0xbdf6e1c2	-0.12054779
174	0x3d4e1c38	0.05031988
175	0xbd920eea	-0.07131751
176	0xba3a2000	-0.0007100105
177	0x3df899d8	0.12138718
178	0x3c8ade68	0.016951755
179	0xbd899810	-0.06718457
180	0x3d6b4ee0	0.057448268
181	0xbca4a3c8	-0.020097628
182	0x3de5c08e	0.112183675
183	0xbdbf72cc	-0.09348068
184	0xbcae1a18	-0.021252677
185	0xbdd715ea	-0.10502227
186	0xbd913580	-0.070902824
187	0xbd121e58	-0.03567347
188	0xbda8e632	-0.08247031
189	0xbdae67ae	-0.08515869
190	0xbcfe0a18	-0.031010672
191	0xbd92391c	-0.07139799
192	0xbd9b1eec	-0.07574257
193	0x3bdd4cc0	0.006753534
194	0xbdc042ac	-0.09387717
195	0x3d9376bc	0.07200381
196	0x3da8b220	0.082371
197	0x3deb8bc0	0.115012646
198	0x3d1ea67c	0.03873299
199	0xbc416070	-0.011802778
200	0xbcb2e920	-0.021839678
201	0xbd7364b0	-0.059422195
202	0x3dae1ea8	0.08501941
203	0x3d8dc34e	0.06922017
204	0x3db8db2c	0.09026179
205	0xbcc6ce48	-0.024268284
206	0xbdb0dcf6	-0.08635895
207	0x3d2ac554	0.041692093
208	0x3de06762	0.10957219
209	0xbca26cd8	-0.019827291
210	0x3dcebf48	0.10095078
211	0x3db4c3d8	0.08826417
212	0x3d3402fc	0.04394816
213	0xbd0a7838	-0.033806056
214	0xbd2bb32c	-0.04191892
215	0xbcb349c8	-0.021885768
216	0xbc19b180	-0.009380698
217	0xbcd2c280	-0.02572751
218	0xbdf95e3c	-0.12176177
219	0xbdaf951c	-0.08573362
220	0xbd225dd8	-0.039640278
221	0x3dc4b6ae	0.09605156
222	0x3d538cc0	0.0516479
223	0xbde926d8	-0.11384362
224	0xbdb7471c	-0.0894911
225	0xbd96347e	-0.07334231
226	0x3df2c87c	0.118546456
227	0x3cfd8338	0.030946359
228	0x3dcd0ea4	0.10012558
229	0xbdceb934	-0.100939184
230	0x3def2536	0.11677019
231	0x3dd04ff4	0.101715
232	0x3c0e1100	0.008671045
233	0xbd6f6fec	-0.058456346
234	0x3d48b248	0.048998147
235	0xbd898e92	-0.06716646
236	0xbd54406c	-0.05181925
237	0x3d40106c	0.04689066
238	0xbdc4a07e	-0.09600924
239	0x3cf93128	0.030418947
240	0xbbda7140	-0.0066663325
241	0x3a989200	0.0011640191
242	0x3bbbae40	0.0057275593
243	0x3cf6e798	0.03013973
244	0xbd99037a	-0.07471366
245	0x3d52bb54	0.05144818
246	0xbdf0264e	-0.11726056
247	0x3d5762c0	0.05258441
248	0xbdd005ac	-0.10157332
249	0x3df65d46	0.12029509
250	0x3cf641c8	0.030060664
251	0x3d0dd430	0.034626186
252	0x3d0804cc	0.0332077
253	0x3cc6f1c8	0.024285212
254	0xbd43cb84	-0.04780151
255	0xbdf91860	-0.12162852

modality_encoders.stress.3.bias f4 [32]
0	0x3d9f16ca	0.077680185
1	0xbd84533a	-0.06461187
2	0xbc910fd0	-0.017707735
3	0x3c3be1d0	0.011467412
4	0x3db0f3a4	0.08640221
5	0x3d61a4c0	0.05508876
6	0x3df6ffb0	0.12060487
7	0xbd8976e2	-0.06712128
8	0xbc21f920	-0.009886056
9	0xbc2ac0b0	-0.010421917
10	0x3dd0a1ce	0.10187112
11	0x3df1ad64	0.1180065
12	0x3d01391c	0.031548604
13	0xbdcee25e	-0.1010177
14	0xbdb9b24a	-0.09067209
15	0x3cbbf278	0.022942767
16	0xbde1841a	-0.110115245
17	0xbd3296b8	-0.043600768
18	0xbdbff3ae	-0.0937265
19	0x3d834a20	0.064106226
20	0xbc8c8a10	-0.017155677
21	0xbdc86ea8	-0.09786731
22	0x3da74798	0.08167952
23	0xbde2f7f4	-0.110824496
24	0xbc483660	-0.012219995
25	0x3df67c12	0.12035383
26	0x3d805442	0.06266071
27	0xbdddcbba	-0.108298734
28	0x3c5cf980	0.01348722
29	0xbc986fd8	-0.018608019
30	0x3d63fe5c	0.055662498
31	0x3dec8722	0.11549212
