results/migraine/best_model.pth (torch, 624994 bytes, 44 tensors)

modality_encoders.eeg.0.weight f4 [64, 6]
0	0x3e86037c	0.26174533
1	0x3eb1b376	0.3470723
2	0xbbec6adc	-0.007214887
3	0x3ed523ed	0.41628972
4	0xbe2ac99f	-0.16678475
5	0x3f05ebee	0.52313125
6	0xbee05689	-0.4381602
7	0x3c84cb91	0.01621035
8	0x3e7f0a31	0.24906231
9	0xbefa04d4	-0.4883181
10	0x3ce22fe6	0.02761073
11	0x3f45470d	0.7706154
12	0x3d964015	0.073364414
13	0xbe383083	-0.17987256
14	0xbcee445b	-0.029085329
15	0xbe8e22b2	-0.27760845
16	0x3d81eb7d	0.06343744
17	0x3de8a800	0.113601685
18	0xbe432922	-0.1905866
19	0x3dd51e5b	0.104061805
20	0xbe409bf6	-0.18809494
21	0xbd441a17	-0.047876444
22	0xbe29cb00	-0.16581345
23	0x3e8aa8ee	0.27082008
24	0xbea4ff23	-0.32225904
25	0xbe40b941	-0.18820669
26	0xbdec1767	-0.11527901
27	0xbe7b5c16	-0.24546847
28	0x3d1dd378	0.03853175
29	0xbece72a2	-0.40321833
30	0x3ebcc54c	0.36869276
31	0xbeb18efb	-0.34679398
32	0x3ea15f20	0.31517887
33	0x3d8b244d	0.06794033
34	0xbe07bdd4	-0.13256007
35	0x3e812a74	0.25227702
36	0xbd5d0967	-0.053964045
37	0x3e6c639f	0.23084877
38	0x3cb28cf5	0.02179573
39	0xbe527df3	-0.20555858
40	0xbdd6de38	-0.104916036
41	0x3ec05c0d	0.3757023
42	0x3d11f05d	0.03562962
43	0x3e7e01dd	0.24805398
44	0x3e3b4e70	0.1829164
45	0xbe9209c9	-0.2852309
46	0x3c60e4f1	0.013726459
47	0x3ecb7210	0.3973546
48	0x3e544c6d	0.20732279
49	0xbe7ecd23	-0.24882941
50	0xbecee9ed	-0.40412846
51	0xbe21843e	-0.15773103
52	0xbea05355	-0.31313577
53	0x3eab82f9	0.33498362
54	0xbe04ade6	-0.12956962
55	0xbd034d9f	-0.032056447
56	0xbc866368	-0.016404822
57	0xbe32d55c	-0.17464203
58	0x3d211f3f	0.03933644
59	0x3e040c58	0.12895334
60	0xbc575375	-0.013142456
61	0xbea0e30b	-0.3142322
62	0x3dc76dac	0.09737715
63	0xbe2e851d	-0.17042966
64	0x3db0f7ad	0.086409904
65	0xbd25572c	-0.040366337
66	0x3e928545	0.28617302
67	0xbe879f7b	-0.2648886
68	0xbe4ecb63	-0.20194773
69	0xbe7a5ce8	-0.24449503
70	0x3e76ade5	0.24089773
71	0x3f091ad5	0.5355657
72	0x3ec921f6	0.39283723
73	0xbeac8078	-0.33691764
74	0xbecf5337	-0.40493175
75	0xbea38839	-0.31939867
76	0xbe8c9b8a	-0.27462417
77	0x3e295355	0.16535695
78	0x3d1262be	0.0357387
79	0x3e88b686	0.26701754
80	0xbe4f7dbf	-0.20262812
81	0xbeae6420	-0.34060764
82	0x3d095776	0.033530675
83	0x3eb11f76	0.34594315
84	0x3e7db8e4	0.24777561
85	0xbdc667c1	-0.09687758
86	0x3e6f2444	0.23353678
87	0xbea2677f	-0.31719586
88	0xbe52f78a	-0.20602241
89	0x3dfee7a9	0.124465294
90	0x3db0c19b	0.08630677
91	0xbdd52b4a	-0.10408647
92	0x3e792f43	0.24334435
93	0x3e8e188a	0.27753097
94	0xbe9793f8	-0.2960508
95	0xbe5f2e7e	-0.21795079
96	0x3ebf6500	0.37381744
97	0xbe0d0ff9	-0.13775624
98	0xbe14344a	-0.14473072
99	0xbeca3fea	-0.39501888
100	0xbe6f6714	-0.23379165
101	0x3dd0dbe6	0.10198192
102	0xbd5cb78e	-0.05388599
103	0xbe97ba1a	-0.29634172
104	0x3c1ce54e	0.009576155
105	0xbe8ec7a3	-0.27886686
106	0xbeb155a4	-0.3463565
107	0xbe6633d4	-0.22480708
108	0xbeb96fc1	-0.36218074
109	0xbe7be769	-0.24599995
110	0x3f3afed1	0.7304507
111	0x3e8c4ddc	0.27403152
112	0x3d8aa5ea	0.06769927
113	0x3f9cef6c	1.2260566
114	0xbe8947ea	-0.2681268
115	0xbe0b262e	-0.13588783
116	0x3d82bda0	0.06383824
117	0xbeb7ec85	-0.35922638
118	0xbe341ff7	-0.17590319
119	0xbe7a456b	-0.24440543
120	0x3a944a32	0.0011313616
121	0xbe1b8e6e	-0.15191051
122	0xbce7c02d	-0.028289879
123	0xbe8da3ea	-0.2766412
124	0xbe8f78f4	-0.28021967
125	0xbe73e392	-0.2381728
126	0xbe91ecbc	-0.28500926
127	0xbef0386a	-0.4691804
128	0x3e7124a4	0.23549134
129	0xbe4ea9c6	-0.20181951
130	0x3e3c8495	0.18409951
131	0x3e739791	0.23788287
132	0xbeb1000a	-0.34570342
133	0x3e90a6c0	0.2825222
134	0xbde60be9	-0.112327404
135	0xbe203f7f	-0.15649222
136	0xbead8102	-0.33887488
137	0xbecfcd75	-0.4058644
138	0xbd6a1266	-0.057146452
139	0xbe65a71a	-0.22427025
140	0x3d6edb27	0.05831447
141	0xbee2bb92	-0.4428373
142	0x3dd2b1e5	0.10287837
143	0x3c9820cf	0.018570332
144	0xbea3bc7f	-0.3197975
145	0xbe1122ba	-0.14173403
146	0x3d15ccbc	0.036572203
147	0x3e0d223b	0.13782589
148	0x3dd0bce4	0.10192278
149	0xbd2156fd	-0.0393896
150	0xbd25ddc0	-0.04049468
151	0xbea04e40	-0.313097
152	0xbe0ee776	-0.13955483
153	0xbedce374	-0.43142283
154	0x3e12a557	0.14320885
155	0x3d6ebb85	0.0582843
156	0xb9388a0a	-0.00017599031
157	0xbd94bc54	-0.07262483
158	0xbd7f1776	-0.062278233
159	0xbedd83f1	-0.43264726
160	0x3db2465b	0.087048255
161	0x3e43a106	0.19104394
162	0x3d571c28	0.052517086
163	0xbeb833e0	-0.35977077
164	0x3e2f7db3	0.17137794
165	0xbd7adcb9	-0.061245654
166	0xbe3f8464	-0.18702847
167	0x3eb38a2a	0.35066348
168	0xbd0eb7a2	-0.034843095
169	0xbea6a235	-0.3254563
170	0xbec1d47e	-0.3785743
171	0xbdf56254	-0.11981645
172	0x3e20eb92	0.15714863
173	0xbd683b2b	-0.056697052
174	0xbeb0c0d9	-0.3452213
175	0xbe7e5c96	-0.24840006
176	0xbeecd56f	-0.46256587
177	0x3ce812f7	0.028329356
178	0x3e595e91	0.2122748
179	0xbf3227aa	-0.6959177
180	0xbd90ecb0	-0.070763946
181	0x3d2524c2	0.040318258
182	0xbdae0552	-0.084971085
183	0xbe9e2400	-0.3088684
184	0xb69c22fb	-4.6532346e-06
185	0x3ed20145	0.41016594
186	0x3e1c51a2	0.15265515
187	0xbd92eb5b	-0.07173797
188	0xbddd65fb	-0.10810467
189	0x3d32e453	0.04367478
190	0xbd93b2fd	-0.07211874
191	0xbdf9280d	-0.12165842
192	0x3e2abd6b	0.1667382
193	0x3e9b5875	0.30340925
194	0xbc9e5adc	-0.019330435
195	0xbddef637	-0.108868055
196	0xbdfd1b52	-0.123587266
197	0x3efe97ad	0.49725094
198	0xbd8b99da	-0.06816454
199	0xbc6fc795	-0.014634986
200	0xbee04e3d	-0.4380969
201	0xbe8980de	-0.2685613
202	0x3de1be2c	0.110226005
203	0x3f116e4d	0.5680893
204	0xbca65742	-0.02030528
205	0xbe7c0ae1	-0.24613525
206	0xbe7fc349	-0.24976839
207	0xbebb3c6a	-0.3656953
208	0xbe084473	-0.13307361
209	0x3e0d2d0c	0.13786715
210	0x3e63d1ae	0.22247955
211	0x3e4ee74d	0.20205422
212	0xbe9e0fd0	-0.3087144
213	0xbe77f053	-0.2421277
214	0xbe07d641	-0.13265325
215	0x3f41ac46	0.75653493
216	0x3d71e4e4	0.059056178
217	0xbdd88604	-0.105724365
218	0x3e2cf3be	0.16889855
219	0xbe1f39e2	-0.15549424
220	0xbe874a9a	-0.26424104
221	0x3e989036	0.29797524
222	0xbe5fc254	-0.21851474
223	0xbdb7e54e	-0.08979283
224	0xbef1ed0f	-0.47251174
225	0x3e7cbd9d	0.24681707
226	0x3e8f5f62	0.2800246
227	0x3c11099a	0.008852387
228	0xbe91bf17	-0.28466102
229	0xbece4b14	-0.40291655
230	0xbea9c3a2	-0.33157068
231	0x3e9bde5d	0.30443087
232	0x3e48b4d8	0.19600236
233	0x3eafe4d6	0.34354275
234	0x3e5b0079	0.21386899
235	0x3dd39bc5	0.10332445
236	0xbb830060	-0.0039978474
237	0xbe9ef69e	-0.3104753
238	0xbeb315d0	-0.3497758
239	0xbec3826f	-0.3818545
240	0x3e2b21da	0.16712132
241	0xbe4d3f51	-0.20043685
242	0xbda8440a	-0.082161024
243	0xbe70967c	-0.23494905
244	0xbd985b13	-0.07439246
245	0xbe931e26	-0.2873394
246	0xbe889439	-0.26675585
247	0x3e0aaba4	0.13542038
248	0xbdf87bd2	-0.12132992
249	0x3e8109fc	0.2520293
250	0xbe061ce7	-0.13096963
251	0xbe995520	-0.29947758
252	0xbe1c52fc	-0.15266031
253	0xbe8d649c	-0.2761582
254	0xbe58d1ef	-0.21173833
255	0xbee72a98	-0.45149684

modality_encoders.eeg.0.bias f4 [64]
0	0xbae421cd	-0.0017405093
1	0x3e5983e0	0.21241713
2	0xbf16581f	-0.5872821
3	0xbe1fad37	-0.1559342
4	0x3df2df5d	0.118590094
5	0xbdb6285e	-0.08894418
6	0xbe163737	-0.146695
7	0xbe8872e2	-0.2665015
8	0x3e049061	0.12945701
9	0x3d07c650	0.03314811
10	0xbadeb8ed	-0.0016992368
11	0xbe700b2c	-0.23441762
12	0xbea9aca8	-0.3313954
13	0xbb76cff9	-0.0037660582
14	0xba93e007	-0.0011281975
15	0xbe410455	-0.18849309
16	0xbde9efce	-0.11422692
17	0xba940399	-0.0011292576
18	0xbb903777	-0.004401143
19	0xb9dbac04	-0.00041899097
20	0xbdcdc349	-0.10047013
21	0xbf009c5c	-0.50238585
22	0xbec4891a	-0.3838585
23	0xbea6ce70	-0.32579374
24	0xbed793b9	-0.4210489
25	0xbabb88f2	-0.0014307781
26	0xbea6ef31	-0.32604364
27	0xbe238c88	-0.15971577
28	0x3e5ed080	0.21759224
29	0xbb1b419c	-0.002369023
30	0xba13b79c	-0.0005634965
31	0xbe4a61ab	-0.1976382
32	0xbe4729f0	-0.19449592
33	0x3d9f4bb5	0.07778112
34	0xbe8b4455	-0.2720057
35	0xbe7bf36a	-0.24604574
36	0xbca1882f	-0.019718258
37	0xbe4c298f	-0.19937728
38	0xbe9cb224	-0.3060466
39	0x3e128a67	0.14310609
40	0x3d6cb475	0.057789285
41	0xbad8f8d3	-0.0016553648
42	0xbe16c62d	-0.14724036
43	0xbed591c3	-0.4171277
44	0xbdc54924	-0.09633091
45	0xba5c925d	-0.0008414144
46	0xbada9911	-0.0016677697
47	0xbd5364bb	-0.051609736
48	0xbe254699	-0.16140212
49	0xba101454	-0.0005496193
50	0xbea67749	-0.32512882
51	0x3e174d92	0.14775684
52	0xbe2a7349	-0.1664554
53	0xbca71139	-0.020393955
54	0xbda539a3	-0.08067634
55	0xbd9817be	-0.074264035
56	0xbdd2b2ba	-0.10287996
57	0x3e82f8ab	0.25580344
58	0xbda29ef0	-0.07940471
59	0xba702785	-0.00091611623
60	0x3e73bd30	0.23802638
61	0xbeab35f6	-0.33439606
62	0xbe987bfa	-0.29782087
63	0x3c22eea4	0.009944592

modality_encoders.eeg.3.weight f4 [32, 64]
0	0x3ddf908c	0.10916242
1	0x3dd37625	0.10325269
2	0x3c7a49cc	0.015276384
3	0xbdfc72c6	-0.12326579
4	0xbdfea11e	-0.124330744
5	0x3cc5c728	0.024142817
6	0x3cb2977f	0.021800755
7	0x3d4c9b95	0.049953062
8	0x3cfc392d	0.030788982
9	0x3e0aed6b	0.1356713
10	0x3d766d48	0.060162812
11	0x3d0a0631	0.03369731
12	0xbbe7e3e0	-0.0070767254
13	0x3d1e2711	0.038611475
14	0x3dd105a5	0.10206155
15	0xbdb50340	-0.088385105
16	0x3d3fe46c	0.0468487
17	0xbcb47df4	-0.022032715
18	0xbec1bcf1	-0.37839463
19	0xbd0f2f1c	-0.034957036
20	0x3df6e388	0.12055117
21	0x3e13d28c	0.14435786
22	0x3de53e78	0.111935556
23	0x3d4235a4	0.047414437
24	0x3d5d6e51	0.054060284
25	0xbd6963e5	-0.056980032
26	0xbddce12e	-0.10785137
27	0x3d7fd2fc	0.06245707
28	0xbd31b483	-0.04338504
29	0xbd02fda6	-0.03198018
30	0xbd1eb7b7	-0.038749423
31	0x3cd6e558	0.026232406
32	0x3db1d665	0.08683471
33	0xbd84a832	-0.06477393
34	0xbd96ac48	-0.07357079
35	0xbc3bd44e	-0.011464192
36	0xbd96e518	-0.07367915
37	0xbdd1c418	-0.1024248
38	0x3d8570c4	0.06515649
39	0x3c303051	0.010753707
40	0x3e75ff06	0.24023065
41	0x3e3dc1a8	0.18530905
42	0x3d578c93	0.052624296
43	0x3dbad631	0.09122885
44	0xbc87e105	-0.01658679
45	0x3df1aa58	0.118000686
46	0xbd0fe9e2	-0.035135157
47	0x3ae12f00	0.0017180145
48	0x3d3f3188	0.046678096
49	0x3e13383d	0.14376922
50	0xbd04b080	-0.032394886
51	0xbdb45991	-0.08806146
52	0xbe6e25fb	-0.23256676
53	0xbd9c1607	-0.07621389
54	0x3cae1ea0	0.021254838
55	0x3d82332e	0.06357418
56	0x3da22715	0.079176106
57	0x3dfc4f26	0.12319784
58	0xbdd0c7db	-0.101943694
59	0x3d858e3c	0.0652127
60	0xbd009d83	-0.031400215
61	0x3d2763e2	0.04086674
62	0x3c287180	0.010280967
63	0xbdfab28a	-0.12241085
64	0x3b82d5ed	0.003992787
65	0xbdc55092	-0.09634508
66	0xbc861ecf	-0.016372113
67	0xbdd4d57c	-0.103922814
68	0x3e481f0f	0.19543098
69	0xbdf26aa6	-0.11836748
70	0x3e2ec27b	0.17066376
71	0xbd67958e	-0.05653911
72	0xbe152afc	-0.14567178
73	0x3da0d5e2	0.07853295
74	0xbd79ab7d	-0.06095456
75	0x3c9b0af8	0.018926129
76	0x3db91782	0.09037687
77	0xbdb9af8c	-0.09066686
78	0x3da03b1e	0.07823776
79	0x3cc14f48	0.023597375
80	0x3cdc2c08	0.026876464
81	0x3c5696b4	0.013097454
82	0x3e3646f3	0.17800502
83	0xbd680284	-0.056643024
84	0xbc830300	-0.015992641
85	0x3e18d9bd	0.1492681
86	0x3dabfe54	0.083981186
87	0x3cc2c73f	0.023776649
88	0xbd7e0ac6	-0.062021993
89	0x3cc23de8	0.02371116
90	0xbd968705	-0.07349972
91	0x3dd02d52	0.10164894
92	0x3cf54e7c	0.02994465
93	0x3e0a1d59	0.13487758
94	0x3df89418	0.12137622
95	0x3cb63988	0.02224423
96	0x3e2d1f70	0.16906524
97	0xbce79a68	-0.028271869
98	0x3d944418	0.0723955
99	0x3d9b80ab	0.07592901
100	0x3dceabf2	0.1009139
101	0x3df18ec4	0.117948085
102	0xbce50640	-0.027957082
103	0xbcc24fc8	-0.023719683
104	0xbdb37d9b	-0.08764192
105	0x3b8d7d65	0.0043179267
106	0x3d8b2115	0.06793419
107	0xbd1177ce	-0.035514645
108	0x3cee2803	0.029071813
109	0x3a3b50d8	0.00071455305
110	0x3d50c3eb	0.050968092
111	0x3dfe551a	0.124185756
112	0x3daec796	0.08534162
113	0x3dadf65b	0.08494254
114	0x3bdb3ac0	0.006690353
115	0xbc8f3378	-0.017480597
116	0x3e2d46ee	0.16921589
117	0xbd2d5d7c	-0.04232548
118	0xbde1997e	-0.110156044
119	0x3d217051	0.039413754
120	0xbe15b3d0	-0.14619374
121	0xbd72b377	-0.059253182
122	0xbd81be6b	-0.063351475
123	0xbdc5079c	-0.09620592
124	0xbe2f81d8	-0.17139375
125	0x3e1daf58	0.1539892
126	0x3dd5847c	0.1042566
127	0xbd1966b4	-0.03745146
128	0x3e9aba64	0.3022033
129	0xbd0e0bbd	-0.034679163
130	0xbd2a2335	-0.041537482
131	0xbd72171c	-0.05910407
132	0xbc8611be	-0.016365882
133	0xbddf0da0	-0.10891271
134	0x3e0a88b0	0.13528705
135	0x3e729b74	0.23692113
136	0xbd61bee4	-0.055113688
137	0x3cda62b8	0.0266584
138	0xbd23d077	-0.03999373
139	0x3db88b2a	0.090109184
140	0x3be13760	0.0068730563
141	0x3e3572f0	0.17719626
142	0x3dfac8ec	0.12245354
143	0x3dde720e	0.10861598
144	0xbdc36798	-0.09541243
145	0x3da3bc8e	0.07994948
146	0x3ef783a2	0.48342615
147	0xbd47913a	-0.048722483
148	0xbc23ffc0	-0.010009706
149	0xbd501443	-0.050800573
150	0x3db2a986	0.0872374
151	0x3bed17d0	0.0072355047
152	0xbcb06f1a	-0.021537352
153	0x3daf30fa	0.085542634
154	0x3ce0373b	0.027370086
155	0xbd460a8c	-0.048349902
156	0xbe06441b	-0.13111918
157	0xbdae077c	-0.08497521
158	0xbd25959b	-0.040425878
159	0xbca722c8	-0.020402327
160	0x3e98755b	0.29777035
161	0x3e52d179	0.2058772
162	0x3da2e218	0.0795328
163	0x3dec42a7	0.115361504
164	0xbda77b0a	-0.08177765
165	0x3d7ae883	0.061256897
166	0x3d351a74	0.04421468
167	0x3d424ccf	0.04743653
168	0x3be9a271	0.00712996
169	0xbcd715c9	-0.026255505
170	0xbd90b6ff	-0.07066154
171	0x3e8984e2	0.26859194
172	0x3e4c8115	0.19971116
173	0x3d114c77	0.035473313
174	0xbd1de30e	-0.038546614
175	0xbd8f354e	-0.06992589
176	0xbb274700	-0.0025524497
177	0xbb09e65a	-0.0021041841
178	0xbc7df8c0	-0.015501201
179	0x3d8adcd1	0.06780399
180	0x3e834ea6	0.25645941
181	0x3dad4aee	0.08461557
182	0xbda944f0	-0.08265102
183	0xbc5865cd	-0.013207865
184	0x3e55da15	0.20883973
185	0xbe29095b	-0.16507475
186	0x3d64e8c6	0.055886053
187	0x3cce29d6	0.025166433
188	0xbdb8eb9a	-0.090293124
189	0xbd64e3d2	-0.05588133
190	0xbde029be	-0.10945462
191	0x3dc81c17	0.09770983
192	0x3c97e33c	0.018540971
193	0xbd2ad3bd	-0.041705836
194	0x3d5808e4	0.052742854
195	0x3da09cb0	0.07842386
196	0xbe2b4743	-0.16726403
197	0xbd748c50	-0.059704125
198	0x3decfbbc	0.11571452
199	0x3d107c1d	0.035274614
200	0xbd618ddc	-0.05506693
201	0xbd6dae0a	-0.058027305
202	0x3e12ff57	0.14355217
203	0xbd62ac26	-0.055339955
204	0x3dd44b7c	0.1036596
205	0x3d5c076a	0.053718008
206	0xbc8dad49	-0.017294543
207	0x3dc7b6b8	0.09751648
208	0xbca8b850	-0.0205957
209	0xbd8b6de2	-0.06808068
210	0xbe94d94b	-0.2907203
211	0x3e20f007	0.15716563
212	0xbdbdf2e2	-0.09274842
213	0x3db0fe9a	0.086423114
214	0xbdfb9838	-0.12284893
215	0x3d196ab7	0.037455287
216	0x3db599e7	0.08867245
217	0xbddd1323	-0.10794666
218	0x3d647da6	0.05578389
219	0x39136c00	0.00014059246
220	0x3daaa3b5	0.08332006
221	0xbd87d24a	-0.06631906
222	0xbd7bbbef	-0.061458524
223	0x3d632174	0.055451825
224	0x3dc323d8	0.09528321
225	0x3db6faeb	0.089345776
226	0xbdba281a	-0.0908968
227	0x3d730d72	0.059338994
228	0xbce459a8	-0.027874783
229	0xbe113fdc	-0.14184517
230	0xbde8ae4e	-0.11361371
231	0x3dbf9ae9	0.09355719
232	0x3e059e65	0.13048704
233	0xbae65105	-0.0017571753
234	0xbd679ada	-0.056544162
235	0x3d4306ee	0.04761403
236	0xbd3c73aa	-0.046008743
237	0x3d8e9993	0.06962886
238	0xbe24324f	-0.16034816
239	0xbd21ba70	-0.03948444
240	0xbdf72fd4	-0.12069669
241	0xbdf3e92a	-0.11909707
242	0x3d216824	0.039405957
243	0x3d93f18f	0.07223808
244	0xbe2266c8	-0.1585952
245	0x3d9a580d	0.075363256
246	0x3cc85908	0.024456516
247	0xbd90d814	-0.07072464
248	0x3dee70b9	0.11642594
249	0x3e210318	0.15723836
250	0xbd953aaf	-0.07286584
251	0x3dd4921a	0.10379429
252	0x3e0e4e04	0.13896948
253	0xbce8d2ea	-0.028420884
254	0xbd745400	-0.05965042
255	0x3c252ddb	0.010081734

modality_encoders.eeg.3.bias f4 [32]
0	0x3e44a506	0.19203576
1	0xbde0d09f	-0.10977291
2	0x3ec21f25	0.37914386
3	0x3d8bb0eb	0.06820854
4	0x3e441659	0.1914915
5	0x3e145e96	0.14489207
6	0x3cc0418e	0.023468759
7	0xbd4b33b1	-0.049609844
8	0xbe595f7d	-0.21227832
9	0xbdd134df	-0.102151625
10	0x3e1311a7	0.14362203
11	0x3c292e78	0.01032602
12	0xbe5b12a6	-0.21393833
13	0x3e1c47f7	0.15261827
14	0xbdf796b9	-0.12089295
15	0x3e8bb759	0.2728832
16	0x3dd512c0	0.10403967
17	0x3df95220	0.12173867
18	0x3d5ee492	0.0544172
19	0xbd449c5c	-0.04800068
20	0x3e19ca80	0.15018654
21	0xbd22c248	-0.039736062
22	0x3da9fc29	0.08300049
23	0xbe2ff6b8	-0.1718396
24	0x3d0775b1	0.033071224
25	0xbd344054	-0.04400666
26	0x3c8bfc40	0.017088056
27	0x3e48ee3a	0.19622126
28	0xbe80cc2b	-0.25155768
29	0x3e1ea3bd	0.15492149
30	0xbde7d1ea	-0.11319335
31	0x3dee683c	0.11640975

modality_encoders.sleep.0.weight f4 [64, 7]
0	0x3eb7c970	0.35895872
1	0x3ea93a68	0.33052373
2	0x3d0fad48	0.035077363
3	0xbe6a9f81	-0.22912408
4	0xbc860f45	-0.016364703
5	0xbe3a21c8	-0.18176949
6	0x3e8d0346	0.2754156
7	0x3c8f6e4e	0.017508652
8	0x3da2f567	0.07956963
9	0x3e6ab93a	0.22922221
10	0x3e0033c7	0.12519751
11	0xbe719d03	-0.23595051
12	0x3ea0c28b	0.31398425
13	0x3e6dc5f3	0.23220043
14	0xbe6eee5e	-0.23333117
15	0x3e9251c3	0.28578004
16	0x3ddb9b4f	0.10722982
17	0xbd986003	-0.07440188
18	0xbe8a6598	-0.27030635
19	0xbd806fa6	-0.06271295
20	0xbebdbbb6	-0.37057275
21	0x3e5ce7a2	0.21572736
22	0x3e8c27ed	0.2737421
23	0xbddeda86	-0.10881524
24	0x3eb3668f	0.35039183
25	0xbe0f50e2	-0.13995698
26	0x3d848ef9	0.06472582
27	0xbe86dc85	-0.26340118
28	0xbc82e7f0	-0.015979737
29	0x3e1c738c	0.15278453
30	0x3e26b5a8	0.16280234
31	0xbc4fa700	-0.012674093
32	0xbe432ae0	-0.19059324
33	0x3e874421	0.26419166
34	0x3e801f1d	0.25023738
35	0x3d787259	0.060655925
36	0xbe31fd06	-0.17381677
37	0x3da41f74	0.08013812
38	0x3a84787c	0.0010106708
39	0x3eb0cc66	0.34530944
40	0x3d656c6b	0.0560116
41	0x3ceed082	0.029152159
42	0x3cd3a915	0.02583746
43	0x3e4de80f	0.20108055
44	0xbb990743	-0.004670055
45	0x3ea5df69	0.3239701
46	0x3e49a443	0.19691567
47	0xbe923a2f	-0.28560016
48	0xb691236b	-4.32546e-06
49	0xbea4425e	-0.32081884
50	0xbe9495aa	-0.29020435
51	0x3d966590	0.0734359
52	0x3dadf2c2	0.08493568
53	0xbd077b3f	-0.03307652
54	0x3eb7ee71	0.35924104
55	0xbe4feb8b	-0.20304696
56	0xbe22337c	-0.15839952
57	0xbd77eda3	-0.060529362
58	0x3b162f4d	0.0022916377
59	0xbd03219f	-0.032014485
60	0x3eae3dc4	0.34031498
61	0xbe23768c	-0.15963191
62	0xbe4a72db	-0.19770376
63	0x3d051018	0.03248605
64	0x3e915908	0.28388238
65	0x3db7baea	0.08971198
66	0x3e508239	0.20362176
67	0x3d95d94a	0.07316835
68	0x3ea4eed9	0.32213476
69	0x3e687675	0.22701438
70	0x3e8a79ad	0.27045956
71	0xbd5084f6	-0.05090805
72	0xbea03668	-0.3129151
73	0xbe37988b	-0.17929284
74	0x3e03d9cc	0.12876052
75	0x3e87c304	0.26515973
76	0xbe17376e	-0.14767238
77	0x3ea01ecd	0.312735
78	0x3d5e8239	0.05432341
79	0x3ac4c71b	0.0015012951
80	0x3c7169ea	0.014734725
81	0xbd88c1d5	-0.066775955
82	0x3eb52b4e	0.353846
83	0x3c867cb0	0.016416878
84	0x3e6d1011	0.2315066
85	0xbea354ea	-0.31900722
86	0xbe4768ac	-0.19473523
87	0x3d2e1165	0.042497057
88	0x3e9a861f	0.3018045
89	0x3e384344	0.1799441
90	0x3d936de1	0.07198692
91	0xbebf31a8	-0.37342572
92	0x3be8d5c1	0.0071055596
93	0xbe7f7b9c	-0.24949497
94	0xbea53d4b	-0.32273325
95	0x3d53b2c4	0.051684156
96	0xbe74e127	-0.23914014
97	0x3eafa4f3	0.34305534
98	0xbe525eba	-0.20543948
99	0x3df9755f	0.1218059
100	0x3e632cef	0.2218511
101	0xbe9668c4	-0.29376805
102	0x3e4613bd	0.19343467
103	0xbd4f4a4e	-0.05060797
104	0x3e488c24	0.1958471
105	0x3ebb461e	0.36576933
106	0xbe24f0f3	-0.1610754
107	0xbe27a06c	-0.1636979
108	0x3e99c26a	0.3003114
109	0x3d2c2776	0.04202982
110	0xbd1a6688	-0.037695438
111	0x3e92d0da	0.28674966
112	0xbe3afe74	-0.18261129
113	0xbc98e1f0	-0.018662423
114	0x3e84ec36	0.25961465
115	0x3e1741fd	0.14771266
116	0xbe7a5723	-0.24447303
117	0x3dc931a5	0.09823922
118	0xbe938b8b	-0.288174
119	0xbe523052	-0.20526245
120	0x3e78de54	0.24303561
121	0xbdce4cab	-0.10073217
122	0xbe4523ac	-0.19251889
123	0x3cdb78cc	0.026790999
124	0x3dbd28f9	0.092363305
125	0xbe70967e	-0.23494908
126	0xbe828057	-0.2548854
127	0xbebb6a81	-0.36604694
128	0x3dc801db	0.09765979
129	0xbe79ba0e	-0.2438738
130	0x3cebf678	0.028804049
131	0xbdad209c	-0.08453485
132	0xbe7d112d	-0.24713583
133	0xbdf70156	-0.12060802
134	0xbe94c155	-0.2905375
135	0xbe4cdee5	-0.20006903
136	0xbc4107a4	-0.011781607
137	0xbea570f9	-0.32312754
138	0xbea9b8b9	-0.33148745
139	0x3e90f4e0	0.28311825
140	0x3d11ad60	0.035565734
141	0xbe2b2b01	-0.16715623
142	0xbc4de509	-0.012566813
143	0x3e8f818d	0.28028527
144	0xbea171fc	-0.31532276
145	0xbe4d332e	-0.20039055
146	0xbe8bf0c9	-0.27332142
147	0xbce11a5a	-0.027478386
148	0xbc551aa3	-0.013006839
149	0xbe96cf3f	-0.2945499
150	0x3e86514e	0.26233906
151	0xbe949b2d	-0.2902464
152	0x3eb4acd6	0.35288113
153	0xbe853630	-0.26017904
154	0xbd542a7c	-0.05179833
155	0x3d90bdbf	0.07067441
156	0xbe2c0752	-0.16799667
157	0x3eb1f794	0.347592
158	0xbe856af6	-0.26058167
159	0xbcab9f40	-0.02094996
160	0xbe8e17b4	-0.2775246
161	0x3dd6dffb	0.1049194
162	0x3ea4fda4	0.32224762
163	0x3eb38122	0.35059458
164	0x3d37c929	0.044869576
165	0xbe41c47e	-0.18922612
166	0x3ebc11bf	0.3673229
167	0x3ce713b1	0.028207632
168	0x3e82ee00	0.25572205
169	0xbe490875	-0.19632132
170	0xbe339ee3	-0.17541079
171	0xbea0a545	-0.3137609
172	0x3eb20f8e	0.34777492
173	0x3d8067ff	0.06269836
174	0xbe8afb81	-0.27145007
175	0x3d04f7dc	0.03246294
176	0xbe260066	-0.1621109
177	0x3c9aadeb	0.018881759
178	0x3e00774d	0.1254551
179	0xbe400f7f	-0.18755911
180	0x3d871331	0.06595457
181	0xbe745dff	-0.23863982
182	0x3d952905	0.072832145
183	0xbebad936	-0.36493844
184	0x3d76b2e3	0.060229193
185	0x3ec0437f	0.37551495
186	0x3eb2406f	0.34814784
187	0x3e0d2eec	0.1378743
188	0x3e8e6567	0.2781174
189	0x3ebc2632	0.3674789
190	0x3ddb5918	0.10710353
191	0x3e01155a	0.12605801
192	0x3d494fb1	0.049148265
193	0x3eab53bb	0.3346232
194	0x3ea63d5a	0.32468683
195	0xbe3601ed	-0.17774172
196	0xbc7e92e7	-0.015537954
197	0xbe430159	-0.19043483
198	0x3e0ae14f	0.13562511
199	0xbebb8465	-0.36624447
200	0x3e08f5a9	0.13374962
201	0xbdd4714f	-0.103731744
202	0x3e0c5bf9	0.1370696
203	0x3df197ac	0.11796507
204	0xbe4098a0	-0.18808222
205	0x3e48cc56	0.19609198
206	0x3e245ace	0.16050264
207	0xbea47f7f	-0.32128522
208	0x3ec11530	0.37711477
209	0x3ea69231	0.3253341
210	0x3e70ce83	0.23516278
211	0xbd1d22e6	-0.03836336
212	0x3e091f3a	0.13390818
213	0xbe51646c	-0.20448464
214	0xbe0383ae	-0.128432
215	0x3e36aa30	0.17838359
216	0x3e2c4bbf	0.1682577
217	0x3e1942a9	0.14966835
218	0xbeb890b3	-0.36047897
219	0x3ea05d3a	0.31321126
220	0xbe21a8e0	-0.15787077
221	0x3ea77933	0.32709655
222	0x3e9f7300	0.31142426
223	0x3e0f747e	0.14009282
224	0x3ec0ccc3	0.3765622
225	0x3e5e3e64	0.21703488
226	0x3e62fdaa	0.22167078
227	0xbe036d31	-0.12834622
228	0x3eb37c26	0.35055655
229	0x3dcae14d	0.09906254
230	0x3e64aca9	0.2233149
231	0xbdaf0609	-0.08546073
232	0x3e8c264e	0.27372974
233	0x3eabab89	0.33529308
234	0xbe944885	-0.28961578
235	0x3e9ea58f	0.30985686
236	0xbe7fc9af	-0.2497928
237	0xbe853b5b	-0.26021847
238	0xbea1b855	-0.31585947
239	0x3ddface8	0.10921651
240	0xbe914c68	-0.28378606
241	0xbe11b17d	-0.14227863
242	0xbe428eab	-0.18999736
243	0x3dcee1e5	0.1010168
244	0xbebdfcfe	-0.3710708
245	0xbe316ee2	-0.17327455
246	0x3b353517	0.0027650052
247	0x3d0b06ca	0.03394202
248	0xbe2ecb73	-0.17069797
249	0x3e0aa92c	0.13541096
250	0xbe7f592b	-0.24936359
251	0xbea3e364	-0.32009423
252	0xbd5c1772	-0.053733297
253	0xbe51400b	-0.20434587
254	0x3e73f61e	0.23824355
255	0xbe8445e7	-0.2583458

modality_encoders.sleep.0.bias f4 [64]
0	0xbcb45c9d	-0.022016818
1	0xbd82272d	-0.063551284
2	0xbadfb97f	-0.0017068832
3	0x3d904dc8	0.070460856
4	0x3d9e6778	0.07734579
5	0x3e077220	0.13227129
6	0x3c28dfd8	0.010307275
7	0x3e3fd512	0.18733624
8	0xbe76e8c2	-0.24112228
9	0x3dcaeac0	0.09908056
10	0x3ddfdf28	0.109312356
11	0xbe2442b2	-0.16041067
12	0xbc54885d	-0.012971965
13	0xbe926445	-0.28592125
14	0xbea9565e	-0.33073705
15	0xb9dae98c	-0.00041754206
16	0xba8ed492	-0.0010897091
17	0xbda6f8bc	-0.08152911
18	0xba999f92	-0.0011720529
19	0xbe95656c	-0.2917894
20	0xbe54bf25	-0.20776041
21	0x3e10d3c3	0.1414328
22	0xbebc537d	-0.36782447
23	0xbab7f8e6	-0.001403597
24	0x3e3da6aa	0.18520609
25	0xba073475	-0.0005157658
26	0x3e3d389e	0.18478629
27	0xbeb04688	-0.3442881
28	0xba3b9b6b	-0.0007156643
29	0xbe081ab4	-0.13291436
30	0xbdd99953	-0.106249474
31	0x3e72ef6a	0.23724142
32	0xbe0387f8	-0.12844837
33	0xbe8a9780	-0.2706871
34	0xbe9b5818	-0.30340648
35	0x3de5d72d	0.11222682
36	0x3dbd2403	0.09235384
37	0x3e9b62c3	0.30348787
38	0x3dca5624	0.09879711
39	0xbeb457c6	-0.35223216
40	0xba48bc75	-0.0007657477
41	0x3e92f8be	0.287054
42	0x3e22f515	0.15913804
43	0xba8ef0df	-0.0010905525
44	0xbe916405	-0.2839662
45	0xbe681475	-0.22664054
46	0x3dc69922	0.096971765
47	0xbe8165b0	-0.25272894
48	0x3c18437b	0.009293432
49	0xbd465a4c	-0.048425958
50	0xba72e5e4	-0.0009265824
51	0xba9025f9	-0.0010997645
52	0xbe936593	-0.28788432
53	0xbe1a4686	-0.15065965
54	0x3dca7342	0.09885265
55	0x3c893cdb	0.016752651
56	0x3d9a55c4	0.0753589
57	0xbe4342b3	-0.19068412
58	0x3e1d62ef	0.15369771
59	0xbda5b361	-0.080908544
60	0xbe0274a8	-0.12739813
61	0xbc4630bd	-0.012096581
62	0xbe0aae16	-0.13542971
63	0xbe1b87b3	-0.15188484

modality_encoders.sleep.3.weight f4 [32, 64]
0	0xbc928790	-0.017886907
1	0xbbe9d7a0	-0.0071363
2	0xbd29fe54	-0.04150231
3	0x3de698a2	0.11259581
4	0xbd3848c1	-0.04499126
5	0x3df2be5d	0.11852715
6	0x3e0e7009	0.13909926
7	0x3d5084f4	0.050908044
8	0xbcef4420	-0.02920729
9	0xbd856ca3	-0.065148614
10	0x3cfaebcf	0.03063002
11	0x3dd1c2e8	0.102422535
12	0x3ddadc66	0.10686569
13	0x3c369ed0	0.011146262
14	0x3d2a3868	0.0415577
15	0x3df54d38	0.11977619
16	0x3d1fb1a1	0.03898776
17	0xbd772d94	-0.0603462
18	0xbdb0ba6a	-0.08629306
19	0x3d5fda1c	0.054651365
20	0x3d47723c	0.048692927
21	0x3e064960	0.13113928
22	0xbd8254ba	-0.063638166
23	0x3da6e5e2	0.081493154
24	0x3d1580eb	0.0364999
25	0x3ce3e975	0.027821282
26	0x3e59edea	0.21282163
27	0xbdeaab68	-0.114584744
28	0x3e11b3c1	0.14228727
29	0x3d6e2164	0.058137313
30	0xbd982550	-0.07428992
31	0x3de51998	0.11186522
32	0xbd00c8d8	-0.03144154
33	0x3c385060	0.011249632
34	0xbd090a88	-0.03345731
35	0xbdba635a	-0.09100981
36	0x3dc0540a	0.09391029
37	0x3ca78a3b	0.020451656
38	0x3dfbf580	0.12302685
39	0xbd7c1d88	-0.0615516
40	0x3caa2472	0.020769332
41	0x3daff3aa	0.08591397
42	0x3d4291ca	0.047502317
43	0xbd606345	-0.05478217
44	0xbd8940ae	-0.0670179
45	0xbca6f220	-0.020379126
46	0x3d8dffb7	0.06933539
47	0x3de3a76e	0.11115919
48	0x3cfdd6d1	0.030986222
49	0x3d37514c	0.044755265
50	0x3de3c745	0.11121992
51	0xbc5f9c22	-0.013648065
52	0xbd29e3e8	-0.041477114
53	0x3da9ce6a	0.082913235
54	0x3e009488	0.1255666
55	0x3dc193d6	0.094520256
56	0xbde8cc3d	-0.1136708
57	0x3d914d58	0.0709483
58	0xbdd88b11	-0.105734
59	0x3d7fe8b8	0.062477797
60	0x3c72b7a0	0.014814287
61	0x3d5ea477	0.054356065
62	0xbdf98914	-0.12184349
63	0xbd3401ac	-0.043946907
64	0x3d5971d4	0.05308707
65	0x3dc50a28	0.09621078
66	0xbcaadb9e	-0.020856675
67	0x3e15f061	0.14642479
68	0x3d6335c9	0.055471215
69	0xbda7db58	-0.081961334
70	0xbd6a0976	-0.05713793
71	0x3d9a5939	0.07536549
72	0xbcb5ffb8	-0.022216663
73	0x3e1c9c14	0.15293914
74	0xbe1f010e	-0.15527746
75	0xbd11a620	-0.03555882
76	0xbdfdb308	-0.12387663
77	0x3dd0f552	0.10203041
78	0xbcc0adc8	-0.023520365
79	0xbdc9ced2	-0.09853901
80	0xbd529776	-0.051413976
81	0xb96f4000	-0.00022816658
82	0x3d7c852e	0.061650448
83	0xbc60ca60	-0.013720125
84	0x3da10a48	0.07863289
85	0xbcaf0636	-0.021365266
86	0xbd193f3c	-0.03741382
87	0xbc3c9d01	-0.011512042
88	0x3d96e500	0.07367897
89	0x3df2e1b3	0.11859455
90	0xbd5eed04	-0.054425254
91	0x3dc4f94c	0.09617862
92	0x3daf28da	0.08552714
93	0xbd854950	-0.06508124
94	0xbc2ff6f0	-0.010740027
95	0xbcf1fd8b	-0.029539844
96	0x3d54fa8c	0.051996753
97	0xbd3400dc	-0.043946132
98	0x3d1c2f80	0.038131237
99	0x3dc1ff3e	0.09472512
100	0xbcad785c	-0.021175556
101	0xbd85655d	-0.06513474
102	0xbd3e5a98	-0.046473116
103	0xbd8f33a0	-0.069922686
104	0x3d1f4f7b	0.038894158
105	0x3e392400	0.18080139
106	0x3dced6c6	0.100995585
107	0xbcd141cf	-0.025544075
108	0xbb6f6280	-0.0036527216
109	0xbde58ad8	-0.11208123
110	0xbd745edc	-0.059660777
111	0x3d3a8a54	0.045542076
112	0x3d9dfa0c	0.07713708
113	0x3de21648	0.11039406
114	0xbdb00be5	-0.08596019
115	0x3e079cb9	0.13243379
116	0xbcabe128	-0.020981386
117	0x3d913b8c	0.07091436
118	0x3e451b08	0.19248593
119	0xbc9345ea	-0.017977674
120	0xbdfecc42	-0.12441303
121	0x3d864790	0.06556618
122	0x3cddbd7c	0.027067892
123	0x3d978898	0.073991
124	0xbda0cc08	-0.07851416
125	0x3e44707f	0.19183539
126	0xbda7c606	-0.08192067
127	0xbd52b1a0	-0.051438928
128	0x3dbf0602	0.09327318
129	0xbd5eeb04	-0.054423347
130	0x3e0c7d21	0.13719608
131	0x3de826ee	0.1133555
132	0x3e1a7cd4	0.1508668
133	0xbe2fcf64	-0.17168957
134	0xbc8f2753	-0.017474806
135	0x3cb49a7e	0.022046324
136	0x3cf3eba8	0.029775456
137	0xbd92e489	-0.07172496
138	0x3c5809a9	0.013185897
139	0xbbc20b00	-0.0059217215
140	0xbd720440	-0.059086084
141	0xbde64c6c	-0.11245045
142	0x3d85e7cc	0.06538352
143	0xbd394ba4	-0.045238152
144	0x3dc1313e	0.0943322
145	0x3cb64968	0.0222518
146	0x3d1db4cc	0.0385025
147	0xbc9b4de8	-0.018958047
148	0xbc8dd938	-0.017315492
149	0xbd6c4143	-0.057679426
150	0xbdddabae	-0.10823761
151	0x3da589f9	0.08082957
152	0xbd5052de	-0.05086028
153	0x3dfdb13c	0.123873204
154	0x3d5f11e1	0.05446041
155	0x3da06046	0.07830863
156	0x3dbdb633	0.09263267
157	0xbd9c9238	-0.076450765
158	0x3dd362c0	0.103215694
159	0xb9f34089	-0.00046396654
160	0xbdc390fc	-0.09549138
161	0x3d510120	0.051026464
162	0x3d90f50e	0.070779905
163	0x3dda29f6	0.10652535
164	0xbd0ab4ea	-0.03386394
165	0xbd9e0b68	-0.07717019
166	0x3e1d13f8	0.15339649
167	0x3dfbd7cc	0.12297019
168	0x3d44c66e	0.0480408
169	0xbd4345b9	-0.047673915
170	0x3e3347db	0.1750788
171	0x3db24c8d	0.08706007
172	0xbd43c5fc	-0.047796234
173	0xbca76228	-0.020432547
174	0x3db7778c	0.08958349
175	0x3dce1356	0.10062282
176	0x3d7aad20	0.06120026
177	0x3dc4213e	0.09576653
178	0xbda2546f	-0.07926261
179	0xbd30618a	-0.04306177
180	0xbd4c8c6c	-0.049938604
181	0x3d850d8e	0.06496726
182	0x3d46c96f	0.048531946
183	0xbde38dad	-0.11111007
184	0xbdb6d9e3	-0.08928277
185	0xbdd0c1aa	-0.101931885
186	0xbe394c8b	-0.18095605
187	0x3de96072	0.113953486
188	0xbd80c5fc	-0.062877625
189	0x3d69aa73	0.05704732
190	0xbce405d8	-0.027834818
191	0xbccf5bf8	-0.025312409
192	0xb8a95000	-8.073449e-05
193	0x3dc7a956	0.09749095
194	0x3da3bebb	0.07995363
195	0x3e0ec39c	0.13941807
196	0x3e03269b	0.12807696
197	0x3e5394f3	0.20662288
198	0xbda04061	-0.07824779
199	0xbcad7ecf	-0.021178631
200	0xbdd091c6	-0.10184054
201	0x3d32b49e	0.04362928
202	0x3d363041	0.044479612
203	0x3cd014a8	0.025400475
204	0x3de55e56	0.11199634
205	0x3d65d6e4	0.05611314
206	0xbdb223ba	-0.086982206
207	0xbda08c78	-0.07839292
208	0x3e091602	0.13387302
209	0x3c4bddc0	0.012443006
210	0x3da0d121	0.07852388
211	0xbd85e5a4	-0.06537941
212	0xbc79c080	-0.0152436495
213	0x3dbf56aa	0.09342702
214	0xbda7fe62	-0.082028165
215	0x3da53410	0.08066571
216	0x3da7d853	0.081955574
217	0xbd17752e	-0.036976986
218	0xbd1ebdbd	-0.038755167
219	0xbcf0be50	-0.029387623
220	0x3d55ac5c	0.052166328
221	0xbd3bcfd4	-0.045852497
222	0x3df4e520	0.119577646
223	0xbd5accf6	-0.053418122
224	0xbd90b0ea	-0.07064994
225	0xbd9b62f2	-0.07587232
226	0x3d0a6f4c	0.033797547
227	0x3e1c09a0	0.15238047
228	0xbda01f40	-0.078184605
229	0x3e36d19d	0.17853399
230	0xbd7167ab	-0.058936756
231	0x3d347458	0.044056267
232	0x3c6b527a	0.014362926
233	0x3d22bb47	0.039729383
234	0xbdcf6aa4	-0.10127762
235	0xbd3bbea4	-0.045836106
236	0xbdd933f8	-0.106056154
237	0x3d5f5f4c	0.05453424
238	0xbc4eba08	-0.0126175955
239	0x3d85e9ee	0.06538759
240	0x3b2f6fad	0.0026769445
241	0xbcfdb600	-0.030970573
242	0x3cda1bd2	0.026624594
243	0x3d8b2701	0.06794549
244	0xbd09fdb0	-0.0336892
245	0x3d9468a6	0.072465226
246	0x3e1be977	0.15225779
247	0x3dc896dc	0.09794399
248	0x3da40fa4	0.08010796
249	0x3d4fc71c	0.050726995
250	0xbb4a63a9	-0.0030882156
251	0xbd0fb384	-0.03508331
252	0x3d475280	0.048662663
253	0x3e1d5d14	0.15367538
254	0xbbda9e20	-0.006671682
255	0x3d805396	0.06265943

modality_encoders.sleep.3.bias f4 [32]
0	0x3e6c71ab	0.23090236
1	0xbd86bcce	-0.065789804
2	0x3e745621	0.2386098
3	0xbe1fc487	-0.15602313
4	0xbcdc73be	-0.026910659
5	0xbdd8ca12	-0.10585417
6	0xbe072b58	-0.13200128
7	0x3c25ca30	0.010119006
8	0xbe2f8e76	-0.17144188
9	0xbe363da9	-0.17796959
10	0x3e8f7621	0.28019813
11	0x3e016a2a	0.12638155
12	0xbe752bc8	-0.23942482
13	0xbd5a5cfa	-0.053311326
14	0x3df3ea66	0.11909942
15	0x3e8999f3	0.26875266
16	0x3e280666	0.16408691
17	0xbdb87d69	-0.09008295
18	0x3e2862dc	0.16443962
19	0x3df53961	0.11973835
20	0xbe086be2	-0.13322404
21	0xbdbbfc1f	-0.09178948
22	0x3d6d3945	0.057915945
23	0x3e62a9cb	0.22135083
24	0x3e4b2d36	0.19841465
25	0x3e1818e7	0.1485325
26	0x3dae0b9e	0.084983096
27	0xbd2c0ad7	-0.042002525
28	0x3d62fb95	0.05541571
29	0x3e82c335	0.25539556
30	0xbdc8a048	-0.09796196
31	0xbdfccb96	-0.123435184

modality_encoders.stress.0.weight f4 [64, 1]
0	0xbe5508b8	-0.20804107
1	0xbf7a450a	-0.97761595
2	0xbf78c2e2	-0.9717237
3	0xbe71c9ec	-0.23612183
4	0x3e91bec4	0.28465855
5	0xbf3d436e	-0.73931015
6	0x3e81863b	0.25297722
7	0x3ed8401a	0.42236406
8	0xbf3a97e8	-0.7288804
9	0x3e8d18ab	0.27557883
10	0x3e584f52	0.21124008
11	0xbf5f20d6	-0.8715948
12	0x3d82fae6	0.06395511
13	0xbf71772e	-0.9432248
14	0x3f14f82e	0.5819119
15	0x3e6b516b	0.22980277
16	0x3ea686fc	0.3252486
17	0x3f0537c0	0.5203819
18	0x3ec24409	0.37942532
19	0x3f3aec4a	0.730168
20	0x3ea56e54	0.32310736
21	0xbf38d394	-0.7219784
22	0x3f313fdf	0.69238085
23	0x3e2e8739	0.17043771
24	0xbec9d490	-0.39419985
25	0xbebe8c68	-0.37216496
26	0x3f12cffc	0.5734861
27	0x3e2577cc	0.1615898
28	0x3ec77f23	0.38964185
29	0x3d9fb900	0.07798958
30	0x3f270398	0.6523986
31	0xbf56f127	-0.8396172
32	0xbd81a466	-0.06330185
33	0x3e3a4a30	0.18192363
34	0xbc3cf600	-0.01153326
35	0x3f37af23	0.7175161
36	0x3dc88a1f	0.097919695
37	0x3d29ddd7	0.04147133
38	0x3e95aa51	0.29231504
39	0xbda1ae80	-0.07894611
40	0xbd8452b0	-0.06461084
41	0xbf6bc40c	-0.9209602
42	0xbce48dd4	-0.02789966
43	0xbeeefd28	-0.46677518
44	0x3e8943ca	0.2680953
45	0x3f200f2a	0.6252314
46	0xbf6ed486	-0.93293035
47	0xbf2aec24	-0.6676657
48	0x3f437ec7	0.7636532
49	0xbeda8874	-0.4268223
50	0x3f167d1d	0.5878466
51	0x3f055f56	0.52098596
52	0xbe44aded	-0.19206972
53	0xbf661117	-0.8986983
54	0x3efacbc3	0.48983583
55	0x3e85988d	0.2609295
56	0x3f1abbbb	0.60442704
57	0x3e272757	0.163236
58	0x3efe56cf	0.49675605
59	0xbf5b8126	-0.8574394
60	0x3e4a2143	0.19739251
61	0x3e7be8d1	0.24600531
62	0x3f086d1e	0.532915
63	0xbf2d2ea8	-0.67649317

modality_encoders.stress.0.bias f4 [64]
0	0xbdf4beb0	-0.11950433
1	0xbf1897c6	-0.5960659
2	0xbf2c4a84	-0.673012
3	0x3ec0a9d5	0.37629572
4	0xbe9bfd7b	-0.30466828
5	0x3fabcf77	1.3422688
6	0xbe0072b9	-0.12543763
7	0xbe680dc6	-0.22661504
8	0xbd1d45e0	-0.038396716
9	0x3e99341c	0.2992257
10	0xbf658d79	-0.89668995
11	0x3fc594c2	1.5436022
12	0x3f1c3aae	0.6102704
13	0x3fd5c01e	1.6699255
14	0xbf5fb46c	-0.87384677
15	0x3f1696a4	0.5882361
16	0xbf5c0e67	-0.85959476
17	0x3ea6d331	0.32583
18	0x3ed97adc	0.42476547
19	0xbe143cae	-0.14476272
20	0x3e87c849	0.26519993
21	0xbf7283a0	-0.94732094
22	0xbf26b652	-0.6512195
23	0xbf30491a	-0.68861544
24	0xbf6e5844	-0.9310343
25	0xbe58d880	-0.21176338
26	0x3e68cafa	0.2273368
27	0xbe496f73	-0.19671421
28	0x3f3bbd08	0.73335314
29	0xbf6671de	-0.900175
30	0x3db7c62b	0.089733444
31	0x3fcbbb1b	1.5916475
32	0x3f4c0736	0.79698503
33	0xbf3b8daf	-0.73263067
34	0xbf672554	-0.90291333
35	0xbee6c868	-0.45074773
36	0x3f2ac9af	0.66713995
37	0x3be516dc	0.0069912504
38	0x3ef5e285	0.48024383
39	0xbf3aecf6	-0.73017824
40	0xbf204d78	-0.6261821
41	0x3fc4e678	1.5382833
42	0x3ea7e360	0.3279066
43	0xbf265182	-0.6496812
44	0x3f2556ce	0.6458558
45	0xbf0bea9d	-0.54654866
46	0xbf54c2ec	-0.8310993
47	0x3f9fead7	1.2493542
48	0xbf43ec2f	-0.7653226
49	0xbef3a658	-0.47587848
50	0xbf75d601	-0.9602967
51	0xbe3d1c2b	-0.18467776
52	0x3f31bed2	0.69431794
53	0x3fd02b7f	1.6263274
54	0xbf1a89a6	-0.60366285
55	0xbf094b8e	-0.5363091
56	0x3f440b3e	0.76579654
57	0xbf72d81d	-0.9486101
58	0xbeb6e144	-0.3571874
59	0xbe44e670	-0.1922853
60	0xbf9210b0	-1.1411343
61	0xbf70917c	-0.9397199
62	0x3f39fb01	0.72648627
63	0x3f8a9ef3	1.0829757

modality_encoders.stress.3.weight f4 [32, 64]
0	0x3cbf5378	0.02335523
1	0x3d4af8dc	0.049553737
2	0x3d9baf96	0.0760185
3	0x3ee92e7a	0.4554327
4	0x3d01ed4b	0.03172044
5	0x3f95abb4	1.1693025
6	0x3c6209b9	0.013796263
7	0x3e0fde0e	0.14049551
8	0xbcab3938	-0.020901307
9	0xbdbe5f96	-0.09295575
10	0x3a39747c	0.00070745475
11	0x3f8e1dd5	1.1102854
12	0xbd3cc25d	-0.046083797
13	0x3f7f1d90	0.99654484
14	0xbda42369	-0.080145665
15	0xbe3a3ff4	-0.18188459
16	0x3cb1c5bf	0.021700738
17	0xbd0af92d	-0.03392904
18	0x3c4ace82	0.012378337
19	0xbe1b5881	-0.1517048
20	0xbe02d57d	-0.12776752
21	0xbdbcfe2c	-0.09228167
22	0xbb3aa5a4	-0.0028480077
23	0x3e79ddc6	0.24401006
24	0xbd447180	-0.047959805
25	0xbd60c7a4	-0.054877892
26	0x3d58fc24	0.052974835
27	0xbe33fe19	-0.175774
28	0xbdb5603d	-0.088562466
29	0xbdd5247a	-0.10407348
30	0x3d24d01c	0.04023753
31	0x3f8dd9ab	1.1082052
32	0xbddf4d86	-0.10903458
33	0x3eeeb20a	0.46620208
34	0x3df26428	0.118355095
35	0xbce56393	-0.028001582
36	0xbe556799	-0.208403
37	0x3c57ecdc	0.01317903
38	0x3d9ad87e	0.07560824
39	0x3dba0a48	0.09083992
40	0xbd28535c	-0.041095123
41	0x3f913cd1	1.1346685
42	0xbe62feef	-0.22167562
43	0x3d0957d4	0.033531025
44	0x3c565631	0.013082073
45	0xbce13026	-0.02748878
46	0xbdcb6bca	-0.099326685
47	0x3f97e727	1.1867417
48	0x3c4b69f9	0.012415403
49	0x3db20ac4	0.0869346
50	0xbcc57811	-0.024105104
51	0xbd38d057	-0.045120563
52	0x3dc1d619	0.09464664
53	0x3f86873b	1.0510019
54	0xbd602be8	-0.054729372
55	0xbc8d9bde	-0.017286237
56	0xbd9edf31	-0.07757414
57	0x3f28795d	0.65810186
58	0xbc698dd6	-0.014255008
59	0x3dc92b8c	0.09822759
60	0x3eab2dfe	0.33433527
61	0x3e9917a3	0.29900846
62	0x3decf9a6	0.11571054
63	0x3f8f999d	1.1218754
64	0xbbb3ce80	-0.005487263
65	0xbc64b9d0	-0.013960317
66	0x3d41a078	0.047272176
67	0x3e437a08	0.1908952
68	0xbd7ca6b0	-0.061682403
69	0x3f7cc985	0.98744994
70	0xbd03bdb2	-0.03216333
71	0x3da9a64c	0.08283672
72	0x3dceeb94	0.10103527
73	0xbe444d87	-0.191702
74	0x3e2f8686	0.1714116
75	0x3fb142d3	1.3848518
76	0xbe86e2bd	-0.26344863
77	0x3fa1121f	1.2583655
78	0x3d3629d9	0.044473503
79	0xbe111db7	-0.14171492
80	0x3e351834	0.17685014
81	0xbdaa68ee	-0.08320795
82	0x3c36d390	0.011158839
83	0xbdcabb1c	-0.098989695
84	0x3d8969bf	0.067096226
85	0xbd5a73e4	-0.05333318
86	0x3ddc7474	0.10764399
87	0x3e32c1d2	0.17456749
88	0xbdd68dde	-0.10476278
89	0x3d497008	0.049179107
90	0x3cf59f57	0.029983206
91	0x3aae5b98	0.0013302444
92	0xbe426838	-0.18985069
93	0xbd0c7154	-0.034287766
94	0xbdb67411	-0.08908857
95	0x3f953325	1.1656233
96	0xbd83cbb7	-0.0643534
97	0x3f2239d9	0.6336952
98	0x3dff8b6a	0.12477763
99	0xbd7dec3a	-0.06199286
100	0xbd57f68b	-0.052725356
101	0x3c681f77	0.014167658
102	0x3ca56b15	0.020192662
103	0xbdfafe2c	-0.12255511
104	0xbdb18e3c	-0.08669707
105	0x3f97fa58	1.1873274
106	0xbd5aab46	-0.053385995
107	0x3d88d060	0.066803694
108	0xbd068d63	-0.03284968
109	0xbd8305f6	-0.06397621
110	0xbde0f2ee	-0.10983835
111	0x3f92046c	1.14076
112	0xbcccad77	-0.024985058
113	0x3c86f970	0.016476363
114	0x3e605e02	0.21910861
115	0xbd4778e7	-0.048699286
116	0x3e229e29	0.15880646
117	0x3fa0d357	1.2564496
118	0xbd863ecc	-0.06554946
119	0xbd26806b	-0.040649813
120	0xbd48d35c	-0.049029693
121	0x3f0d12b9	0.55106694
122	0x3d8c6ce5	0.068567075
123	0x3cd0fa80	0.025510073
124	0x3f19bb96	0.6005186
125	0x3ef8a2a8	0.48561597
126	0x3dd72b1f	0.105062716
127	0x3f93c557	1.1544598
128	0xbda740d0	-0.08166659
129	0xbc05e7e0	-0.008172959
130	0xb9ef2400	-0.00045612454
131	0x3e90ce19	0.2828224
132	0x3e00a1c1	0.12561704
133	0x3f8e9b8e	1.1141222
134	0xbdeadb72	-0.11467637
135	0xbbab8bc0	-0.0052351654
136	0x3c25e170	0.010124549
137	0xbcccebb7	-0.025014741
138	0x3c9fd919	0.0195127
139	0x3fa02dcb	1.2513975
140	0xbd9080d3	-0.07055821
141	0x3f85a1fc	1.0440059
142	0x3d7a307d	0.0610814
143	0xbcb29aeb	-0.021802386
144	0x3de6fce0	0.11278701
145	0xbe0cc867	-0.13748322
146	0x3df84841	0.12123156
147	0xbc8f1044	-0.01746381
148	0xbe06666a	-0.13125005
149	0xbcaaa788	-0.020831838
150	0x3e0d5107	0.1380044
151	0x3c28ffbe	0.01031488
152	0xbc457990	-0.012052909
153	0x3d2cb96c	0.04216902
154	0x3d9fc6bc	0.078015774
155	0xbd1282b1	-0.03576917
156	0xbdd602fc	-0.10449788
157	0xbd56082c	-0.052253887
158	0xbd294a59	-0.04133067
159	0x3f77a606	0.96737707
160	0xbd7aca6c	-0.0612282
161	0xbd3cd2f3	-0.046099614
162	0x3d06fb74	0.032954648
163	0xbe227b07	-0.15867244
164	0xbdb49624	-0.088176996
165	0xbd836ad5	-0.06416861
166	0x3dd21655	0.10258166
167	0xbb249e80	-0.0025118887
168	0xbad81080	-0.001648441
169	0x3f69b218	0.91287374
170	0xbe3a1f13	-0.18175916
171	0x39e53000	0.00043714046
172	0x3df7ad4e	0.12093602
173	0xbdf3c52d	-0.11902843
174	0x3cc87dc8	0.02447404
175	0x3f846229	1.0342456
176	0xbdee10fa	-0.11624332
177	0xbd3c4320	-0.045962453
178	0x3c933c2c	0.017973028
179	0xbe0773fd	-0.1322784
180	0xbe6715b4	-0.22566873
181	0x3f7976a8	0.9744668
182	0x3aa4765f	0.0012547484
183	0x3e0661ea	0.13123289
184	0xbce4e00b	-0.027938863
185	0xbf063d3b	-0.5243718
186	0xbd19a847	-0.037513997
187	0xbdd2463a	-0.10267301
188	0x3ceae85c	0.02867525
189	0x3e0063c9	0.12538065
190	0x3c6f0504	0.014588598
191	0x3f7a0cff	0.9767608
192	0xbdefdd6c	-0.11712155
193	0xbca527c8	-0.02016057
194	0xb99e4000	-0.00030183792
195	0x3e83e7da	0.25762826
196	0x3d8bf49a	0.068337634
197	0x3f925e23	1.1434978
198	0xbe1210ff	-0.14264296
199	0xbd0729a2	-0.03299869
200	0x3dc759aa	0.09733899
201	0x3de5cd41	0.1122079
202	0xbe0701f8	-0.13184345
203	0x3fa065f7	1.2531117
204	0xbd845b17	-0.064626865
205	0x3f9a3450	1.2047215
206	0xbbd02bbc	-0.00635287
207	0x3d3fa0d1	0.046784226
208	0x3d418fa1	0.047256116
209	0xbd861715	-0.06547371
210	0x3de63c68	0.1124199
211	0xbdb7347d	-0.08945558
212	0xbe0b8e4e	-0.13628504
213	0xbd59ae14	-0.05314453
214	0xbc3c7a8e	-0.011503829
215	0x3d8294c7	0.06376033
216	0x3d9dc9b2	0.07704486
217	0xbde8bbfa	-0.11363979
218	0xbd5158fe	-0.05111026
219	0xbd913e6f	-0.070919864
220	0xbd1e1a0c	-0.03859906
221	0xbd8cfb14	-0.06883827
222	0xbde62b0f	-0.112386815
223	0x3f98c600	1.1935425
224	0x3da159e2	0.07878472
225	0xbe6224d9	-0.22084369
226	0xbce67278	-0.028130755
227	0xbe067246	-0.1312953
228	0xbdd3fb5a	-0.10350676
229	0x3c3ce84d	0.011529994
230	0xbd3458ab	-0.044029873
231	0x3dc9822a	0.0983928
232	0x3cea0740	0.02856791
233	0x3f8e90a3	1.113789
234	0xbbae8e46	-0.005327019
235	0x3d8568b2	0.0651411
236	0xbdfa4d46	-0.1222177
237	0xbcc1316d	-0.023583138
238	0xbde8ad2e	-0.113611564
239	0x3f978991	1.1838857
240	0xbd93ca53	-0.07216325
241	0x3dc37830	0.09544408
242	0xbd584f7f	-0.05281019
243	0x3d5bb757	0.053641643
244	0xbe39f112	-0.18158367
245	0x3f9734a6	1.1812942
246	0xbc6a81fc	-0.014313217
247	0xbc8b16e8	-0.016978696
248	0xbc6c691b	-0.014429356
249	0xbf37c28e	-0.7178124
250	0x3d2f9a50	0.042871773
251	0xbde9977a	-0.11405845
252	0xbec4799d	-0.38374034
253	0x3d8b540a	0.068031386
254	0x3e5305be	0.20607659
255	0x3fa010bb	1.2505106

modality_encoders.stress.3.bias f4 [32]
0	0xbe0e730d	-0.13911076
1	0xbe9d02c3	-0.3066617
2	0xbe3826e2	-0.17983583
3	0xbe9610b1	-0.2930961
4	0xbd944bb6	-0.07241003
5	0x3e2e3b79	0.17014875
6	0xbe4a442e	-0.19752571
7	0x3e73f79a	0.23824921
8	0xbe385933	-0.18002777
9	0x3eb0a59b	0.34501347
10	0xbe2a7870	-0.16647506
11	0x3ea5e3d8	0.32400393
12	0x3e844530	0.25834036
13	0xbe906f47	-0.28209898
14	0xbe68ce00	-0.22734833
15	0x3ea810a5	0.328252
16	0xbd39f102	-0.04539586
17	0x3e2293ac	0.15876645
18	0x3e5bc613	0.21462278
19	0x3e0ac772	0.13552645
20	0xbe7f7bac	-0.24949521
21	0xbe72b8d9	-0.23703326
22	0x3e307850	0.17233396
23	0x3ea4ec1d	0.3221139
24	0x3e8415dc	0.25797927
25	0x3e1ec14c	0.15503424
26	0x3e51174a	0.2041904
27	0x3e4a07a6	0.1972948
28	0xbe56bc18	-0.2097019
29	0x3e383345	0.17988308
30	0xbe0ccafe	-0.1374931
31	0xbe83c297	-0.25734398

modality_encoders.weather.0.weight f4 [64, 5]
0	0xbeb89378	-0.3605001
1	0xbdfa3ce3	-0.122186445
2	0xbe956ab7	-0.2918298
3	0x3e183326	0.14863262
4	0x3e97347f	0.2953224
5	0xbf4cc057	-0.7998099
6	0xbf025cb7	-0.5092272
7	0x3db2586c	0.087082714
8	0xc00591ef	-2.087032
9	0x3e7bb663	0.24581294
10	0x3e174881	0.14773752
11	0xbf0cc0e6	-0.5498184
12	0x3c52ddec	0.012870293
13	0xbf2d4eef	-0.6769857
14	0xbd444487	-0.047916915
15	0xbf4f1721	-0.80894667
16	0xbec2da9d	-0.38057414
17	0x3d8c86bf	0.06861638
18	0xbfa2fc1a	-1.2733185
19	0xbed229a1	-0.41047385
20	0xbe87204f	-0.26391837
21	0xbee9e788	-0.45684457
22	0x3d13dc3c	0.036098704
23	0xbfb1888d	-1.3869797
24	0xbf13ba2d	-0.57705957
25	0xbec060df	-0.37573907
26	0xbe81e0fd	-0.25366965
27	0xbe02b140	-0.12762928
28	0xbe97116b	-0.29505476
29	0xbe9bfe19	-0.304673
30	0xbde33843	-0.110947154
31	0xbe82c931	-0.25544122
32	0xbe8abe87	-0.27098486
33	0x3cc5efc2	0.024162177
34	0xbeabf685	-0.33586517
35	0xbe3bf836	-0.18356404
36	0xbdeb2c23	-0.11483028
37	0x3c8c562d	0.017130936
38	0xbefbe102	-0.49195105
39	0xbf03fca3	-0.5155737
40	0xbf0d2498	-0.5513396
41	0xbf0049e7	-0.50112766
42	0x3d5fd302	0.054644592
43	0xbfcd611a	-1.6045258
44	0x3bd845a5	0.006600099
45	0xbebd80c5	-0.37012306
46	0xbeefa80f	-0.46807906
47	0x3d1cff03	0.038329136
48	0xbf0d03e6	-0.55084074
49	0xbecf9dff	-0.4055023
50	0x3e31085f	0.1728835
51	0x3e01298d	0.12613507
52	0xbcba4066	-0.022735786
53	0xbe9397ed	-0.28826848
54	0xbec6b22c	-0.3880781
55	0xbda05c39	-0.0783009
56	0xbd0977af	-0.033561405
57	0xbdbc825f	-0.09204554
58	0xbedf0aa7	-0.43562815
59	0xbe9d0bb5	-0.30672994
60	0xbf019ba1	-0.50628096
61	0x3e0b0f52	0.13580063
62	0x3cb8a9fc	0.022541992
63	0xc0094647	-2.1449144
64	0xbf2f163e	-0.68393314
65	0xbf272826	-0.65295637
66	0x3e9283da	0.2861622
67	0x3ccc440c	0.024934791
68	0xbf57df57	-0.84325165
69	0xbecad617	-0.39616463
70	0x3ef7d6ff	0.48406217
71	0x3e9ad9c0	0.30244255
72	0xbd8a6ee9	-0.06759436
73	0x3f8a154e	1.0787752
74	0x3dfbb731	0.122908
75	0xbf0a7422	-0.54083455
76	0xbeb5a74d	-0.35479203
77	0x3d2c1b5f	0.04201829
78	0xbfa5de7b	-1.2958521
79	0xbea8736b	-0.32900557
80	0xbd51cb7c	-0.05121945
81	0xbce12a0d	-0.027485872
82	0xbc5a541d	-0.013325718
83	0x3e32ca9b	0.174601
84	0xbe8da77e	-0.2766685
85	0xbdab2ec2	-0.08358528
86	0xbf1b3e12	-0.60641587
87	0x3d0382c6	0.032107137
88	0xbf9d0c7c	-1.2269435
89	0x3dc71f7f	0.09722804
90	0xbd75a267	-0.059969332
91	0x3a9f00b5	0.0012130948
92	0x3b7d38ec	0.0038638664
93	0xbe4cc599	-0.19997253
94	0xbea44e1c	-0.32090843
95	0xbf484f43	-0.78245944
96	0x3c87be1f	0.016570149
97	0x3d343745	0.04399802
98	0xbf9af65f	-1.2106436
99	0xbe8c4378	-0.27395225
100	0xbf1b3a27	-0.6063561
101	0xbeb6d591	-0.35709813
102	0x3d938a91	0.07204164
103	0xbffc6792	-1.9719107
104	0xbedfbe51	-0.43699887
105	0xbd97696d	-0.07393155
106	0xbe857f58	-0.26073718
107	0xbe97391b	-0.29535756
108	0xbe0397ca	-0.12850872
109	0xbc8cf8e8	-0.017208531
110	0xbdc5f041	-0.096649654
111	0xbdf1f882	-0.11814977
112	0x3c1569e4	0.009119485
113	0xbebec6d0	-0.37261057
114	0xbea09d09	-0.31369808
115	0xbb3f126f	-0.0029155274
116	0xbc69f34b	-0.014279197
117	0xbeadc92e	-0.3394255
118	0x3d2e9fdd	0.042632926
119	0xbdd629f4	-0.10457221
120	0xbef13257	-0.4710872
121	0x3e1f0282	0.155283
122	0x3ca35b9d	0.019941146
123	0xbf267a97	-0.6503081
124	0x3ce87caf	0.028379766
125	0xbe8492dc	-0.25893295
126	0x3e0428b7	0.12906156
127	0xbd65c9b1	-0.05610055
128	0x3e1fd119	0.15607108
129	0x3e869dc5	0.26292244
130	0xbe184deb	-0.14873473
131	0x3e9b5f54	0.30346167
132	0xbc285d55	-0.010276158
133	0xbe0530dd	-0.13006921
134	0x3e815a12	0.2526403
135	0x3d68cdc3	0.056836855
136	0xbebfa512	-0.37430626
137	0x3c4c73ba	0.012478763
138	0xbf36bd3b	-0.7138249
139	0xbee17e61	-0.44041732
140	0xbf08ff12	-0.53514206
141	0xbe805bbb	-0.25069985
142	0x3d1ad52e	0.03780096
143	0xbf7bd34d	-0.98369294
144	0xbe4e1832	-0.20126417
145	0xbe4c3003	-0.1994019
146	0xbed01b24	-0.40645707
147	0x3cfa38b1	0.03054461
148	0xbe9c8290	-0.3056836
149	0x3d802275	0.06256572
150	0x3ea9cd1a	0.33164293
151	0xbe27da50	-0.16391873
152	0xbca973a6	-0.020685028
153	0xbeba5299	-0.36391142
154	0xbeb0e0fc	-0.3454665
155	0xbdcd2357	-0.10016506
156	0x3e8b5c6a	0.27218944
157	0xbed61faf	-0.41821048
158	0xbe72b32d	-0.23701163
159	0x3e6b2f3f	0.22967242
160	0x3e6ed3a9	0.2332293
161	0xbdea35df	-0.11436056
162	0xbdcfe77a	-0.101515725
163	0xbd7ee398	-0.06222877
164	0x3ea5cb9e	0.3238191
165	0x3e304219	0.17212714
166	0xbe9e9c85	-0.3097879
167	0x3a1d82e7	0.00060085807
168	0xbf4ddb50	-0.8041277
169	0xbf151c2f	-0.5824613
170	0xbd27a0f0	-0.040924966
171	0xbe1925a3	-0.14955764
172	0xbe5811cb	-0.21100537
173	0x3ebc2b3e	0.3675174
174	0x3e63efd8	0.22259462
175	0x3cf8ea41	0.030385138
176	0xbe0b10a2	-0.13580564
177	0x3b288cb1	0.0025718624
178	0x3ebe6063	0.37182912
179	0xbdb35e02	-0.08758165
180	0xbe928595	-0.2861754
181	0xbde93db6	-0.113887236
182	0x3cbf7a5b	0.023373773
183	0xbeb32e9c	-0.34996498
184	0xbf1ec502	-0.6201936
185	0xbdad3d89	-0.084590025
186	0xbd0f0ab5	-0.03492232
187	0x3bbc9a26	0.0057556806
188	0xc00b26f6	-2.174253
189	0x3da1e344	0.079046756
190	0xbd18381e	-0.037162893
191	0xbe09030d	-0.1338007
192	0x3c1172f2	0.008877503
193	0xbf4fd12a	-0.81178534
194	0xbf1743af	-0.5908765
195	0xbf186a05	-0.5953677
196	0xbf3d40ef	-0.73927206
197	0x3d903379	0.07041068
198	0xbf5dd92b	-0.866595
199	0xbdbb9e5d	-0.09161065
200	0xbf438c57	-0.76386017
201	0xbeffe9dc	-0.49983108
202	0x3d8d2227	0.0689128
203	0xc0034005	-2.0507824
204	0x3db3f204	0.08786395
205	0x3bb6195a	0.0055572214
206	0xbf2f722b	-0.6853358
207	0x3d00e46d	0.031467844
208	0xbf8f1e2f	-1.1181086
209	0xbefd22f1	-0.4944072
210	0xbe1c78b6	-0.15280423
211	0xbd94c315	-0.072637714
212	0x3c674060	0.014114469
213	0xbe8928ea	-0.26789027
214	0xbf4d42bf	-0.8017997
215	0xbe895328	-0.26821256
216	0xbf256760	-0.6461086
217	0x3d3bf7ea	0.045890726
218	0xbf1b1539	-0.6057926
219	0x3d219efa	0.039458252
220	0x3dcf0aff	0.10109519
221	0x3e9a8cbe	0.30185503
222	0xbcdc8927	-0.026920868
223	0xbebaba6b	-0.3647035
224	0xbeaea09b	-0.34106907
225	0xbed7f1aa	-0.42176563
226	0xbf3cebaf	-0.73797125
227	0x3d79deb2	0.061003394
228	0xbf83b72c	-1.0290275
229	0xbf3e963a	-0.7444798
230	0x3edefd7d	0.4355277
231	0xbe92cf8f	-0.2867398
232	0xbe4c6b5b	-0.19962828
233	0x3bf719ea	0.007540931
234	0x3e1208b5	0.14261134
235	0xbe242c6c	-0.1603257
236	0x3e7520ca	0.2393829
237	0xbe929532	-0.28629452
238	0x3db1d27c	0.08682725
239	0xbee14741	-0.43999675
240	0xbf47548d	-0.7786339
241	0xbc9f86d5	-0.019473473
242	0x3d810398	0.062995136
243	0xc0069393	-2.1027572
244	0x3ddc06fe	0.10743521
245	0xbe956030	-0.29174948
246	0x3e311c83	0.17296033
247	0x3aaf8ec9	0.0013393994
248	0xbfb758c9	-1.432397
249	0xbde0cc44	-0.109764606
250	0xbf6b8de7	-0.920134
251	0xbdf11efd	-0.11773489
252	0x3d7b0b20	0.061289907
253	0xbe5b5364	-0.2141853
254	0xbeee0498	-0.4648788
255	0xbee0a343	-0.4387456
