results/migraine/fold5_model.pth (torch, 625050 bytes, 44 tensors)

modality_encoders.eeg.0.weight f4 [64, 6]
00000000: 16d9 2d3d 109e 5ebe 0992 c6bd 0270 02bf
00000010: 884e db3d 19ed 073f 5c7f c3be a818 cfbd
00000020: 8e90 bcbd 2f31 1a3e 3caf 26bd 1eea 003e
00000030: 4fc6 48bd 0911 703d 209b 473e dc03 b63e
00000040: ef2b 98be 225c 253d 8131 aebe e426 413e
00000050: 395f e4be 0f1c 1dbe 2f24 883c aca5 503e
00000060: 7027 3ebe 32ce 91be 83cd 8ebd b678 77be
00000070: e055 8c3d 0f22 c13d 38a0 d33c d174 073c
00000080: 3cf3 e23e aacc ba3e 231b 61bd 52f6 ce3e
00000090: 4b0f 153d e1dd 90be fbbc 8d3d d6fb 90be
000000a0: 8320 af3d 0630 9dbe 0edd 733e 74a5 b5bd
000000b0: 2907 55be eebb 31be 133e e43a d414 44be
000000c0: 79cb 173d ffb0 26be fb52 75be 25b7 e6bd
000000d0: 7125 72bd 895b f23b 784a 883e ecf1 f5be
000000e0: d2a9 32bd b56a 753e 60b2 be3d be51 bdbd
000000f0: d010 293e fae6 fe3d 059f f0be 9b02 96be
00000100: 5c5d 6c3d 3b9e c23d 1004 e03b c3d0 003d
00000110: 9178 cc3a d88a e43d 96bf d03d 22d8 033e
00000120: 9c58 53be c368 a63e 4ec4 c13e e3f8 523e
00000130: fc88 82bd d033 883e b12f 3f3e bb09 1d3e
00000140: 6b64 953d bfc8 aabe adf4 97bd 9787 093f
00000150: 6f1d df3d 1409 25be 7b6e 98be 2292 cbbe
00000160: 65a3 9c3d 91da 993d 4297 50be dd5c b7be
00000170: 07dc 9bbe 0c62 733d c0a1 463e 503c 2e3e
00000180: e62d 12bd 3463 50be 0eec 82be 72a6 b03e
00000190: 38c2 af3d 77fc c13e be96 183e 28bc ca3c
000001a0: f4df b4be 6afa 60be f308 203d 2ddf 18be
000001b0: 0670 973e 221e dbbb 3eaf 56be e21d ccbe
000001c0: 23ca 1ebe 7f30 15bd 7f23 2dbc d0de d83d
000001d0: 012e 5dbe b99d a5be b845 ad3d 45ed a3bd
000001e0: 9f18 003e fadc 97bc 96df 9dbe 5534 97be
000001f0: 4181 c5be 640b 29bd c170 c9be 3822 0cbe
00000200: cff2 063f 041a 023e a394 1f3d 701f ad3f
00000210: a8c4 06be a200 9b3e 6a58 ecbe 6412 0ebd
00000220: 6032 e2bd 0307 d8be 2378 7cbd 7aa6 a2be
00000230: a5ff 5abe 8f1d 72be 7439 8cbe 4c7c b7be
00000240: 5cbd bf3e 95ff 1b3e debb 6e3e c37b aebe
00000250: d61c ebbd a558 343f 8254 6cbd 48bd 9cbe
00000260: 03f5 b4be 0bbb 6c3e 75e1 6d3e 2cf5 7b3e
00000270: ac72 fcbe 6294 3cbe c753 f53d b42f 67be
00000280: 4521 e93d bd9a 343f 4a72 e03d e717 62be
00000290: f272 d6bd 8056 3e3e 4cc4 253d 4ea9 adbe
000002a0: c8d3 63bc 9172 243c 16b8 813e ac6c a6be
000002b0: 4c6e 82be bb5e 97be ba38 b33e 298d 97be
000002c0: 1880 ea3e 1c93 da3d b469 a13d 9cf4 a73e
000002d0: 49f5 be3e da54 fb3c aa39 453e c529 7abe
000002e0: 84a4 cebe 97ef 803c 61b4 56bd 0cc4 a33e
000002f0: 3584 e63d 4095 463d 432c 80be 6242 a8bd
00000300: 9df6 e23d 5bd7 c3be 51c6 05be f5a9 e5bd
00000310: afcf 64be 5b41 c13e fc03 863e 849c 76be
00000320: 9055 993e 85a4 993e b9de c7bd ee00 61be
00000330: a769 393d ab9f 923e 7d47 66be 38fd ac3d
00000340: b639 cabe 87c5 32be 34e5 13bd 745c c5bd
00000350: e8f9 cb3e deb6 403d 61eb 4abe 1360 e1bd
00000360: c895 bcbe 7dfb c6bc 70a8 58be 7ff2 183e
00000370: 980b 8cbe 1d12 9a3e d271 92be 9ead 51be
00000380: c440 153f d2a7 50bd 0521 433d dffd e43f
00000390: c79a cdbe 76f3 90be c7f3 95bd 1e7d 2cbc
000003a0: 420c 453e a1f0 8e3e 4efa 7a3e bdb8 b43d
000003b0: 7b73 c43e 9bd7 093e 3f7b 12be 092e f33e
000003c0: a612 3cbe 74e8 78be 3479 2cbe 7d08 813e
000003d0: 2dd5 92be d61e cfbe 23cc afbe e1af c03d
000003e0: 2a52 10be 8e4f a83e 8723 d83b 6e56 cc3e
000003f0: 5eac ffbd 46ef 8bbe b282 d33e 1bbe 173e
0.042443357 -0.21739984 -0.09695823 -0.5095216 0.10708338 0.5309616 -0.38183105 -0.10112125
-0.09207259 0.15057825 -0.04069446 0.12589309 -0.049017247 0.058609996 0.19492769 0.3554982
-0.2972102 0.040371068 -0.34022143 0.18862492 -0.446039 -0.15342735 0.016618816 0.20375699
-0.18569732 -0.28477627 -0.06972792 -0.24167141 0.06852317 0.09430324 0.025833234 0.008267597
0.44326198 0.3648427 -0.05495752 0.40422302 0.036391538 -0.2829428 0.06920811 -0.28317136
0.08551123 -0.307007 0.23814794 -0.08869448 -0.20803513 -0.17356846 0.0017413519 -0.1914857
0.03705928 -0.16278456 -0.23957436 -0.11265401 -0.05911774 0.0073961657 0.26619315 -0.48036134
-0.043618985 0.23966487 0.09311366 -0.09244107 0.1651032 0.12446399 -0.46996322 -0.29298863
0.057706222 0.09502836 0.006836422 0.03144909 0.0015599896 0.11159295 0.10192792 0.12875417
-0.2063927 0.32501802 0.3784508 0.20602755 -0.06373784 0.2660203 0.18670537 0.15335743
0.07294544 -0.33356282 -0.07419715 0.5372252 0.10894286 -0.16116744 -0.2977179 -0.39759928
0.076483525 0.07512391 -0.203702 -0.35813037 -0.30441305 0.059419677 0.1939764 0.17015195
-0.035688303 -0.20350343 -0.2557072 0.34501988 0.08581966 0.37887928 0.14901254 0.024747923
-0.35327113 -0.21970525 0.039071035 -0.14928885 0.29577655 -0.0066869417 -0.20965287 -0.3986655
-0.15506797 -0.036423203 -0.010567545 0.10589373 -0.2159958 -0.32346895 0.084605634 -0.0800424
0.12509392 -0.018537987 -0.30834645 -0.29532114 -0.38575175 -0.04127063 -0.39343837 -0.13684928
0.52714247 0.12705237 0.03896011 1.3525219 -0.13160956 0.3027392 -0.46161205 -0.034685507
-0.110447645 -0.4219285 -0.06163801 -0.31767637 -0.21386583 -0.23644088 -0.27387583 -0.35837018
0.37449157 0.15234216 0.23313853 -0.34078798 -0.114801094 0.7044776 -0.05769778 -0.3061316
-0.3534318 0.23118226 0.23230536 0.24605244 -0.49306238 -0.18415979 0.1197887 -0.22576791
0.11383299 0.7054861 0.10959299 -0.2207943 -0.10471143 0.18587685 0.040470406 -0.33918232
-0.013905473 0.01003708 0.2533576 -0.32504785 -0.25474775 -0.2956446 0.35004216 -0.29599884
0.45800853 0.1067259 0.078814894 0.3280381 0.37296513 0.030680109 0.19260278 -0.24429996
-0.4035989 0.015739245 -0.052418116 0.3198551 0.11255685 0.04848218 -0.2503377 -0.082157865
0.11082194 -0.3825024 -0.13063933 -0.11214057 -0.2234485 0.37745175 0.26174915 -0.24083143
0.29948092 0.3000833 -0.09759278 -0.21973011 0.045266774 0.28637442 -0.22488208 0.08446735
-0.39497155 -0.17458163 -0.036107257 -0.09636775 0.398391 0.047049396 -0.19816352 -0.11004653
-0.36833024 -0.02428984 -0.21158004 0.14936255 -0.27352595 0.30091944 -0.28602463 -0.20476386
0.5830195 -0.050941296 0.04763891 1.7889975 -0.40157148 -0.28310746 -0.073218875 -0.010527877
0.19242957 0.2791796 0.24509546 0.088242985 0.38369355 0.13461153 -0.14304827 0.4749606
-0.18366489 -0.24307424 -0.1684311 0.2520179 -0.28678265 -0.40453213 -0.3433543 0.09408546
-0.14093843 0.32873195 0.006596032 0.3990969 -0.12484048 -0.2733099 0.4131065 0.14818613

modality_encoders.eeg.0.bias f4 [64]
00000000: 08c9 0abf 7e14 15bb a098 ef3d 9f14 783e
00000010: f7cb cfbe fc62 0f3d 6e9a d8bd 6082 2dbe
00000020: 4f7b b63d 4e46 9bbe 0496 f8bc d37c 7f3e
00000030: 69d8 823e 97cd 663e 660e 3fbb c54f 1b3d
00000040: da05 62bc 3086 23be 5be6 90ba 6f4e 193e
00000050: 9f57 8c3d dc0f deba 2677 25bb 039c 73ba
00000060: 449d 8bbe 1396 27be b04b 5bba 8b97 81ba
00000070: 80fc 9bbe 5c00 b93d 353c 67be b12c dcbd
00000080: b790 75be 22d9 84ba 39ff 0bbb 8aa5 c8ba
00000090: 04ed 2fbc ab6c 92bc e9c5 01bf efdb e9bc
000000a0: 5599 51ba 46d0 03be 59bd 80bd 80d5 b5b9
000000b0: 8cf7 30ba 996c 2cbb 87c3 84be 3c9f 353e
000000c0: 3a7a cfbd 7f98 49be b249 abbe 660c 49be
000000d0: d223 a2be 3d60 a6bd 62d7 98ba 5e38 63bb
000000e0: 207e cb3d 2bd9 3ebe 7edc beba 6ba2 1bbe
000000f0: 4a9d 343e 8ec5 a73e dcc3 5abe f1ad d0bd
-0.54213 -0.002274781 0.11699033 0.24226616 -0.405853 0.03500651 -0.1057633 -0.16944265
0.08910238 -0.30327076 -0.03034497 0.2494996 0.25555733 0.22539364 -0.002915287 0.03791787
-0.01379534 -0.15969157 -0.0011054979 0.14971326 0.0685265 -0.0016941982 -0.002524802 -0.0009292962
-0.27268422 -0.16365843 -0.00083654653 -0.0009887082 -0.3046608 0.09033272 -0.22581561 -0.10750712
-0.23980986 -0.0010135511 -0.0021361841 -0.0015308124 -0.010737661 -0.017874083 -0.5069261 -0.028547255
-0.00079955655 -0.12872419 -0.06286115 -0.0003468208 -0.00067507545 -0.0026309846 -0.25930426 0.17736524
-0.10130735 -0.19687079 -0.33454663 -0.19633636 -0.31667954 -0.08123825 -0.0011660869 -0.0034671049
0.09936166 -0.1863753 -0.0014561561 -0.15198676 0.17638126 0.3276791 -0.21363777 -0.10189427

modality_encoders.eeg.3.weight f4 [32, 64]
00000000: 82c6 25bd d71f 39bc 728f c9bd 406b a8bd
00000010: 98fc f53d 7abd b4bd 9b33 183d 5d00 fa3d
00000020: 8fbe 1d3d 2afc 9b3c b3f6 b03c e6b1 6dbd
00000030: 31eb 583e 4a91 a53c 0a46 9e3c 529a 293e
00000040: a218 bb3d 9dbe 5abd f71b dd3d 94d6 9abd
00000050: c9a8 debc 3ff7 093d 61c4 50bd ccba b1bd
00000060: c421 aa3b e031 20be cc76 58bd 26ae fdbc
00000070: 7001 c93d 5991 93bd 4cdb 4dbd 6110 793c
00000080: 8ab2 b13d 4a18 fabb 9cee e3bc 4678 30bc
00000090: ded2 ce3d f909 9abd f07a 71bd ce87 40be
000000a0: 4b40 983d 68d1 fd3d f382 8c3d f2ff 92bc
000000b0: 8357 a5bb 8b0e d33d e0b9 223c 55c2 a53b
000000c0: a4f0 a83d 2b44 81bc f600 6c3c 445b 58bd
000000d0: 9500 3b3d 4067 e8bb 94bf 283d f642 b83d
000000e0: f6c4 1f3e 0c6c be3d 168f 773d 8209 a1bd
000000f0: 8df2 8c3d 22a8 4f3b 24a2 003d 8e0c a5bd
00000100: 95dc 253e fcd5 263d 5c42 83bc c48c 483e
00000110: dc25 243d d830 a93d b016 e4bc 5e50 8f3d
00000120: ac12 063d 4b7e 6ebd eba2 53bd cfa7 6a3c
00000130: 287b 1ebe 7569 1abc 13a1 a5bd 71d8 e9bc
00000140: c829 533d eb59 e1bd 2fa0 bc3c 6f8e 233e
00000150: 2037 3f3e 6631 d3bd 7c30 90bc 5433 483d
00000160: 0a0f 693d 0958 d7bd fc0f 813d bbda bbbd
00000170: c0fe 59bd 5b12 3d3b ae1f 9d3d 0c4d 683c
00000180: 8877 b63c 5440 4c3d b668 f9bc bb2e 94bc
00000190: 8df1 903d 4edd 573d 9563 c5bc 1991 ae3d
000001a0: 0a6a c9bd 0090 b63d 2d09 d1bd dea8 04bd
000001b0: 9772 113e 55ad c03d 8c3d 2fbd e897 f43d
000001c0: 7ccf 12bd 006f 72bd 5f8d f33c 8c9a f1bd
000001d0: 5469 ce3d 60e9 fe3d a24a bdbc 99b7 15be
000001e0: 413f 143e e392 ffbd e94f c43d 00a6 1dbd
000001f0: 64d9 c4bd 3c89 be3d b0c1 6a3d 43f3 b53d
00000200: 0ddd 10bd 2a18 5f3b 393f 413e b02c 973d
00000210: b01a 793c dd67 1cbc 0c34 c43d 9197 873c
00000220: cbbb 903c 62ee d9bc a834 b33c 360a 19bd
00000230: c055 123d 8353 53bc 2c6a bdbc 82a6 ecbc
00000240: 48cf a43d d2d8 1cbe 3933 babd a4d8 dc3d
00000250: 4f17 563b 7ada a53e 5176 533d 300f ecbc
00000260: 3ba3 92bd 98cb b13d 7266 b13c 4cd8 463d
00000270: 421c c63d 251c cdbd 34b9 b8bd 891e 5dbb
00000280: 58e6 b83d d3ab 09bd 1f79 acbd 0a04 133d
00000290: 9707 983d 3f4d 963d 596a e63d eb98 90bc
000002a0: a282 f8bc 2027 273c 660f dcbd 693e 06bd
000002b0: 51fb 0f3e 8d1a 9a3d 78d6 8c3c 0482 7d3c
000002c0: 80cd a4bb 6a82 16bb 94c8 9f3c f665 d5bd
000002d0: d8b7 c83c 24ec 0a3d 10ce b53d c4f9 0fbd
000002e0: d8f5 5fbd f60a aabd 43af 90bc c0ea 03bd
000002f0: 2de9 033e 95d2 2bbe a037 053d 1917 143b
00000300: 78b6 88bd 3fc0 a03d 876c 68bd 74ae 383d
00000310: 58e1 983d cce3 15be 75eb 123e 15cb 6ebd
00000320: fb57 123e 675f ef3d 638c d4bd 4a52 87bd
00000330: 5942 ccbc 9058 c0bd 2452 953c 5351 4fbe
00000340: 082c 9ebb ffa0 043e 2ed1 983c be0d 203e
00000350: bc72 c9bc 84bf fdbd 5bbc 69bd 48c2 493d
00000360: 1d73 ebbc 55e4 1a3e 746f adbc f7b4 313b
00000370: e087 81bd 61f7 a9bb f867 d5bd 47cc 2cbd
00000380: ba39 a33d 6e2e 1b3d f695 8f3c 6eee 2d3d
00000390: 9b4e 633d 52ab 89be 96ac f2bc 6a89 783d
000003a0: 2222 003d 8457 aebd f201 0abe 7035 043d
000003b0: afaf 083e 85ae af3d 90e9 11bc b796 a43d
000003c0: 8a57 f0bd b657 b7bd 4218 603d 2e57 a93d
000003d0: 4ae5 02be 3087 5bbd c511 ab3c 6e05 8c3d
000003e0: 9383 98bd 84bb 813e 518b 8ebd ae07 a73d
000003f0: 48f6 703d 085b bebd 70da 093d 070e debd
-0.040472515 -0.011299095 -0.09841813 -0.08223581 0.12011069 -0.08825202 0.03715859 0.122071005
0.03851181 0.01904114 0.02160201 -0.058030985 0.21183468 0.02021088 0.019320507 0.16562775
0.09135558 -0.05340444 0.107963495 -0.07560459 -0.027180092 0.033683058 -0.05096853 -0.08678207
0.0051920135 -0.15644026 -0.05284767 -0.03096683 0.09814727 -0.07205457 -0.050257966 0.015201659
0.08676632 -0.00763229 -0.027823739 -0.010770863 0.100988135 -0.075214334 -0.058955133 -0.18801805
0.07434138 0.12393457 0.06860914 -0.01794431 -0.0050458326 0.10305508 0.009932011 0.0050585666
0.082490236 -0.015779575 0.014404526 -0.052821413 0.045654852 -0.0070923865 0.04119833 0.08997147
0.15602478 0.09297952 0.06043919 -0.078631416 0.068822004 0.0031685908 0.03140463 -0.08059035
0.16197427 0.040731415 -0.016022854 0.19584948 0.040075168 0.08261269 -0.02784285 0.06997751
0.03273265 -0.05822591 -0.051669043 0.014322235 -0.15476668 -0.009424557 -0.08087363 -0.02854559
0.051553518 -0.110034786 0.0230256 0.15972303 0.18673372 -0.103121564 -0.017601244 0.048877075
0.056899108 -0.10514838 0.06301877 -0.09172579 -0.053221464 0.0028850052 0.07672058 0.014178526
0.022273794 0.049866036 -0.030445438 -0.01808869 0.07077322 0.052701287 -0.024095336 0.08523769
-0.098346785 0.089141846 -0.10206828 -0.032387607 0.14203869 0.094080605 -0.042783305 0.11943036
-0.035842404 -0.05918789 0.029730497 -0.117970556 0.100786835 0.124468565 -0.023106877 -0.14620818
0.14477254 -0.12479188 0.09585554 -0.038488388 -0.096117765 0.09303519 0.05731362 0.08884289
-0.03536706 0.0034041503 0.18871774 0.0738157 0.015204117 -0.009546247 0.0958024 0.016551765
0.017667672 -0.026602928 0.021875694 -0.037363254 0.03572631 -0.012898329 -0.023121916 -0.02888799
0.08047348 -0.15317085 -0.09091801 0.107835084 0.0032667702 0.32393247 0.051626507 -0.028815836
-0.0716004 0.086814106 0.021655295 0.04854612 0.096733585 -0.10015134 -0.090197 -0.0033740124
0.090283096 -0.03361113 -0.084215395 0.035892524 0.07423323 0.07338952 0.11250753 -0.017651042
-0.030335728 0.010202199 -0.107451245 -0.032774363 0.14060713 0.075245954 0.01719211 0.015472893
-0.0050293803 -0.0022965916 0.019504823 -0.10419838 0.024501726 0.033916607 0.08877194 -0.035150304
-0.054677814 -0.08302872 -0.017661696 -0.032206297 0.12881918 -0.1677955 0.03252375 0.0022596775
-0.06675428 0.07849168 -0.056744125 0.045088246 0.07464856 -0.14637679 0.14347632 -0.058299143
0.14291374 0.116881184 -0.10378339 -0.06607492 -0.02493398 -0.09391892 0.018227644 -0.20245866
-0.0048270263 0.1295204 0.018654432 0.15630242 -0.024590842 -0.12390044 -0.057064395 0.049257547
-0.028741414 0.15126164 -0.021171309 0.002711592 -0.06324744 -0.0051869606 -0.10420221 -0.042187
0.07969995 0.037886076 0.017527562 0.042463712 0.055494886 -0.2688852 -0.029623311 0.060677923
0.03128255 -0.08512786 -0.13477305 0.032277524 0.13348268 0.08578209 -0.008905783 0.08036559
-0.11735447 -0.089522764 0.054710634 0.08268581 -0.1278278 -0.05359572 0.020882497 0.06836973
-0.07446971 0.25338376 -0.06960166 0.08155762 0.058828622 -0.092947066 0.033655584 -0.10842519

modality_encoders.eeg.3.bias f4 [32]
00000000: 493f 8d3d 1f04 04be 1941 0b3d c9f7 22be
00000010: d5e3 30be 1600 89be b4cb 6abd b3ad 0f3d
00000020: 8876 b7bd dfed 05be 8b1b d8bc 8b4f f93c
00000030: 1653 92bd 1129 273e 9c18 68bd d73c babd
00000040: 42e3 fb3d 9fe1 013d d351 663d 8070 1ebd
00000050: a30e c93d 8c07 ccbc 1dec c43c dbae 94bd
00000060: 2e7e 4e3b 054f 193d ccae dabd afeb b83c
00000070: a099 5dbd a43f 383e ec07 80be 49ab 67be
0.06896836 -0.12892197 0.03399763 -0.15914835 -0.17274411 -0.26757878 -0.057323173 0.03507776
-0.08958155 -0.13079022 -0.026380321 0.030433437 -0.07144754 0.1632426 -0.056664094 -0.090936355
0.12299205 0.03170931 0.056230377 -0.038681507 0.09817245 -0.024905942 0.024038369 -0.072599135
0.0031508314 0.037428875 -0.10677871 0.02257332 -0.054101586 0.17993027 -0.25006044 -0.22623934

modality_encoders.sleep.0.weight f4 [64, 7]
00000000: f9ed 13be e4e3 9dbe b1f0 1dbe 598f a63e
00000010: 3bde a43e fe11 6bbd 99ed 65be 27f4 2cbe
00000020: bab7 63bc 6149 123d 3f60 833d 05d5 f7bd
00000030: 5518 513e 2899 93be 2488 90be 6bd4 55be
00000040: 3288 2fbd b1d7 a4be d04f ddbd de2a fe3d
00000050: e90c be3c d606 3a3e 6baa 6ebe 6738 71bd
00000060: d5ac a4be 2a1a a6be 7e82 b63e 9d44 c23d
00000070: 280a a3be 016f 893e e117 233e 07a4 683e
00000080: d028 ac3e 3d65 6d3e 5dad 0b3e 5ad3 bfbe
00000090: e8bb c63d 7126 88bd d5db 11be 0b4d 813e
000000a0: 4915 5ebe 3909 8bbe b85e 70be e711 07be
000000b0: 1331 3b3e 7dc4 bf3e 4ada fc3c 3701 c8bd
000000c0: 833e b0be 3e11 14be 4f07 9fb8 5e42 3bbe
000000d0: 0ebe 41be 7d33 71bd 948a 953d 7f89 c23d
000000e0: e201 b9be 7691 a13e a335 4e3e 2a2a 383e
000000f0: 0592 83bc 9d35 773c 83f3 21be 2a82 a5be
00000100: d892 93be ccae 64be 551f 0d3e faad 03be
00000110: 988f b4be 2206 5d3e 2a56 2ebe ff80 a43e
00000120: d27c af3e 23f9 cdbd 4979 b9be 8a3c aa3e
00000130: a03a a73e 82ac fa3c 1d69 be3e 6133 b53e
00000140: ddd1 ac3e 452f 82be d954 0cbe 18c2 94bc
00000150: 83d8 b33c 290b a33e 2fe4 d8bd af7f 773e
00000160: e834 fdba 4f3b f53d 66b8 4fbe 8d24 b33e
00000170: 5492 8abe ddb8 953e 535d 6f3e 68f1 c0be
00000180: dd33 36be 9b95 86be bc70 083e 118d a9be
00000190: 0c84 0bbe 739d a4be e933 d73d 382c a8be
000001a0: e74b 773e fcc6 b1bd 7995 ddbc 1ef4 b7be
000001b0: 71d5 09bd d5f5 4a3c c916 503d f58d 8ebd
000001c0: a0f9 983e 948a 92bd 6d9d 783e 50b4 513e
000001d0: 591e f4bc c29d c0be 51ca 54bc a1d5 023e
000001e0: fa7e 973e 5fa4 b6be d287 43bd a353 563d
000001f0: 19d0 bf3e 70b2 a8be 3b45 b1be 0a41 b03e
00000200: 95f2 553e 8039 98be dbef 7c3e 255e 18be
00000210: 370e b23e f660 73be 562a 93be c709 393e
00000220: 86f5 e13d f85d bf3e 3783 733e e128 b13d
00000230: e6d1 b6bd 71d0 023e 6c0c 81be 99d0 84be
00000240: 1c7b ac3e 607d 183e 0980 303e 5774 11be
00000250: 3955 f6bd bc15 9abe 5180 c13e d94a ac3d
00000260: bb3c a13e 68b5 133d 6b40 423e 5834 88be
00000270: b285 9a3e 7128 9fbe c8a4 c6bd 13a7 60bc
00000280: b76a a33d 213f a83c a28d 70be 8d9c 8e3e
00000290: 409f 9fbc 083f bc3e dd84 913d d863 a0be
000002a0: 1e69 0ebe 7dba bfbd bcd1 ae3c d391 87be
000002b0: 859c babe 2e87 a0bd 0b9c 9b3e da0c 793e
000002c0: ff80 96be 7295 84bd 2688 41be 61c9 073e
000002d0: 4d16 573e b107 773d d006 203b 277f b13e
000002e0: a866 f5bd 05f9 453e 0ac3 babd 82d3 6b3a
000002f0: 39fd 96be 42c3 703e 684b 8bbe b45c 02bd
00000300: 806b 933e bfd9 90be 516d 813e 4750 0dbe
00000310: 77f4 fc3c 3321 85be 8a2c b7bc c679 ab3e
00000320: 10b6 a43e 7d8a d2bb e3cb bf3e 52d2 153b
00000330: de4b 98be 4252 b73e 4f4b 56be 89fb 523e
00000340: fea4 cd3d 52ac 7fbe ebd7 ae3e e565 0b3a
00000350: 70ad 403e 2aad 043d ad5b 1b3e ec4a abbe
00000360: 102d 93be 6db3 1d3d c0e1 b5bd 1d26 45be
00000370: d832 983b 73da ae3e 79b3 b93e e357 47be
00000380: 322c 09be afe3 8b3d b9b9 4a3e a03b 76be
00000390: 24cf aabe 50ec a1be bf60 a53e f034 263e
000003a0: c412 1b3e 2782 703e a04d 753e 5e91 7b3b
000003b0: 2b3b 963e 8179 e83d 55c5 c3bd f6ea 0e3a
000003c0: 098f 4a3e 0c74 5a3e 101c 3c3e 262b 803e
000003d0: 9593 d3bd 00be a33e 97bf 9dbe e543 9d3e
000003e0: 2d56 64be 3527 bb3e e02f 88be 4223 4a3e
000003f0: 6866 7a3e d2b7 ba3d 5bad 3ebc e13a 9d3d
-0.14446248 -0.3083793 -0.15423848 0.3253124 0.32200798 -0.057390206 -0.22453918 -0.16890012
-0.013898784 0.03571451 0.06414842 -0.12101177 0.20419438 -0.28827786 -0.28228867 -0.20881812
-0.042854495 -0.3219581 -0.10806239 0.1241052 0.023199515 0.1816667 -0.23307197 -0.05889168
-0.3216311 -0.32441837 0.35646433 0.09485743 -0.31843686 0.26842502 0.15927078 0.22718821
0.33624887 0.2318315 0.13640352 -0.37465936 0.09703809 -0.06647957 -0.14244016 0.25254092
-0.21687807 -0.27155474 -0.23473632 -0.13190423 0.18280439 0.37454596 0.030865807 -0.09765857
-0.34422693 -0.14459702 -7.583072e-05 -0.18287036 -0.18920156 -0.058886994 0.07301822 0.094988815
-0.3613425 0.3155629 0.20137648 0.17984834 -0.016060838 0.015088466 -0.15815549 -0.3232587
-0.2882297 -0.22332305 0.13781483 -0.12859336 -0.35265803 0.2158437 -0.17025056 0.32129666
0.34274918 -0.10057285 -0.36225346 0.33249313 0.32661915 0.030599836 0.3718957 0.35390761
0.33753863 -0.2542669 -0.13704242 -0.018158957 0.021953827 0.31844452 -0.105903976 0.24169801
-0.0019318135 0.11974203 -0.20285186 0.34988824 -0.27064764 0.29242602 0.23375444 -0.37684178
-0.17793222 -0.26286015 0.13324255 -0.33115438 -0.1362459 -0.32151374 0.10507948 -0.32846236
0.24150048 -0.086805314 -0.027048813 -0.35928434 -0.03365082 0.0123877125 0.05080298 -0.0696067
0.2987795 -0.07155338 0.24278803 0.2047894 -0.029799627 -0.3762036 -0.012987689 0.12776805
0.29589063 -0.3567228 -0.04773695 0.052325856 0.37463453 -0.32948637 -0.3462313 0.3442462
0.20893319 -0.2973137 0.24700873 -0.14879663 0.3477647 -0.23767456 -0.28743237 0.18070136
0.11033158 0.3737638 0.23780523 0.08650375 -0.08926754 0.12774827 -0.2520479 -0.25940397
0.33687675 0.14891577 0.17236342 -0.14204536 -0.12027974 -0.30094707 0.3779321 0.084127136
0.31491646 0.036061674 0.18969886 -0.26602435 0.30180126 -0.31085542 -0.09699398 -0.013711709
0.079793386 0.020537915 -0.23491529 0.27853814 -0.019485116 0.3676684 0.0710542 -0.31326175
-0.13907287 -0.09361742 0.021340244 -0.26478443 -0.3644754 -0.078382835 0.3039249 0.24321309
-0.2939529 -0.06473817 -0.18899593 0.13260414 0.21004601 0.06031007 0.0024418123 0.34667322
-0.11982471 0.19333275 -0.09119232 0.00089960557 -0.2949007 0.23511985 -0.27205968 -0.03182669
0.28792953 -0.28291127 0.25278714 -0.13800155 0.030878289 -0.26001891 -0.022360105 0.33491343
0.32170153 -0.0064252005 0.3746024 0.0022860956 -0.29745382 0.35804945 -0.20927165 0.20603766
0.100412354 -0.24968079 0.34149107 0.00053176127 0.18816161 0.032391705 0.1517169 -0.33455598
-0.28745317 0.038501192 -0.08880949 -0.1925282 0.004644733 0.3415104 0.3626974 -0.1946712
-0.13395765 0.068305366 0.1979741 -0.24046183 -0.3336116 -0.31625605 0.32300374 0.16231132
0.15143877 0.23487149 0.23955393 0.0038386206 0.29342017 0.113513 -0.095591225 0.0005451882
0.19781126 0.21333331 0.1837008 0.2503292 -0.103308834 0.31980896 -0.30810234 0.30715862
-0.22298498 0.3655335 -0.26599026 0.19740012 0.24453127 0.09117092 -0.011638011 0.07677246

modality_encoders.sleep.0.bias f4 [64]
00000000: ce46 88be 77e7 b1bd b89d e6bd 2e13 a7b9
00000010: e24a c93d 9a54 94bd 3f17 5bbe 9f1b 8abd
00000020: deaa b6be 1859 88b9 b048 7bba 4f49 04be
00000030: 2866 b8be 72d2 7dbe 8cef b1be 3953 a6bb
00000040: b270 9ebe 00f1 81be 2083 fbb9 fa4c d1bb
00000050: ffda fbbd 5082 9abe ec13 313d 6f6a 59be
00000060: e4fb f23d 115e b6b9 faaf 52be 75eb 11be
00000070: 3b58 f13d 5658 4dbe a160 9b3d 9fde b3be
00000080: eebb bcbe 89c2 33b9 92de 4fba e5d8 d1bd
00000090: 2441 3bbd a3b6 33be 7eba 98be 9b9f 97be
000000a0: 5ba3 c0be 0b7f 283e 1e71 b9ba 1e53 49be
000000b0: 6258 d6ba 2954 e4b9 9955 ce3d 282a 1ebc
000000c0: 3255 d0bd 0d48 63be 9942 0eba 7355 973d
000000d0: cecb 0f3c c4a0 e2bd c015 6d3d f937 50be
000000e0: 31f8 8b3c bd47 0dba 070f a7be 5daf e5bd
000000f0: 754a bbbe 2345 99be 5cff 8ebe ba8b 96ba
-0.2661652 -0.086867265 -0.11260551 -0.00031867012 0.09828736 -0.07242699 -0.21395586 -0.067435496
-0.35677236 -0.0002600632 -0.00095857214 -0.1291859 -0.3601544 -0.2478731 -0.34753072 -0.005075839
-0.30945355 -0.2537918 -0.00047972146 -0.00638735 -0.122976296 -0.30177546 0.04323189 -0.21232007
0.118644506 -0.0003478383 -0.20574942 -0.14249976 0.11784407 -0.20053229 0.0758679 -0.35130784
-0.3686213 -0.0001714324 -0.0007929589 -0.102464475 -0.04571642 -0.17550139 -0.29829782 -0.29613957
-0.3762463 0.16454713 -0.0014148091 -0.19660613 -0.0016353244 -0.00043550253 0.1007492 -0.0096536055
-0.101725 -0.22195454 -0.0005426794 0.07389345 0.008776618 -0.1106582 0.05788207 -0.20333852
0.01708612 -0.0005389413 -0.32628652 -0.112150885 -0.36580244 -0.2993556 -0.279292 -0.0011485734

modality_encoders.sleep.3.weight f4 [32, 64]
00000000: b065 06bc 60bc cdbd 5ed8 d1bd 3370 afbb
00000010: e6e1 193e a8e9 c9bc b0cc d53c 5ecb 9dbd
00000020: 2891 9fbd ca7d 6fbd ba81 ec3d 6c39 e83d
00000030: 7092 efbc 4493 fdbd c0b8 453c ceef de3d
00000040: 9a62 fcbd eca6 903d 0e0c e73b e49f c03d
00000050: e0aa 96bc 9048 b9bd 36c4 273e 3060 0abc
00000060: b414 9d3d a1b0 04bd 947a e0bd fe53 a3bd
00000070: a297 9d3d 54d5 6fbd 29b7 993c c063 193b
00000080: 40a2 dd3b 6ba5 cfbd e698 7a3d 2cb6 613d
00000090: 3025 fc3c 509f 2d3c e008 12bc 40ec 803d
000000a0: 6060 fd3b 9778 373e 7e09 9abd 8c74 c8bd
000000b0: 71fe a63c 43b2 dcbc ff7f 1d3e 76e5 893c
000000c0: 90be 4f3c 306e 16bc e1aa c6bc 7aba d53c
000000d0: eec5 c23c dab5 a1bd e786 ce3c da77 bd3d
000000e0: 2a1f ea3d bcd0 1a3d a0d9 cd3d 6872 e3bc
000000f0: 341c a3bd f828 9b3d a811 0bbd e5a6 8b3d
00000100: a808 7a3d 9eb9 9f3d 0c20 753d 890a f7bc
00000110: a6b4 e2bc 74a5 623d 684c 833c 303e 843d
00000120: 0470 14bd 162f a7bd 622c a8bd 9c72 acbd
00000130: f469 be3d 50a1 40bc 1a94 a3bd 1d3e babc
00000140: fa64 e23d b0d9 cb3d bc54 9abd 85be d83c
00000150: 10b3 a83c e401 583d 96a7 df3d 6099 7ebc
00000160: 15c4 083d 8d36 853d ae75 82bd d84c 253d
00000170: 9f74 303d b6ea ce3d 9122 66bd fe4d a43d
00000180: d853 a9bd 1e0d edbc 322d a3bc e8a9 813c
00000190: 00c5 e73b 7e3d ed3d aca5 563d 66ca e9bd
000001a0: e003 ab3d b98b 473c ec1f 5dbd 1e6f a2bd
000001b0: ced1 0dbd 82b4 a23d 113f ee3d 2577 5dbd
000001c0: a04e 47bc 508e b13d 3ac1 0bbd a002 afbd
000001d0: 390e 963d 1029 613d fbb8 913d 00cb 483a
000001e0: 932d 603d 49da 5dbd 1071 0cbc 4e11 87bd
000001f0: 0049 a53a 8056 dfbc 12d8 c33d c22c b83d
00000200: a6f0 e63d 30bb cc3c b478 29bd fc54 3b3d
00000210: 913e a33d 00cd 9ebc 500a e33c fe25 863d
00000220: 2029 b1bd dcc3 f63d 3709 163d 0878 e03c
00000230: f48e df3d 7cf9 e1bd 40ac 15bb 5f23 5c3d
00000240: d8c6 a4bc 2032 13bd 76e8 9fbd 7985 d33d
00000250: 02e6 973d 86f7 98bd 2fac ea3d f2b5 8f3d
00000260: 0c64 7c3d 2c8f 943d 12b2 b9bd f841 c13c
00000270: 3cef 9b3b 60da 713d 0b92 22be 1e54 9cbd
00000280: e6ed dbbd 9649 513d d759 fc3d c845 8ebc
00000290: 986c 803c f8f3 a73c 48c2 a6bd 5e24 953d
000002a0: f80c 39bd 16cd 863d 360f f0bc e802 d0bd
000002b0: ff4d f83c 418d 1bbd 4d7b 943d 237d 133e
000002c0: 3c11 14bd 003c 07bc dfc8 143d ffa2 aebd
000002d0: aa03 5a3d 947a bc3d 6f38 1f3c 8039 30bb
000002e0: 5b94 053e b8a8 53bd 38af 05bd ec5a 0ebd
000002f0: f85c 7cbd 50ea cb3c 101d 42bc a265 2c3c
00000300: 282f bfbc 847f c73d 60d8 5bbd e7ce d8bd
00000310: 343c 8abc 1428 4cbd 2a27 803d 14cd 7b3d
00000320: 8cf7 0e3d 4c9b e8bc 23ee 30be 8049 b2bd
00000330: 94af 8cbd 502f e63d 0872 ef3c 663a 403d
00000340: 626a 96bd 16f4 943d d41b e73d c5d8 aabd
00000350: 8c0e 4a3d 38e3 72bd 41f1 353a e628 d3bd
00000360: b3f5 883e bf3b e73c fc25 c53d 0ac6 98bd
00000370: 46e1 f93d e4af f4bd 9f9e fbbc 9472 243d
00000380: 5c84 1e3d f0ca 57bd 9457 4b3d 0038 143d
00000390: 3475 92bd 4444 d93d 4c04 f73d 9034 e33c
000003a0: 5c22 a63d 139a 2a3d 5b5a 4ebd 94ef d93d
000003b0: fc68 0e3e d479 663d 059f 8b3d ffbc 923d
000003c0: 1a8a ac3d 3c88 eabd 300a 8bbd 2ed0 363e
000003d0: ea11 7d3c e03a e93c 9d71 213e 8ccd 65bd
000003e0: 41b1 0c3e 84d7 c8bb 98e1 d8bd ce62 ce3d
000003f0: 5047 603c 2059 293d 009b 983d 0166 21bd
-0.008202955 -0.10045695 -0.10246347 -0.0053539514 0.1502758 -0.024647549 0.02609858 -0.07704805
-0.07791358 -0.05846957 0.11548181 0.11339077 -0.029244632 -0.12381604 0.012067974 0.10885583
-0.12323494 0.07063088 0.0070509976 0.09405497 -0.018392026 -0.09047043 0.16383442 -0.008445784
0.076699644 -0.03239501 -0.1096088 -0.079750046 0.07694937 -0.058553055 0.018764095 0.0023405403
0.0067637265 -0.10138973 0.06118097 0.055105373 0.030779451 0.010597065 -0.008913249 0.06295061
0.007732436 0.17917095 -0.07521342 -0.097878546 0.020384999 -0.02694047 0.15380858 0.016833048
0.012679711 -0.009181544 -0.024251403 0.026089896 0.02377602 -0.078960136 0.02521081 0.092513755
0.11431725 0.03779672 0.10051274 -0.027764514 -0.07964364 0.075761735 -0.033952385 0.06818942
0.06104341 0.077990755 0.059845015 -0.03015639 -0.02767403 0.05533357 0.016027644 0.06457174
-0.03623964 -0.08163278 -0.0821159 -0.084202975 0.09297553 -0.01175721 -0.079872325 -0.022734696
0.11054416 0.0995363 -0.07535693 0.026458034 0.020593196 0.052736178 0.10920636 -0.015539497
0.033390123 0.06504545 -0.06370102 0.040356487 0.04307997 0.10103361 -0.05618531 0.08022688
-0.08267945 -0.028936919 -0.019919012 0.015828088 0.007073045 0.11583994 0.05240409 -0.114155576
0.083503485 0.012179309 -0.05398552 -0.0793135 -0.034623913 0.079445854 0.11633123 -0.054068703
-0.012164742 0.08669722 -0.034119822 -0.085454226 0.073269315 0.0549708 0.0711536 0.0007659644
0.054730963 -0.05416325 -0.008571878 -0.065950975 0.0012610257 -0.027262926 0.095626965 0.08992912
0.11276369 0.024991602 -0.041374877 0.045735344 0.07970918 -0.019384861 0.027714878 0.06550215
-0.08650422 0.12049076 0.03662988 0.027400985 0.10915938 -0.110339135 -0.0022838265 0.05374467
-0.020114347 -0.035936475 -0.0780801 0.10328192 0.074169174 -0.07469086 0.11458623 0.07017125
0.06161885 0.0725387 -0.09067167 0.023591027 0.0047587436 0.05904615 -0.15876023 -0.076332316
-0.10738735 0.051095568 0.12321823 -0.017367259 0.015676782 0.020502076 -0.08142525 0.07282327
-0.045178384 0.06582086 -0.029304128 -0.10156804 0.030310629 -0.037976507 0.0725008 0.14403205
-0.03614925 -0.008254051 0.036324378 -0.08527183 0.05322615 0.092030674 0.009718045 -0.0026889741
0.13044874 -0.051674575 -0.032637805 -0.03475468 -0.0616121 0.024892002 -0.011847749 0.010522278
-0.023337916 0.097411186 -0.05367315 -0.105863385 -0.01687441 -0.04984291 0.0625747 0.061474875
0.034904048 -0.028394364 -0.17278342 -0.08705425 -0.06869426 0.11239493 0.029229179 0.046930693
-0.0734451 0.07273118 0.11284605 -0.08342127 0.04933028 -0.059298724 0.00069405517 -0.10310535
0.26749954 0.028226731 0.096263856 -0.07459648 0.122011706 -0.11947611 -0.030715285 0.040148333
0.038700446 -0.05268377 0.049644068 0.03618622 -0.07151261 0.10608724 0.120613664 0.027735025
0.08112022 0.041650843 -0.05037914 0.10641399 0.13907236 0.056268528 0.0681744 0.071649544
0.08424778 -0.11451766 -0.067890525 0.17852852 0.015446166 0.028470457 0.15765996 -0.056104228
0.13739492 -0.006129207 -0.105899036 0.10077439 0.013688877 0.04134476 0.07451439 -0.03940392

modality_encoders.sleep.3.bias f4 [32]
00000000: 77fa 83bd 420b 15bc 9df4 8c3d 16fa 33b8
00000010: 7135 4fbc d847 afbd 7062 2b3c f3d7 713c
00000020: dc9e 913d 3229 bc3c bb02 debd a7e1 9fbd
00000030: 98ff 46bc 62a6 8abd c0ac 5abd bbae 66bd
00000040: 7d4a 083d 3818 5f3c ff55 29bd 07c3 28be
00000050: d672 263c 2722 753d cbc7 5d3d 6a06 9bbd
00000060: 7f2a 9d3c cf77 99bc 0f43 78bd 0080 173d
00000070: c8e6 fcbd 4b98 ff3d e067 a73c 77e4 2a3d
-0.06444257 -0.009096922 0.06882594 -4.2909836e-05 -0.012647019 -0.08558625 0.010460481 0.014760959
0.07110378 0.022968862 -0.108403645 -0.07806712 -0.012145899 -0.06770016 -0.053387403 -0.05631898
0.033274163 0.013616614 -0.041341778 -0.16480647 0.010159215 0.059847023 0.054145616 -0.07569583
0.019185303 -0.018733887 -0.060610827 0.036987305 -0.123487055 0.124802195 0.020435274 0.041721787

modality_encoders.stress.0.weight f4 [64, 1]
00000000: 18ab 10be c672 773e e8e4 fcbe be49 55bf
00000010: baf1 1d3f b2ec 50bf 7c9d dc3e 49bb 6ebf
00000020: 7096 883e 5b69 fbbe 47c9 963e 1c0c d13e
00000030: fee8 84bd cd50 0f3e b1f1 18bf 7bff 3bbf
00000040: 80e8 ddbc cc2b 6e3e 4130 64bf 6051 e1be
00000050: fc64 59bf 1cc7 2fbf 98ac 5fbf 807b cebe
00000060: e792 26bf 1373 263f 0999 40bf 76f4 58bf
00000070: 0e56 88be 70e4 f2bd d89e de3e c106 093f
00000080: 4663 09bf 6c18 f0bc 43a5 393e ae52 2c3e
00000090: a4f5 dcbe a522 aebe 036f 52bf 10c6 0b3f
000000a0: 8936 8fbe 6c24 c5be 4cbb de3e 6a98 35bf
000000b0: cfe1 83bf a8f7 d4bd 961a 9bbd 00e4 083f
000000c0: d224 88bd 9a3d 14bf c879 68bf 6ce0 6cbf
000000d0: 5be7 243e 821c 813e 5f0d f03e 652c 833d
000000e0: 4994 94be 37aa 6c3e d088 dcbe 82db 4c3e
000000f0: 4883 0ebc 98c0 e33e 1039 7abe f16d 9b3e
-0.14127767 0.24164876 -0.49393392 -0.83315647 0.6169697 -0.8161117 0.430889 -0.93254524
0.26677275 -0.49103817 0.29450437 0.4082955 -0.06489752 0.13995667 -0.5974379 -0.7343671
-0.027088404 0.23258895 -0.8913613 -0.44007397 -0.84919715 -0.6866319 -0.8737273 -0.40328598
-0.65067905 0.6501934 -0.75233513 -0.8474802 -0.26628155 -0.11859977 0.43480563 0.5352593
-0.53667104 -0.02930852 0.18129449 0.16828415 -0.4315616 -0.34010807 -0.8220064 0.54599094
-0.27971295 -0.3850435 0.4350227 -0.7093569 -1.0303286 -0.10398799 -0.0757343 0.534729
-0.06647648 -0.57906497 -0.90810823 -0.9252994 0.1610388 0.25217062 0.468852 0.06404952
-0.29019383 0.23111807 -0.4307313 0.2000561 -0.008698292 0.44482875 -0.2443583 0.30357316

modality_encoders.stress.0.bias f4 [64]
00000000: 40d7 acbc 714c 8fbf a483 a5be eddd d03f
00000010: 25e6 a7bf 4a22 4fbf e86c 0fbf 2adf bb3f
00000020: 5067 9bbf 7232 923f de22 c0be d171 623e
00000030: eea0 633f 6973 65be 9a05 923f 9f8d b23f
00000040: d072 0fbe c479 8bbf 20a5 b33f d0dc 7cbf
00000050: 8c9b 54bf 40be 46bd 62cc b03f c465 f9be
00000060: 97ac 873f cff2 96bf 557a 963f 9841 14bf
00000070: f1aa 2b3f 182c 2fbe c5ba 23bf 4646 32bf
00000080: 946a 10bf 5b00 3e3f a6d9 e23e 8bf0 243f
00000090: 5c90 d3be 9a29 423f 3591 c93f cc44 813e
000000a0: 34d8 553f 5e5d 14bf 541e c93e bc4f c9be
000000b0: 819b d23f 0a54 4a3f e085 1d3f ddaf abbf
000000c0: e5a4 b03e 9c75 943f 4d3b d53f 50e6 9fbe
000000d0: 614b 3dbe 654f a4be 182d 4cbf 1fbe 1dbd
000000e0: 4f4d 8b3f 4040 a4bf ee03 76bf 3f4d aa3d
000000f0: b875 273f 4aae 04bd b0e8 8abe 70cd 24bf
-0.021098733 -1.1195203 -0.32326996 1.6317726 -1.311711 -0.80911696 -0.5602555 1.4677479
-1.2140903 1.1421645 -0.37526602 0.2211373 0.88917434 -0.22407307 1.140796 1.3949469
-0.14008641 -1.0896535 1.4034767 -0.98774433 -0.83049846 -0.04852128 1.3812373 -0.48710454
1.0599545 -1.1792849 1.1756083 -0.5791259 0.6705771 -0.17106664 -0.6395686 -0.6963848
-0.56412625 0.7421929 0.44306678 0.6442954 -0.41321075 0.7584473 1.5747439 0.252478
0.83533025 -0.5795497 0.3928095 -0.39318645 1.6453706 0.79034483 0.615324 -1.3413044
0.34500805 1.1598392 1.6658722 -0.31230402 -0.18485786 -0.32091823 -0.7975631 -0.03851139
1.0882968 -1.2832108 -0.96099746 0.08315515 0.65414 -0.032392778 -0.2713065 -0.6437597

modality_encoders.stress.3.weight f4 [32, 64]
00000000: f824 b93d 616c a9be 80a8 bfbb e0dc 2cbf
00000010: a5f4 32be c09c bbbc 34bc 4cbc 9ba2 86bf
00000020: cd65 00be b796 b4be 514e 17be 7372 9c3d
00000030: b8ac 413c 338f ffbb 9020 43bf 0bde 33bf
00000040: c03c a2bb a785 a4be 4119 08bf 887b 96bc
00000050: 8c3a 35bd 58d4 bc3c ec13 85bf 044f cf3d
00000060: 53bd 49bf 0d39 f7bd 7093 08bf 4843 70bd
00000070: 48c8 b2be 8444 d2bd 66f5 f1bc 4a9e adbd
00000080: e2d7 a63d 725a b53d e775 a23d 52d7 153e
00000090: e6bf cbbd c54e d5be 89a7 18bf 67c4 823d
000000a0: 2212 3e3e 6c8e dc3d b157 3d3d 107e b43d
000000b0: 86af 36bf bb65 cb3d 9cea 1c3d 1482 cabd
000000c0: 14ab 893d 91d5 59bf 4fa6 05bf 6e0d e2bd
000000d0: c813 733d 4949 b0bc 247c 8ebd 3816 b0bd
000000e0: 671c e73d e9bc adbe 605c 3cbd 3588 ae3b
000000f0: 22f5 e93d a729 a93c fe1e b5bd 7323 263d
00000100: 4090 1fbb b33c f0be d824 d73c f13c 563f
00000110: f1af f63c 2cc9 243d 1956 10bd 0ccc 973f
00000120: 9fc9 75be 6886 343f 3f20 aa3d 6d18 b0bc
00000130: 6be5 e8bd 5eac ecbd 7b99 583f 901b 6a3f
00000140: f483 a33d 1fd9 2cbf e5fa 613f 1057 df3d
00000150: 5870 323d d8e7 543d fca8 ac3f d0ab 02bd
00000160: 5c69 753f 4521 1abd 5540 273f c89f e6bd
00000170: ee2d e73e 0455 4c3d 94ac 21bd e211 c03d
00000180: 6c56 263d d2fc f0bc d004 2ebe caad f5bd
00000190: d83c d4bd 6e23 4e3f ad47 823f a97d 0cbc
000001a0: 675c 2ebf c642 ce3d 4fd7 cebd 947e de3d
000001b0: 274b 663f 1e50 913d 3cc6 363d 2d97 ff3c
000001c0: 2e91 c5bd 04d2 933f fb09 4d3f 6c32 f9bd
000001d0: 935d 5ebe 60e2 17bd 07b8 dcba 8cb2 a83b
000001e0: c98e e3be cde1 a1bf 600a 23bd 908c 22be
000001f0: 102d 74bd 76bc aebd bcca 9a3d 9564 aebc
00000200: ec7e abbd 3164 c23e 743d 74bd 25c8 71bf
00000210: a5f5 48bd b820 fcbc 861e 4ebc ff4a acbf
00000220: d489 393e 0a78 19bf dbe2 523d 8a77 0d3e
00000230: 1f47 86bc f89d 283e 4b37 4dbf 1218 82bf
00000240: a8ff fd3d e356 223f f049 2fbf 28e1 6bbd
00000250: 4c42 a4bd e4ea a43d 9ec4 8fbf 8e0b f83d
00000260: 5094 51bf 40f5 acbd 28c1 46bf b666 c83d
00000270: 2dad fcbe 0cf4 a3bd b512 0f3e 0e62 893d
00000280: 521d 813d 173d a43c 977b c1bd 9049 653b
00000290: c051 663c fdd3 32bf 2cbc 3dbf 00e4 a13d
000002a0: a29d d13e 045c 133d 7893 28bc f6c4 d63d
000002b0: cc8f 34bf 5c15 cbbd a865 b5bd fc24 d7bd
000002c0: 90d8 3e3b 9383 8abf 8994 43bf f228 873d
000002d0: ac8a 593e 681c 2e3d 5349 86bb 2b18 2dbd
000002e0: de8c ee3e 57df 8b3f 6065 d13c 05ef 883d
000002f0: 7822 b73d 533f 303d f057 3e3c 1886 8fbd
00000300: 240a d13d 2dd8 c8be b01c 993d bf06 60bf
00000310: 61a4 6ebd d808 4d3d 9a99 043e fe90 a8bf
00000320: 0453 a5be 7014 2ebf 4872 8f3d 3669 0c3e
00000330: 482f 143e 88bc 423e ef14 7dbf f5de 6fbf
00000340: 7802 b0bd 10a0 5ebe d752 61bf 3435 d53d
00000350: a467 6fbd 86b3 e83d 9421 90bf 284d e1bd
00000360: 6918 88bf 41d2 b13c 7bc0 6cbf 9047 4c3d
00000370: e2d7 8fbe 40af 41bc 11ab abbd 623b 2dbb
00000380: 92e9 c63d f252 703d 730b 133e 40d5 1b3d
00000390: 646a d3bd 0cf3 3ebf 5b5b 55bf ad68 b13d
000003a0: cbdd bf3e e81e 7cbd 831a a33d 48bd a3bc
000003b0: 2b1f 65bf b0d3 743c f517 9ebd 0122 20be
000003c0: 066c 713d 031d 94bf 23c6 48bf 1cbd 813d
000003d0: 33f1 2a3e 6077 9abb 0069 7a3c 095d 53ba
000003e0: 7e6b 403e 6092 5abe 887a c2bc 03f2 a93d
000003f0: 3c18 80bd bd3c d33c 2c65 9b3d 5b4a c0bd
0.09040254 -0.330905 -0.005848944 -0.6752453 -0.17476137 -0.022901893 -0.012496043 -1.0518373
-0.12538834 -0.35271236 -0.14775969 0.07639017 0.0118209645 -0.007799053 -0.7622156 -0.70260686
-0.0049510896 -0.3213322 -0.53163534 -0.018369451 -0.044245288 0.023050472 -1.0396705 0.10122493
-0.7880451 -0.120714284 -0.5334997 -0.058657914 -0.34918427 -0.102669746 -0.02953596 -0.08477457
0.08146645 0.08855142 0.07932644 0.1463292 -0.09948711 -0.4166166 -0.5963064 0.06385117
0.18561605 0.10769352 0.046226207 0.08813107 -0.7136158 0.09931513 0.03830968 -0.09888092
0.06722084 -0.850915 -0.5220689 -0.11037718 0.059345037 -0.02151932 -0.06957272 -0.08597988
0.11284714 -0.3393319 -0.045986533 0.0053262957 0.114237085 0.020649744 -0.08843802 0.04056115
-0.0024347454 -0.4692131 0.026262686 0.8368674 0.030113192 0.040230915 -0.03523836 1.1859145
-0.24002694 0.7051759 0.08306932 -0.021496022 -0.11371883 -0.11556314 0.8460919 0.9144831
0.079841524 -0.675188 0.8827346 0.10905278 0.04356417 0.051978916 1.348907 -0.031902134
0.9586389 -0.037629385 0.6533254 -0.112609446 0.4515223 0.049885765 -0.039471224 0.09378411
0.040609762 -0.02941743 -0.16994023 -0.11996038 -0.103631675 0.8052281 1.0178124 -0.008574882
-0.68109745 0.1007133 -0.100996606 0.108639866 0.89958423 0.07095359 0.044622645 0.031200016
-0.096468315 1.1548467 0.80093354 -0.1216782 -0.21715383 -0.037081122 -0.0016839512 0.0051482376
-0.44444874 -1.2647034 -0.039804816 -0.15873933 -0.059613287 -0.0853204 0.075582 -0.021288196
-0.08373818 0.37967065 -0.05962892 -0.9444602 -0.04906239 -0.03077732 -0.01258052 -1.3460387
0.18118984 -0.5994879 0.051485877 0.13815132 -0.016391335 0.1646651 -0.80162495 -1.0163596
0.12402278 0.6341383 -0.68472195 -0.057587773 -0.080204576 0.08052614 -1.1231878 0.12111579
-0.8186693 -0.08445215 -0.77638483 0.097852156 -0.49350873 -0.080055326 0.1397198 0.067081556
0.063044205 0.020048661 -0.09447401 0.0034986474 0.014057577 -0.6985472 -0.7411525 0.07904816
0.40940577 0.035976425 -0.010289066 0.10486786 -0.70531917 -0.09916183 -0.0885728 -0.10505101
0.002912078 -1.0821403 -0.7639852 0.065996066 0.21244305 0.04250756 -0.0040980964 -0.042259376
0.46591848 1.0927533 0.025561035 0.06686214 0.08942121 0.04302914 0.011617646 -0.07007998
0.10207012 -0.3922743 0.07476175 -0.87510294 -0.058262233 0.050057262 0.1294922 -1.3169248
-0.32289898 -0.67999935 0.07004219 0.1371201 0.14471161 0.19017231 -0.9886007 -0.9369958
-0.08594221 -0.21740746 -0.8801703 0.10410538 -0.05844845 0.113623664 -1.1260247 -0.110010445
-1.0632449 0.021706702 -0.924812 0.049872935 -0.28094393 -0.011821568 -0.08382238 -0.00264331
0.09712519 0.058672853 0.14359836 0.038045168 -0.10323027 -0.7458961 -0.8334252 0.086625434
0.37473902 -0.061552912 0.07964041 -0.019987717 -0.89500684 0.014943048 -0.07719413 -0.15637971
0.05894091 -1.1571354 -0.7842733 0.06334898 0.16693573 -0.0047139376 0.015283823 -0.00080628745
0.18791005 -0.213449 -0.023740068 0.08298113 -0.06254622 0.025785798 0.075876564 -0.09389182

modality_encoders.stress.3.bias f4 [32]
00000000: d080 a63d c491 51be 6cfe a23e a200 7d3e
00000010: 7344 483e 2693 803d 0ee0 2c3e 0853 853e
00000020: d559 21be 8bff 00be acfb 4b3e a7fe 0ebe
00000030: b8c1 bbbd 108d 473e 639b 3b3e 048f 223e
00000040: 8d8a a7be 874d 983e a5a6 bb3e fa97 b0be
00000050: 4273 b1be 00b1 9cbd 5258 6cbe 841c 51be
00000060: 677a a7be 31bb 17be 4d3f 89be aeca c43e
00000070: 486a a2be a9cd 70be 7f02 83be bb80 5abe
0.08130038 -0.20465761 0.31834733 0.24707273 0.19557361 0.06278066 0.16882345 0.2603991
-0.15756924 -0.12597482 0.19920224 -0.1396433 -0.09167808 0.19487405 0.18320994 0.15874869
-0.32722893 0.2974665 0.36650577 -0.3449095 -0.34658247 -0.076509476 -0.23080567 -0.20421034
-0.32710573 -0.14817502 -0.26806107 0.38435882 -0.3172171 -0.23515953 -0.25587842 -0.2133817

modality_encoders.weather.0.weight f4 [64, 5]
00000000: 884b 6dbf 2782 05bf 07d6 d23d 02d8 1ac0
00000010: 5eaa f2be 12fd 39bf 4af2 20bd 1542 3e3d
00000020: 8bbb d5bf 35d3 b2bd a52a 28bf 6503 9b3e
00000030: 5f8f 223d 9ebe 4dc0 8a9c cebd dd12 083e
00000040: f65c c5bd c2d3 8fbe 89ed 8abe 26fa de3d
00000050: a160 d73d b1c0 d4bc 7293 9bbd 6f0c 793e
00000060: f774 93be 50c0 ad3c 21e3 cb3e 7941 2fbd
00000070: 99df aabe f072 e43e 2098 b03e 4186 1c3e
00000080: 842c c2be efe4 2a3e 4613 0abe 5370 af3c
00000090: b509 a73e 82ca c3bc c321 a7be 07b4 a7bd
000000a0: 23cc ccbe 147e f1bd 344a 0ebe 69aa b8be
000000b0: a6ff b6be cacb b0be d9ba 2e3e ecea 2cbe
000000c0: 78c0 5dbe 9008 973e 6236 e03d 8497 a4be
000000d0: 4a4c 9ebd b55a 3b3e d048 8abd 0add e5be
000000e0: 6aaf 12bf bef0 533d a764 01c0 9bd4 263e
000000f0: 4a43 ecbd 9385 883d e3e3 933b 26a3 b2bf
00000100: 18b8 debe d6cd d5be 96b4 0ebf 2275 503d
00000110: 8c64 48bf 0873 51bd 6c07 36bf 4f8e 69be
00000120: 613e 643d 8202 bdbf 2824 b2be c8c8 29bf
00000130: 8dc3 1bbf 2810 8a3d ca43 8fbf ceaf 0c3e
00000140: 5dc6 96bd 4d27 8e3e e199 7abe dd1f c3be
00000150: 20f1 e23d 6766 9b3e 9ce0 8bbe f504 6abd
00000160: db97 193d 62e1 37be 7b8c d1be 6053 17bf
00000170: 24b3 573d 357a 10c0 f71e 9fbd 7da3 c93d
00000180: 62f6 b93e 7277 72be 6a0f 4dbe 0daf a23e
00000190: f7bf 45bd e0fd a73e 8ee3 62be ab14 27be
000001a0: 114a 963d 2711 1bbf b180 95be e3fa 453d
000001b0: 5ebd fbbf c66e 86be 06c6 3fbf c547 8d3e
000001c0: e25e d43c 9830 bbbf b867 89bc 6185 203d
000001d0: 7e45 d4be 2421 723c b727 aebe 101a f93d
000001e0: b299 09bf 48ea 94be 7f84 2c3d 294f 21c0
000001f0: bd27 1bbd 95c7 a3be bd35 cd3e ac75 10be
00000200: 528f 043e 92f4 19be 1991 9bbd 3093 d23e
00000210: 7f55 b0be bf4e 8b3e 51fb e33e 8a74 4ebf
00000220: 86c5 ad3c 7b49 8e3d 2a81 25c0 3a56 e2be
00000230: fd92 5cbb 21ab 993c 257c 63ba 07bc 7fbf
00000240: ae4d d1be 53d9 bbbd 2e7b abbe 2af8 eebd
00000250: ba87 bdbe 9e8a 9dbe 51af acbe bd90 b13e
00000260: 07da 73be 9c86 97be 79e7 cabe 53b5 613e
00000270: dce2 9a3e 8c47 cbbe 1c3f 103e 92ea dd3e
00000280: 3f37 a53e 149c d23c 5825 03bd a674 dc3e
00000290: 333e 8dbe f8ee b3be 6175 8abe 05c7 113d
000002a0: 7470 b3bf 31e9 55bf d251 fa3b 93d9 0cbf
000002b0: 43a9 cd3c e2f1 b4be 9d59 c9be 5e95 733e
000002c0: 211b d43e 1eca 94be e7b9 d3be 0b60 e8bd
000002d0: c633 f3bd f2d2 e7bd 45e4 423c 48c8 a7bf
000002e0: aa3a b3be a7ba 9bbe 9fa2 9fbe bb6a dabe
000002f0: ae18 193d 8a6f 83bd d324 9d3e 4a9c bfbd
00000300: d272 aebe c199 babe ad3b d73d b527 e93d
00000310: 9e6a 26be ba1d 34bc 38d4 b2bd 656d af3e
00000320: 9d39 aabe 661e 74be 1312 043d fcde 6dbf
00000330: 8d07 ebbe f8da 77bd b341 99be f152 903c
00000340: e553 dbbf 3050 45be 4ae6 91be a0b8 2fbf
00000350: 7db6 4a3d 43c2 5fbf 0ff3 9fbe 4b85 f3be
00000360: 9e47 4c3d d5dd d93c ad32 c3bf b45c c1be
00000370: 67f0 263e 85a0 093e 46ea a2be 6c57 c13d
00000380: 7391 a53d f6fe 63bf 7cbf 16bf d5e5 a23d
00000390: 2b85 17c0 98f1 843c 3e46 213e de31 d03e
000003a0: bd5d e4be 9c1f 553d ec7d a9be 1617 63bf
000003b0: 3df5 2bbf 7e92 a93d d39e 0cc0 56df c1bd
000003c0: 442e 86be 849b 0bbe 6a70 4f3c e161 56bf
000003d0: 6d8f 843c 750f 93bd fa40 393d 584a 273b
000003e0: 7f08 62bf 9d4e 12bf 8e21 11bf 6ea7 833d
000003f0: faa3 003d 8ab6 c4bf 202d 97be 3b2d e53c
-0.92693377 -0.5215172 0.10294729 -2.419434 -0.47395605 -0.7265178 -0.039293565 0.04644974
-1.6697859 -0.08731691 -0.6569007 0.30276027 0.03968751 -3.2147593 -0.10088451 0.13288446
-0.096368715 -0.28091246 -0.2713435 0.10887556 0.105164774 -0.025970789 -0.07596482 0.2432115
-0.28800175 0.021209866 0.39821723 -0.04278705 -0.33373716 0.4461894 0.34491062 0.15285589
-0.37924588 0.16688894 -0.13483915 0.021415865 0.32624593 -0.023900274 -0.32642946 -0.08188634
-0.39999494 -0.117916256 -0.13895494 -0.36067513 -0.3574192 -0.3453048 0.17063464 -0.1688649
-0.21655452 0.2949872 0.10947873 -0.32146847 -0.07729395 0.1829632 -0.06752169 -0.44895202
-0.5729891 0.05174326 -2.0217683 0.1629204 -0.11536272 0.06666102 0.00451325 -1.3956039
-0.43499827 -0.41758603 -0.557443 0.050892957 -0.7827842 -0.051135093 -0.71105075 -0.22808193
0.05572355 -1.476639 -0.3479321 -0.6632199 -0.6084526 0.06741363 -1.1192563 0.13738939
-0.073620535 0.2776436 -0.24472763 -0.38110247 0.11081147 0.30351564 -0.273198 -0.057133634
0.037498336 -0.1795707 -0.4092749 -0.59111595 0.052661076 -2.257459 -0.07769578 0.09845636
0.36320788 -0.23678377 -0.20025411 0.31774178 -0.048278775 0.3281088 -0.22157118 -0.16316478
0.07338346 -0.6057305 -0.29199746 0.048334967 -1.9667165 -0.26256388 -0.74911535 0.27593818
0.02592415 -1.4624205 -0.01677309 0.0391897 -0.41459268 0.014778409 -0.34014675 0.12163174
-0.53750145 -0.29084992 0.042118546 -2.5204566 -0.037879694 -0.31988207 0.40080062 -0.14107388
0.12945297 -0.15034702 -0.075960346 0.4112792 -0.34440228 0.27208516 0.44527677 -0.80646574
0.02121235 0.06947609 -2.5860085 -0.4420641 -0.0033656948 0.018758358 -0.0008677862 -0.9989628
-0.40879577 -0.09172311 -0.33492416 -0.11668427 -0.37017614 -0.3076982 -0.33727506 0.3468074
-0.2381364 -0.29594886 -0.39629725 0.22041826 0.30251205 -0.39703023 0.14086574 0.43343025
0.32268712 0.02570919 -0.032018036 0.43057746 -0.27586517 -0.35143256 -0.27042678 0.03559019
-1.4018693 -0.83558947 0.0076391483 -0.5501949 0.025105124 -0.35340792 -0.39326182 0.23787448
0.41426948 -0.29060453 -0.4135277 -0.11346444 -0.118751094 -0.113195315 0.011895244 -1.3107996
-0.35005695 -0.30415842 -0.31178758 -0.42659554 0.037377052 -0.06417759 0.30692157 -0.09355982
-0.34071976 -0.3644543 0.10509429 0.11384527 -0.16251609 -0.0109934155 -0.08731884 0.3426315
-0.3324708 -0.23839721 0.0322438 -0.9291837 -0.45904198 -0.06051156 -0.29932937 0.017617675
-1.7134978 -0.1926887 -0.2849601 -0.6864109 0.04949044 -0.87405795 -0.31240126 -0.47562632
0.049872987 0.026595036 -1.524984 -0.3776604 0.16302644 0.1344014 -0.3181936 0.094405025
0.08084383 -0.89060915 -0.5888593 0.07953993 -2.367503 0.016228482 0.15749452 0.40663046
-0.44602767 0.0520321 -0.33103883 -0.887071 -0.6717108 0.08279894 -2.1971939 -0.09466426
-0.26207173 -0.13633543 0.012661079 -0.837431 0.016181672 -0.071806826 0.045227982 0.002552649
-0.88294214 -0.57151204 -0.56691825 0.06428419 0.03140638 -1.5368207 -0.29526615 0.02797567

modality_encoders.weather.0.bias f4 [64]
00000000: b1b4 debe 55f3 dbbe 288a b7be ec7b 50bd
00000010: 15c1 0a3f 7a26 75be 3d8d e2be 4d95 df3d
00000020: 2164 b23e 3e75 97be 9dd5 3fbe a8a7 efbe
00000030: ac05 33bf 6ce4 ff3d 6343 13bf 1c5b b2bd
00000040: e19a a5be 9cfb 72bc 5748 f8be 3fe7 dbbe
00000050: 5d15 a63e 9336 89bd 23f7 923e 0448 3abe
00000060: d0a0 2b3e 2ca0 df3e 21b1 b33e 940d f7be
00000070: 02dd 96be aebb 9f3e 1696 32bd eadb 853e
00000080: a3e4 043e f119 22bf 8aa1 d0be a8df 3bbe
00000090: 21a5 88be a8cc abbe 9def ffbd aa55 743d
000000a0: 2767 53be 5953 b8bd c8fd eebc c342 f13c
000000b0: cc6d a7be e5a2 00be b90b ddbe e457 263d
000000c0: 10d6 83be c747 8cbe 5007 e0bd c4a4 bbbe
000000d0: 47dc b6bd 7128 27be a5a9 0f3f 61b8 96be
000000e0: c9f0 ab3e e507 80be e641 b2bc 3f6f 32be
000000f0: 0e29 87bd c871 cc3e 27ad 87bd 6e76 d43e
-0.43497232 -0.42959085 -0.35847592 -0.05089943 0.5420087 -0.23940459 -0.4424838 0.10917149
0.34842017 -0.29581636 -0.18733831 -0.468076 -0.6993053 0.1249474 -0.575247 -0.08708784
-0.32344726 -0.014830496 -0.4849269 -0.42949864 0.32438174 -0.06699862 0.28704175 -0.18191534
0.16760564 0.4367689 0.35096076 -0.48252547 -0.2946549 0.31197876 -0.043600164 0.26144344
0.12977843 -0.63320833 -0.40748245 -0.18347037 -0.26688483 -0.33554578 -0.124968745 0.059652008
-0.20644818 -0.09000272 -0.029173747 0.02945078 -0.32700956 -0.1256214 -0.43173006 0.040611163
-0.25749254 -0.27398512 -0.10938895 -0.36649144 -0.08928733 -0.16324021 0.5611823 -0.29437545
0.33582142 -0.25006023 -0.021759938 -0.1742525 -0.065996274 0.39930558 -0.06624823 0.41496605
