results/migraine/fold4_model.pth (torch, 716445 bytes, 45 tensors)

modality_encoders.eeg.0.weight f4 [64, 6]
0.17929484 0.18834685 0.26765057 -0.29855305 0.10448194 0.18757285 -0.17292278 -0.23581512
0.3948366 0.30393037 0.37969178 0.23163891 0.2511259 -0.35859752 0.18174309 -0.13438196
0.028589861 0.17281254 0.24322297 -0.18089 0.32228166 0.13829742 0.32251912 -0.042529304
-0.017318197 -0.11910287 -0.37011203 0.20178258 0.23034321 -0.05749212 -0.31610787 0.27864447
-0.0018086113 -0.11485317 0.2016869 -0.33726722 -0.015428409 -0.0062554115 0.19526748 -0.08617006
-0.3845732 0.22009456 0.099155925 -0.3355106 -0.058589898 -0.38462234 0.17062852 -0.083088085
-0.27493268 0.1814486 -0.2434134 0.24345993 0.28138956 -0.39351964 -0.32243156 0.23101461
-0.31419578 0.09705371 0.19901913 0.007980413 -0.19506031 0.018261947 0.10604484 0.31762657
0.36907533 0.014218159 0.023237953 -0.15321732 -0.0725235 -0.10038462 0.122969516 0.06530925
-0.33933297 0.15033291 0.096627235 -0.025434975 -0.38474852 0.36927325 -0.34446043 0.0016206595
-0.37518382 0.040412582 0.050622333 0.39072883 0.36625272 0.14473899 0.3027578 0.39826238
-0.12921071 -0.2205822 0.26050696 -0.15400435 0.034341376 0.009530603 -0.321439 -0.04233712
0.17001404 0.35241178 -0.15282682 -0.11727455 0.29645455 -0.23962857 -0.2962143 0.37695315
0.3243272 -0.18010992 -0.11755726 -0.11818165 0.38923392 -0.23553869 0.015838867 0.17670721
0.13952549 0.22127329 -0.37226593 -0.27044252 0.31330824 -0.36698386 -0.21027191 0.33669606
0.16344254 0.13837646 -0.37058473 0.1948052 0.19193804 0.13603762 -0.059363995 0.30869964
-0.08746845 0.18329507 -0.1778033 -0.37435105 0.22537741 0.014771015 -0.14515913 0.16808571
0.28288335 -0.21393026 -0.35958862 -0.276461 0.034827948 -0.11670588 0.37165365 -0.31952575
0.11933579 -0.36376575 -0.33423617 -0.28908917 -0.04256444 0.25731426 -0.3397669 -0.17995623
-0.17290851 -0.22679046 0.32867864 0.13998559 -0.15689936 -0.36277246 0.16543603 0.0055662384
0.1494284 0.23550424 0.30595225 -0.22577746 -0.10563049 0.19818002 0.31701633 0.10847906
0.14150628 0.29875124 0.26401535 -0.26161373 0.28254813 -0.12499625 -0.04555897 0.03667238
-0.07817067 0.15398835 0.28887403 -0.3051902 0.23760626 -0.2842492 0.22057404 -0.0573138
0.3711815 0.16729331 -0.046339832 -0.15819244 0.078967445 0.24705958 -0.3354594 -0.037514754
0.19117971 -0.021923067 -0.08284022 -0.26720908 0.09740922 -0.04626211 0.20059069 -0.032212585
-0.14563072 -0.079281256 -0.19387576 -0.1520204 -0.041616846 0.09095714 0.10898267 0.14036368
0.12293043 -0.4072252 -0.0050069084 0.124555714 0.38920626 -0.0024172408 -0.20640683 -0.10624773
0.14957298 -0.0076145832 -0.14547557 -0.0710833 -0.2984634 -0.23039474 0.27157715 -0.26558843
0.255699 -0.12677518 -0.09090332 0.20822702 0.008589237 -0.2834449 0.00087809854 -0.286844
-0.33221012 0.1487014 -0.03174499 -0.24233484 0.26745528 0.20380202 -0.06552436 -0.34949157
-0.33895293 0.39852726 0.1716567 0.27571505 -0.025424317 0.02669983 0.35589746 -0.11189271
-0.20597097 0.3880371 0.35350728 -0.06787536 0.19008231 -0.015577233 -0.3732446 0.35983667
00000000: 1199 373e ffdd 403e 7f09 893e f2db 98be
00000010: a1fa d53d 1913 403e ab12 31be 8579 71be
00000020: 0628 ca3e c39c 9b3e f666 c23e c032 6d3e
00000030: 9393 803e 189a b7be dc1a 3a3e 6d9b 09be
00000040: 4935 ea3c c5f5 303e 710f 793e 3a3b 39be
00000050: 1a02 a53e d79d 0d3e 3a21 a53e 3533 2ebd
00000060: e4de 8dbc 35ec f3bd 537f bdbe 18a0 4e3e
00000070: 17df 6b3e db7c 6bbd e4d8 a1be 7daa 8e3e
00000080: ed0e edba 2438 ebbd 0387 4e3e 4aae acbe
00000090: 70c7 7cbc 32fa ccbb 33f4 473e ee79 b0bd
000000a0: c7e6 c4be 7860 613e 4312 cb3d 0cc8 abbe
000000b0: f6fb 6fbd 38ed c4be 3eb9 2e3e 162a aabd
000000c0: fac3 8cbe a9cd 393e 5d41 79be 8f4d 793e
000000d0: 4b12 903e 687b c9be c015 a5be 188f 6c3e
000000e0: 45de a0be 18c4 c63d accb 4b3e 47c0 023c
000000f0: e4bd 47be 149a 953c 092e d93d f39f a23e
00000100: 71f7 bc3e 48f3 683c 855d be3c 00e5 1cbe
00000110: 3387 94bd 7496 cdbd 71d7 fb3d dbc0 853d
00000120: 0dbd adbe dff0 193e 80e4 c53d 025d d0bc
00000130: c2fd c4be 6211 bd3e 1e5d b0be 4f6c d43a
00000140: 1818 c0be aa87 253d 5d59 4f3d 9c0d c83e
00000150: 7a85 bb3e 7536 143e 1203 9b3e 0ce9 cb3e
00000160: d04f 04be 4de0 61be 2b61 853e 51b3 1dbe
00000170: 8ba9 0c3d 3f26 1c3c a793 a4be b069 2dbd
00000180: 2918 2e3e 516f b43e a27e 1cbe a42d f0bd
00000190: e4c8 973e 3161 75be 67a9 97be 0100 c13e
000001a0: 370e a63e bc6e 38be dcc1 f0bd 3909 f2bd
000001b0: ab49 c73e 0e31 71be 83c0 813c bcf2 343e
000001c0: c5df 0e3e 7795 623e a499 bebe 7177 8abe
000001d0: f069 a03e 4fe5 bbbe 8551 57be 6d63 ac3e
000001e0: 7b5d 273e 8fb2 0d3e 48bd bdbe 047b 473e
000001f0: 688b 443e 724d 0b3e a927 73bd e10d 9e3e
00000200: a922 b3bd b4b1 3b3e 1112 36be f1aa bfbe
00000210: 56c9 663e 2102 723c 98a4 14be a91e 2c3e
00000220: 16d6 903e 8910 5bbe 001c b8be 4c8c 8dbe
00000230: c0a7 0e3d 7e03 efbd 6349 be3e e198 a3be
00000240: 5366 f43d 813f babe 0121 abbe 7f03 94be
00000250: 0d58 2ebd b2be 833e edf5 adbe 7246 38be
00000260: ee0e 31be c23b 68be 9148 a83e 6258 0f3e
00000270: 3aaa 20be 50bd b9be 1068 293e fe64 b63b
00000280: c203 193e 0628 713e c6a5 9c3e 3532 67be
00000290: cc54 d8bd b4ef 4a3e f74f a23e 452a de3d
000002a0: 06e7 103e ecf5 983e 052d 873e 3cf2 85be
000002b0: 26aa 903e 09fe ffbd 0b9c 3abd c735 163d
000002c0: f217 a0bd 1faf 1d3e 4ce7 933e e441 9cbe
000002d0: 0e4f 733e 1c89 91be 29de 613e e0c1 6abd
000002e0: 800b be3e f04e 2b3e d6ce 3dbd 33fd 21be
000002f0: afb9 a13d 30fd 7c3e 56c1 abbe 12a9 19bd
00000300: 9dc4 433e 0198 b3bc 22a8 a9bd a1cf 88be
00000310: 7c7e c73d 577d 3dbd a567 4d3e 58f1 03bd
00000320: 3820 15be 365e a2bd 5e87 46be 3cab 1bbe
00000330: 6d76 2abd bd47 ba3d 4e32 df3d 7fbb 0f3e
00000340: f3c2 fb3d d27f d0be fe10 a4bb 1117 ff3d
00000350: 0b46 c73e 926a 1ebb 505c 53be 6998 d9bd
00000360: a929 193e c183 f9bb 8cf7 14be 1f94 91bd
00000370: 32d0 98be 99ec 6bbe 290c 8b3e 35fb 87be
00000380: fbea 823e 5ad1 01be 852b babd 7739 553e
00000390: dfb9 0c3c b11f 91be 3230 663a 37dd 92be
000003a0: 7217 aabe 2e45 183e 0907 02bd a026 78be
000003b0: e6ef 883e 7ab1 503e a331 86bd 8ff0 b2be
000003c0: 3d8b adbe c40b cc3e c6c6 2f3e 862a 8d3e
000003d0: a846 d0bc 9ab9 da3c 3138 b63e 0128 e5bd
000003e0: 0eea 52be ccac c63e e8fe b43e 3d02 8bbd
000003f0: f0a4 423e a737 7fbc eb19 bfbe 833c b83e

modality_encoders.eeg.0.bias f4 [64]
-0.18989505 -0.1868428 0.25631618 0.33963025 0.2471995 -0.15551688 -0.15383689 0.022177985
-0.321464 -0.12585016 0.06538478 -0.3812006 0.037045557 -0.35122097 0.036177095 -0.085251965
-0.1933632 -0.22468421 -0.35401917 0.092440076 -0.29358017 -0.014544909 0.11832469 0.2564948
0.2554869 -0.2909876 0.3563452 0.33054996 -0.32959023 -0.26516742 -0.39363915 -0.17605707
-0.3812031 -0.2644947 0.17206882 -0.094349526 -0.32732144 -0.19806059 -0.2625516 -0.39406136
0.21328932 -0.22127688 0.32032335 0.06580424 -0.16209564 0.27008832 0.35581157 0.2941794
-0.3738044 0.041036006 -0.32064596 0.08841595 -0.38474998 -0.3299095 -0.21143228 0.0073018004
0.29975668 -0.19398244 -0.011972907 -0.3855289 0.2347848 -0.08593466 -0.073530175 -0.33962741
00000000: d973 42be b853 3fbe e03b 833e 04e4 ad3e
00000010: de21 7d3e d13f 1fbe 6b87 1dbe 9bae b53c
00000020: ee96 a4be ddde 00be 75e8 853d ba2c c3be
00000030: 15bd 173d 3cd3 b3be 6f2e 143d 9598 aebd
00000040: 0101 46be 9e13 66be 0042 b5be 3951 bd3d
00000050: 2450 96be c54d 6ebc 3754 f23d 4953 833e
00000060: 2ecf 823e 54fc 94be e172 b63e d83d a93e
00000070: 0dc0 a8be 06c4 87be 128b c9be 4e48 34be
00000080: 0d2d c3be d96b 87be cf32 303e 533a c1bd
00000090: ad96 a7be 65d0 4abe 2a6d 86be 69c2 c9be
000000a0: 8468 5a3e 6896 62be 6c01 a43e 60c4 863d
000000b0: 66fc 25be 0449 8a3e ef2c b63e af9e 963e
000000c0: 4a63 bfbe 5f15 283d b52b a4be 6c13 b53d
000000d0: f3fd c4be e6e9 a8be b481 58be f143 ef3b
000000e0: b579 993e 55a3 46be 032a 44bc 0b64 c5be
000000f0: 6d6b 703e 83fe afbd fd96 96bd a5e3 adbe

modality_encoders.eeg.3.weight f4 [32, 64]
-0.10628076 -0.101487264 -0.012760118 0.09192677 0.025914282 0.11610986 -0.097815886 0.12053624
0.117821515 -0.050510928 -0.0917791 0.121995896 0.07517399 0.08546279 0.033767387 -0.06973007
-0.046133623 -0.0425815 -0.07992272 0.05188954 0.117519364 0.09678446 0.018653467 -0.0276203
0.09247899 -0.08982183 0.122608066 0.09091352 0.070363656 -0.055728108 0.11263238 0.021009207
-0.110306814 -0.113107696 0.062135696 0.10498212 -0.003507316 0.058273822 0.016028374 -0.09401114
0.07745403 0.11039157 0.114711285 0.10467251 0.0059835613 -0.040366724 0.03140691 -0.06343083
0.11395164 0.053364784 -0.041809827 0.104460254 0.079379365 -0.035786092 -0.026285097 -0.0038976967
-0.12054451 -0.04573454 0.11108701 -0.040839285 0.011733964 -0.04810199 0.011276603 0.031139836
-0.05149299 0.06874362 0.09758431 -0.104566306 0.02534473 -0.0649955 0.08144657 0.10937008
-0.030775368 -0.024935603 -0.027482867 0.051836774 -0.065393984 -0.006660238 -0.0515199 0.021952122
0.07910539 0.09037089 0.092108965 -0.12296973 0.025414124 0.12273516 -0.048000216 -0.076709524
0.07009016 0.020279065 -0.0777137 -0.0060155243 0.047550946 -0.04158953 -0.09490536 -0.047100037
-0.024490163 0.08260079 -0.06832774 -0.016207054 -0.110462144 0.09823036 -0.051782563 -0.124126405
0.0164136 0.08223079 0.013194218 -0.05067423 -0.058527753 -0.019967288 0.028168544 -0.047687456
0.07203251 -0.031318486 0.122859195 0.06598374 0.06081882 -0.03806837 0.04239434 -0.0024858564
0.059607238 -0.010792717 -0.08956511 0.03669122 -0.076645 -0.109391734 0.074471936 0.10388327
-0.09434484 0.060897216 0.07834834 -0.032413498 0.00938642 -0.09244472 -0.023140058 0.027011827
0.030749708 0.08023319 -0.050523564 0.08010127 0.019370064 -0.08611667 0.02935563 -0.07248972
0.09175481 -0.10142869 -0.06762476 0.059507698 0.113180935 0.03569536 0.012067899 0.09415668
0.10990149 0.078678235 0.008745834 0.08224048 -0.04408014 -0.07816389 0.11961226 0.024922222
-0.0016896278 0.0016788542 -0.05536878 -0.02991891 0.101546675 -0.027407393 -0.010430232 0.10213518
-0.07950495 -0.040798873 0.0041192025 0.11325526 0.08329493 0.11587632 0.018125385 -0.10585907
-0.05988574 0.08438295 0.075492784 0.08847946 0.11478098 -0.05906917 -0.06414658 0.10014184
-0.114501506 -0.103465095 0.0740034 -0.087800756 0.0507825 -0.09339942 -0.0451286 0.09670347
0.054567516 0.11402604 -0.1103162 -0.12499219 0.03735909 0.11538462 0.11454995 -0.017335445
-0.124550834 0.08567336 0.0797303 -0.032496363 -0.07944323 0.038939938 0.08541967 -0.106877446
0.116879344 -0.008871019 0.03755997 -0.05929929 -0.0032576472 0.107583165 0.09986593 -0.065577075
0.10609187 0.035105363 0.033640295 0.06525959 -0.107326746 -0.048340067 0.09178807 -0.07372567
0.0037228018 -0.0050442666 -0.07059795 -0.042818308 0.0843132 -0.02612774 -0.056057617 -0.033674434
0.11473982 -0.05756782 -0.08495057 2.6375055e-05 -0.016805172 -0.021602735 -0.05767435 -0.096154004
0.027282953 -0.0105930865 -0.061357066 0.031669557 0.073480085 0.018422097 0.019126877 0.044630364
0.09741199 -0.026982665 -0.054801047 0.08351709 -0.0015138388 0.0844017 0.041282296 0.088828325
00000000: baa9 d9bd 8ed8 cfbd d00f 51bc 1a44 bc3d
00000010: 304a d43c 02cb ed3d b253 c8bd b4db f63d
00000020: 684c f13d 8ce4 4ebd aef6 bbbd fcd8 f93d
00000030: d2f4 993d 1e07 af3d ac4f 0a3d a4ce 8ebd
00000040: 9cf6 3cbd f069 2ebd 86ae a3bd 208a 543d
00000050: fead f03d ee36 c63d 28cf 983c f843 e2bc
00000060: a065 bd3d 82f4 b7bd f019 fb3d de30 ba3d
00000070: d21a 903d 2843 64bd ceab e63d 801b ac3c
00000080: 8ae8 e1bd 02a5 e7bd 0082 7e3d de00 d73d
00000090: 00db 65bb 88b0 6e3d f04d 833c ea88 c0bd
000000a0: 38a0 9e3d fa14 e23d c0ed ea3d 8a5e d63d
000000b0: c011 c43b 9457 25bd 88a4 003d 06e8 81bd
000000c0: 7a5f e93d 0895 5a3d c840 2bbd 42ef d53d
000000d0: a691 a23d 7094 12bd d853 d7bc 8070 7fbb
000000e0: 0ae0 f6bd 2454 3bbd 9681 e33d 1847 27bd
000000f0: d03f 403c 9806 45bd 80c1 383c f818 ff3c
00000100: 50ea 52bd 74c9 8c3d 48da c73d dc26 d6bd
00000110: c09f cf3c 5c1c 85bd 76cd a63d 6cfd df3d
00000120: a01c fcbc c045 ccbc c023 e1bc cc52 543d
00000130: 48ed 85bd 203e dabb 8806 53bd f0d4 b33c
00000140: 0202 a23d 6014 b93d a0a3 bc3d 8ed7 fbbd
00000150: 4831 d03c 925c fb3d e09b 44bd e219 9dbd
00000160: 6e8b 8f3d 4820 a63c 5c28 9fbd e01d c5bb
00000170: c8c4 423d c859 2abd be5d c2bd f8eb 40bd
00000180: 989f c8bc 9a2a a93d 6aef 8bbd a8c4 84bc
00000190: fa39 e2bd 002d c93d f419 54bd fc35 febd
000001a0: d075 863c 9e68 a83d 902c 583c c88f 4fbd
000001b0: ccba 6fbd 7092 a3bc b8c1 e63c ec53 43bd
000001c0: c885 933d d047 00bd 9a9d fb3d 7c22 873d
000001d0: 281d 793d 94ed 1bbd b0a5 2d3d c0e9 22bb
000001e0: b826 743d f0d3 30bc ea6d b7bd 8849 163d
000001f0: 0ef8 9cbd c608 e0bd be84 983d c0c0 d43d
00000200: de37 c1bd 5c6f 793d 1875 a03d 04c4 04bd
00000210: 80c9 193c a853 bdbd 3890 bdbc e847 dd3c
00000220: d0e6 fb3c 4c51 a43d ccf1 4ebd 220c a43d
00000230: f8ad 9e3c f05d b0bd 387b f03c 7e75 94bd
00000240: f2e9 bb3d d8b9 cfbd da7e 8abd 58be 733d
00000250: 68cb e73d 4c35 123d 70b8 453c 38d5 c03d
00000260: 0814 e13d 0e22 a13d b04a 0f3c b26d a83d
00000270: 608d 34bd 6414 a0bd 46f7 f43d b029 cc3c
00000280: 8076 ddba 000d dc3a 60ca 62bd 8018 f5bc
00000290: b4f7 cf3d 7885 e0bc 90e3 2abc 402c d13d
000002a0: 7ed3 a2bd b81c 27bd 60fa 863b 60f2 e73d
000002b0: 8896 aa3d 9050 ed3d b07b 943c a4cc d8bd
000002c0: c04a 75bd f8d0 ac3d f69b 9a3d b834 b53d
000002d0: 4a12 eb3d 84f2 71bd 485f 83bd 2a17 cd3d
000002e0: c47f eabd 82e5 d3bd 188f 973d e2d0 b3bd
000002f0: 5001 503d 3248 bfbd c4d8 38bd 780c c63d
00000300: 3082 5f3d 7c86 e93d 76ed e1bd e8fb ffbd
00000310: d805 193d c64e ec3d 2a99 ea3d 1003 8ebc
00000320: 8214 ffbd 8475 af3d a449 a33d e81a 05bd
00000330: 22b3 a2bd 7c7f 1f3d 82f0 ae3d 90e2 dabd
00000340: 705e ef3d c057 11bc 7cd8 193d d0e3 72bd
00000350: 407e 55bb 9054 dc3d 8286 cc3d 464d 86bd
00000360: b246 d93d a4ca 0f3d 68ca 093d d2a6 853d
00000370: 20ce dbbd 3c00 46bd 62fb bb3d 7cfd 96bd
00000380: 40fa 733b 604a a5bb a895 90bd 4062 2fbd
00000390: 66ac ac3d d809 d6bc ac9c 65bd 34ee 09bd
000003a0: b6fc ea3d 3ccc 6bbd 90fa adbd 0040 dd37
000003b0: 00ab 89bc 38f8 b0bc f03b 6cbd 64ec c4bd
000003c0: 8080 df3c a08e 2dbc 8c51 7bbd f0b7 013d
000003d0: ba7c 963d f0e9 963c f8af 9c3c 54ce 363d
000003e0: f07f c73d c00a ddbc 1077 60bd 020b ab3d
000003f0: 006c c6ba ccda ac3d a017 293d a0eb b53d

modality_encoders.eeg.3.bias f4 [32]
-0.098505974 -0.0747595 -0.045037627 0.01103501 -0.056006566 0.007138863 -0.04175964 -0.0043058246
0.0011359155 0.072552085 -0.10446656 -0.050947055 0.07130681 -0.07514104 -0.1149786 -0.0011298358
-0.09718174 -0.04026924 -0.013407066 -0.115824744 -0.062337577 -0.090445995 -0.07275678 0.012280285
0.024215832 0.11602925 0.10309215 -0.09946805 -0.073694825 0.06760085 0.00096061826 0.029395252
00000000: 80bd c9bd 821b 99bd 6079 38bd 30cc 343c
00000010: 2467 65bd 20ed e93b 280c 2bbd e017 8dbb
00000020: 00e3 943a 3096 943d 90f2 d5bd dcad 50bd
00000030: 4e09 923d 8ce3 99bd e679 ebbd 0017 94ba
00000040: 3807 c7bd 5cf1 24bd 50a9 5bbc 8635 edbd
00000050: b055 7fbd c03b b9bd 8201 95bd 4033 493c
00000060: 4860 c63c bea0 ed3d fa21 d33d e8b5 cbbd
00000070: 50ed 96bd 5072 8a3d 00d2 7b3a 50ce f03c

modality_encoders.sleep.0.weight f4 [64, 24]
-0.08870248 0.10088368 0.19467592 0.14084531 0.119874775 -0.031657755 -0.07825786 -0.1543667
0.13369231 0.18337712 -0.03444579 0.0010708685 0.07277521 -0.03877805 -0.17668666 -0.18635747
-0.15255496 -0.015826993 -0.19277348 -0.13630293 0.15605761 -0.1617279 -0.1751696 0.18008626
0.19857672 -0.024253462 0.118532225 0.12574509 -0.11293562 -0.002043016 0.05861428 -0.01898801
0.18216096 0.19754797 0.08865157 -0.008188222 0.18386136 -0.08398771 0.119982064 0.0036542097
-0.15827717 0.1899826 0.04333713 -0.07913257 -0.15451129 0.19169302 -0.17886995 -0.13602835
0.052019928 -0.046225928 0.1403187 -0.12046589 0.08950319 0.029630436 0.16898602 0.104439944
0.115304366 -0.054082848 0.027823575 -0.10145469 0.034445986 -0.14541484 0.09162011 -0.17225969
0.060535043 0.19833863 -0.13264808 -0.11736476 0.14992912 -0.1725437 -0.18793774 -0.07024535
-0.18953417 0.006460762 0.0060333926 -0.13267149 0.007452863 0.15729778 0.17356269 -0.115786724
-0.06160808 0.0718188 -0.13515675 0.090115935 0.19092065 -0.20021091 0.15423808 -0.03415464
-0.11673914 -0.18242124 0.1442834 -0.0038018653 -0.07973337 0.17154747 0.19629122 -0.10522066
-0.14902456 -0.048584864 -0.026477933 0.12881064 0.02992942 0.008417175 -0.12916276 0.12732704
0.034649827 0.044228245 -0.06260437 0.06439536 0.07796916 0.095030695 0.070062555 0.03119172
0.025054764 -0.06986529 0.121333525 0.093604825 -0.04778916 0.022596594 -0.15954022 -0.09750042
-0.14392939 0.004146598 0.07392003 -0.051779486 -0.14438298 -0.14053632 -0.04848174 -0.08884748
0.0890583 0.06924364 0.019636327 0.19566634 -0.11854739 0.06446846 -0.04871831 0.039095093
-0.04998876 -0.004624605 -0.0065817237 -0.07538877 0.11670356 -0.114277124 -0.052010536 -0.12489271
-0.028262697 -0.14520797 0.09894868 0.17288834 0.11944651 0.18333866 -0.08439073 0.01690847
-0.15495723 0.17587727 -0.13579784 -0.15437385 -0.1838607 0.1863597 -0.12631391 -0.15769336
-0.091588356 -0.15800126 -0.0048369635 -0.079497725 0.04703212 0.066000886 -0.13731676 -0.107326046
0.10725351 -0.04845283 0.030692372 0.042521443 -0.07940594 0.060699854 -0.11232298 0.18920913
-0.13535139 -0.05401936 0.15129961 0.15268409 -0.103382215 -0.12568055 0.19201337 0.08026703
0.075295694 0.20023374 0.029180994 0.10408253 0.10024969 -0.19234924 0.108507924 0.15628365
0.063217446 0.047527064 0.13507776 0.13112208 0.1805209 -0.0208978 -0.06443804 0.014123501
0.18259235 -0.14132875 0.12348383 0.04213038 -0.17955144 -0.039110422 0.0278245 -0.17350964
0.17252026 0.020683715 0.13091442 0.11401024 0.12897483 -0.04475813 0.03865989 0.17302004
0.11370609 0.15142477 -0.100059696 -0.19246124 -0.18984652 -0.11717945 -0.05294618 0.0783505
-0.122731335 -0.20113921 0.13596135 0.14630261 0.13424368 0.15734637 -0.07807531 -0.06880235
0.09313147 -0.15068626 0.15912028 -0.0023335093 -0.119413905 -0.016401043 -0.117333926 0.16460541
-0.13610388 -0.093033694 0.14256556 -0.011831821 0.06605473 0.11558271 0.02374679 -0.021158632
-0.17567657 0.17477442 -0.089916766 0.08279284 0.030540993 0.07319596 0.015522653 -0.035814136
00000000: a5a9 b5bd 1a9c ce3d 2059 473e c139 103e
00000010: e880 f53d 90ab 01bd a845 a0bd 4e12 1ebe
00000020: a3e6 083e 36c7 3b3e 0717 0dbd 625c 8c3a
00000030: 2b0b 953d bcd5 1ebd 59ed 34be 7ed4 3ebe
00000040: 5e37 1cbe 9ca7 81bc 6966 45be ff92 0bbe
00000050: 91cd 1f3e 009c 25be a95f 33be 8868 383e
00000060: b257 4b3e 32af c6bc 06c1 f23d 52c3 003e
00000070: ca4a e7bd 1fe4 05bb 8715 703d be8c 9bbc
00000080: 6788 3a3e 044a 4a3e f48e b53d e427 06bc
00000090: 2746 3c3e c001 acbd 28b9 f53d 777b 6f3b
000000a0: 6913 22be cc8a 423e 4682 313d 4210 a2bd
000000b0: 3538 1ebe 2d4b 443e af29 37be 044b 0bbe
000000c0: d912 553d 6657 3dbd b5af 0f3e d2b6 f6bd
000000d0: 734d b73d 87bb f23c ac0a 2d3e 9ce4 d53d
000000e0: b224 ec3d fa85 5dbd 44ee e33c 7ac7 cfbd
000000f0: 3c17 0d3d a1e7 14be 53a3 bb3d d864 30be
00000100: 98f3 773d 4819 4b3e e6d4 07be ef5c f0bd
00000110: 0587 193e 4caf 30be c072 40be cbdc 8fbd
00000120: 3f15 42be cdb4 d33b c4b3 c53b 09db 07be
00000130: 2537 f43b ab12 213e 6bba 313e 9721 edbd
00000140: c158 7cbd bc15 933d 8866 0abe b48e b83d
00000150: b480 433e 1704 4dbe 96f0 1d3e bce5 0bbd
00000160: ee14 efbd a2cc 3abe 07bf 133e b728 79bb
00000170: 404b a3bd 24aa 2f3e 9100 493e ee7d d7bd
00000180: e599 18be ec00 47bd 40e8 d8bc f0e6 033e
00000190: 8b2e f53c 31e8 093c 3e43 04be 0562 023e
000001a0: faec 0d3d ad28 353d b836 80bd b7e1 833d
000001b0: 4cae 9f3d 749f c23d f57c 8f3d c785 ff3c
000001c0: a63f cd3c 8815 8fbd b67d f83d e3b3 bf3d
000001d0: 91be 43bd 7e1c b93c 835e 23be 4dae c7bd
000001e0: 3a62 13be 2fe0 873b 6263 973d ba16 54bd
000001f0: 22d9 13be c1e8 0fbe ca94 46bd abf5 b5bd
00000200: 3364 b63d 9ccf 8d3d 5ddc a03c c25c 483e
00000210: f9c8 f2bd 0a08 843d da8c 47bd 2d22 203d
00000220: 04c1 4cbd 008a 97bb 80ab d7bb 6d65 9abd
00000230: 4702 ef3d 200a eabd 0009 55bd c0c7 ffbd
00000240: 2c87 e7bc 66b1 14be 9ba5 ca3d a409 313e
00000250: 5fa0 f43d 21bd 3b3e 0cd5 acbd a283 8a3c
00000260: 1cad 1ebe 2c19 343e 970e 0bbe 2e14 1ebe
00000270: fb45 3cbe 14d5 3e3e 6f58 01be 5e7a 21be
00000280: ad92 bbbd 15cb 21be 647f 9ebb b4cf a2bd
00000290: c1a4 403d 792b 873d c49c 0cbe c2cd dbbd
000002a0: baa7 db3d 7a76 46bd 926e fb3c f72a 2e3d
000002b0: 959f a2bd 69a0 783d 9709 e6bd 0ac0 413e
000002c0: 8e99 0abe 6843 5dbd 49ee 1a3e 3859 1c3e
000002d0: 0eba d3bd 67b2 00be 279f 443e 0a63 a43d
000002e0: a134 9a3d 130a 4d3e fb0c ef3c 3929 d53d
000002f0: b64f cd3d 33f7 44be 6739 de3d d208 203e
00000300: 2678 813d bdab 423d d351 0a3e de44 063e
00000310: 79da 383e dd31 abbc 17f8 83bd 4266 673c
00000320: 7df9 3a3e 7cb8 10be 17e5 fc3d e890 2c3d
00000330: 55dc 37be 4032 20bd 35f0 e33c 83ac 31be
00000340: 27a9 303e e570 a93c 6e0e 063e 337e e93d
00000350: fa11 043e 4d54 37bd d559 1e3d 2a2c 313e
00000360: bdde e83d 180f 1b3e 19ec ccbd 8f14 45be
00000370: 2067 42be c8fb efbd 18de 58bd 3a76 a03d
00000380: 915a fbbd 70f7 4dbe 7439 0b3e 5ad0 153e
00000390: 2d77 093e 681f 213e f3e5 9fbd 3fe8 8cbd
000003a0: b6bb be3d 804d 1abe 6df0 223e caed 18bb
000003b0: 478f f4bd 7b5b 86bc c54c f0bd 528e 283e
000003c0: d15e 0bbe 7388 bebd b5fc 113e 41da 41bc
000003d0: b447 873d a1b6 ec3d a188 c23c de54 adbc
000003e0: 8fe4 33be 11f8 323e 4826 b8bd 4b8f a93d
000003f0: 1b31 fa3c c3e7 953d ba52 7e3c d8b1 12bd

modality_encoders.sleep.0.bias f4 [64]
-0.17178981 0.1455267 -0.17688295 0.008902166 -0.053030133 0.035846304 0.08238316 -0.03921849
-0.110681534 0.13 -0.14046016 0.14713435 0.15885556 0.0625612 -0.10998227 0.08911162
-0.03334487 -0.15734155 0.08158756 0.19338052 -0.0142738335 0.122188844 -0.12867713 0.052043602
0.07586223 -0.19094864 0.09181376 -0.035452783 -0.103618085 0.13780637 0.12672348 0.00011779845
-0.026069082 0.057770174 0.13101232 0.18972625 0.17222679 0.000104682695 -0.04582469 0.061366934
0.08988964 0.12978627 0.04235245 -0.1796926 0.14270929 0.092660464 0.038416505 0.17117804
0.20249897 0.14799863 -0.19880329 -0.10332209 -0.12175625 -0.16232656 0.103685945 0.06861934
0.064432666 0.003588266 -0.1282796 -0.18090375 -0.16757967 0.10151311 0.1922411 -0.033928752
00000000: abe9 2fbe f404 153e ce20 35be 64da 113c
00000010: 2036 59bd 93d3 123d 81b8 a83d 91a3 20bd
00000020: 00ad e2bd b81e 053e cad4 0fbe 63aa 163e
00000030: 08ab 223e 1620 803d 623e e1bd 2780 b63d
00000040: a194 08bd 251e 21be 6117 a73d 8b05 463e
00000050: ccdc 69bc 253e fa3d f0c3 03be ac2b 553d
00000060: a85d 9b3d 0a88 43be da08 bc3d f036 11bd
00000070: b835 d4bd 1d1d 0d3e cdc3 013e 900a f738
00000080: d48e d5bc 6ba0 6c3d 1828 063e 9947 423e
00000090: 385c 303e 1889 db38 acb2 3bbd e55b 7b3d
000000a0: 0f18 b83d b1e6 043e c379 2d3d 5601 38be
000000b0: 6222 123e c5c4 bd3d a05a 1d3d 4c49 2f3e
000000c0: e45b 4f3e f48c 173e 1793 4bbe 889a d3bd
000000d0: 575b f9bd ef38 26be 4c59 d43d 4c88 8c3d
000000e0: 46f5 833d 1d29 6b3b ba5b 03be d53e 39be
000000f0: 019a 2bbe 1be6 cf3d dada 443e e0f8 0abd

modality_encoders.sleep.3.weight f4 [32, 64]
0.07714793 0.09123717 0.010983959 0.08311349 -0.054692864 -0.119871885 -0.026663765 -0.08196807
0.00066161156 -0.018533632 -0.022098646 0.0617311 0.027768746 0.047778204 -0.028041631 0.006277621
0.095169246 0.07276705 0.06520656 -0.09143914 -0.05005808 0.10841349 0.07393482 -0.03147626
0.11125781 0.021902174 0.06741698 0.03186813 -0.0832219 -0.12391345 -0.03203246 0.05293493
0.08760689 -0.10201387 0.081614 0.08170371 0.019171506 -0.03232874 0.038168862 -0.029685497
-0.07250321 0.1214914 0.109385386 0.07685624 0.021422341 -0.029198632 -0.078365564 0.036029592
-0.015336156 0.046984687 -0.029757395 -0.06037496 -0.07704201 0.08278912 -0.08597933 0.03612134
-0.07486233 -0.08262104 -0.06380524 -0.06334165 0.00064477324 0.11066441 -0.12264989 -0.06627667
0.10886085 0.009005457 0.05321352 -0.0142606795 -0.011029214 0.062622175 -0.11233632 -0.04594472
0.115778804 0.09584083 0.034571484 0.091598555 -0.006916672 -0.10064292 -0.058312178 0.048541933
0.027823463 0.1138262 -0.10612759 -0.113860324 0.017073944 0.0043661594 -0.103215575 0.036067307
-0.06117913 -0.111890465 -0.024804145 -0.11275892 -0.021345556 -0.045835152 0.027760774 0.02851969
-0.024765864 0.09652121 -0.019724518 -0.07985157 -0.04608929 -0.009802818 -0.02425088 -0.11972901
0.019846737 0.029530928 0.08427791 -0.10840298 0.028332084 0.118842214 0.017556638 0.046983406
-0.030079454 0.10547942 0.032961994 0.115060896 0.06835398 0.0828826 -0.057319283 -0.041256696
0.08759646 -0.031355917 -0.08934541 0.020599872 0.114437595 -0.08791557 0.122520745 -0.07376014
-0.06211485 -0.006735459 0.048760086 0.10583292 -0.09309973 0.07676081 -0.11879128 -0.04998891
-0.111285016 0.008059457 0.038930297 -0.053404897 -0.036179483 -0.08434431 -0.078174904 0.09082651
-0.010101154 -0.07249902 0.06488773 0.117397025 -0.031002715 0.122965306 -0.02135548 -0.07882279
0.06282924 -0.04281588 -0.026522145 0.03736961 -0.110093325 -0.070284575 -0.09515913 0.06959844
0.024614409 -0.090750426 -0.042416483 -0.120230615 -0.061457977 0.05735016 0.037103653 -0.0014103055
0.054240957 0.0701884 0.083694264 0.06244701 0.014985263 -0.0482129 0.10927403 -0.11129829
0.0786268 -0.06375939 0.019622728 0.0391116 0.039866954 0.0913503 -0.084089175 0.11820041
-0.0070926696 0.11078638 -0.10749921 0.104030535 -0.108121574 -0.032645866 0.08574344 -0.038440883
0.07110329 0.11687034 -0.11928211 0.06530605 -0.0835055 0.12450199 0.06847553 0.11413489
-0.08431196 0.08731197 0.0712816 -0.000593856 0.037206605 0.0091468245 0.008295685 -0.010574058
0.11504361 -0.11392848 -0.099437 -0.11602011 0.03517306 0.019241378 0.009060577 0.07410161
-0.10496056 0.061273113 -0.08384374 -0.10383788 -0.115257025 -0.08194713 0.11401194 -0.1042835
-0.09680283 -0.051742673 0.03396423 0.06838335 -0.0004749447 0.052920535 0.016905278 -0.00061507523
-0.004522398 -0.119404 0.010211498 0.11716592 0.09487067 -0.11154066 -0.03048803 -0.008180931
-0.053199068 -0.07342358 -0.07158516 0.046430692 0.023358732 -0.110833004 0.11872451 -0.10776517
0.010841653 0.03440401 -0.11470178 0.045694277 0.004300937 0.08998673 0.09547901 0.09094563
00000000: bcff 9d3d 8eda ba3d 10f6 333c 6837 aa3d
00000010: a005 60bd 647f f5bd f86d dabc e0de a7bd
00000020: 0070 2d3a d8d3 97bc 3808 b5bc c0d9 7c3d
00000030: 487b e33c 14b3 433d 90b7 e5bc 80b4 cd3b
00000040: 18e8 c23d e406 953d 048b 853d 7244 bbbd
00000050: b409 4dbd e407 de3d 246b 973d 40ed 00bd
00000060: 22db e33d 306c b33c ea11 8a3d 2888 023d
00000070: 3e70 aabd 56c6 fdbd 7834 03bd 4cd2 583d
00000080: 3e6b b33d a6ec d0bd 3e25 a73d 4654 a73d
00000090: 900d 9d3c 246b 04bd f456 1c3d 002f f3bc
000000a0: 907c 94bd 7cd0 f83d 7205 e03d ce66 9d3d
000000b0: e87d af3c f831 efbc 207e a0bd c493 133d
000000c0: 8044 7bbc 0473 403d c8c5 f3bc bc4b 77bd
000000d0: 34c8 9dbd 588d a93d ee15 b0bd f8f3 133d
000000e0: 6c51 99bd 3835 a9bd 52ac 82bd 44b9 81bd
000000f0: 0006 293a 06a4 e23d de2f fbbd 10bc 87bd
00000100: 70f2 de3d a08b 133c 6cf6 593d a0a5 69bc
00000110: e0b3 34bc 0e40 803d 9610 e6bd 8830 3cbd
00000120: 701d ed3d 3248 c43d d49a 0d3d 0698 bb3d
00000130: 40a5 e2bb e01d cebd c0d8 6ebd e8d3 463d
00000140: 08ee e33c b61d e93d 6c59 d9bd 9a2f e9bd
00000150: a8de 8b3c 0012 8f3b b062 d3bd 50bb 133d
00000160: f896 7abd d426 e5bd 1032 cbbc 26ee e6bd
00000170: e0dc aebc a4bd 3bbd 906a e33c 20a2 e93c
00000180: c8e1 cabc eaac c53d 5095 a1bc 3889 a3bd
00000190: 20c8 3cbd 009c 20bc c8a9 c6bc 7c34 f5bd
000001a0: a095 a23c d8ea f13c e699 ac3d 6202 debd
000001b0: b018 e83c 8c63 f33d f0d2 8f3c ac71 403d
000001c0: 3069 f6bc 9805 d83d 2803 073d 0ca5 eb3d
000001d0: 2cfd 8b3d 5abe a93d a0c7 6abd c8fc 28bd
000001e0: c665 b33d 106f 00bd bafa b6bd 10c1 a83c
000001f0: 425e ea3d 140d b4bd 28ec fa3d 8e0f 97bd
00000200: 246c 7ebd 20b5 dcbb a8b8 473d eebe d83d
00000210: 12ab bebd c634 9d3d d848 f3bd 2cc1 4cbd
00000220: 66e9 e3bd d00b 043c 6075 1f3d 18bf 5abd
00000230: f030 14bd b6bc acbd 2a1a a0bd 4003 ba3d
00000240: 507f 25bc 5e7a 94bd dce3 843d da6d f03d
00000250: 68f9 fdbc 3cd5 fb3d b0f1 aebc d86d a1bd
00000260: 9eac 803d b45f 2fbd f844 d9bc e010 193d
00000270: 9c78 e1bd 5cf1 8fbd cae2 c2bd a089 8e3d
00000280: 28a4 c93c 5cdb b9bd e8bc 2dbd 783b f6bd
00000290: 5cbb 7bbd 00e8 6a3d 00fa 173d 00da b8ba
000002a0: c42b 5e3d f0be 8f3d e667 ab3d 70c8 7f3d
000002b0: c084 753c e47a 45bd 10cb df3d 5cf0 e3bd
000002c0: 1607 a13d 4894 82bd d8bf a03c 7c33 203d
000002d0: 884b 233d de15 bb3d f236 acbd 0e13 f23d
000002e0: a069 e8bb f8e3 e23d 8c28 dcbd f60d d53d
000002f0: d86e ddbd acb7 05bd 429a af3d 3074 1dbd
00000300: 9a9e 913d b859 ef3d 2e4a f4bd 2ebf 853d
00000310: ee04 abbd e6fa fe3d e63c 8c3d 8ebf e93d
00000320: c0ab acbd 9ed0 b23d 16fc 913d 00ad 1bba
00000330: f465 183d 90dc 153c a0ea 073c d03e 2dbc
00000340: fc9b eb3d 5653 e9bd a0a5 cbbd f49b edbd
00000350: a011 103d 18a0 9d3c d072 143c 96c2 973d
00000360: 90f5 d6bd 84f9 7a3d 44b6 abbd f4a8 d4bd
00000370: e00b ecbd e6d3 a7bd 187f e93d 9692 d5bd
00000380: 9040 c6bd 20f0 53bd 141e 0b3d 920c 8c3d
00000390: 0002 f9b9 34c3 583d f07c 8a3c 003d 21ba
000003a0: a030 94bb 168a f4bd 204e 273c b0f4 ef3d
000003b0: 8e4b c23d 6e6f e4bd 08c2 f9bc 5009 06bc
000003c0: 44e7 59bd 1a5f 96bd 3e9b 92bd 1c2e 3e3d
000003d0: d05a bf3c 6afc e2bd d625 f33d fcb3 dcbd
000003e0: 30a1 313c 38eb 0c3d c4e8 eabd ec29 3b3d
000003f0: e0ee 8c3b f64a b83d 808a c33d b441 ba3d

modality_encoders.sleep.3.bias f4 [32]
-0.0012006313 0.096461296 -0.10153073 -0.058760107 -0.033077627 0.084511 0.100132436 -0.05992116
-0.010941878 -0.03323537 -0.045447767 0.02187112 0.012782544 0.01244095 0.055838257 -0.004733756
0.10730083 0.06540261 -0.05968079 -0.082564816 0.047480687 0.101071954 -0.07510316 0.095818415
0.10920042 -0.011592969 -0.11092296 0.024381682 0.0945521 0.11181505 -0.00096963346 -0.0047539026
00000000: 805e 9dba 808d c53d 58ef cfbd 70ae 70bd
00000010: 687c 07bd 1a14 ad3d 3c12 cd3d e46f 75bd
00000020: 9045 33bc d021 08bd 7027 3abd 102b b33c
00000030: e06d 513c 20d5 4b3c a8b6 643d a01d 9bbb
00000040: 8ac0 db3d cef1 853d d873 74bd be17 a9bd
00000050: 1c7b 423d d0fe ce3d b0cf 99bd 723c c43d
00000060: 78a4 df3d 70f0 3dbc 942b e3bd 18bc c73c
00000070: 88a4 c13d 4aff e43d 002f 7eba a0c6 9bbb

modality_encoders.stress.0.weight f4 [64, 14]
0.10541707 -0.24987169 0.03860982 -0.17515948 -0.13434926 0.21638289 0.24710244 -0.099181555
0.12001425 0.2537511 0.16538697 -0.06738681 -0.25340155 -0.18276839 -0.18558408 0.090807565
-0.155904 0.057095997 -0.071888156 0.04476757 0.07391805 -0.1845026 0.2314544 -0.11501175
0.25660104 0.14927052 -0.2564265 0.13282125 -0.24198513 -0.1225938 -0.218602 0.07497387
0.02852412 0.04438356 -0.15035649 -0.07439006 -0.13475285 0.25794786 0.097901516 0.053331416
-0.16169636 0.050452 -0.1308481 -0.011836381 -0.014028637 -0.11033689 -0.09385851 -0.03876804
-0.06249812 0.18604437 -0.04126182 0.12144712 0.22379604 0.16744353 -0.06321653 0.093808584
0.19928011 -0.029499767 0.017983261 -0.1495421 -0.15661687 -0.2563695 0.14396076 0.18663865
-0.22431128 0.25868446 0.13774578 -0.18256156 0.16710371 -0.16405678 -0.15498126 -0.22596064
-0.113278754 -0.2553345 -0.012605449 0.14527367 -0.106531724 -0.053893458 0.042695552 -0.05115729
0.22556363 -0.013167014 0.0052836663 -0.028470084 0.070204034 0.18470284 0.029186584 -0.15744634
-0.09948696 -0.10083347 0.13680145 -0.050719403 -0.2295196 -0.18008205 0.035220075 -0.17023316
0.19721515 -0.06986151 -0.07603974 0.09654351 0.17818782 0.13326375 0.058690622 0.17515282
-0.25573653 -0.1131682 0.00073274865 0.012659612 -0.25043496 -0.1919759 -0.065287046 0.09077267
0.2636039 -0.20272201 -0.22589307 -0.114857994 0.05394096 -0.12096734 -0.18093328 -0.098739654
-0.25984195 -0.19820133 0.08976548 0.20133635 -0.17247035 0.098668866 0.22373411 0.095298104
-0.041783527 0.14634755 -0.26132357 0.04297439 0.06903047 0.23411462 -0.16581246 0.25691026
0.20510861 -0.2562001 0.16828957 0.104119256 0.012623068 0.14386097 0.014471013 -0.0757112
0.052239444 -0.14388871 -0.26499638 0.07950018 0.06105763 -0.08196991 0.12759885 0.17657655
-0.0758467 0.17702079 0.22774184 -0.22619587 0.2652835 -0.019893972 -0.14264235 0.24052607
0.17939305 0.0656406 0.111699454 -0.09509213 -0.047059927 0.17432791 0.21496996 0.23837633
-0.20590945 0.18075481 -0.0405306 -0.098182105 -0.11983182 0.18256265 0.18572111 0.22981797
0.05558395 0.13756502 0.04790317 -0.13846397 -0.256863 0.22782828 -0.039421074 -0.25348952
0.06509618 -0.13908567 0.20673911 -0.056747254 -0.100720584 -0.13002378 -0.10619592 0.012136247
0.033407465 -0.09873838 0.054131705 0.04522868 -0.028272105 -0.13956997 0.13028385 0.20515777
-0.072662674 0.032879256 0.16193257 0.0010189791 0.015204495 -0.117862426 0.07194095 0.2589935
0.23216991 -0.10744337 0.15988888 0.025524657 0.0070529487 -0.05250261 0.028422518 0.1823518
0.22351842 -0.16647467 0.04166045 0.07619872 -0.076322086 -0.1521137 -0.14063913 -0.17128202
-0.18180609 -0.089845195 0.25272524 0.0024660295 0.20699488 0.09212481 0.028449407 -0.107622616
0.16988952 0.06545199 0.21947414 -0.09241872 0.16016333 0.19719869 -0.14193994 -0.07098136
0.0906071 0.19810377 -0.2575141 -0.20383956 0.0989852 0.031697378 0.1415493 0.029043596
0.22150652 0.18176614 -0.1299793 -0.16600235 -0.09044796 -0.07018553 0.06724698 -0.056222968
00000000: e8e4 d73d 5dde 7fbe 5525 1e3d 025d 33be
00000010: da92 09be 7a93 5d3e 6c08 7d3e b31f cbbd
00000020: 08ca f53d aaeb 813e 345b 293e 1902 8abd
00000030: d9bd 81be a327 3bbe c109 3ebe 51f9 b93d
00000040: 4ca5 1fbe 7edd 693d 193a 93bd 335e 373d
00000050: 5962 973d 40ee 3cbe 6202 6d3e 488b ebbd
00000060: 3661 833e 5fda 183e 564a 83be 4b02 083e
00000070: f3ca 77be 7512 fbbd 34d9 5fbe e68b 993d
00000080: 6aab e93c 89cb 353d 0df7 19be d159 98bd
00000090: a7fc 09be be11 843e 9780 c83d 0b72 5a3d
000000a0: bb93 25be c2a6 4e3d 0bfd 05be 61ed 41bc
000000b0: 5ed8 65bc 4ff8 e1bd e438 c0bd 3ccb 1ebd
000000c0: 07fe 7fbd 6a82 3e3e 2702 29bd 45b9 f83d
000000d0: ca2a 653e 5176 2b3e ab77 81bd b71e c03d
000000e0: 1610 4c3e 7fa9 f1bc a251 933c 9021 19be
000000f0: 2c60 20be dd42 83be 736a 133e 341e 3f3e
00000100: dbb1 65be 4a72 843e 3b0d 0d3e 6bf1 3abe
00000110: 3c1d 2b3e 80fe 27be 68b3 1ebe 3a62 67be
00000120: b1fe e7bd 34bb 82be 1687 4ebc 9fc2 143e
00000130: 4e2d dabd 63bf 5cbd 88e1 2e3d 4e8a 51bd
00000140: 27fa 663e 76ba 57bc 9b22 ad3b 183a e9bc
00000150: 22c7 8f3d be22 3d3e b418 ef3c 9d39 21be
00000160: d2bf cbbd c781 cebd ae15 0c3e 26bf 4fbd
00000170: 3007 6bbe 6e67 38be ed42 103d 9a51 2ebe
00000180: c5f2 493e 8d13 8fbd b9ba 9bbd 9bb8 c53d
00000190: de76 363e 4b76 083e 9465 703d 435b 333e
000001a0: e6ef 82be bbc4 e7bd ee15 403a 436a 4f3c
000001b0: 0339 80be 5595 44be 37b5 85bd 06e7 b93d
000001c0: 17f7 863e 5c96 4fbe 8350 67be ab3a ebbd
000001d0: 32f1 5c3d babd f7bd 9346 39be 0438 cabd
000001e0: 010a 85be 4af5 4abe f7d6 b73d 1e2b 4e3e
000001f0: 119c 30be e712 ca3d 8e1a 653e a72b c33d
00000200: 3425 2bbd 22dc 153e 34cc 85be ea05 303d
00000210: d95f 8d3d bebb 6f3e beca 29be be89 833e
00000220: fe07 523e a92c 83be 1a54 2c3e 7a3c d53d
00000230: fcd0 4e3c 4a50 133e d417 6d3c 790e 9bbd
00000240: 07f9 553d 9057 13be 9bad 87be fed0 a23d
00000250: 9117 7a3d d7df a7bd 46a9 023e 7cd0 343e
00000260: 8455 9bbd f044 353e 2835 693e e49f 67be
00000270: 3dd3 873e aff8 a2bc d610 12be 774c 763e
00000280: d0b2 373e 946e 863d afc2 e43d aabf c2bd
00000290: e9c1 40bd 0483 323e 1621 5c3e ed18 743e
000002a0: edd9 52be ca17 393e 6a03 26bd b313 c9bd
000002b0: 636a f5bd b4f1 3a3e ad2d 3e3e 6755 6b3e
000002c0: ffab 633d d8dd 0c3e 1d36 443d 80c9 0dbe
000002d0: 8c83 83be d14b 693e fe77 21bd 61c9 81be
000002e0: 2551 853d 796c 0ebe 6bb3 533e cf6f 68bd
000002f0: 9846 cebd f424 05be 3f7d d9bd 1cd7 463c
00000300: 44d6 083d 5937 cabd 35b9 5d3d b541 393d
00000310: e79a e7bc 6eeb 0ebe 2169 053e e114 523e
00000320: 2bd0 94bd 66ac 063d a7d1 253e 448f 853a
00000330: 461c 793c db61 f1bd c755 933d cc9a 843e
00000340: f3bd 6d3e 450b dcbd e9b9 233e 1619 d13c
00000350: 6c1c e73b fa0c 57bd 57d6 e83c 6eba 3a3e
00000360: 03e2 643e 5678 2abe 26a4 2a3d 130e 9c3d
00000370: c14e 9cbd b2c3 1bbe b403 10be 8e64 2fbe
00000380: 602b 3abe c200 b8bd 3465 813e 1c9d 213b
00000390: 77f6 533e efab bc3d bb0e e93c 3f69 dcbd
000003a0: 85f7 2d3e b10b 863d d4bd 603e 0746 bdbd
000003b0: db01 243e 74ee 493e b458 11be ad5e 91bd
000003c0: 3790 b93d b7db 4a3e e3d8 83be 51bb 50be
000003d0: c1b8 ca3d 1cd5 013d 4df2 103e d6ec ed3c
000003e0: 9bd2 623e e720 3a3e 4b19 05be 85fc 29be
000003f0: c83c b9bd 6ebd 8fbd c9b8 893d 0e4a 66bd

modality_encoders.stress.0.bias f4 [64]
-0.0761191 -0.18184672 -0.18680513 0.14929827 -0.05258637 -0.18502364 0.012860171 -0.041317254
0.25590572 0.09071797 -0.19566059 0.19992052 0.22570159 0.024501026 -0.2227048 0.106786765
-0.16967532 0.065826185 -0.07368143 0.18846416 0.23483503 -0.10919937 0.17463437 0.122069255
0.09083436 0.19980828 -0.1908388 0.087563515 0.10352691 0.1155902 -0.034600716 0.1736016
0.0737001 0.03621022 -0.16575262 -0.10453962 -0.12903471 -0.16357455 -0.22068119 0.22686444
-0.050473157 0.06316992 0.23957096 0.25180075 0.23680079 0.2563423 0.2592866 0.039011706
0.13854283 0.24752615 -0.18581453 -0.14140001 -0.2343613 -0.06304792 -0.06542755 -0.15184225
-0.22296058 0.1734522 -0.13379394 0.07606956 0.1811003 0.087455794 -0.06919678 -0.21052402
00000000: 55e4 9bbd 0736 3abe d849 3fbe a5e1 183e
00000010: ce64 57bd d676 3dbe 77b3 523c 483c 29bd
00000020: 1306 833e 58ca b93d 405b 48be f7b7 4c3e
00000030: 511e 673e 60b6 c83c ba0c 64be 05b3 da3d
00000040: 5ebf 2dbe e1cf 863d 4ae6 96bd c0fc 403e
00000050: 9878 703e eba3 dfbd 5ad3 323e 72ff f93d
00000060: 5d07 ba3d 8b9a 4c3e 3f6b 43be 8054 b33d
00000070: eb05 d43d 8eba ec3d 7bb9 0dbd 9ec4 313e
00000080: 14f0 963d 2b51 143d 0ebb 29be de18 d6bd
00000090: ad21 04be 1680 27be 40fa 61be 274f 683e
000000a0: f1bc 4ebd 3b5f 813d 1752 753e 07ec 803e
000000b0: e87b 723e 4c3f 833e 37c1 843e bdca 1f3d
000000c0: 2cde 0d3e 7f77 7d3e 2a46 3ebe 2acb 10be
000000d0: 69fc 6fbe 451f 81bd e1fe 85bd 897c 1bbe
000000e0: c74f 64be 749d 313e 4701 09be 5cca 9b3d
000000f0: 5b72 393e 061c b33d 0bb7 8dbd 9c93 57be

modality_encoders.stress.3.weight f4 [32, 64]
0.08885999 -0.11477864 -0.0451573 -0.016840428 0.11174722 -0.0009778887 -0.08333087 -0.095092416
-0.0942571 -0.058024153 0.009920135 -0.11049636 0.048685282 -0.06371383 0.0496971 0.116356194
0.019513339 0.096913606 0.09927872 -0.09130511 -0.030062422 -0.11930004 -0.02883473 0.08932234
0.007032186 -0.0079995245 -0.08072369 -0.11683403 0.083612055 0.0172043 -0.074288025 0.0025587678
0.088442534 -0.10723263 -0.095700964 -0.10967344 0.11426355 0.027148187 -0.04226181 0.09362815
-0.12379068 0.06110689 0.10695875 0.014238566 -0.035502523 0.07011177 0.082217366 0.086241126
0.065757394 0.021024436 -0.042031527 0.056136027 0.05611539 0.06447609 -0.037565216 -0.095546216
-0.03498125 0.10407582 -0.076200575 -0.064114854 -0.09842782 0.075050086 -0.018819958 -0.10059558
-0.08116533 -0.093397155 -0.07198699 0.09500742 0.07276149 -0.008338138 0.06687717 -0.08858587
0.06865597 -0.022606224 0.11664154 0.0961608 -0.03630662 0.004283294 -0.08065732 0.010833591
-0.0037452132 0.0014694631 0.07759774 0.007690072 0.04513544 0.087449 -0.07881886 0.06451169
-0.08109842 0.0111230165 -0.11348067 -0.105768725 -0.10361351 0.009942263 -0.042011827 0.08027735
-0.06697139 0.058186337 -0.06650855 -0.061654314 -0.033565 0.02985622 0.048340976 -0.051352084
-0.0018170029 -0.09423339 0.017832085 -0.057696193 0.002439797 -0.058363035 -0.061105475 0.026121616
0.11686069 -0.07817531 0.07596816 -0.06456542 -0.12171997 -0.019616172 -0.01954639 -0.05452244
-0.07518469 -0.052210063 0.058496922 0.0040486604 -0.043363467 0.10524398 0.055051982 -0.02195768
0.106675655 -0.051670596 0.023774788 -0.090811595 -0.08632234 -0.061934322 -0.08968341 0.12491381
0.00086924434 -0.12210484 0.08156718 0.057916895 0.052672833 0.097422674 -0.071793854 0.07293254
-0.12398027 0.03844455 0.041269585 -0.010806799 0.035006166 0.07474302 -0.047720075 -0.059923396
-0.060632795 0.068855345 -0.07512884 -0.10629615 -0.052865177 0.030415982 -0.014878184 0.12241994
-0.025377989 -0.029185817 -0.021985546 0.035633042 0.034218878 0.074135825 -0.015019283 0.06791435
0.07981545 -0.10579009 0.08451161 0.08780505 -0.032495737 0.0756436 -0.0747737 0.11048193
-0.01903738 0.00016628206 0.000824213 0.05248478 0.031711385 0.011254773 0.0044272244 -0.018796355
-0.10237475 -0.078129485 0.09958643 -0.10057996 -0.040788367 -0.034156278 0.021959066 0.018805891
0.102427304 -0.0897301 0.00223279 0.112669095 0.034367114 0.01430881 -0.016067639 -0.017388389
-0.12264009 0.11403021 -0.03899187 -0.08789046 0.054503202 0.024968892 0.0015392005 -0.006640494
-0.05152163 0.05886449 0.06709911 -0.090404525 -0.023958042 0.016445756 0.07628119 0.025645852
-0.047858074 0.034895033 0.033868745 0.024394035 -0.09161295 0.008369759 -0.101468995 0.07036263
-0.014077768 -0.046926826 -0.09473111 0.006308332 -0.012544781 -0.03756638 -0.0953888 0.05738622
0.041321263 0.104626834 -0.10783498 0.04316908 0.08936183 -0.0047524273 -0.067813665 -0.12103772
-0.01888448 -0.0242984 -0.07919778 0.002113521 -0.04290186 0.0028787851 -0.12430008 -0.12147403
0.007662639 0.08826375 0.0548629 -0.029325888 -0.017809764 0.035800934 0.085350305 0.09558995
00000000: 3afc b53d 1011 ebbd dcf6 38bd f0f4 89bc
00000010: badb e43d 802c 80ba 60a9 aabd d0bf c2bd
00000020: de09 c1bd bcaa 6dbd 1088 223c ea4b e2bd
00000030: 386a 473d 667c 82bd 308f 4b3d 284c ee3d
00000040: 70da 9f3c a47a c63d a452 cb3d 2cfe babd
00000050: 7845 f6bc 9453 f4bd d036 ecbc a2ee b63d
00000060: 406e e63b 7010 03bc 7652 a5bd ae46 efbd
00000070: cc3c ab3d 08f0 8c3c 5224 98bd 00b1 273b
00000080: 5c21 b53d c89c dbbd defe c3bd 789c e0bd
00000090: 0203 ea3d e065 de3c b81a 2dbd 1ec0 bf3d
000000a0: f885 fdbd 384b 7a3d 300d db3d e048 693c
000000b0: 186b 11bd c296 8f3d 9461 a83d 309f b03d
000000c0: d0ab 863d 703b ac3c 4029 2cbd e4ee 653d
000000d0: 40d9 653d 0a0c 843d fcdd 19bd bcad c3bd
000000e0: 8048 0fbd b425 d53d 0c0f 9cbd a64e 83bd
000000f0: 8694 c9bd dcb3 993d 502c 9abc 0e05 cebd
00000100: 023a a6bd 0247 bfbd ea6d 93bd 4093 c23d
00000110: fa03 953d b09c 08bc e6f6 883d 826c b5bd
00000120: 809b 8c3d b030 b9bc c2e1 ee3d f4ef c43d
00000130: 40b6 14bd e05a 8c3b aa2f a5bd 607f 313c
00000140: 4072 75bb 009b c03a 90eb 9e3d 00fd fb3b
00000150: f0df 383d 7618 b33d c86b a1bd b41e 843d
00000160: ee16 a6bd 503d 363c 8e68 e8bd 469d d8bd
00000170: 5233 d4bd e0e4 223c 9814 2cbd 7468 a43d
00000180: 4c28 89bd cc54 6e3d a235 88bd 3c89 7cbd
00000190: 747b 09bd 0895 f43c 3001 463d 9056 52bd
000001a0: 8028 eeba 70fd c0bd 9814 923c d852 6cbd
000001b0: 00e5 1f3b 140e 6fbd bc49 7abd 00fd d53c
000001c0: a854 ef3d 601a a0bd 3295 9b3d e03a 84bd
000001d0: 5248 f9bd 18b2 a0bc c01f a0bc ec52 5fbd
000001e0: 6efa 99bd 38da 55bd 789a 6f3d a0aa 843b
000001f0: e49d 31bd 288a d73d 307e 613d 98e0 b3bc
00000200: c478 da3d 8ca4 53bd 58c3 c23c 6efb b9bd
00000210: c4c9 b0bd d8ae 7dbd f0ab b7bd d0d2 ff3d
00000220: 00de 633a 1a12 fabd b20c a73d 443a 6d3d
00000230: 78bf 573d 8a85 c73d a808 93bd a85d 953d
00000240: 5ee9 fdbd 0878 1d3d 4c0a 293d 000f 31bc
00000250: a062 0f3d de12 993d 2076 43bd 3c72 75bd
00000260: 185a 78bd 0804 8d3d 26dd 99bd ccb1 d9bd
00000270: 2889 58bd f02a f93c a0c3 73bc 4eb7 fa3d
00000280: 80e5 cfbc 1817 efbc 081b b4bc f4f3 113d
00000290: 1829 0c3d 86d4 973d 7013 76bc ae16 8b3d
000002a0: 4876 a33d 7aa8 d8bd 6c14 ad3d 22d3 b33d
000002b0: 401a 05bd 08eb 9a3d f422 99bd 5a44 e23d
000002c0: 48f4 9bbc 005c 2e39 0010 583a 48fa 563d
000002d0: cce3 013d f065 383c 4012 913b d0fa 99bc
000002e0: daa9 d1bd 5a02 a0bd f8f3 cb3d defc cdbd
000002f0: b411 27bd 74e7 0bbd 80e3 b33c d00e 9a3c
00000300: 68c5 d13d 6ac4 b7bd 0054 123b 0ebf e63d
00000310: 88c4 0c3d 806f 6a3c 48a0 83bc 1872 8ebc
00000320: ba2a fbbd ac88 e93d f0b5 1fbd eaff b3bd
00000330: c03e 5f3d 908b cc3c 00bf c93a 8098 d9bb
00000340: 5808 53bd e41b 713d 426b 893d 0226 b9bd
00000350: a843 c4bc 40b9 863c 5039 9c3d 4017 d23c
00000360: d406 44bd 18ee 0e3d f4b9 0a3d 00d6 c73c
00000370: 929f bbbd 5021 093c face cfbd 481a 903d
00000380: 70a6 66bc 5836 40bd 6202 c2bd 20b6 ce3b
00000390: a088 4dbc 34df 19bd 345b c3bd d00d 6b3d
000003a0: 7c40 293d 9846 d63d 96d8 dcbd 10d2 303d
000003b0: 5603 b73d 40ba 9bbb e4e1 8abd a0e2 f7bd
000003c0: a0b3 9abc 700d c7bc 7232 a2bd 0083 0a3b
000003d0: dcb9 2fbd 00aa 3c3b 0a91 febd 60c7 f8bd
000003e0: e016 fb3b a0c3 b43d ecb7 603d d83c f0bc
000003f0: c8e5 91bc 00a4 123d 24cc ae3d aac4 c33d

modality_encoders.stress.3.bias f4 [32]
0.07320361 -0.09978795 0.006223947 -0.035812125 0.11999531 -0.021053731 0.013006583 0.102629274
0.04687029 0.041510165 -0.018125758 0.10693613 0.015052527 -0.06226942 -0.057043165 0.035483733
-0.01005362 -0.12002933 -0.0007965714 -0.123784184 -0.123699814 0.001039356 -0.112209156 -0.12006144
-0.10170032 -0.11779998 0.03514962 -0.10313818 -0.005650535 0.04729958 0.07148199 0.06943041
00000000: c6eb 953d a05d ccbd 40f2 cb3b bcaf 12bd
00000010: 1ac0 f53d e078 acbc 9019 553c 4c2f d23d
00000020: 10fb 3f3d 9006 2a3d 787c 94bc 5401 db3d
00000030: e09e 763c 380e 7fbd 18a6 69bd 6457 113d
00000040: f0b7 24bc f0d1 f5bd 00d1 50ba 9082 fdbd
00000050: 5456 fdbd 003b 883a eacd e5bd c6e2 f5bd
00000060: 4248 d0bd 1e41 f1bd 0cf9 0f3d 1c3a d3bd
00000070: 2028 b9bb 34bd 413d 2665 923d 8831 8e3d
