results/migraine/fold4_model.pth (torch, 625050 bytes, 44 tensors)

modality_encoders.eeg.0.weight f4 [64, 6]
0.15087649 0.2506923 -0.2939146 0.2173018 -0.00852156 0.20113347 0.21118344 -0.3435391
-0.4524678 0.06958193 0.13113429 0.19584519 -0.10191959 -0.042094253 -0.06916378 -0.32670063
0.055999074 -0.002243639 -0.16178864 0.10324459 0.035701666 -0.30200198 -0.3777541 0.14631741
0.20935546 -0.4474253 0.2050528 -0.41246298 0.18932062 0.74869937 0.16236524 -0.12514201
-0.32716414 0.022013199 -0.37984547 -0.18536313 -0.35211655 0.064692475 0.1744967 -0.15233414
0.12022595 0.37108734 -0.20946048 0.13866788 0.15289587 -0.28560764 -0.19093968 -0.36267284
-0.58848 -0.09855273 -0.38823354 -0.4509772 0.20335227 0.065542035 -0.30010894 0.08094143
-0.21041074 -0.30925125 0.15356945 0.52674776 -0.52705294 0.051787145 0.15294077 0.26062512
0.012294611 0.458665 -0.09658288 0.19596113 0.064243816 -0.39030322 -0.012542905 0.71879244
-0.3548313 -0.3716833 -0.18434004 -0.3033761 -0.3031208 0.20493416 -0.36236683 0.33506104
0.33787447 0.24212763 -0.3863274 -0.20979902 0.12569949 -0.10213512 -0.38478795 -0.36754006
0.040442806 -0.09856409 0.081983246 0.3065286 -0.3895692 0.16816913 -0.35054561 0.20201011
0.04251905 -0.25836346 0.34337115 -0.008356789 0.020411767 -0.03825979 -0.3994011 0.19771719
0.02371993 -0.30798602 -0.030330079 -0.35837063 -0.36576694 -0.15181181 -0.29755554 -0.20454152
-0.13860326 0.22874595 -0.097849146 0.10288501 0.17318603 0.25972307 -0.08157285 0.8357873
-0.37120372 -0.033283256 -0.22413704 0.022246169 -0.07801815 0.14577627 0.3102344 -0.2022226
-0.12786774 -0.13176961 0.058884762 0.2780225 -0.27651405 0.18559614 0.111335814 0.14296722
-0.3544535 -0.0689749 0.12931162 0.017257016 -0.38543648 -0.41211432 0.008467745 0.64188606
-0.3983578 0.4009671 -0.21514805 -0.024708085 -0.2993943 0.32429186 -0.17003839 0.051116068
-0.25686795 -0.31655082 0.050554737 0.002694332 -0.4593212 -0.18744129 -0.06258755 -0.096866
0.170032 -0.46431974 0.0030189594 -0.24331841 0.0599079 -0.04314791 -0.21010976 -0.017514471
0.02275649 0.009263129 0.12931019 0.4034257 -0.37954155 -0.03177823 0.1751162 -0.18281035
0.11123459 0.24864589 -0.37300774 0.39311442 0.07499856 0.124122724 -0.3775281 0.10121843
-0.24229874 -0.013562419 -0.24421355 -0.2798003 -0.30907673 0.40018517 0.17047971 0.2717971
-0.13248678 -0.1872354 -0.1012013 0.04720294 -0.000846611 -0.08625129 -0.3515227 -0.23648994
-0.2238429 -0.3392889 0.20976079 -0.24431801 -0.4490892 0.08787515 -0.28124985 -0.48595867
0.10387953 -0.26854038 -0.26976162 0.15792704 -0.24582024 -0.06952246 -0.0022725922 0.3247893
-0.111159354 0.28060502 0.24733235 0.36942783 -0.11543332 0.71658486 0.2648212 -0.4668745
-0.29882762 -0.12847294 0.21340156 -0.24892461 -0.21020694 -0.33547992 0.31850228 -0.08546751
-0.015863346 0.26078436 -0.05734777 0.23082244 -0.0935721 0.26279768 -0.13319911 0.7514391
-0.11118494 0.35329694 0.2395299 -0.15098214 -0.23293898 -0.0049714483 -0.23929088 -0.24358574
-0.02994295 -0.38273537 -0.24870014 -0.3018689 0.1977305 0.113396764 0.025473455 -0.15792368
00000000: 5e7f 1a3e be5a 803e f97b 96be 5d84 5e3e
00000010: 039e 0bbc eff5 4d3e 7940 583e 5be4 afbe
00000020: dca9 e7be f980 8e3d 1148 063e a48b 483e
00000030: 38bb d0bd 066b 2cbd bda5 8dbd 4e45 a7be
00000040: 495f 653d 040a 13bb ecab 25be e671 d33d
00000050: e93b 123d 01a0 9abe fc68 c1be 3bd4 153e
00000060: 4761 563e ee14 e5be 5cf9 513e 592e d3be
00000070: 44dd 413e c3aa 3f3f 1343 263e 3a25 00be
00000080: 0f82 a7be 0655 b43c 1b7b c2be d5cf 3dbe
00000090: 9f48 b4be 7d7d 843d 43af 323e 7bfd 1bbe
000000a0: 0639 f63d 29ff bd3e cf7c 56be f4fe 0d3e
000000b0: bc90 1c3e 2a3b 92be b185 43be 41b0 b9be
000000c0: a0a6 16bf 04d6 c9bd 8cc6 c6be 7ce6 e6be
000000d0: 943b 503e e73a 863d e1a7 99be 9fc4 a53d
000000e0: ea75 57be 2e56 9ebe 4f41 1d3e f1d8 063f
000000f0: f1ec 06bf c21e 543d 819c 1c3e a870 853e
00000100: 566f 493c 24d6 ea3e 3fcd c5bd 09aa 483e
00000110: 4392 833d d3d5 c7be c280 4dbc c802 383f
00000120: 73ac b5be 464d bebe a3c3 3cbe 1d54 9bbe
00000130: a632 9bbe 43da 513e 2588 b9be 1f8d ab3e
00000140: e2fd ac3e 4ef0 773e b4cc c5be 8ed5 56be
00000150: 5eb7 003e 382c d1bd ed02 c5be 362e bcbe
00000160: 5ba7 253d f8db c9bd d5e6 a73d 51f1 9c3e
00000170: 9d75 c7be 8734 2c3e b77a b3be bddb 4e3e
00000180: 7528 2e3d 3748 84be 58ce af3e eaea 08bc
00000190: 9436 a73c 4cb6 1cbd 4d7e ccbe 6076 4a3e
000001a0: 4c50 c23c 58b0 9dbe c976 f8bc 5b7c b7be
000001b0: ce45 bbbe 8e74 1bbe 3359 98be 5573 51be
000001c0: 03ee 0dbe 613c 6a3e 2265 c8bd 60b5 d23d
000001d0: ae57 313e 6cfa 843e ab0f a7bd 28f6 553f
000001e0: 6a0e bebe 0654 08bd 2e84 65be 993d b63c
000001f0: fbc7 9fbd 6046 153e 0bd7 9e3e 7113 4fbe
00000200: c3ef 02be 9dee 06be 2631 713d f758 8e3e
00000210: 4093 8dbe ea0c 3e3e 0804 e43d 0066 123e
00000220: ee7a b5be b642 8dbd 446a 043e 965e 8d3c
00000230: ee57 c5be a600 d3be 4cbc 0a3c a552 243f
00000240: 8ef5 cbbe 8f4b cd3e c54f 5cbe 9c68 cabc
00000250: 364a 99be 9509 a63e 8b1e 2ebe 155f 513d
00000260: 3284 83be f312 a2be 7c12 4f3d 6493 303b
00000270: 262c ebbe 9cf0 3fbe e72d 80bd ae61 c6bd
00000280: de1c 2e3e 51bb edbe bcd9 453b 7628 79be
00000290: fc61 753d ddbb 30bd 0327 57be 827a 8fbc
000002a0: d26b ba3c 61c4 173c e469 043e d08d ce3e
000002b0: 4553 c2be e429 02bd a951 333e a332 3bbe
000002c0: f6ce e33d 079d 7e3e dffa bebe 4b46 c93e
000002d0: d898 993d 0e34 fe3d 5d4b c1be 9c4b cf3d
000002e0: 291d 78be e934 5ebc 1e13 7abe fc41 8fbe
000002f0: 4e3f 9ebe 12e5 cc3e 3c92 2e3e fd28 8b3e
00000300: 9daa 07be a3ba 3fbe a142 cfbd df57 413d
00000310: 1aef 5dba 84a4 b0bd c9fa b3be 6b2a 72be
00000320: 1337 65be 46b7 adbe 88cb 563e 802e 7abe
00000330: 05ef e5be e3f7 b33d fbff 8fbe 93cf f8be
00000340: cbbe d43d 207e 89be 321e 8abe a0b7 213e
00000350: 4db8 7bbe cb61 8ebd c5ef 14bb c84a a63e
00000360: 84a7 e3bd 76ab 8f3e b144 7d3e a525 bd3e
00000370: 4e68 ecbd 1b72 373f a596 873e 2d0a efbe
00000380: efff 98be 698e 03be f085 5a3e 18e6 7ebe
00000390: 7d40 57be 06c4 abbe bb12 a33e 9709 afbd
000003a0: d9f3 81bc 8785 853e 7fe5 6abd b85c 6c3e
000003b0: bba2 bfbd 6b8d 863e 5965 08be 505e 403f
000003c0: eeb4 e3bd 56e3 b43e 5347 753e 109b 1abe
000003d0: 8e87 6ebe 88e7 a2bb ab08 75be 8a6e 79be
000003e0: eb4a f5bc e4f5 c3be 40ab 7ebe 8f8e 9abe
000003f0: dd79 4a3e 903c e83d b5ad d03c bfb6 21be

modality_encoders.eeg.0.bias f4 [64]
-0.47072208 0.22000542 -0.001300519 -0.100737266 -0.24125084 -0.017203294 -0.027114134 0.11601595
0.057405125 0.34659106 0.09242331 -0.43148908 -0.340633 -0.2768278 -0.02705067 -0.0011414122
-0.37626606 -0.050372534 -0.06313987 -0.023234127 0.25406906 -0.22115883 0.25601885 0.10999641
-0.0016788775 -0.30195668 -0.11213155 -0.10597378 -0.38408655 0.1683736 0.030552207 -0.37819603
0.059010968 -0.5305728 -0.22413285 -0.1913522 0.22408372 -0.106631525 -0.22105773 -0.2029675
0.22986144 0.03038041 -0.44530615 0.2993014 0.25471547 0.14957596 -0.37255296 0.16098382
-0.37067297 -0.32380396 -0.2068527 -0.2934588 -0.53524846 0.061085623 -0.0019382418 -0.0010215266
0.22690392 -0.35292748 -0.43882608 0.14334248 -0.39304203 -0.3693169 0.3260471 -0.1877393
00000000: 7c02 f1be 1a49 613e 2d76 aaba 574f cebd
00000010: 760a 77be eced 8cbc 761e debc c599 ed3d
00000020: a321 6b3d 6274 b13e 6f48 bd3d 23ec dcbe
00000030: 7367 aebe 60bc 8dbe 5e99 ddbc 709b 95ba
00000040: f2a5 c0be 6e53 4ebd 7a4f 81bd 7f55 bebc
00000050: 5715 823e 7677 62be e714 833e cc45 e13d
00000060: c80d dcba 119a 9abe 3aa5 e5bd c808 d9bd
00000070: fea6 c4be 216a 2c3e 9f48 fa3c e9a2 c1be
00000080: 7cb5 713d 9ed3 07bf 1583 65be d5f1 43be
00000090: 3476 653e a161 dabd f55c 62be b6d6 4fbe
000000a0: cc60 6b3e 56e0 f83c 2bff e3be 083e 993e
000000b0: 116a 823e 712a 193e 43bf bebe f1d8 243e
000000c0: d9c8 bdbe a2c9 a5be 32d1 53be 3b40 96be
000000d0: 0b06 09bf eb34 7a3d 9a0c feba bfe4 85ba
000000e0: 8059 683e e9b2 b4be d0ad e0be 5fc8 123e
000000f0: ce3c c9be 1b17 bdbe a5ef a63e bb3e 40be

modality_encoders.eeg.3.weight f4 [32, 64]
0.038136397 -0.13887393 0.10961863 -0.11380783 0.025154974 -0.08445002 -0.04314162 0.086664066
-0.11736781 0.118251316 -0.011596353 -0.001349535 0.08261266 0.028247088 -0.008821711 0.004256238
0.12344812 -0.009282917 -0.056327075 0.08357733 0.04629919 0.0073765237 0.03194688 -0.0061873347
0.04688813 0.109273225 -0.23507847 -0.11074057 -0.00020860136 0.011472192 0.093076475 0.013003586
0.13012126 0.02152944 -0.13213585 -0.105701976 -0.05037478 -0.010332113 -0.01963599 -0.049342584
0.03164133 0.04403786 0.03352608 0.058852673 0.07779334 -0.062215846 0.07121083 0.04238303
0.07944061 0.02033489 -0.08711805 -0.080625996 -0.00375677 -0.015573571 -0.0145156225 -0.07668468
-0.043427844 0.10833433 -0.048826143 -0.056954872 -0.09168612 -0.014936845 -0.01433535 -0.09909715
0.080996975 0.028429229 0.07871443 -0.017779693 -0.006699947 -0.025937155 0.020343589 -0.082617424
-0.1160548 0.07892107 -0.0607735 0.049576778 -0.009201467 -0.06892213 0.11250758 -0.113583654
-0.11064783 -0.024034362 0.056428075 0.017556578 0.10050651 0.11360888 -0.06785059 0.046912644
0.013491669 0.009581788 0.075777136 -0.080107704 0.10827136 -0.11658187 0.017443577 -0.11958413
-0.05017198 -0.064192794 -0.011448654 0.044612594 -0.041316375 -0.079633296 -0.064320534 0.1482284
0.010266181 0.02666259 -0.105193496 -0.020600488 -0.044804104 -0.0017154554 0.01520814 0.00078049465
-0.028492197 0.05491795 0.06958692 -0.100725636 -0.08436107 -0.081481546 0.054574948 0.05846094
0.03514112 0.09288558 0.093454316 0.007076246 -0.06965952 0.0020408768 -0.1169753 0.015426949
0.021667853 -0.110521205 -0.049865402 -0.051389784 0.07874951 0.09150742 0.023678543 -0.008048313
0.027529366 -0.09211616 -0.08884668 0.022531418 -0.090312764 -0.11983316 0.08433525 0.07973748
-0.03733804 0.07047837 -0.07940228 0.111371785 -0.15643738 0.052950073 -0.0120044965 -0.012347015
0.06378 -0.1105141 0.10020232 -0.06430091 0.12217794 -0.08794595 -0.063445315 0.06007799
-0.10869038 -0.091772206 0.059023786 0.12969436 -0.01909942 0.015946422 -0.042169333 -0.0032535915
0.0063572377 0.047972746 -0.026857391 0.058625247 -0.018815214 -0.089720234 -0.008005813 0.030600462
0.08012283 0.09014654 -0.013802423 -0.040486008 0.07107575 -0.04473256 -0.078278705 0.099432044
0.065610655 -0.017160064 0.032493908 0.012718282 -0.117894955 -0.03350819 0.06352183 -0.09998359
-0.02248573 0.09225592 -0.004406008 -0.0040110797 -0.053802945 0.015317947 0.044884983 -0.08668673
-0.06418892 0.0037863846 0.0758189 -0.02158384 0.088467345 0.01116088 0.10985145 -0.056795333
0.061383013 -0.017493179 -0.006713018 -0.06547338 -0.041221242 -0.12140332 -0.011372318 0.048935723
0.08039367 0.005494669 -0.037402894 -0.12387942 0.0072036386 -0.07004122 -0.050349776 0.00024073706
-0.10877013 0.027578812 0.020300116 -0.14572059 -0.010163902 -0.050334018 0.016159356 -0.12992412
0.008048449 0.024175057 0.07274276 0.076980405 0.012530085 -0.047744386 0.060128435 -0.027469913
0.10544005 -0.028620983 -0.00027671625 -0.038200527 0.06719197 0.0054622185 -0.19108924 0.011752928
0.01450341 -0.043291833 0.08290473 -0.0617377 0.028171673 0.06764824 0.06269837 0.09335552
00000000: e934 1c3d f834 0ebe bb7f e03d 1414 e9bd
00000010: ce11 ce3c 22f4 acbd 44b5 30bd ee7c b13d
00000020: 895e f0bd bf2d f23d a1fe 3dbc e1e2 b0ba
00000030: d430 a93d 7066 e73c f088 10bc ea77 8b3b
00000040: 5ed2 fc3d 6017 18bc 38b7 66bd 972a ab3d
00000050: 38a4 3d3d c4b6 f13b bbda 023d 20bf cabb
00000060: c50d 403d a4ca df3d 69b8 70be f4cb e2bd
00000070: 00bc 5ab9 dcf5 3b3c e19e be3d fe0c 553c
00000080: 823e 053e 825e b03c 9f4e 07be 477a d8bd
00000090: c955 4ebd 0648 29bc a8db a0bc 731b 4abd
000000a0: 579a 013d 0b61 343d a552 093d 800f 713d
000000b0: 1d52 9f3d 0bd6 7ebd fcd6 913d d499 2d3d
000000c0: c2b1 a23d 5b95 a63c f36a b2bd 3e1f a5bd
000000d0: 2434 76bb 4b28 7fbc efd2 6dbc dc0c 9dbd
000000e0: 65e1 31bd 64de dd3d ecfd 47bd 8349 69bd
000000f0: efc5 bbbd abb9 74bc d1de 6abc 72f3 cabd
00000100: bee1 a53d 6ae4 e83c 0835 a13d b8a6 91bc
00000110: 3b8b dbbb 287a d4bc 99a7 a63c 5333 a9bd
00000120: 24ae edbd 5fa1 a13d a2ed 78bd 0511 4b3d
00000130: c0c1 16bc 0c27 8dbd 606a e63d 8c9e e8bd
00000140: 549b e2bd b6e3 c4bc 2021 673d d0d2 8f3c
00000150: 5bd6 cd3d c6ab e83d 40f5 8abd 7927 403d
00000160: 290c 5d3c effc 1c3c 0b31 9b3d 820f a4bd
00000170: 60bd dd3d 7ac2 eebd d5e5 8e3c 86e8 f4bd
00000180: 2281 4dbd 8377 83bd 2393 3bbc b2bb 363d
00000190: 5c3b 29bd c816 a3bd 7cba 83bd 30c9 173e
000001a0: 7c33 283c 816b da3c b06f d7bd 5bc2 a8bc
000001b0: 8284 37bd 22d9 e0ba 902b 793c 1c9a 4c3a
000001c0: 7868 e9bc a5f1 603d 9683 8e3d 3e49 cebd
000001d0: 7fc5 acbd ccdf a6bd fb89 5f3d bd74 6f3d
000001e0: 23f0 0f3d cc3a be3d fa64 bf3d dbdf e73b
000001f0: a7a9 8ebd 3bc0 053b bf90 efbd 50c1 7c3c
00000200: c880 b13c f158 e2bd aa3f 4cbd 187e 52bd
00000210: 6c47 a13d 3e68 bb3d 81f9 c13c 12dd 03bc
00000220: 4485 e13c 66a7 bcbd 40f5 b5bd cf93 b83c
00000230: e6f5 b8bd 166b f5bd f6b7 ac3d 674d a33d
00000240: c6ef 18bd f756 903d aa9d a2bd e416 e43d
00000250: 1f31 20be 2de2 583d 82ae 44bc 224b 4abc
00000260: 179f 823d 3755 e2bd e036 cd3d 32b0 83bd
00000270: 6e38 fa3d 021d b4bd 9eef 81bd 5714 763d
00000280: 1099 debd 11f3 bbbd edc2 713d 99ce 043e
00000290: 6376 9cbc 12a2 823c c0b9 2cbd 353a 55bb
000002a0: 6050 d03b 127f 443d 0804 dcbc 0721 703d
000002b0: 5d22 9abc 3ebf b7bd d02a 03bc d2ad fa3c
000002c0: 7017 a43d c09e b83d 8f23 62bc a8d4 25bd
000002d0: 2a90 913d 7d39 37bd 9650 a0bd 07a3 cb3d
000002e0: e15e 863d 4393 8cbc 5518 053d 5760 503c
000002f0: e972 f1bd e23f 09bd bc17 823d 32c4 ccbd
00000300: fe33 b8bc acf0 bc3d 4660 90bb 606f 83bb
00000310: 7a60 5cbd 20f8 7a3c 51d9 373d d088 b1bd
00000320: 7b75 83bd fe24 783b f046 9b3d 98d0 b0bc
00000330: 5e2e b53d 20dc 363c ccf9 e03d 39a2 68bd
00000340: c16c 7b3d db4d 8fbc e0f8 dbbb e816 86bd
00000350: 9bd7 28bd 4ea2 f8bd f552 3abc d370 483d
00000360: 70a5 a43d a00c b43b c733 19bd 7eb4 fdbd
00000370: 800c ec3b c571 8fbd 913b 4ebd 5d6e 7c39
00000380: e0c2 debd f6ec e13c 6e4c a63c c737 15be
00000390: 7f86 26bc 0b2b 4ebd a060 843c d40a 05be
000003a0: a4dd 033c c50a c63c 28fa 943d e7a7 9d3d
000003b0: fc4a 4d3c 9e8f 43bd 3c49 763d 9508 e1bc
000003c0: f4f0 d73d 8d76 eabc 3a14 91b9 2878 1cbd
000003d0: f29b 893d 69fc b23b e6ac 43be 5a8f 403c
000003e0: b69f 6d3c c752 31bd f5c9 a93d ace0 7cbd
000003f0: 48c8 e63c 298b 8a3d 0168 803d 2e31 bf3d

modality_encoders.eeg.3.bias f4 [32]
0.044127848 0.054792278 0.0938275 -0.042748827 -0.059983507 0.10261092 -0.2217792 -0.09001518
0.04648327 -0.3013747 0.090224855 -0.014383658 0.13554299 0.17947167 0.11128559 0.023185093
-0.078841716 -0.046261296 0.024506379 0.079892896 0.03404457 -0.02897799 0.1844749 -0.06984651
-0.076093964 0.15966275 -0.027574949 -0.14626983 0.022107735 0.042131145 -0.0030614082 -0.06254645
00000000: 67bf 343d de6d 603d a228 c03d 6519 2fbd
00000010: 44b1 75bd ad25 d23d 161a 63be e159 b8bd
00000020: 3e65 3e3d c94d 9abe cfc7 b83d 6fa9 6bbc
00000030: c8cb 0a3e 6cc7 373e b3e9 e33d aaee bd3c
00000040: c477 a1bd 7c7c 3dbd 9ac1 c83c e39e a33d
00000050: 5272 0b3d 4063 edbc fde6 3c3e b00b 8fbd
00000060: 27d7 9bbd a27e 233e dce4 e1bc c2c7 15be
00000070: 481b b53c b591 2c3d e8a1 48bb 5a18 80bd

modality_encoders.sleep.0.weight f4 [64, 7]
-0.2765293 -0.17441513 0.18927537 -0.33542013 0.019464841 -0.0245856 -0.18412772 -0.30248114
0.27861685 -0.10515581 -0.032101132 0.31323534 0.2258853 0.19116312 -0.13850047 -0.11564406
0.24899817 0.2312519 -0.08180459 0.21401268 -0.20371692 -0.16154967 -0.07618194 -0.11476099
0.24067418 -0.2556081 0.08431029 -0.2781253 -0.024793807 -0.31285894 0.19436572 -0.011999322
-0.06116367 -0.34705573 -0.10599233 -0.2207735 0.18851969 -0.15028928 0.06355151 -0.10070405
0.04905288 -0.082608715 -0.32259846 0.33597672 0.032461766 -0.15767284 0.09032453 -0.18422107
-0.33293876 -0.11894348 -0.17612998 -0.012082903 -0.32503736 0.1988059 -0.13189301 -0.06317177
0.023069346 0.057714704 -0.24799417 0.36150032 -0.24821526 -0.04535434 0.12930936 -0.32286686
-0.1875451 -0.37603152 0.24281628 0.11209601 -0.1908553 -0.050227106 0.19222268 0.3284503
-0.030913748 -0.37773022 -0.12694699 0.06874769 0.16923106 0.34821543 -0.17799467 0.37167528
-0.26068127 -0.11987071 -0.11680675 -0.097931884 -0.16002198 -0.17968236 0.12803015 -0.19927818
-0.30888152 0.2038516 -0.37327877 -0.14209758 -0.2909154 -0.078798845 -0.15498322 -0.34483805
0.12467656 0.2048604 -0.37110725 -0.068227194 -0.3036285 -0.2651552 0.12464201 -0.29247418
-0.109300725 -0.31206512 -0.1052179 -0.29414952 -0.17396347 0.163336 0.34237725 0.23247357
-0.17909059 -0.35576662 0.17105988 -0.3268856 -0.03245992 -0.08110995 0.27820164 0.21661165
-0.019547476 0.07922756 0.04356261 0.20724532 -0.19886844 -0.25625157 0.19964445 -0.17760393
-0.24138847 -0.17350939 -0.19459487 0.0144721335 0.15201037 -0.03645313 -0.18002808 0.058798954
0.036272585 -0.09532656 0.10734999 0.1910526 -0.34184647 0.08377925 0.24492747 -0.15991352
0.092334695 -0.11961059 0.13975061 -0.010969277 -0.30529574 0.15732014 0.17180988 0.24372534
-0.19398877 -0.1502641 -0.24382848 0.29950774 -0.33864036 0.33141613 0.15863976 -0.2812562
-0.28366363 -0.12487423 -0.0580748 -0.30678567 -0.35888517 0.040776968 -0.21269143 -0.030791193
0.13350438 -0.18575476 -0.14052622 0.18215986 0.13743979 0.1203945 -0.018284395 0.020792712
-0.15950021 0.1012227 0.20873976 0.08644099 0.15057567 0.26208305 -0.28182504 0.22880076
-0.19731374 0.25695723 0.056648523 -0.19427344 -0.19938709 0.36335874 0.29324496 -0.15107277
-0.2668636 -0.19167195 0.01159399 0.10667594 0.09854741 -0.3586534 -0.21296763 0.013929423
0.17932019 0.30531272 -0.050620813 -0.33699673 0.08098068 -0.13478936 -0.1225041 0.036567576
-0.035485625 0.33292696 0.14791808 0.23474479 0.3534896 -0.050561924 0.3588955 0.35057515
-0.34672388 -0.37632075 0.015726877 0.21791762 0.28131196 -0.30894086 -0.12433427 -0.091991454
0.17293955 -0.13066521 -0.19158003 0.21506737 0.29116002 -0.13670923 -0.14889914 -0.08942754
-0.20938665 -0.1349895 -0.11964921 0.27930915 0.26219407 0.14331096 -0.2307281 0.01343551
0.25062656 -0.115870066 -0.06250547 -0.26278457 0.34363127 0.2562523 -0.07830876 0.23409326
0.13135223 0.2800586 0.28549328 0.32035127 -0.33888695 -0.038243286 0.12381535 0.02392047
00000000: 4095 8dbe e199 32be 67d1 413e 30bc abbe
00000010: bb74 9f3c bd67 c9bc fa8b 3cbe cfde 9abe
00000020: dea6 8e3e ee5b d7bd 7a7c 03bd 6260 a03e
00000030: 7a4e 673e 44c0 433e 11d3 0dbe cbd6 ecbd
00000040: 60f9 7e3e 4ccd 6c3e 2a89 a7bd 2426 5b3e
00000050: 2b9b 50be 476d 25be 4705 9cbd cf07 ebbd
00000060: 4b73 763e 11df 82be e0aa ac3d 7066 8ebe
00000070: 621c cbbc 0c2f a0be cf07 473e ce98 44bc
00000080: c286 7abd 4ab1 b1be 8212 d9bd 7312 62be
00000090: 4e0b 413e 6fe5 19be 4b27 823d ed3d cebd
000000a0: aceb 483d c22e a9bd a02b a5be 2405 ac3e
000000b0: a1f6 043d fd74 21be 11fc b83d 73a4 3cbe
000000c0: f376 aabe a498 f3bd 6b5b 34be 5ef7 45bc
000000d0: 4c6b a6be c693 4b3e f60e 07be 3360 81bd
000000e0: edfb bc3c 4166 6c3d 2ff2 7dbe 9216 b93e
000000f0: 242c 7ebe 79c5 39bd ac69 043e ce4e a5be
00000100: d30b 40be 3487 c0be d5a4 783e 9892 e53d
00000110: 926f 43be f0ba 4dbd 06d6 443e a32a a83e
00000120: d43e fdbc db65 c1be 64fe 01be 97cb 8c3d
00000130: e84a 2d3e 4b49 b23e 3c44 36be 394c be3e
00000140: 0478 85be c67e f5bd 6138 efbd 8390 c8bd
00000150: cddc 23be a7fe 37be 561a 033e 940f 4cbe
00000160: b825 9ebe 79be 503e 651e bfbe 0782 11be
00000170: ddf2 94be 4a61 a1bd ecb3 1ebe 9d8e b0be
00000180: 6d56 ff3d edc6 513e c501 bebe b3ba 8bbd
00000190: 3275 9bbe 6cc2 87be 4f44 ff3d 2dbf 95be
000001a0: 0fd9 dfbd 00c7 9fbe 7b7c d7bd c49a 96be
000001b0: 7b23 32be 8d41 273e 124c af3e 8d0d 6e3e
000001c0: 8663 37be 0b27 b6be 522a 2f3e 8d5d a7be
000001d0: b1f4 04bd f91c a6bd 7270 8e3e 72cf 5d3e
000001e0: 0722 a0bc 0f42 a23d b56e 323d 1e38 543e
000001f0: 2ba4 4bbe 6833 83be 986f 4c3e cedd 35be
00000200: 8a2e 77be 72ac 31be e143 47be 871c 6d3c
00000210: 9ba8 1b3e e14f 15bd 4859 38be 2cd7 703d
00000220: 9092 143d 923a c3bd 50da db3d 4ba3 433e
00000230: 8006 afbe 7594 ab3d 44ce 7a3e 5fc0 23be
00000240: f919 bd3d 66f6 f4bd c91a 0f3e 7bb8 33bc
00000250: b94f 9cbe 8818 213e eeee 2f3e 2393 793e
00000260: fea4 46be d5de 19be 2cae 79be 1459 993e
00000270: 4562 adbe 60af a93e 7672 223e d000 90be
00000280: 5c3c 91be 0fbe ffbd d7df 6dbd 0313 9dbe
00000290: ccbf b7be c005 273d c8cb 59be d03d fcbc
000002a0: 5fb5 083e 7f36 3ebe 1be6 0fbe 1d88 3a3e
000002b0: 04bd 0c3e 6491 f63d 28c9 95bc 7a55 aa3c
000002c0: 0654 23be d94d cf3d e0bf 553e f907 b13d
000002d0: 8230 1a3e c02f 863e 5f4b 90be bf4a 6a3e
000002e0: 9d0c 4abe e68f 833e 4808 683d 9eef 46be
000002f0: 212c 4cbe 280a ba3e 3424 963e d2b2 1abe
00000300: 59a2 88be a745 44be b8f4 3d3c ea78 da3d
00000310: 39d3 c93d 6ba1 b7be 3014 5abe 3c38 643c
00000320: b69f 373e f351 9c3e c557 4fbd d68a acbe
00000330: 33d9 a53d 3906 0abe 6ee3 fabd e2c7 153d
00000340: 6059 11bd 6775 aa3e d677 173e f060 703e
00000350: 97fc b43e 051a 4fbd 27c1 b73e 967e b33e
00000360: cb85 b1be 1dad c0be a7d5 803c cc25 5f3e
00000370: 1f08 903e 7f2d 9ebe f7a2 febd 0466 bcbd
00000380: 1117 313e 1acd 05be 8e2d 44be 9f3a 5c3e
00000390: ed12 953e 81fd 0bbe 0479 18be c925 b7bd
000003a0: 7469 56be b03a 0abe a50a f5bd 9c01 8f3e
000003b0: 4d3e 863e 1cc0 123e fd43 6cbe 9d20 5c3c
000003c0: 2052 803e 494d edbd de02 80bd b38b 86be
000003d0: 70f0 af3e 8033 833e 5860 a0bd 25b6 6f3e
000003e0: 3381 063e d763 8f3e 2d2c 923e 1505 a43e
000003f0: 9782 adbe fea4 1cbd e792 fd3d ddf4 c33c

modality_encoders.sleep.0.bias f4 [64]
-0.11464109 -0.11725358 -0.0059378655 -0.24371435 -0.192882 -0.13863374 -0.052045107 -0.22009355
-0.22575027 -0.12749024 -0.33460298 0.24686277 -0.3146942 -0.09869894 0.15569375 0.13466693
-0.31425872 0.09047003 0.075165465 0.09437233 -0.21607426 -0.31422132 0.15403195 0.1471287
-0.3760026 0.1782636 -0.1675047 -0.3134473 0.26476207 -0.014736347 -0.10708988 -0.3291184
-0.32187378 0.10765213 0.018274413 0.08556042 0.3082582 0.16879828 0.08089445 -0.001031064
-0.34968534 0.075797826 -0.369862 -0.031843588 0.06324154 -0.05908984 0.12307519 0.203793
-0.06983825 0.15453021 -0.30245793 -0.19875777 0.14247593 -0.034155183 -0.35462892 0.08969524
-0.17057866 -0.00026720169 -0.1817465 -0.035480756 -0.31932586 -0.373698 -0.35078937 0.10001566
00000000: f3c8 eabd a522 f0bd 6d92 c2bb 4190 79be
00000010: dc82 45be 01f6 0dbe 402d 55bd 3460 61be
00000020: 142b 67be cd8c 02be 1551 abbe 98c9 7c3e
00000030: 991f a1be ab22 cabd 2f6e 1f3e 21e6 093e
00000040: 85e6 a0be 5a48 b93d 5af0 993d 4846 c13d
00000050: 9242 5dbe 9ee1 a0be 8dba 1d3e e8a8 163e
00000060: 6a83 c0be bc8a 363e 5a86 2bbe 2a7c a0be
00000070: e58e 873e b870 71bc f051 dbbd 3582 a8be
00000080: a4cc a4be b878 dc3d 39b4 953c 4d3a af3d
00000090: 05d4 9d3e 75d9 2c3e fdab a53d c424 87ba
000000a0: f509 b3be e43b 9b3d 8d5e bdbe 6c6e 02bd
000000b0: c884 813d 3008 72bd d80e fc3d 1daf 503e
000000c0: 5b07 8fbd 2b3d 1e3e c4db 9abe 2887 4bbe
000000d0: 36e5 113e 4ee6 0bbd ec91 b5be 23b2 b73d
000000e0: 2cac 2ebe 3417 8cb9 c11b 3abe 4554 11bd
000000f0: ae7e a3be 5855 bfbe aa9a b3be 03d5 cc3d

modality_encoders.sleep.3.weight f4 [32, 64]
-0.067067 0.02209182 0.08965443 0.089965835 -0.010292202 0.10986705 -0.027413726 0.005172953
0.020863041 0.1138594 0.001563564 0.098269574 0.06246659 -0.09929857 0.16481201 0.057387944
-0.016984344 0.03831378 0.021015875 -0.0028365934 -0.0029848367 -0.074610084 0.12621811 -0.090849675
-0.06409226 0.111992635 -0.04141599 0.014104277 0.08634422 0.06597808 -0.12221362 0.091275215
-0.06678437 0.04559686 0.03495339 -0.07589948 -0.017247824 0.1106999 0.107431754 -0.031653892
0.12202929 0.1860565 -0.09168212 -0.06862016 0.07473086 -0.04620935 0.06266353 -0.07237875
0.051928595 -0.0784656 -0.11561842 -0.05546096 0.11856098 -0.084909484 0.08094755 0.17875504
0.1100153 -0.034418795 0.05893688 -0.04202646 -0.1037741 -0.08116707 0.015351415 -0.08536504
0.019582778 -0.09762713 -0.037825614 -0.094790846 -0.0057637095 0.0961245 0.094002545 -0.08181186
0.07136598 0.065180406 0.0075573027 0.16995117 -0.05007808 -0.036116853 0.09247631 0.0743234
-0.11243288 0.10334462 0.00014095471 0.0044460506 0.007823274 0.08651367 0.12796234 0.0042551192
-0.11219461 0.08195481 0.045335114 0.026317164 -0.0015539952 0.11213878 -0.110279724 0.10834876
0.11575568 -0.15347935 -0.01091967 0.038119458 0.046313766 -0.03375413 -0.048016313 -0.08935713
0.0022826046 -0.091718726 -0.035526708 0.056105733 -0.011997357 -0.09921639 0.09702245 0.014470989
0.11812261 0.05154015 -0.07072428 0.053258464 -0.04498436 -0.03968197 -0.0063646436 -0.05832629
-0.12467049 0.03721898 -0.041057214 0.041667417 0.061980814 -0.122079 -0.0766345 -0.0077607883
-0.08651145 0.07625455 0.08544275 -0.027355984 0.044861525 -0.0415003 0.09608716 0.033062145
0.075505 -0.10328369 0.011411309 -0.017049586 -0.0796265 0.11907914 -0.099166974 -0.036398195
-0.09103902 -0.031871818 -0.050598767 0.07477613 -0.08096379 -0.085352466 0.09153791 -0.026999012
0.05388558 -0.112876385 -0.101286486 -0.07208808 0.038392585 0.10870883 -0.054242447 0.043912664
-0.0031768233 -0.00048827523 -0.057319548 0.047708757 -0.015937202 0.11161624 -0.07780942 0.07876294
-0.005935997 0.020382714 -0.08095004 -0.0033555478 -0.04622917 0.06337461 -0.10978956 0.028666528
0.1078791 -0.016628444 -0.1209297 0.07411812 -0.14854075 0.05019535 0.09098698 -0.06776061
-0.022089615 0.042258684 0.11229141 -0.019263133 -0.07692894 0.07839599 -0.105305225 0.034379277
-0.051229164 -0.05807841 0.01706542 0.09311512 -0.02061057 -0.023135394 0.07223821 -0.0828865
0.009749472 0.046321988 -0.08560997 0.014156774 0.011536241 -0.045345634 -0.04981166 0.018003823
-0.022368565 0.07821293 0.12143326 0.04821519 0.084253475 -0.011767253 0.013336896 0.048889283
-0.037800536 -0.021926045 0.04023789 -0.016732961 0.044005748 -0.022500426 -0.09190333 0.008124784
-0.013623998 0.100386135 0.10144657 -0.015737977 0.04788918 -0.07389101 0.13804439 0.019189855
0.050498083 0.06407928 0.024089605 0.072736666 -0.06241313 -0.112728655 0.011180926 -0.07715893
-0.04678157 0.010117893 -0.04481651 -0.08390583 -0.047267076 0.044574037 0.09620494 0.17399596
0.01057218 -0.098457195 -0.10066198 0.064717814 0.0012257248 -0.030838743 -0.015627488 0.010474244
00000000: 6c5a 89bd e8f9 b43c be9c b73d 0240 b83d
00000010: a0a0 28bc fa01 e13d c092 e0bc e081 a93b
00000020: f8e8 aa3c 1e2f e93d 80f0 cc3a 8f41 c93d
00000030: f8dc 7f3d 0c5d cbbd 7bc4 283e 9f0f 6b3d
00000040: c022 8bbc e9ee 1c3d 7c29 ac3c 24e6 39bb
00000050: 409d 43bb 2ccd 98bd 523f 013e 650f babd
00000060: ce42 83bd 655c e53d d0a3 29bd a015 673c
00000070: 3dd5 b03d 841f 873d 224b fabd 80ee ba3d
00000080: 3ec6 88bd c6c3 3a3d 492b 0f3d 3071 9bbd
00000090: 4f4b 8dbc a1b6 e23d 2e05 dc3d 83a7 01bd
000000a0: 7eea f93d 9885 3e3e d6c3 bbbd ba88 8cbd
000000b0: 7e0c 993d 0446 3dbd bd55 803d 4f3b 94bd
000000c0: 14b3 543d 93b2 a0bd 5ac9 ecbd 082b 63bd
000000d0: 19d0 f23d 06e5 adbd d4c7 a53d 900b 373e
000000e0: b44f e13d b9fa 0cbd cc67 713d f023 2cbd
000000f0: 8487 d4bd ec3a a6bd 8084 7b3c ded3 aebd
00000100: 106c a03c bcf0 c7bd 08ef 1abd b421 c2bd
00000110: 80dd bcbb ecdc c43d 6884 c03d fa8c a7bd
00000120: 5428 923d 4e7d 853d 40a3 f73b ae07 2e3e
00000130: ac1e 4dbd 44ef 13bd 3864 bd3d de36 983d
00000140: 3643 e6bd 58a6 d33d 3ecd 1339 2db0 913b
00000150: 302d 003c 142e b13d 8f08 033e 876e 8b3b
00000160: 4ac6 e5bd ecd7 a73d 50b1 393d 1897 d73c
00000170: 6daf cbba 04a9 e53d 56da e1bd f4e5 dd3d
00000180: 5011 ed3d b129 1dbe 6ae8 32bc 2623 1c3d
00000190: 81b3 3d3d c541 0abd c1ac 44bd df00 b7bd
000001a0: c097 153b 07d7 bbbd 7484 11bd 20cf 653d
000001b0: 9090 44bc f631 cbbd b5b3 c63d ba17 6d3c
000001c0: 44ea f13d c41b 533d e4d7 90bd 8c25 5a3d
000001d0: 8541 38bd 9089 22bd 808e d0bb 8ce7 6ebd
000001e0: 3e53 ffbd ee72 183d 9c2b 28bd 74ab 2a3d
000001f0: 98df 7d3d 8e04 fabd 8cf2 9cbd 364e febb
00000200: ea2c b1bd 582b 9c3d 9cfc ae3d a819 e0bc
00000210: b8c0 373d 38fc 29bd 58c9 c43d 2c6c 073d
00000220: 5ea2 9a3d 6686 d3bd 80f6 3a3c 93ab 8bbc
00000230: 3813 a3bd c4df f33d 0e18 cbbd 4616 15bd
00000240: aa72 babd 068c 02bd a740 4fbd 3a24 993d
00000250: 58d0 a5bd 46cd aebd 3a78 bb3d 082d ddbc
00000260: 20b7 5c3d bc2b e7bd 4a6f cfbd eaa2 93bd
00000270: 8b41 1d3d bca2 de3d 542d 5ebd c4dd 333d
00000280: 4032 50bb 31ff ffb9 e7c7 6abd 426a 433d
00000290: bc8e 82bc 0e97 e43d 8c5a 9fbd 774e a13d
000002a0: c082 c2bb a6f9 a63c 22c9 a5bd c0e8 5bbb
000002b0: cc5a 3dbd 8cca 813d 59d9 e0bd 11d6 ea3c
000002c0: b8ef dc3d 6038 88bc fea9 f7bd 3ecb 973d
000002d0: 111b 18be a499 4d3d 6257 ba3d 13c6 8abd
000002e0: 48f5 b4bc 7117 2d3d 0af9 e53d b8cd 9dbc
000002f0: ec8c 9dbd 148e a03d 44aa d7bd 49d1 0c3d
00000300: acd5 51bd a0e3 6dbd c8cc 8b3c 24b3 be3d
00000310: 80d7 a8bc 7086 bdbc a0f1 933d 66c0 a9bd
00000320: 40bc 1f3c 20bc 3d3d 4854 afbd d0f1 673c
00000330: 8002 3d3c 58bc 39bd 5007 4cbd c17c 933c
00000340: 483e b7bc 1a2e a03d 00b2 f83d 4b7d 453d
00000350: 168d ac3d 70cb 40bc ff82 5a3c 2140 483d
00000360: bcd4 1abd 409e b3bc 7cd0 243d 9013 89bc
00000370: 5f3f 343d d052 b8bc d037 bcbd d01d 053c
00000380: 3037 5fbc 3f97 cd3d 38c3 cf3d eeec 80bc
00000390: 7227 443d 2b54 97bd 825b 0d3e 0b34 9d3c
000003a0: 14d7 4e3d ff3b 833d 9057 c53c f6f6 943d
000003b0: e9a4 7fbd 48de e6bd 3430 373c 8005 9ebd
000003c0: 089e 3fbd 85c5 253c 8491 37bd d2d6 abbd
000003d0: 1f9b 41bd 4493 363d 1807 c53d ff2b 323e
000003e0: f036 2d3c eda3 c9bd de27 cebd c68a 843d
000003f0: 80a8 a03a 88a1 fcbc 3805 80bc 2a9c 2b3c

modality_encoders.sleep.3.bias f4 [32]
0.19841656 -0.27684355 -0.2275687 0.27216524 -0.1347394 -0.31320333 0.0002695613 0.35023654
-0.20031601 0.18947472 0.20082045 0.21056493 0.15160625 -0.18921545 0.10254148 0.22711691
0.26045552 -0.32668853 0.26481166 0.19488372 0.21669863 0.11139999 -0.22315009 0.24889787
0.32710305 0.21461919 -0.2925136 0.32579008 -0.31231764 -0.041137714 0.27253094 -0.13223924
00000000: b62d 4b3e 70be 8dbe c507 69be 3e59 8b3e
00000010: 20f9 09be 305c a0be e853 8d39 3452 b33e
00000020: a41f 4dbe a905 423e e0a3 4d3e 559e 573e
00000030: ab3e 1b3e b2c1 41be 4401 d23d 5691 683e
00000040: 6d5a 853e b843 a7be 6595 873e 998f 473e
00000050: 3fe6 5d3e ae25 e43d 7581 64be 15df 7e3e
00000060: 0d7a a73e 22c5 5b3e 58c4 95be f5cd a63e
00000070: 19e8 9fbe 0580 28bd 2d89 8b3e b969 07be

modality_encoders.stress.0.weight f4 [64, 1]
0.7483871 -0.7516955 -0.84377885 -0.88561726 -0.87132025 0.4235107 0.3210855 0.3805171
-0.62443686 -0.27971917 0.38244843 0.008368754 -0.004419153 -0.80510736 0.3782205 -0.8026144
0.18261321 0.7376591 -0.5620348 0.39239773 0.71972406 0.15812233 0.1365246 -0.7885847
0.024109455 0.69527805 -0.19124128 -0.24035978 -0.2547065 -0.23391095 0.36190307 0.28893477
0.15131968 0.07773294 -0.8679211 0.16175285 -0.22479391 -0.76685905 -0.32642126 -0.9182826
-0.625669 0.10631697 -0.413486 -0.8875185 0.2333249 -0.65217125 0.22324672 0.7482382
-0.12776986 -0.14209342 0.11505963 0.36594966 0.053067274 0.575244 -0.40511826 -0.8493327
-0.75537384 -0.529715 0.0028067827 0.1628548 0.4888342 0.18364966 0.49426535 0.34871086
00000000: 4c96 3f3f 1e6f 40bf e401 58bf d0b7 62bf
00000010: d80e 5fbf 65d6 d83e 5265 a43e 23d3 c23e
00000020: 18db 1fbf 5a37 8fbe 48d0 c33e 191d 093c
00000030: 8bce 90bb 841b 4ebf 1ea6 c13e 2378 4dbf
00000040: f5fe 3a3e 3ad7 3c3f 83e1 0fbf 5be8 c83e
00000050: d63f 383f d2ea 213e 1bcd 0b3e b0e0 49bf
00000060: 3181 c53c befd 313f c1d4 43be e020 76be
00000070: e468 82be 5a86 6fbe 5c4b b93e 42ef 933e
00000080: 8cf3 1a3e 7332 9f3d 1430 5ebf 8aa2 253e
00000090: 6030 66be e050 44bf b020 a7be 9214 6bbf
000000a0: d82b 20bf b6bc d93d 70b4 d3be 6a34 63bf
000000b0: b9ec 6e3e b2f4 26bf ca9a 643e 8a8c 3f3f
000000c0: 1ad6 02be f080 11be 62a4 eb3d c15d bb3e
000000d0: 125d 593d 3143 133f a96b cfbe de6d 59bf
000000e0: 2e60 41bf 679b 07bf 00f2 373b 69c3 263e
000000f0: 7a48 fa3e a80e 3c3e 5910 fd3e 3b8a b23e

modality_encoders.stress.0.bias f4 [64]
-0.6076132 1.7245768 -0.2469101 -0.11724293 -0.9724959 -0.15811986 -0.85959643 -0.82763046
1.2005932 1.088204 0.05679844 0.6771498 0.5931936 1.6911492 -0.5795059 1.6183257
0.048037946 -0.09258778 1.0780609 -0.57349235 -1.0798118 -0.2895409 -0.095064856 1.5663024
0.5773812 0.19040109 0.575486 -0.07600093 -0.98721087 0.96096855 0.4356854 -1.1715847
-0.15173288 0.18240798 -0.5908271 0.014358189 0.84845364 -0.9749558 0.7491799 -0.3366797
1.3052504 -0.04935025 -0.6346849 1.6843282 0.0915293 -0.81742513 0.67334384 -0.5649872
0.62595713 -0.009506345 0.18264279 0.06748777 0.18889862 0.011186285 0.7567131 1.1177833
-0.0019615688 1.035003 0.6493903 0.6341563 0.53714824 0.7887292 -0.36744538 0.30790177
00000000: 8a8c 1bbf efbe dc3f 00d6 7cbe 101d f0bd
00000010: 7ef5 78bf 2cea 21be 830e 5cbf 97df 53bf
00000020: 0aad 993f 454a 8b3f 7ba5 683d b059 2d3f
00000030: 89db 173f 9477 d83f 805a 14bf 4c25 cf3f
00000040: 70c3 443d a99e bdbd e6fd 893f 65d0 12bf
00000050: 4637 8abf b43e 94be 5db1 c2bd 997c c83f
00000060: 41cf 133f 81f8 423e 0d53 133f 60a6 9bbd
00000070: dab9 7cbf 0902 763f 2812 df3e 7df6 95bf
00000080: dd5f 1bbe 28c9 3a3e 7240 17bf 9c3e 6b3c
00000090: 4234 593f b496 79bf 41ca 3f3f 4861 acbe
000000a0: 7212 a73f 7d23 4abd b67a 22bf 1198 d73f
000000b0: b773 bb3d c642 51bf 4360 2c3f 00a3 10bf
000000c0: ba3e 203f 80c0 1bbc b606 3b3e 0737 8a3d
000000d0: a46e 413e ae46 373c f3b7 413f 8613 8f3f
000000e0: aa8d 00bb fa7a 843f 713e 263f 1158 223f
000000f0: 8c82 093f 28ea 493f cd21 bcbe 4da5 9d3e

modality_encoders.stress.3.weight f4 [32, 64]
-0.13269296 0.99161154 0.0474613 0.10196158 -0.087026834 -0.07144379 0.10779886 0.042362127
0.926094 -0.096770965 0.007576852 -0.041402616 -0.018257892 0.788389 -0.07278963 1.0176204
-0.1005418 0.0073271533 1.1309083 -0.060836736 -0.03375625 0.18079115 -0.0026724401 0.9622719
0.06330111 0.035566296 0.29047093 -0.04181303 0.0009429902 -0.046591613 0.14691846 -0.0040786224
-0.17758833 -0.06574417 0.05153781 0.042876985 -0.0155832525 -0.082932636 0.6620663 0.042593315
1.0898479 -0.037231445 -0.11892888 0.8288433 -0.16206084 0.00012002885 0.025681734 -0.06927202
-0.1696994 0.095938265 0.05906589 -0.030622346 0.13140696 0.016349392 0.9200103 0.9711902
0.10828246 0.9475149 -0.15318646 -0.11524679 -0.07933796 0.04468496 0.058458354 -0.032834988
-0.06532418 0.96529675 -0.07817678 0.110201284 0.09131272 0.008573744 0.11335997 0.041789904
0.77285033 -0.16130576 -0.08072758 -0.14189665 -0.12739709 0.67756575 0.02975087 0.9509983
0.03090095 0.09842051 0.87657386 0.007168109 0.13987133 0.24290478 -0.0873348 0.76017314
-0.11563467 -0.12860061 0.2612947 0.08810772 -0.030680329 -0.119793385 -0.04146484 0.12951857
-0.07048987 -0.097384386 -0.10408054 -0.10220038 0.04732111 -0.072410405 0.71071786 0.07478115
1.1176567 -0.10654576 0.116815686 0.9458786 -0.1383506 -0.08441439 -0.038652398 0.073650755
-0.20245384 0.05090092 -0.08514747 0.009110084 0.024637125 0.09534853 0.8287211 0.71740407
0.04934797 0.85027915 -0.10272539 -0.029464282 0.0069634463 0.10511693 0.015536141 0.026483014
0.046234336 -0.657755 -0.03191057 -0.03214079 0.018902615 -0.12121111 -0.101711884 -0.08740916
-0.45058835 0.14694333 -0.052503757 0.015128531 0.05908787 -0.63948685 0.016631838 -0.71208763
0.11112913 -0.1082 -0.6311717 0.05140059 -0.1552499 -0.019476179 0.053747743 -0.68290603
0.15659082 0.014212096 0.04061741 0.05283597 -0.0430893 0.1373002 0.05401131 -0.049426522
-0.086824134 0.02519565 0.12421389 -0.0032041315 0.21760486 0.03128384 -0.5495497 -0.04051307
-0.7907875 0.13907997 -0.11490829 -0.7234694 -0.017204735 0.032444984 0.026793607 0.016216246
0.11252057 0.11736232 0.05461375 0.007440152 -0.04757986 0.1427893 -0.5994254 -0.5397632
0.085515685 -0.6551393 0.13364634 0.12319042 0.02998538 0.014588083 -0.040495433 -0.04338548
0.074178696 0.9546579 -0.1052465 0.0513227 -0.017619997 -0.042050097 0.029922575 0.17167524
0.7186439 -0.19131483 0.13216403 -0.20350271 -0.13081816 0.77214223 -0.080735125 1.1716638
-0.1509228 -0.021611337 1.1441358 0.03304008 -0.017327037 0.17467435 -0.002972488 1.037567
-0.018134732 -0.10238524 0.18826142 0.10898352 0.04139936 0.022887183 0.0427993 0.043227766
-0.02954813 -0.021599608 -0.089555085 -0.09963431 -0.2684043 0.09515774 0.82331467 -0.0019865632
1.1839828 0.012248487 -0.08127239 0.7805462 0.055614814 -0.010119557 0.11377956 -0.07470234
-0.32900545 0.020076215 -0.06393296 0.008362521 -0.050488766 -0.048302863 0.895069 0.9783197
0.044194415 0.84916073 -0.077727005 -0.015765479 0.040405698 -0.118226595 0.0024493493 0.092356786
00000000: aae0 07be 41da 7d3f c866 423d 3cd1 d03d
00000010: 203b b2bd 1f51 92bd a6c5 dc3d e983 2d3d
00000020: 7f14 6d3f db2f c6bd 3e47 f83b ca95 29bd
00000030: 9391 95bc ddd3 493f bb12 95bd 6341 823f
00000040: dce8 cdbd 9e18 f03b 9ac1 903f f12f 79bd
00000050: fe43 0abd 5121 393e 1b24 2fbb 7457 763f
00000060: 03a4 813d f7ad 113d 9bb8 943e 2444 2bbd
00000070: 0033 773a d9d6 3ebd cb71 163e f7a5 85bb
00000080: b7d9 35be e1a4 86bd 5019 533d c79f 2f3d
00000090: e650 7fbc 96d8 a9bd 2d7d 293f 5476 2e3d
000000a0: 2380 8b3f 0080 18bd fc90 f3bd 132f 543f
000000b0: 47f3 25be 00b8 fb38 8062 d23c 7dde 8dbd
000000c0: aec5 2dbe 487b c43d 13ef 713d b7db fabc
000000d0: 8c8f 063e 29ef 853c cc85 6b3f ec9f 783f
000000e0: 32c3 dd3d 5690 723f e9dc 1cbe 8206 ecbd
000000f0: f17b a2bd 9407 373d 0772 6f3d fb7d 06bd
00000100: afc8 85bd b01d 773f 261b a0bd 36b1 e13d
00000110: 2a02 bb3d e478 0c3c 4629 e83d e42b 2b3d
00000120: 85d9 453f 562d 25be 8054 a5bd 5b4d 11be
00000130: 6274 02be f374 2d3f 19b8 f33c a074 733f
00000140: fd23 fd3c b190 c93d 2567 603f 75e2 ea3b
00000150: 6e3a 0f3e 08bc 783e 96dc b2bd b59a 423f
00000160: dfd1 ecbd e1af 03be 6bc8 853e d271 b43d
00000170: 5055 fbbc 3c56 f5bd 09d7 29bd 84a0 043e
00000180: fe5c 90bd 7771 c7bd 2e28 d5bd 6f4e d1bd
00000190: c8d3 413d e84b 94bd 9bf1 353f dc26 993d
000001a0: 600f 8f3f aa34 dabd 103d ef3d 1a25 723f
000001b0: c8ab 0dbe 74e1 acbd fa51 1ebd 35d6 963d
000001c0: 0f50 4fbe 7c7d 503d cc61 aebd 7642 153c
000001d0: ccd3 c93c 1746 c33d 1127 543f cba7 373f
000001e0: 1921 4a3d e5ab 593f b061 d2bd 145f f1bc
000001f0: 9f2d e43b 8c47 d73d 4c8b 7e3c e8f2 d83c
00000200: 3760 3d3d a262 28bf a8b4 02bd 10a6 03bd
00000210: a8d9 9a3c 883d f8bd 524e d0bd 9303 b3bd
00000220: 84b3 e6be 5078 163e 2e0e 57bd a8dd 773c
00000230: 1f06 723d 69b5 23bf 7e3f 883c 604b 36bf
00000240: ab97 e33d f697 ddbd 7894 21bf 6d89 523d
00000250: d4f9 1ebe 828c 9fbc 9826 5c3d eed2 2ebf
00000260: 5859 203e dad9 683c 715e 263d 886a 583d
00000270: 687e 30bd 6c98 0c3e f73a 5d3d 7773 4abd
00000280: dad0 b1bd 1c67 ce3c da63 fe3d 68fc 51bb
00000290: cfd3 5e3e 7c23 003d 4aaf 0cbf 08f1 25bd
000002a0: 0d71 4abf fb6a 0e3e 0a55 ebbd 4a35 39bf
000002b0: f2f0 8cbc 08e5 043d 447e db3c efd7 843c
000002c0: 2f71 e63d a85b f03d abb2 5f3d 85cc f33b
000002d0: 19e3 42bd 5c37 123e f173 19bf ec2d 0abf
000002e0: d922 af3d 36b7 27bf 96da 083e 424b fc3d
000002f0: e6a3 f53c db02 6f3c 8ade 25bd f9b4 31bd
00000300: 00eb 973d 7664 743f 7a8b d7bd c037 523d
00000310: d057 90bc b93c 2cbd 3020 f53c a2cb 2f3e
00000320: 0cf9 373f 09e8 43be 0256 073e 0463 50be
00000330: 32f5 05be 1dab 453f 7558 a5bd 14f9 953f
00000340: 828b 1abe 420a b1bc 0b73 923f 0955 073d
00000350: 6ef1 8dbc d5dd 323e 13ce 42bb ffce 843f
00000360: 4a8f 94bc 5aaf d1bd 9ac7 403e c032 df3d
00000370: 6092 293d e77d bb3c 524e 2f3d 990f 313d
00000380: ec0e f2bc a9f1 b0bc a868 b7bd 130d ccbd
00000390: 4a6c 89be 10e2 c23d c0c4 523f 0031 02bb
000003a0: c08c 973f e1ad 483c 2472 a6bd e0d1 473f
000003b0: 5ccc 633d 80cc 25bc 4205 e93d 8afd 98bd
000003c0: 6773 a8be e076 a43c 49ef 82bd f502 093c
000003d0: 4fcd 4ebd 39d9 45bd 3e23 653f 2973 7a3f
000003e0: 3405 353d 9962 593f 562f 9fbd 9b26 81bc
000003f0: 7280 253d c920 f2bd 4385 203b 8e25 bd3d

modality_encoders.stress.3.bias f4 [32]
-0.17644349 -0.14037997 0.14111319 -0.122958586 -0.24204332 0.3070953 0.30010605 0.19711307
0.24916309 0.20585607 -0.13767405 -0.2454853 -0.05664017 0.23337734 -0.20555674 -0.25192246
-0.24298403 -0.022565825 0.14793856 -0.30994463 -0.21991709 -0.25625214 -0.27758095 -0.31725368
-0.22652166 0.19032449 -0.25393093 0.37975627 0.061324004 -0.2935349 0.22076198 0.29904923
00000000: 9aad 34be c4bf 0fbe fa7f 103e b6d1 fbbd
00000010: 34da 77be 983b 9d3e 80a7 993e 02d8 493e
00000020: 9c24 7f3e efcb 523e 6dfa 0cbe 8060 7bbe
00000030: 86ff 67bd 78fa 6e3e 777d 52be fbfb 80be
00000040: ced0 78be f7db b8bc 357d 173e 10b1 9ebe
00000050: f231 61be 7b33 83be 171f 8ebe 136f a2be
00000060: 4bf5 67be 6ce4 423e 3c03 82be 6a6f c23e
00000070: e12e 7b3d 354a 96be 6e0f 623e fb1c 993e

modality_encoders.weather.0.weight f4 [64, 5]
-0.027047317 -0.25828737 -0.087964825 0.394962 -0.14851245 0.056628875 -0.20382345 -0.34518766
0.28448436 0.09633417 0.18087706 0.06133654 -0.28981227 -0.28657442 0.3587785 0.32134143
-0.33374354 -0.26161516 0.34429705 0.04239057 -0.7251526 -0.3149242 0.07639637 -1.5475292
0.13687527 -0.3705125 -0.27781707 -0.2096415 0.15739243 0.06256698 -0.27962244 -0.17390104
0.024726942 -0.5442866 0.017405897 -0.4869935 -0.36690387 0.057469882 -1.21956 -0.37197143
-0.20706053 0.013260004 0.0115931425 -0.81877774 -0.5258039 -0.861466 -0.48572803 0.094354324
-1.130306 -0.42240387 -0.47770667 -0.5640319 0.05570875 -1.2182829 -0.20061283 -0.55808747
0.13547152 0.038369834 -1.337822 -0.31742546 -0.50947464 -0.37225232 0.048637643 -1.0891376
-0.35714516 -0.017959682 -0.078296736 0.0047285655 -0.687413 -0.8505292 -0.3938051 -0.39348298
-0.2238805 0.2781171 -0.18845807 -0.5348652 0.15223967 0.038141467 -1.7121103 -0.27187556
0.085299544 0.2402708 -0.029966736 -0.081919506 -0.43057346 -0.36453706 0.029492525 -0.16227825
0.1767079 -0.15620436 -0.39564764 0.42610788 -0.28630078 -0.12957874 -0.01988922 0.07711911
-0.013860266 -0.0054886155 -0.8906644 -0.7538458 0.45436823 0.26620704 -0.06342881 0.77727175
-0.3642339 -0.4541275 -0.57261133 0.06363989 -1.088898 0.27501094 -0.40214062 0.034009814
-0.10482901 -0.40576318 0.17900543 0.42896846 -0.121607 -0.17291714 -0.22498305 0.2152681
-0.006064508 -0.27845916 -0.04536607 -0.19812563 -0.011256458 -0.1630059 0.30594656 -0.20030892
0.40491003 0.36006603 -0.36848757 -0.11599033 0.027944494 -1.2277911 -0.41079724 -0.36899576
-0.08017573 0.026910976 -1.184881 -0.48633167 -0.2435617 0.08936042 -0.28666532 0.34467837
0.22890542 -0.4061568 -0.63274926 0.05411002 -0.65221816 -0.12605877 -0.21082392 0.0062456112
0.010964996 -0.86383766 0.15016094 0.27551398 -0.094405055 -0.027245853 0.16853884 0.35053447
0.073783666 -0.14239949 -0.1817195 0.44128364 -0.33350962 0.21143556 0.1911031 -0.1972535
0.21408394 -0.35718623 0.030745978 -0.49596033 0.020296872 -0.7015212 -0.29906777 0.002105398
-0.29785144 -0.41471747 0.026876027 0.40935054 0.1831625 0.27744249 -0.3906683 0.07240657
0.43904218 -0.5622882 0.050803326 0.029003078 -1.6977105 0.2855063 -0.13444874 -0.001343516
-0.014881835 -0.32022005 -0.44708195 -0.037817147 -0.4798462 0.024933776 -0.86771643 -0.10809025
-0.2512292 0.033157088 0.0026435829 0.37189895 -0.2225114 0.25199863 0.016776865 -0.44272962
-0.076084666 -0.122580364 -0.28259304 -0.66928285 0.049043443 -0.5296085 -0.7152526 -0.18382606
0.20107202 -0.2613167 0.062105406 0.39511842 -0.57224476 -0.19267358 0.05802098 -1.6891377
-0.27428555 -0.24463934 0.03395096 0.008372279 -0.22276974 0.14460383 -0.7863857 -0.0021355336
0.0711749 -1.3701723 -0.2609322 0.019465815 0.19594005 -0.18563521 -0.19229943 0.08855446
0.09617498 -0.43973956 0.011732109 0.09375131 -0.40181944 0.14011666 -0.3122941 -0.21450569
0.16683035 -0.20046005 -0.6366347 0.13579282 0.047562454 -1.1715941 0.105773784 0.051080707
00000000: 5692 ddbc 3e3e 84be e726 b4bd 7638 ca3e
00000010: a613 18be aef3 673d 18b7 50be 70bc b0be
00000020: efa7 913e d94a c53d d637 393e 063c 7b3d
00000030: 4662 94be e2b9 92be d1b1 b73e dd86 a43e
00000040: 6fe0 aabe 6cf2 85be b447 b03e bca1 2d3d
00000050: 9aa3 39bf bf3d a1be b375 9c3d 7015 c6bf
00000060: 0829 0c3e d0b3 bdbe 0a3e 8ebe 43ac 56be
00000070: 7b2b 213e 1e23 803d ac2a 8fbe 1d13 32be
00000080: 2890 ca3c 5e56 0bbf d096 8e3c 3657 f9be
00000090: d3da bbbe 8a65 6b3d 8b1a 9cbf 0a73 bebe
000000a0: ad07 54be 7d40 593c 2af1 3d3c 6b9b 51bf
000000b0: 169b 06bf 0989 5cbf 58b1 f8be d73c c13d
000000c0: dead 90bf 5245 d8be f895 f4be 6564 10bf
000000d0: dc2e 643d b2f0 9bbf 736d 4dbe d2de 0ebf
000000e0: 0cb9 0a3e b029 1d3d c03d abbf 9785 a2be
000000f0: ee6c 02bf db97 bebe 4438 473d dc68 8bbf
00000100: bbdb b6be 2f20 93bc 0a5a a0bd 15f2 9a3b
00000110: 4cfa 2fbf 48bc 59bf d2a0 c9be 9a76 c9be
00000120: ee40 65be 5d65 8e3e 27fb 40be edec 08bf
00000130: b7e4 1b3e 3a3a 1c3d 6e26 dbbf 4633 8bbe
00000140: 87b1 ae3d 8c09 763e cd7c f5bc 6ac5 a7bd
00000150: 2074 dcbe 9aa4 babe 4f9a f13c 452c 26be
00000160: eaf2 343e 09f4 1fbe 5492 cabe d02a da3e
00000170: 0496 92be 4ab0 04be b8ee a2bc a0f0 9d3d
00000180: 2b16 63bc d8d9 b3bb 9502 64bf 0afc 40bf
00000190: f4a2 e83e 4a4c 883e f7e6 81bd 48fb 463f
000001a0: de7c babe 6683 e8be a896 12bf a155 823d
000001b0: 0261 8bbf 3cce 8c3e 60e5 cdbe e04d 0b3d
000001c0: 98b0 d6bd 31c0 cfbe 334d 373e c1a1 db3e
000001d0: 170d f9bd 3111 31be f561 66be 3e6f 5c3e
000001e0: c8b8 c6bb 3392 8ebe c6d1 39bd 72e1 4abe
000001f0: 026d 38bc 05eb 26be 07a5 9c3e c81d 4dbe
00000200: 5e50 cf3e 935a b83e 67aa bcbe 578c edbd
00000210: daeb e43c 4228 9dbf 0454 d2be 03ed bcbe
00000220: 2c33 a4bd 6874 dc3c 2eaa 97bf 7700 f9be
00000230: 3d68 79be 9902 b73d ccc5 92be af79 b03e
00000240: 2f66 6a3e c9f3 cfbe dbfb 21bf 78a2 5d3d
00000250: c5f7 26bf 8d15 01be 3ae2 57be fca7 cc3b
00000260: 87a6 333c 7724 5dbf cac3 193e 2b10 8d3e
00000270: 7057 c1bd b232 dfbc 7295 2c3e 4179 b33e
00000280: e41b 973d 2cd1 11be ad14 3abe eeef e13e
00000290: c6c1 aabe 9082 583e 88b0 433e d2fc 49be
000002a0: d238 5b3e 1de1 b6be fdde fb3c 83ee fdbe
000002b0: a045 a63c e596 33bf 691f 99be b8fa 093b
000002c0: fc7f 98be d955 d4be 1d2b dc3c 6596 d13e
000002d0: f38e 3b3e f10c 8e3e ad05 c8be e549 943d
000002e0: 23ca e03e 1ff2 0fbf 2617 503d dd97 ed3c
000002f0: 944e d9bf e22d 923e eeac 09be eb18 b0ba
00000300: f1d2 73bc e2f3 a3be ede7 e4be 27e6 1abd
00000310: 67ae f5be eb41 cc3c aa22 5ebf 6c5e ddbd
00000320: 1da1 80be bacf 073d f63f 2d3b 8a69 be3e
00000330: 07da 63be f705 813e a36f 893c 75ad e2be
00000340: 47d2 9bbd 6a0b fbbd 09b0 90be 1f56 2bbf
00000350: c7e1 483d 6c94 07bf cb1a 37bf e63c 3cbe
00000360: d3e5 4d3e 4dcb 85be 3d62 7e3d f64c ca3e
00000370: a27e 12bf 394c 45be 68a7 6d3d aa35 d8bf
00000380: 286f 8cbe bc82 7abe 2910 0b3d e22b 093c
00000390: c01d 64be 0713 143e 9350 49bf 4ff4 0bbb
000003a0: 25c4 913d ce61 afbf e898 85be c676 9f3c
000003b0: 82a4 483e 2817 3ebe 24ea 44be 0a5c b53d
000003c0: 63f7 c43d 8b25 e1be 0838 403c b000 c03d
000003d0: 47bb cdbe be7a 0f3e 03e5 9fbe 61a7 5bbe
000003e0: 93d5 2a3e 6645 4dbe 7efa 22bf 460d 0b3e
000003f0: d9d0 423d ccf6 95bf ed9f d83d 013a 513d

modality_encoders.weather.0.bias f4 [64]
-0.2456535 0.309745 -0.3597345 0.21372744 -0.011103641 -0.36812425 0.05631742 0.1828565
-0.13537753 -0.6495959 -0.20061398 -0.469984 0.094579585 0.025487848 0.40657374 0.23794341
-0.21708263 -0.4047614 -0.36433184 -0.062760495 0.2987386 -0.5126027 -0.016606586 -0.38530293
0.4736306 -0.2290216 0.16334899 0.013369213 -0.08688829 -0.094671674 0.13176174 -0.24465391
0.3281272 0.4197251 -0.15983255 0.59660816 -0.27056977 -0.23050046 -0.041202776 -0.46692058
0.41515023 -0.41278672 -0.594971 -0.38195634 0.02818711 0.60526997 -0.18281896 -0.3732888
0.3654163 0.34141332 0.12321224 -0.18354629 0.5218948 0.4413443 -0.33951187 -0.15650722
0.15436415 -0.06712532 -0.5467867 -0.0134450225 -0.43859145 -0.021995565 -0.28856242 -0.40966898
00000000: 978c 7bbe e696 9e3e 1f2f b8be 5edb 5a3e
00000010: 0cec 35bc c87a bcbe 18ad 663d bc3e 3b3e
00000020: 68a0 0abe eb4b 26bf c06d 4dbe bea1 f0be
00000030: f1b2 c13d e4cb d03c 6f2a d03e 70a7 733e
00000040: e94a 5ebe e33c cfbe b489 babe 9388 80bd
00000050: 44f4 983e ee39 03bf 890a 88bc 6d46 c5be
00000060: b67f f23e a384 6abe f544 273e 8b0a 5b3c
00000070: 7df2 b1bd 39e3 c1bd 8dec 063e 8e86 7abe
00000080: 4a00 a83e 35e6 d63e 25ab 23be 50bb 183f
00000090: 1f88 8abe 5008 6cbe 3ec4 28bd 3710 efbe
000000a0: 928e d43e c858 d3be 0550 18bf c88f c3be
000000b0: a7e8 e63c f9f2 1a3f e534 3bbe b61f bfbe
000000c0: d817 bb3e bacd ae3e b356 fc3d 8ff3 3bbe
000000d0: e69a 053f e1f7 e13e 80d4 adbe 6e43 20be
000000e0: a311 1e3e 0079 89bd 37fa 0bbf 8348 5cbc
000000f0: 0f8f e0be 0b30 b4bc 74be 93be 22c0 d1be
