results/migraine/fold2_model.pth (torch, 625050 bytes, 44 tensors)

modality_encoders.eeg.0.weight f4 [64, 6]
0	0x3dc679e7	0.0969122
1	0x3dd186d8	0.102307975
2	0x3ce866df	0.028369365
3	0xbe94d0ae	-0.2906546
4	0x3c054058	0.0081330165
5	0x3f115548	0.56770754
6	0x3e2999b1	0.16562535
7	0xbbab1134	-0.0052205566
8	0xbea26130	-0.31714773
9	0x3dba6cf8	0.091028154
10	0xbe7667ed	-0.24063082
11	0xbe14902f	-0.14508127
12	0xbe8370ff	-0.25672147
13	0x3decbc16	0.11559312
14	0xbf06a98c	-0.5260246
15	0xbf07e59f	-0.5308475
16	0x3d977989	0.07396228
17	0xbea39fec	-0.31957948
18	0x3db3b5ff	0.087749474
19	0xbce60fbb	-0.028083673
20	0xbe0c1c4a	-0.13682666
21	0xbf0b7ff7	-0.54492134
22	0x3cbbae22	0.022910181
23	0x3ebf1089	0.37317303
24	0x3db03474	0.08603755
25	0x3df6aa37	0.12044185
26	0xbe7c6d68	-0.2465111
27	0x3e5df288	0.2167455
28	0xbec85fc3	-0.3913556
29	0x3e6003ea	0.21876493
30	0x3e4696ae	0.19393417
31	0xbe827fd8	-0.25488162
32	0x3dc58fd2	0.09646572
33	0x3d3ea946	0.04654815
34	0x3d08ea25	0.033426423
35	0x3e81879b	0.2529877
36	0xbdddd52f	-0.10831677
37	0xbda5bbf6	-0.08092491
38	0xbd8e860d	-0.06959162
39	0x3e2f8bed	0.17143221
40	0x3d562335	0.05227967
41	0xbd8d59d6	-0.069019005
42	0x3e56b76f	0.20968412
43	0xbe9bc60c	-0.30424535
44	0x3ec50ca2	0.384862
45	0x3e1ce023	0.15319876
46	0xbe1fc65f	-0.15603016
47	0x3e9681d5	0.2939593
48	0xbe8b59e1	-0.2721701
49	0xbdab3d38	-0.08361286
50	0x3e95c0d8	0.2924869
51	0xbdcbe574	-0.09955874
52	0xbe27b98e	-0.16379377
53	0xbeab5709	-0.3346484
54	0x3e886956	0.26642865
55	0x3e379e63	0.17931513
56	0xbebfcda3	-0.37461576
57	0x3e868474	0.2627293
58	0xbeb4b66b	-0.35295424
59	0xbe9694d2	-0.29410416
60	0x3de30276	0.11084454
61	0x3e2ad6a5	0.16683443
62	0xbea93340	-0.33046913
63	0x3e02c317	0.12769733
64	0xbdf81320	-0.12113023
65	0x3ea9e27b	0.33180603
66	0x3d241f72	0.04006905
67	0xbf01ea50	-0.5074816
68	0xbe6ce224	-0.23133141
69	0xbe2c9f75	-0.16857703
70	0x3e3fa07f	0.18713568
71	0xbea5b9af	-0.32368228
72	0xbe8048d8	-0.25055575
73	0x3cf27de4	0.029601045
74	0x3da4d901	0.08049203
75	0xbf02fc2f	-0.5116605
76	0x3d03ed18	0.032208532
77	0x3f9c1bfa	1.2196038
78	0x3e8d36b3	0.27580795
79	0xbe8fdf04	-0.28099835
80	0x3e879296	0.26479024
81	0x3dc00cc2	0.09377433
82	0xbe70ba69	-0.2350861
83	0x3eb9a024	0.3625499
84	0xbec3c2fb	-0.38234696
85	0xbe75ed49	-0.24016298
86	0x3e732d6d	0.23747797
87	0x3eae02e3	0.33986577
88	0xbde809dd	-0.11330006
89	0xbe9df754	-0.3085276
90	0xbd5829db	-0.05277429
91	0x3cba61e2	0.022751752
92	0xbdce65b7	-0.10077994
93	0xbe9cef75	-0.3065144
94	0x3da1c5ce	0.078990564
95	0x3e52048b	0.20509546
96	0xbbdd75da	-0.0067584338
97	0x3d72fd27	0.059323456
98	0xbecf6bce	-0.40511936
99	0xbc0e3b42	-0.00868112
100	0xbe4c372b	-0.1994292
101	0x3b7f41db	0.0038949165
102	0xbdaf9f71	-0.08575333
103	0xbea5e75a	-0.3240307
104	0xbebd9f05	-0.37035385
105	0x3ec2fe2e	0.3808455
106	0xbe0ba58d	-0.13637371
107	0xbec6d9ab	-0.38837942
108	0xbec31ac8	-0.3810637
109	0xbe846eb8	-0.25865722
110	0x3dfc4abf	0.12318944
111	0xbea09e80	-0.31370926
112	0x3cd5a0f1	0.02607772
113	0x3e7f60f3	0.24939327
114	0xbd319fd2	-0.043365307
115	0x3d28aaa3	0.041178357
116	0xbeaadb4d	-0.33370438
117	0xbadbfb67	-0.0016783298
118	0xbe28113d	-0.16412826
119	0xbddbe2c8	-0.107366145
120	0x3e4074e6	0.18794593
121	0xbea9c93e	-0.33161348
122	0xbea583ce	-0.32327121
123	0x3e973a9d	0.29536906
124	0xbe70dcad	-0.23521681
125	0x3ea62c06	0.32455462
126	0x3e9d9d3e	0.3078403
127	0xbeb640ea	-0.355964
128	0xbe78aca5	-0.24284609
129	0xbe2d8714	-0.1694606
130	0x3d9cc1e4	0.07654169
131	0x3eaba431	0.33523706
132	0x3e92dbb8	0.28683257
133	0x3e36e6eb	0.17861526
134	0x3e59e392	0.21278217
135	0xbef556ea	-0.47917873
136	0xbe8138f5	-0.25238767
137	0x3f2a32f5	0.66484004
138	0xbef1c735	-0.47222295
139	0xbeb5e51c	-0.3552636
140	0xbe41ac90	-0.18913484
141	0xbd00643d	-0.031345595
142	0x3e79edcc	0.24407119
143	0xbec00a37	-0.37507793
144	0x3d2b31ae	0.041795425
145	0x3dc71109	0.09720046
146	0xbd77147a	-0.060322262
147	0x3e6fd581	0.23421289
148	0xbddcfecd	-0.10790787
149	0x3ebf403d	0.37353697
150	0xbea59132	-0.32337338
151	0xbe5c1ac8	-0.21494591
152	0x3ee835b6	0.45353478
153	0xbcea2209	-0.028580682
154	0x3d9d76b7	0.07688659
155	0x3fd8a657	1.6925763
156	0xbe530830	-0.20608592
157	0x3e1b8364	0.1518684
158	0x3e3eb6b9	0.1862439
159	0xbcd29cd8	-0.025709555
160	0xbec8145b	-0.3907803
161	0x3e1257bf	0.14291285
162	0xbddf4dfd	-0.10903547
163	0xbea66100	-0.3249588
164	0x3e290831	0.16507031
165	0xbdf1ef4d	-0.11813221
166	0x3d34e5c0	0.04416442
167	0x3e08348d	0.13301297
168	0x3e14c8c5	0.14529712
169	0x3d9fdd28	0.07805854
170	0x3e962c11	0.29330495
171	0xbec46384	-0.38357174
172	0xbd738f37	-0.059462752
173	0x3efdd3ea	0.4957574
174	0xbe5788a9	-0.21048225
175	0xbec8ee24	-0.39244187
176	0xbb4887da	-0.0030598552
177	0xbed34d56	-0.4126994
178	0x3e80434d	0.25051346
179	0x3fe95992	1.823046
180	0xbda97422	-0.08274104
181	0x3d1c6164	0.038178816
182	0x3e8469e7	0.25862047
183	0x3e874280	0.26417923
184	0xbe958b48	-0.29207826
185	0x3e9099da	0.2824238
186	0xbeba4516	-0.36380833
187	0xbe8dd167	-0.27698824
188	0xbe325aa5	-0.1741739
189	0x3e218480	0.15773201
190	0x3de98d4b	0.114039026
191	0x3ea5779c	0.32317817
192	0xbbe311a9	-0.0069295955
193	0xbce1d806	-0.027568828
194	0x3e0dab77	0.1383494
195	0x3d5fe1b9	0.054658625
196	0xbdc0a9fc	-0.09407422
197	0xbe93f6f9	-0.28899363
198	0x3df6c9e8	0.12050229
199	0xbbf161b0	-0.0073663816
200	0x3e1f79c3	0.15573792
201	0xbe276b2c	-0.16349477
202	0xbe83734c	-0.25673902
203	0xbe690ed3	-0.22759561
204	0xbe727b0c	-0.23679751
205	0x3e3dcddb	0.18535559
206	0x3df876f3	0.12132063
207	0xbe2b95b1	-0.16756321
208	0xbe407399	-0.18794097
209	0x3e2177e8	0.15768397
210	0x3db94c35	0.090477385
211	0xbe1e3608	-0.15450299
212	0xbeb12895	-0.34601274
213	0xbdfee93b	-0.12446829
214	0x3d8fa61b	0.07014104
215	0x3f0bb526	0.54573286
216	0x3e2e0f9e	0.16998145
217	0x3e5e386c	0.2170121
218	0x3d10b6cf	0.03533059
219	0x3e065548	0.1311847
220	0xbdb7efda	-0.08981295
221	0x3f4dc2ee	0.80375564
222	0xbed169ca	-0.40901023
223	0xbe5360ab	-0.20642345
224	0xbdb83286	-0.089940116
225	0xbefe0f3b	-0.49620995
226	0x3e45508c	0.19269007
227	0xbf1ce0da	-0.61280596
228	0xbe9b2414	-0.30300963
229	0x3eae8330	0.34084463
230	0xbeb17788	-0.34661508
231	0x3e8219a8	0.254102
232	0xbeb44ae3	-0.35213384
233	0xbd954411	-0.07288373
234	0xbc8ecd9d	-0.017432028
235	0xbd7f26f7	-0.06229302
236	0x3e087e92	0.13329533
237	0xbeae7b36	-0.34078377
238	0xbd8d3cc4	-0.06896356
239	0x3eb99a11	0.36250356
240	0x3cd2535c	0.025674514
241	0xbc1927f7	-0.009347907
242	0xbeb2b115	-0.34900728
243	0x3e998032	0.29980618
244	0xbd562bcc	-0.05228786
245	0xbe97daef	-0.2965922
246	0xbed8ba36	-0.42329568
247	0x3e82083f	0.25396916
248	0xbe3d81b5	-0.1850651
249	0xbec235fe	-0.37931818
250	0xbd1555f3	-0.03645892
251	0x3f2068c7	0.6265988
252	0x3e155318	0.14582479
253	0x3d89153a	0.06693502
254	0xbe03d4c1	-0.12874128
255	0xbe0714c0	-0.13191509

modality_encoders.eeg.0.bias f4 [64]
0	0xbe5532ea	-0.20820203
1	0xbd622760	-0.055213332
2	0xbaaf85f9	-0.0013391367
3	0xbef43384	-0.47695553
4	0xbe9f133e	-0.31069368
5	0xbee93204	-0.4554597
6	0xbdb846fc	-0.08997914
7	0xbb443a78	-0.0029942077
8	0xbe028366	-0.12745437
9	0xbac17dc3	-0.0014762211
10	0xba9d96d9	-0.0012023106
11	0x3e210b4a	0.15726963
12	0xbea2197a	-0.31660062
13	0xbeb46913	-0.35236415
14	0xba211c22	-0.0006145855
15	0xbbfb27ee	-0.007664672
16	0xbe4e157f	-0.20125388
17	0xbec0352c	-0.37540567
18	0xbe8da492	-0.2766462
19	0xbcdbefdf	-0.026847778
20	0xbe8b2922	-0.2717982
21	0x3e0cffab	0.13769405
22	0xbab621c8	-0.0013895566
23	0xbbccc788	-0.006249372
24	0xbd8750f6	-0.06607239
25	0xbe12b8fd	-0.1432838
26	0xb91b695e	-0.00014821204
27	0xbeb787bc	-0.35845745
28	0x3df13e60	0.11779475
29	0x3e25b136	0.16180882
30	0xbe7156a1	-0.23568203
31	0xb97c126a	-0.00024039453
32	0xbe21fd6b	-0.15819328
33	0xbd906e35	-0.0705227
34	0xbe4eec15	-0.20207246
35	0xbad5e166	-0.0016317784
36	0x3d2e6fc4	0.042587057
37	0xbe3df162	-0.18549111
38	0xba359d87	-0.00069280755
39	0xbae43032	-0.0017409383
40	0xba9be2c5	-0.0011893144
41	0x3e461cb6	0.1934689
42	0x3e2e529a	0.17023697
43	0xbad5408f	-0.001626985
44	0xbeae1824	-0.34002793
45	0xba334253	-0.0006838191
46	0x3e3f6256	0.18689856
47	0xbe7a7461	-0.24458458
48	0xbcacdd8e	-0.02110174
49	0xbdb3ec07	-0.08785253
50	0xbec1f31e	-0.37880796
51	0xbe861cd7	-0.26193878
52	0xbee1de03	-0.44114694
53	0x3e42484a	0.18972889
54	0xbe29eeae	-0.16594955
55	0xbe61064c	-0.21975058
56	0xbec20891	-0.3789716
57	0xb9f90178	-0.00047494075
58	0xba1d7a52	-0.0006007302
59	0x3d7d799b	0.06188355
60	0xbad657af	-0.0016353036
61	0xbeda0dd0	-0.42588663
62	0xbcd9afa1	-0.026573004
63	0x3e3d90bd	0.18512245

modality_encoders.eeg.3.weight f4 [32, 64]
0	0x3de02b7e	0.109457955
1	0x3d99e41c	0.075142115
2	0x3ce9b001	0.028526308
3	0xbb2062a1	-0.002447285
4	0x3d5455e0	0.05183971
5	0xbd76da67	-0.06026688
6	0xbdc6106a	-0.096710995
7	0x3c35b71f	0.011091023
8	0xbd0f191c	-0.034936056
9	0xbda63fe0	-0.08117652
10	0xbbd997be	-0.0066404035
11	0xbd5d7a2d	-0.054071594
12	0xbcf83cdd	-0.03030246
13	0x3d9737d4	0.07383695
14	0xbdb9a498	-0.09064597
15	0xbd7712d1	-0.06032068
16	0xbc08b430	-0.008343741
17	0xbd3401d0	-0.04394704
18	0xbdc5393e	-0.09630059
19	0x3dc09ea0	0.09405255
20	0x3ce3b3e0	0.027795732
21	0xbe86e20e	-0.2634434
22	0x3d86233b	0.065496884
23	0xbdb02b20	-0.086019754
24	0x3d8a61dc	0.067569464
25	0xbdc4038c	-0.09570989
26	0xbb727ef6	-0.0037001944
27	0xbc0deec0	-0.0086628795
28	0xbda31ead	-0.07964835
29	0xbceb00bf	-0.02868688
30	0xbdffa978	-0.124834955
31	0x3d662b28	0.0561935
32	0x3d492528	0.0491077
33	0x3de48950	0.11159003
34	0xbc623250	-0.013805941
35	0x3e13df0b	0.14440553
36	0xbca73985	-0.02041317
37	0x3c648239	0.013947063
38	0xbdfb06c6	-0.12257151
39	0xbc581d51	-0.013190583
40	0xbca6004c	-0.020263813
41	0xbd0af09c	-0.03392087
42	0xbe008635	-0.12551196
43	0xbd656f82	-0.056014545
44	0x3cf9cfe8	0.030494645
45	0x3d1d432d	0.038394142
46	0x3e0b8679	0.13625516
47	0xbd738278	-0.059450597
48	0xbda28353	-0.07935204
49	0xbda5161f	-0.0806086
50	0xbe7518ac	-0.23935193
51	0x3c532388	0.012886889
52	0x3de8bfea	0.1136473
53	0xbd834318	-0.064092815
54	0x3c809d30	0.015699953
55	0xbdf9ca96	-0.12196843
56	0xbd0bc9a4	-0.034127846
57	0x3d41a405	0.04727556
58	0x3db13fd3	0.08654752
59	0xbd00ec97	-0.03147563
60	0x3d683ae9	0.056696806
61	0xbdfc637f	-0.12323665
62	0xbcacf168	-0.021111205
63	0xbdbb9813	-0.09159865
64	0x3db37bb1	0.08763827
65	0xbdd07ade	-0.10179685
66	0xbdeafcd0	-0.114740014
67	0xbce77517	-0.028254075
68	0x3d8a3cdc	0.06749889
69	0xbdf0ab35	-0.11751405
70	0xbe31ff8b	-0.17382638
71	0xbd7d2a53	-0.06180794
72	0xbd0b812c	-0.034058735
73	0xbc8fb287	-0.017541183
74	0x3db301a9	0.08740551
75	0xbc4f0e02	-0.012637617
76	0xbd274852	-0.040840454
77	0xbdb1d11a	-0.08682461
78	0x3b344973	0.00275096
79	0xbdcc119b	-0.099642955
80	0xbb0e25c0	-0.0021689981
81	0xbdb19090	-0.08670151
82	0x3cfde478	0.030992731
83	0xbd1942b4	-0.03741713
84	0xbd6a6cac	-0.057232544
85	0xbe453a4f	-0.19260524
86	0xbd2448cb	-0.040108483
87	0x3ac60da0	0.0015110262
88	0x3c9d2e25	0.019187042
89	0xbd78c1f7	-0.060731854
90	0x3d235918	0.03987989
91	0x3dbee932	0.09321822
92	0x3da83edd	0.08215115
93	0xbd10a740	-0.035315752
94	0xbc18d610	-0.00932838
95	0x3c60b2b6	0.013714483
96	0xbd9da2a2	-0.07697035
97	0xbdedbd76	-0.116084024
98	0xbccd3f68	-0.025054649
99	0x3dedf5ff	0.11619186
100	0x3e013cab	0.12620799
101	0x3d8e0e0e	0.069362745
102	0x3c8ab7a8	0.016933277
103	0x3c93d6fc	0.018046848
104	0x3c85e15f	0.016342817
105	0xbe2c8541	-0.16847707
106	0x3d094ff0	0.0335235
107	0xbd99ce9e	-0.07510112
108	0x3cdb567f	0.026774643
109	0x3defbb0f	0.117056005
110	0xbd10b19c	-0.03532563
111	0x3d4fc4f8	0.050724953
112	0xbd4410f8	-0.047867745
113	0xbd9e3341	-0.0772462
114	0xbeaf2411	-0.34207204
115	0xbb62992b	-0.0034576159
116	0xbdbfb29e	-0.093602404
117	0xbdbb5006	-0.09146123
118	0xbc043436	-0.008069089
119	0x3dbf4586	0.093394324
120	0xbc1612f0	-0.0091597885
121	0xbd1e39ce	-0.038629346
122	0xbdc9e227	-0.09857588
123	0xbdec29f3	-0.11531439
124	0xbe13fca3	-0.14451842
125	0xbdc898fb	-0.09794804
126	0x3cba4728	0.022739008
127	0xbe3c9481	-0.18416025
128	0x3c3dc410	0.0115823895
129	0x3d8dd82c	0.06925997
130	0x3d32da54	0.043665245
131	0xbd728c9a	-0.05921612
132	0x3d07d0d8	0.033158153
133	0x3d0539ae	0.03252571
134	0x3c9b0cdd	0.018927032
135	0xbd4abd59	-0.049496982
136	0xbdbabe3a	-0.09118314
137	0xbd152b1e	-0.036418073
138	0xbd8f7cc4	-0.07006219
139	0xbe27402d	-0.16333075
140	0xbd1617b4	-0.0366437
141	0x3d9e03c8	0.07715565
142	0x3ccdd6db	0.025126865
143	0xbcff3033	-0.031150913
144	0x3d62052c	0.055180714
145	0x3d612994	0.054971293
146	0xbdc479a6	-0.09593515
147	0xbce8cc48	-0.028417721
148	0x3da8d1a2	0.08243109
149	0xbddfb2f6	-0.10922806
150	0xbc85173d	-0.016246432
151	0xbd4c52be	-0.049883597
152	0xbe0dd0d6	-0.13849196
153	0x3db025ba	0.08600946
154	0xbdee7224	-0.11642864
155	0x3d13feb8	0.03613159
156	0x3d3a53a8	0.045489937
157	0x3cc7d972	0.024395678
158	0x3ac03400	0.0014663935
159	0xbd7b2305	-0.061312694
160	0x3b881380	0.004152715
161	0x3d5d8c9c	0.054089174
162	0x3dc29bee	0.095023975
163	0x3d546c58	0.051861137
164	0x3c834c4f	0.016027598
165	0xbc6612bd	-0.0140425535
166	0x3d900348	0.07031876
167	0x3d27d8d9	0.040978286
168	0x3d0f1515	0.034932215
169	0xbd5a74c8	-0.053334028
170	0xbd4d9edd	-0.050200332
171	0xbd332a07	-0.043741252
172	0xbdeb2c62	-0.11483075
173	0xbda7b111	-0.081880696
174	0xbcf9f569	-0.030512528
175	0x3dbc77f6	0.09202568
176	0xba2fdf6f	-0.00067090144
177	0x3d4538a1	0.04814971
178	0xbe4e0143	-0.20117669
179	0xbc9fa15c	-0.019486122
180	0x3d282344	0.041049257
181	0xbdef312d	-0.116793014
182	0xbd8aca7b	-0.06776901
183	0xbd6c755c	-0.05772911
184	0x3d95cc0e	0.07314311
185	0xbd824655	-0.06361071
186	0xbda4691d	-0.08027861
187	0x3d5f009e	0.054443948
188	0xbd17864f	-0.03699332
189	0x3bf12f81	0.0073603992
190	0x3dd4db56	0.103933975
191	0x3ccba38d	0.02485826
192	0xbcf52af7	-0.029927714
193	0xbd2ed6dc	-0.042685375
194	0x3d3373f8	0.04381177
195	0xbc90408f	-0.017608909
196	0x3db7fa3a	0.08983274
197	0x3d8ce477	0.06879514
198	0xbcfde183	-0.030991321
199	0x3d9bf26d	0.076145984
200	0xbdc3a41e	-0.09552787
201	0xbd9923a5	-0.07477502
202	0x3dc55f6f	0.09637343
203	0x3e564a03	0.2092667
204	0xbd1d13df	-0.03834903
205	0xbdaa18ce	-0.08305512
206	0x3d357c5e	0.04430806
207	0x3bd9059d	0.0066229836
208	0xbde83d80	-0.11339855
209	0x3dd6fa2a	0.10496934
210	0xbd550898	-0.05201015
211	0xb9bb2200	-0.0003569275
212	0x3cf8b040	0.03035748
213	0x3e48e49f	0.19618462
214	0xbd9ecee5	-0.07754306
215	0x3d0bd94a	0.03414277
216	0xbdc2322d	-0.094822265
217	0x3ea8fa38	0.33003402
218	0x3cc674e6	0.024225663
219	0x3d922530	0.07135999
220	0x3d567c19	0.052364442
221	0x3c5bd211	0.013416783
222	0xbd2c3848	-0.04204586
223	0x3d7f8ddf	0.06239116
224	0x3dd920c2	0.10601951
225	0xbd2f4298	-0.042788118
226	0xbd873fc4	-0.06603959
227	0x3da95bcd	0.08269463
228	0xbca4bf2a	-0.020110685
229	0x3d451b97	0.048122015
230	0xbd956698	-0.07294959
231	0xbd30e098	-0.04318294
232	0xbd1458ab	-0.036217373
233	0xbc8c0bd5	-0.017095486
234	0x3d8a4eb4	0.06753293
235	0x3cb43abd	0.022000665
236	0x3c38c971	0.011278496
237	0x3da5d730	0.080976844
238	0xbdebb9ae	-0.11510025
239	0xbd315650	-0.043295205
240	0x3cdc85f2	0.026919339
241	0x3e36d1e0	0.17853498
242	0xbd994887	-0.074845366
243	0x3dceb8a5	0.10093812
244	0xbbc4193c	-0.0059844535
245	0x3cde1dc8	0.02711381
246	0x3de5b560	0.11216235
247	0x3d6c1f88	0.057647258
248	0x3dd2f8a4	0.10301331
249	0x3d88b14b	0.06674441
250	0x3db27682	0.0871401
251	0x3bbea0bb	0.0058175004
252	0x3ded426e	0.11584936
253	0x3d1f5eb3	0.03890867
254	0xbbcd1ae0	-0.0062593073
255	0x3d6e1773	0.05812783

modality_encoders.eeg.3.bias f4 [32]
0	0x3deb2a19	0.11482639
1	0x3e60ddc1	0.21959592
2	0x3dd54d44	0.10415128
3	0xbd57ca59	-0.05268321
4	0xbd77817d	-0.060426224
5	0x3e678624	0.22609764
6	0x3e6af997	0.22946773
7	0xbe8c9051	-0.27453855
8	0x3d94c014	0.072631985
9	0x3e351a88	0.17685902
10	0x3beec9ca	0.0072872387
11	0xbdf4bf42	-0.11950542
12	0x3ea8e171	0.32984498
13	0xbee9cf3a	-0.45665914
14	0xbcf0b3b0	-0.029382557
15	0xbdf6400e	-0.12023936
16	0x3d96b981	0.07359601
17	0xbe895f8c	-0.2683071
18	0xbe2cffd6	-0.16894469
19	0xbc278324	-0.010224137
20	0xbcf2e96d	-0.029652322
21	0x3d8fe7ec	0.070266575
22	0x3e4da029	0.20080628
23	0xbedc09da	-0.42976266
24	0x3e4247cc	0.18972701
25	0xbdaa50d0	-0.08316195
26	0x3e722ab9	0.2364911
27	0xbe8cbcd2	-0.27487808
28	0xbeef7960	-0.4677229
29	0xbe7cf00b	-0.24700944
30	0xbd9efb99	-0.07762832
31	0x3e0c1556	0.13680014

modality_encoders.sleep.0.weight f4 [64, 7]
0	0xbead588e	-0.33856624
1	0xbe99a472	-0.30008274
2	0x3e79444f	0.24342464
3	0xbe3b1bfb	-0.18272392
4	0x3dbcb03d	0.09213302
5	0x3e23eac0	0.16007519
6	0x3da3518e	0.0797454
7	0x3e59b20c	0.21259326
8	0x3df84a55	0.12123553
9	0x3def140c	0.116737455
10	0x3db1a3dc	0.08673832
11	0x3e8365ee	0.25663704
12	0x3e117723	0.14205603
13	0xbe54f103	-0.20795064
14	0xbdaf5396	-0.085608646
15	0xbe6b8b15	-0.23002274
16	0x3c2e0437	0.010621122
17	0xbdc12ab9	-0.09431977
18	0xbda41ac0	-0.08012915
19	0x3d362911	0.044472758
20	0x3dde0d0d	0.10842333
21	0xbebe1490	-0.37125063
22	0x3e93a71e	0.28838438
23	0x3e8ffab3	0.28120956
24	0x3eb98ba5	0.36239353
25	0x3eb6cd6b	0.35703596
26	0xbdb2c6ae	-0.087293014
27	0x3e1753e5	0.14778097
28	0x3ebab34d	0.3646492
29	0xbdba1717	-0.09086435
30	0xbe4b9f80	-0.19885063
31	0xbe0606f7	-0.13088594
32	0xbd805892	-0.062668934
33	0x3d5308eb	0.051522177
34	0x3e8627de	0.2620229
35	0x3e522c3f	0.20524691
36	0x3ea93f65	0.3305618
37	0x3e959dfe	0.292221
38	0x3d5867ab	0.05283324
39	0xbebf9cbd	-0.3742427
40	0xbe2858fc	-0.16440195
41	0x3eac1507	0.33609793
42	0x3e57428c	0.2102148
43	0x3ebb5aab	0.36592612
44	0x3b581e70	0.0032977127
45	0xbe15eb1d	-0.1464047
46	0x3e7ab9b4	0.24484903
47	0xbe46438a	-0.19361702
48	0xbe6e672d	-0.23281546
49	0x3b988844	0.004654916
50	0xbe01882b	-0.126496
51	0xbdadaa30	-0.08479726
52	0xbea9b101	-0.33142856
53	0x3e2ae4c6	0.16688833
54	0x3e916b6d	0.28402272
55	0x3e91bdcb	0.28465113
56	0x3e5b171b	0.21395533
57	0x3d7e5183	0.062089454
58	0xbca3b9cd	-0.019986058
59	0xbe8921ad	-0.26783505
60	0xbd51c592	-0.05121381
61	0x3e33b9b6	0.17551312
62	0xbeb6742d	-0.3563551
63	0x3e23750c	0.15962619
64	0x3e507556	0.2035726
65	0xbe9dbcfe	-0.30808252
66	0x3e47ecf9	0.19523992
67	0xbdfaab42	-0.12239696
68	0xbda49e79	-0.08038039
69	0xbda9ec61	-0.08297039
70	0x3e7720fe	0.2413368
71	0xbe8284d4	-0.25491965
72	0x3ea8b668	0.32951665
73	0xbe6a7908	-0.22897732
74	0xbe26eb78	-0.16300762
75	0xbe8a1150	-0.26966333
76	0x3e74d551	0.23909499
77	0x3da83acf	0.08214342
78	0xbe28e81e	-0.16494796
79	0x3eb8a591	0.36063817
80	0xbe8825b4	-0.26591265
81	0xbd320aed	-0.04346745
82	0x3e007d0b	0.125477
83	0x3e502c97	0.2032951
84	0xbd85323b	-0.06503721
85	0x3e9e3e12	0.3090673
86	0xbd4a3d0e	-0.049374633
87	0xbe45525c	-0.19269699
88	0x3e86a351	0.26296476
89	0x3e118e59	0.14214458
90	0x3e81cb27	0.25350305
91	0xbe733e21	-0.23754169
92	0x3e9faed3	0.31188068
93	0x3cdd7c87	0.027036918
94	0xbeaba03b	-0.33520684
95	0x3ea2e5b8	0.31815886
96	0x3ebb819c	0.36622322
97	0xbc801d4d	-0.015638972
98	0xbd1ed834	-0.038780406
99	0x3d77abba	0.060466506
100	0x3e1a02c0	0.15040112
101	0x3e7f4ceb	0.24931686
102	0x3e0e526e	0.13898632
103	0x3ec0077b	0.37505707
104	0x3e507ac5	0.20359333
105	0xbe83ede4	-0.25767434
106	0x3e994372	0.2993427
107	0x3da85096	0.082184955
108	0xbe9c28ef	-0.3049998
109	0xbdca55cf	-0.09879648
110	0x3c8ae899	0.016956614
111	0xbd94b5f4	-0.07261267
112	0xbbc71276	-0.0060751988
113	0x3dd9a8a8	0.10627872
114	0x3e374b6a	0.17899862
115	0xbebe8172	-0.37208134
116	0xbe802408	-0.2502749
117	0x3e2f7968	0.17136157
118	0x3d390c09	0.045177493
119	0x3ec15092	0.37756783
120	0x3e915db2	0.28391796
121	0x3e597ae3	0.21238284
122	0x3e33a76a	0.17544332
123	0xbea0235f	-0.31276986
124	0xbd57fa58	-0.05272898
125	0xbe2a3691	-0.16622378
126	0x3d92a2a1	0.07159925
127	0xbe714749	-0.2356235
128	0x3e81b5a2	0.25333887
129	0xbe8a99e6	-0.2707054
130	0x3d8fab03	0.0701504
131	0xbe53b2a3	-0.20673613
132	0xbd85dbf6	-0.06536095
133	0xbe3641a5	-0.17798479
134	0xbe7f06f3	-0.24904995
135	0xbe224a1d	-0.15848584
136	0x3e9ae23f	0.30250737
137	0x3e949f7c	0.29027927
138	0x3d985923	0.074388765
139	0xbe849131	-0.25892022
140	0x3e9a00d6	0.30078763
141	0xbe7112aa	-0.23542276
142	0x3e24cbef	0.1609342
143	0x3e1c03f7	0.15235887
144	0xbc833d73	-0.016020512
145	0x3e7d7e29	0.24755158
146	0x3ce466d2	0.02788106
147	0x3e7b14be	0.24519631
148	0x3bfae3e1	0.00765656
149	0x3ddb8b75	0.10719959
150	0x3ebb6079	0.3659704
151	0x3ea329a2	0.318677
152	0xbea32bbf	-0.31869313
153	0xbea9b093	-0.33142528
154	0xbe53f1ce	-0.2069771
155	0x3e84ac59	0.2591274
156	0x3e86295b	0.26203427
157	0x3e2a56c7	0.16634665
158	0x3e193d71	0.14964844
159	0xbcdaf32f	-0.026727287
160	0x3e8e799d	0.2782716
161	0xbc5255c3	-0.01283783
162	0xbe83bf4d	-0.25731888
163	0x3dc259a3	0.09489753
164	0x3ea0d174	0.314098
165	0xbeb23766	-0.3480789
166	0xbc79ec20	-0.0152540505
167	0x3de91864	0.11381605
168	0xbea3dedb	-0.32005963
169	0xbeac043f	-0.3359699
170	0xbe8292fd	-0.25502768
171	0xbe1d588f	-0.15365814
172	0x3e8a752f	0.2704253
173	0xbe27c922	-0.1638532
174	0x3eb7147e	0.35757822
175	0xbe490532	-0.19630888
176	0x3eb9b3d5	0.36270013
177	0xbe6b03fb	-0.22950737
178	0xbd7c4547	-0.061589506
179	0xbea56918	-0.32306743
180	0x3e65edcd	0.22453995
181	0xbeb92335	-0.36159673
182	0xbe75fdd4	-0.24022609
183	0x3e95ea6e	0.29280418
184	0x3e8b8ca7	0.27255747
185	0xbea565dd	-0.32304278
186	0xbd272eff	-0.040816303
187	0x3ebee0ec	0.37280977
188	0x3e6b803a	0.22998133
189	0xbea94d6f	-0.3306689
190	0x3de38f86	0.11111359
191	0xbe9aa502	-0.30204016
192	0xbe789255	-0.24274571
193	0x3da791d5	0.08182112
194	0x3e70b5fe	0.23506925
195	0xbd98c885	-0.07460121
196	0x3ebf9f03	0.37426004
197	0xbc8367f9	-0.016040789
198	0x3d552378	0.05203578
199	0xbd2c3125	-0.042039055
200	0x3c2bcbc2	0.010485591
201	0x3e81b419	0.25332716
202	0xbea083c8	-0.3135054
203	0xbeadbff6	-0.33935517
204	0xbec0ae59	-0.37633017
205	0x3dd6ab65	0.1048191
206	0x3e5baf00	0.21453476
207	0x3e8b6541	0.27225688
208	0xbb5bf76a	-0.0033564218
209	0xbba13cbe	-0.004920571
210	0x3db30517	0.08741205
211	0x3b9991f9	0.0046865907
212	0x3e26bef1	0.16283776
213	0x3c885e07	0.016646398
214	0x3e903e00	0.28172302
215	0x3e959019	0.292115
216	0xbc173903	-0.009229901
217	0xbea53962	-0.32270342
218	0x3ebc3df6	0.36766022
219	0xbdbe78a1	-0.09300352
220	0x3dc54bfb	0.09633633
221	0xbd4eedc0	-0.050519705
222	0x3e428d31	0.18999173
223	0x3e53f7c8	0.2069999
224	0x3da7c016	0.08190934
225	0xbcff5f31	-0.03117332
226	0xbdcfed9c	-0.10152742
227	0x3e7a1c5a	0.24424878
228	0x3ea195aa	0.31559497
229	0x3e323e05	0.17406471
230	0x3dbfea96	0.093709156
231	0x3d6c1ea1	0.057646398
232	0x3d6b33de	0.05742251
233	0xbe80bd5e	-0.25144476
234	0x3e973a6e	0.29536766
235	0xbe9da28a	-0.3078807
236	0xbdb844c7	-0.08997493
237	0x3cf0db9c	0.029401593
238	0x3db3db7d	0.087820984
239	0x3e704712	0.23464611
240	0x3deeee16	0.11666505
241	0x3e0f7e49	0.14013018
242	0x3e3acf83	0.18243222
243	0x3e7aa759	0.244779
244	0xbdc812bf	-0.097692005
245	0x3e202ebc	0.15642828
246	0x3d224b2d	0.039622474
247	0x3d9bfa4b	0.07616099
248	0x3e113eba	0.14184085
249	0xbe202f78	-0.15643108
250	0x3eaff677	0.34367725
251	0x3ea275da	0.3173054
252	0xbd504a0c	-0.050851867
253	0xbebe551a	-0.37174302
254	0x3e5cc923	0.21561103
255	0x3e3efa0f	0.18650077

modality_encoders.sleep.0.bias f4 [64]
0	0xbb1be9b5	-0.0023790423
1	0xba670c37	-0.0008813771
2	0xb9ea07e9	-0.00044637852
3	0xba9c8b26	-0.0011943325
4	0xb9c81890	-0.00038165273
5	0x3dd0ab6a	0.10188945
6	0xbb7184f0	-0.0036852919
7	0xbd8f8d0f	-0.07009327
8	0xba6bff3a	-0.00090025703
9	0xbaad2ac6	-0.00132116
10	0xbd3b2439	-0.04568884
11	0xbe5eee5e	-0.21770617
12	0xbce6266d	-0.028094495
13	0xbea767fc	-0.3269652
14	0xb9e493d8	-0.000435977
15	0xbe2df412	-0.16987637
16	0xbeb78f0f	-0.35851333
17	0xbeb058a3	-0.34442624
18	0xbea36006	-0.31909198
19	0xbc53b10b	-0.012920628
20	0xba321629	-0.0006793463
21	0xba548b3b	-0.0008107905
22	0xbe96c760	-0.29448986
23	0xbeaa2644	-0.3323232
24	0xba60224e	-0.00085500337
25	0xb9c5752f	-0.00037662077
26	0xbd1001e6	-0.03515806
27	0xbeb766a2	-0.3582049
28	0xbb81d2b9	-0.0039618877
29	0xbe710d59	-0.23540248
30	0xba8f4ba9	-0.0010932583
31	0xbe0826f0	-0.13296103
32	0xbdc4576a	-0.095869854
33	0xba726163	-0.0009246079
34	0xbe290253	-0.16504793
35	0xbe68d1d2	-0.2273629
36	0xbbb8c421	-0.0056386148
37	0xbeadeb8e	-0.33968776
38	0xb9eb31b8	-0.00044859736
39	0xbbb39d83	-0.0054814233
40	0xba518c10	-0.0007993588
41	0xbe638eee	-0.22222492
42	0xba03c885	-0.0005027133
43	0xb9fb8236	-0.00047971465
44	0x3c500f41	0.012698949
45	0xbc01f8f8	-0.007932894
46	0xbaa25b63	-0.0012386855
47	0x3c8cbf3e	0.017181035
48	0xbdf93426	-0.1216815
49	0xbe1efd2d	-0.15526266
50	0xbda58f36	-0.08083956
51	0xbacd99cf	-0.0015686097
52	0xbdb39c40	-0.08770037
53	0x3d367456	0.04454454
54	0xba85929d	-0.0010190789
55	0xba3e7d12	-0.0007266562
56	0xb9fc6e83	-0.00048147523
57	0xbe9f2da6	-0.31089514
58	0xbe3030dd	-0.1720614
59	0xbea88dc1	-0.3292065
60	0xbb76c343	-0.0037653006
61	0xbe691794	-0.227629
62	0xbdf89e3d	-0.121395566
63	0xb9d64758	-0.00040870416

modality_encoders.sleep.3.weight f4 [32, 64]
0	0xbd0f42e8	-0.034975916
1	0xbdd34a3c	-0.103168935
2	0xbd6bfe3e	-0.05761551
3	0xbd99764e	-0.07493268
4	0xbc2e19a3	-0.010626229
5	0xbe5a1397	-0.21296535
6	0xbd9ec727	-0.07752829
7	0xbdcf4b56	-0.10121791
8	0xbe5d4c02	-0.21611026
9	0xbd658c72	-0.056042142
10	0xbd27b748	-0.040946275
11	0x3dc3ddfa	0.09563823
12	0xbd8813f2	-0.06644429
13	0xbde02f76	-0.109465525
14	0xbde4ccd9	-0.11171884
15	0x3db8a090	0.09015
16	0x3da1e578	0.07905096
17	0x3dfed586	0.1244307
18	0xbd3f8490	-0.04675728
19	0xbb469573	-0.003030148
20	0xbe67ffed	-0.22656222
21	0x3d937f7a	0.072020486
22	0x3d38a254	0.045076683
23	0x3dbf10fe	0.09329413
24	0xbdbebb6f	-0.09313094
25	0xbe08d37e	-0.13361928
26	0xbd1d5018	-0.03840646
27	0x3db740be	0.089478955
28	0xbd70023c	-0.05859588
29	0x3dd62306	0.10455899
30	0xbe163815	-0.14669831
31	0xbdaa1f46	-0.08306746
32	0x3dfa286e	0.122147426
33	0x3da09aa4	0.07841995
34	0xbc6ea4a0	-0.014565617
35	0x3dc13b5c	0.0943515
36	0xbcee1d0b	-0.029066583
37	0x3cab4c10	0.020910293
38	0x3d714c63	0.05891074
39	0x3d6b337c	0.057422146
40	0x3dc9451f	0.09827637
41	0x3c4499f0	0.011999592
42	0x3be35ff1	0.0069389273
43	0x3bdd9958	0.0067626648
44	0xbdcacac3	-0.09901955
45	0x3bde93a0	0.0067925006
46	0xbe07b629	-0.13253082
47	0xbdada72b	-0.084791504
48	0x3dbbad4a	0.09163912
49	0x3d525468	0.051350027
50	0x3d2ca284	0.042147174
51	0xbdffdeea	-0.12493689
52	0xbda3d0dc	-0.07998821
53	0xbe4b9c0a	-0.19883743
54	0x3b5e4e21	0.003392108
55	0xbdfed450	-0.12442839
56	0xbdebbc0c	-0.115104765
57	0x3cb3e590	0.02196005
58	0xbd5650d0	-0.052323163
59	0xbdbc92ce	-0.09207688
60	0x3d46cf7c	0.048537716
61	0x3db1fa76	0.0869035
62	0xbbdcfee0	-0.0067442507
63	0xbdc5d4b5	-0.09659711
64	0xbdedbfe1	-0.116088636
65	0xbd6f9b1a	-0.058497526
66	0x3d88082f	0.06642186
67	0xbccc321a	-0.024926234
68	0x3dbe402a	0.09289582
69	0x3d620dab	0.055188816
70	0x3e284019	0.16430701
71	0x3ce02e60	0.027365863
72	0xbc40392a	-0.011732379
73	0x3d787d8d	0.06066661
74	0xbde50220	-0.11182046
75	0xbc94f8b0	-0.01818499
76	0x3c5cd9d0	0.013479665
77	0x3c1608d0	0.0091573745
78	0x3dcedd43	0.10100796
79	0x3d43d84c	0.0478137
80	0x3de48ef0	0.11160076
81	0x3d1e163c	0.038595423
82	0x3c527120	0.012844354
83	0x3e10aa29	0.14127411
84	0x3c04e4b2	0.008111166
85	0xbca61f9d	-0.020278746
86	0x3defce66	0.11709289
87	0x3d94d1fe	0.07266615
88	0xbdfaa25f	-0.12238001
89	0x3d222de2	0.03959454
90	0x3dc8952c	0.09794077
91	0x3d7b1e90	0.061308444
92	0x3d58b1eb	0.05290405
93	0x3df149a0	0.11781621
94	0x3e29f1ab	0.16596095
95	0x3dfe8edc	0.12429592
96	0xbd8208be	-0.06349324
97	0x3dbf5772	0.09342851
98	0x3d7da6e4	0.061926737
99	0xbdbf3a06	-0.09337239
100	0x3e228b13	0.15873365
101	0xbd4de63c	-0.050268397
102	0x3d3f5a4a	0.046716966
103	0xbd1cd818	-0.03829202
104	0x3c4c18f8	0.012457125
105	0x3dc44b34	0.09584656
106	0x3d8d134c	0.06888446
107	0xbd2dde17	-0.04244813
108	0x3e0383af	0.12843202
109	0xbd51d7b0	-0.051231086
110	0x3db3b62d	0.08774982
111	0x3ea11c5b	0.31466946
112	0x3dd7bf28	0.10534507
113	0x3dce85ca	0.10084112
114	0x3d96382a	0.07334931
115	0x3d0267b5	0.031837184
116	0x3bd7d220	0.006586328
117	0x3d09ff95	0.033691008
118	0x3d96cd0b	0.073633276
119	0x3de2d43f	0.11075639
120	0xbc8a7fed	-0.016906703
121	0x3dd39680	0.1033144
122	0x3d8921a4	0.066958696
123	0xbd6a88d8	-0.05725941
124	0x3b85a72e	0.0040787673
125	0xbd54c790	-0.05194813
126	0xbc823d08	-0.015898243
127	0x3dd5b1b2	0.10434283
128	0x3d19a6a3	0.037512433
129	0xbe1070f2	-0.14105585
130	0xbdf3a1b6	-0.11896078
131	0x3da3c652	0.07996811
132	0x3d82423b	0.06360289
133	0x3e13e5e5	0.14443167
134	0xbd9c1742	-0.076216236
135	0x3dc66bbc	0.096885175
136	0x3dac2c01	0.084068306
137	0xbdb806b7	-0.08985656
138	0x3d8989e8	0.06715757
139	0x3d4890c4	0.048966184
140	0x3d7bf544	0.0615132
141	0xbd002bc8	-0.031291753
142	0xbde121be	-0.10992764
143	0x3d8a097c	0.0674009
144	0x3ce40d78	0.027838454
145	0x3d891d72	0.066950694
146	0xbda331e8	-0.07968503
147	0x3d520e0d	0.05128293
148	0x3da0bd5a	0.07848616
149	0x3d304fde	0.043044917
150	0xbd12fbe0	-0.035884738
151	0xbd0a62fc	-0.033785805
152	0x3d91859f	0.07105564
153	0x3c533709	0.012891539
154	0xbdbe9ef0	-0.09307659
155	0xbd9d98a2	-0.07695128
156	0x3dbc22e1	0.0918634
157	0x3d44c6fc	0.04804133
158	0xbd07e53a	-0.03317759
159	0x3ccb23c8	0.024797335
160	0xbd1515c4	-0.03639771
161	0x3d418713	0.047247957
162	0x3dcb4298	0.09924811
163	0x3dc2eb38	0.09517521
164	0xbdc8c517	-0.09803217
165	0x3d9db310	0.07700169
166	0xbd47da6f	-0.0487923
167	0xbcb3a469	-0.021928983
168	0x3cd67e53	0.026183283
169	0xbc425040	-0.011859953
170	0x3c63c929	0.013902941
171	0xbb5d2743	-0.0033745326
172	0xbcc04d04	-0.023474224
173	0xbdae63e0	-0.085151434
174	0x3d57b395	0.052661497
175	0xbdcadd67	-0.099055104
176	0x3d327df4	0.04357715
177	0x3decf642	0.115704075
178	0xbc6a4ea0	-0.014300972
179	0x3d1317b0	0.035911262
180	0xbdb41840	-0.08793688
181	0x3d62c94f	0.055367764
182	0xbd98b8df	-0.07457136
183	0x3dc91795	0.09818951
184	0xbdb679b7	-0.08909934
185	0xbd5dc04c	-0.054138467
186	0x3db8ff32	0.0903305
187	0x3d4aa65c	0.04947506
188	0xbd54d309	-0.05195907
189	0xbd81ce06	-0.06338124
190	0xbdfd4498	-0.12366599
191	0x3d6cc621	0.057806138
192	0x3dc7364b	0.097271524
193	0xbdb5a849	-0.088699885
194	0x3d1225b5	0.03568049
195	0x3c8c16b2	0.017100666
196	0x3e0e23ac	0.13880795
197	0x3dde6d29	0.108606644
198	0x3ddba6dd	0.10725186
199	0x3dbc2370	0.09186447
200	0x3e0fe4bf	0.14052103
201	0x3e170442	0.14747718
202	0x3ce16bb8	0.027517185
203	0xbdedacee	-0.11605249
204	0x3d9eea1c	0.077594966
205	0xbddc2eb0	-0.107510924
206	0x3e508e92	0.20366886
207	0x3da22b7a	0.07918449
208	0x3d9109bc	0.07081935
209	0xbdfb721e	-0.122776255
210	0x3d05d18c	0.032670543
211	0x3e04d8ee	0.12973377
212	0x3df30637	0.1186642
213	0x3db99e21	0.09063364
214	0x3c3d6de0	0.011561841
215	0xbdb045f2	-0.08607091
216	0x3c9d898b	0.019230625
217	0x3e9bdeb3	0.30443344
218	0xbce97530	-0.028498262
219	0xbd94f982	-0.07274152
220	0xbd88fd33	-0.06688919
221	0x3d96b9c4	0.07359651
222	0x3dd8ea79	0.10591597
223	0x3a78fc00	0.0009498
224	0xbcd422f0	-0.025895566
225	0xbcd2346a	-0.025659759
226	0x3da00f38	0.07815403
227	0xbcd07568	-0.025446609
228	0xbdcb0e00	-0.0991478
229	0xbdecea16	-0.11568086
230	0x3d2e7845	0.042595167
231	0x3b5523c6	0.0032522543
232	0x3df9e1e1	0.12201286
233	0x3d76cb44	0.060252443
234	0xbcb8d09f	-0.022560416
235	0x3acf164a	0.0015799489
236	0x3d1466a2	0.03623069
237	0xbdb767e4	-0.089553624
238	0x3cfa63c5	0.030565152
239	0x3d603bc2	0.05474449
240	0x3dad0ec0	0.08450079
241	0xbca0ef20	-0.019645274
242	0xbd3dc854	-0.046333626
243	0x3d4cd5e6	0.050008677
244	0x3c8e8038	0.017395124
245	0x3e26612f	0.1624801
246	0x3e264e80	0.16240883
247	0x3e0e34e9	0.13887371
248	0x3df3823b	0.11890074
249	0x3cd893c0	0.02643764
250	0xbdd85286	-0.10562615
251	0xbd2db848	-0.042412072
252	0x3cc36909	0.023853796
253	0x3c160dd0	0.009158567
254	0x3dcbdff8	0.09954828
255	0xbadc9c81	-0.001683131

modality_encoders.sleep.3.bias f4 [32]
0	0x3d6f903d	0.058487166
1	0xbb35811a	-0.0027695359
2	0xbe8be2c3	-0.27321443
3	0xbd1766d9	-0.036963318
4	0xbd06d7c6	-0.03292062
5	0xbd0f4a00	-0.03498268
6	0x3d658cb0	0.056042373
7	0x3d88a3ff	0.06671905
8	0xbd187586	-0.037221454
9	0x3e833691	0.25627568
10	0x3e3bb69f	0.18331383
11	0xbd2631a2	-0.040574677
12	0xbd221563	-0.039571177
13	0xbc12afb5	-0.008953025
14	0xbd75d287	-0.060015228
15	0x3e24323f	0.16034792
16	0xbe7f8eeb	-0.24956863
17	0x3e418c81	0.18901254
18	0xbe70a836	-0.23501667
19	0x3e5c2da1	0.21501781
20	0xbe6e5fab	-0.23278682
21	0xbe110fcb	-0.14166181
22	0x3cc35eff	0.023849009
23	0xbe0bc725	-0.13650186
24	0xbceaaef6	-0.028647881
25	0xbcb4f60e	-0.022089984
26	0x3e004dbb	0.12529652
27	0xbd894c00	-0.06703949
28	0xb8d71731	-0.00010256319
29	0x3be923e6	0.007114875
30	0xbdc5eee9	-0.09664709
31	0xbe48144b	-0.19538991

modality_encoders.stress.0.weight f4 [64, 1]
0	0x3e16e8c8	0.14737236
1	0x3e428d3a	0.18999186
2	0x3e3f5114	0.18683273
3	0xbec8eb04	-0.39241803
4	0xbd91ba75	-0.07115642
5	0xbf67c010	-0.9052744
6	0xbd3d5c15	-0.046230394
7	0x3eb420ee	0.35181373
8	0xbe0af418	-0.13569677
9	0x3cc5fb88	0.024167791
10	0xbf6b5684	-0.9192889
11	0xbd897a80	-0.06712818
12	0xbf02b58a	-0.51058257
13	0x3ef3266a	0.47490245
14	0xbd662304	-0.056185737
15	0xbee272fc	-0.4422835
16	0xbeb6cc86	-0.35702914
17	0x3df97681	0.12180806
18	0x3d0148c0	0.03156352
19	0xbf63429e	-0.88773525
20	0x3e198b32	0.14994505
21	0xbf04b736	-0.5184206
22	0xbf3bcbc6	-0.7335781
23	0xbef1d2aa	-0.47231036
24	0xbf18f49b	-0.5974824
25	0xbe5eebf7	-0.21769701
26	0x3dc1e7ae	0.094680175
27	0xbf441d4c	-0.76607203
28	0xbf1649ba	-0.5870625
29	0x3ddfb50d	0.109232046
30	0xbd0c7b92	-0.034297533
31	0x3e8e1aa0	0.27754688
32	0xbf3811aa	-0.71901953
33	0xbf6e670a	-0.93125975
34	0x3eb68db8	0.35654998
35	0xbf795184	-0.9739001
36	0xbd8ac250	-0.067753434
37	0x3dc7cfe3	0.09756448
38	0x3e70b1f1	0.2350538
39	0x3d32450c	0.04352288
40	0xbe4bd61c	-0.19905895
41	0x3e0d74ad	0.1381404
42	0xbf48605b	-0.78272027
43	0xbf5ce124	-0.8628104
44	0xbf06c452	-0.5264331
45	0xbeea826d	-0.45802632
46	0x3e107520	0.1410718
47	0xbf08556d	-0.5325535
48	0x3d73b473	0.05949826
49	0xbf54700e	-0.8298348
50	0xbf719608	-0.94369555
51	0xbebeb7e4	-0.37249672
52	0x3e5ff616	0.21871218
53	0xbf69153a	-0.91048014
54	0xbed5f20e	-0.41786236
55	0xbee280f3	-0.44239005
56	0xbf631860	-0.8870907
57	0xbe822db8	-0.25425506
58	0xbf001d49	-0.50044686
59	0x3bf9d995	0.0076248148
60	0xbf3c6c2e	-0.7360257
61	0xbf7da2c4	-0.99076486
62	0x3d8d2558	0.068918884
63	0xbf5598d0	-0.834363

modality_encoders.stress.0.bias f4 [64]
0	0xbf3eabdb	-0.7448098
1	0xbf334853	-0.70032233
2	0xbc4966db	-0.012292589
3	0xbe8a52a0	-0.27016163
4	0x3eda9c42	0.4269734
5	0xbcb48e80	-0.022040606
6	0x3ef85755	0.4850413
7	0xbfbc021d	-1.4688145
8	0xbf794e58	-0.9738517
9	0xbe778196	-0.24170527
10	0xbf09e0b4	-0.53858495
11	0x3ef153d2	0.47134262
12	0xbf5e616a	-0.8686739
13	0xbfa5cd92	-1.295336
14	0x3f086315	0.5327619
15	0xbf414986	-0.7550281
16	0x3f933219	1.1499664
17	0x3e83e91d	0.2576379
18	0xbf184ef4	-0.5949547
19	0xbd93b780	-0.07212734
20	0xbf49161f	-0.7854938
21	0x3f663bee	0.89935195
22	0xbc9cb440	-0.019128919
23	0x3f51dc6b	0.81976956
24	0x3f889b68	1.0672426
25	0x3f2a550b	0.66536015
26	0x3ee60267	0.44923708
27	0xbf4828ac	-0.7818706
28	0xbf327e72	-0.6972419
29	0xbeba6edf	-0.36412713
30	0x3d44427b	0.047914963
31	0xbf9c471a	-1.2209198
32	0x3faa45ad	1.3302513
33	0x3f8e27e3	1.1105922
34	0xbf9fe58c	-1.2491927
35	0xbea6a4c8	-0.32547593
36	0xbf695abc	-0.91154075
37	0xbebe20f0	-0.37134504
38	0xbfa918f8	-1.3210745
39	0xbce062f3	-0.027390933
40	0x3edd6e9d	0.43248454
41	0xbf0c58be	-0.5482291
42	0x3fa888f9	1.3166801
43	0x3fe73ab5	1.8064791
44	0xbf2ee38e	-0.6831597
45	0x3f342e54	0.7038319
46	0xbf5337df	-0.8250713
47	0x3f7e0a5f	0.99234575
48	0x3d7ccaf2	0.06171698
49	0x3fa83444	1.314095
50	0xbe3043b8	-0.17213333
51	0xbe98c18c	-0.29835165
52	0xbf9c1967	-1.2195252
53	0xbf4bbb7c	-0.79582953
54	0x3f4c7be5	0.7987655
55	0x3f4bbe09	0.79586846
56	0xbf267fa0	-0.6503849
57	0x3f821997	1.0164059
58	0x3f627c6e	0.88471115
59	0x3e41316a	0.18866506
60	0x3fb999d9	1.4500076
61	0xbe39f508	-0.18159878
62	0xbe5d944f	-0.21638606
63	0x3fc2dfca	1.5224545

modality_encoders.stress.3.weight f4 [32, 64]
0	0xbd866601	-0.065624245
1	0x3e062ffb	0.1310424
2	0xbc89300d	-0.016746545
3	0x3dab59a0	0.08366704
4	0x3e1512c1	0.14557935
5	0xbd432db4	-0.047651008
6	0x3c7906a8	0.015199341
7	0x3d27edeb	0.04099838
8	0xbdf18b98	-0.117942035
9	0xbae4dba3	-0.0017460476
10	0x3daf5e48	0.085629046
11	0x3e21663d	0.15761657
12	0xbdb4d068	-0.08828813
13	0x3de1f128	0.11032325
14	0xbd928dc7	-0.07155948
15	0xbd5abe00	-0.053403854
16	0xbd23d4cd	-0.039997865
17	0xbdc9aca2	-0.0984738
18	0xbdbf1c22	-0.09331538
19	0x3ddd1182	0.10794355
20	0xbeb51143	-0.35364732
21	0xbee5c9e1	-0.44880584
22	0x3d97f612	0.07419981
23	0xbdf672e6	-0.12033634
24	0xbe8b2e5c	-0.27183807
25	0x3e913820	0.28363132
26	0xbd8660a5	-0.06561402
27	0x3da81f1e	0.0820906
28	0xbd5e9344	-0.054339662
29	0xbc46ae66	-0.012126541
30	0xbd27f832	-0.041008182
31	0xbcd6c10a	-0.026215095
32	0xbe672034	-0.22570878
33	0xbe7efb87	-0.24900638
34	0x3bc6cf85	0.0060672187
35	0x3d8ceda2	0.06881262
36	0xbd164c00	-0.036693573
37	0xbcac0a6a	-0.02100106
38	0xbf746bc8	-0.9547696
39	0xbe1da34f	-0.15394329
40	0x3e88599a	0.2663086
41	0xbccb0e97	-0.02478723
42	0xbe5152bc	-0.20441717
43	0xbe43558b	-0.19075601
44	0x3dd84ba0	0.10561299
45	0xbd8e82f7	-0.06958573
46	0xbe3f765a	-0.18697491
47	0xbe508f64	-0.20367199
48	0xbbdd49a5	-0.006753164
49	0xbeaad821	-0.33368018
50	0xbdf082be	-0.11743687
51	0x3c0f71f0	0.008755192
52	0xbdcca2ac	-0.09991965
53	0x3b6874c0	0.003546998
54	0xbe8fe162	-0.2810164
55	0x3e3b6c55	0.18303044
56	0xbda2171a	-0.079145625
57	0x3dbbd4cc	0.09171447
58	0xbed7c4b5	-0.42142263
59	0xbc85dc33	-0.01634035
60	0xbe8f4784	-0.2798425
61	0x3ba3e5a0	0.0050017387
62	0x3db92531	0.09040297
63	0xbec8a31b	-0.3918694
64	0x3cb37c12	0.021909747
65	0x3deafe8b	0.114743315
66	0x3c0ae8c6	0.008478349
67	0x3d995b34	0.07488099
68	0xbcc683ee	-0.02423283
69	0xbd98e1b8	-0.074649274
70	0xbda12f76	-0.078703806
71	0x3d4789b8	0.048715323
72	0x3d097b28	0.033564717
73	0x3d293610	0.041311324
74	0x3b6e4380	0.003635615
75	0xbe2eadd8	-0.17058504
76	0xbd9fee6c	-0.07809147
77	0x3e2caf74	0.16863805
78	0xbe3be631	-0.1834953
79	0x3df3bb60	0.11900973
80	0x3e9eb591	0.309979
81	0xbdb92591	-0.09040368
82	0x3d3ba410	0.04581076
83	0xbda8ce46	-0.082424685
84	0x3e217b6a	0.15769735
85	0x3f079755	0.5296529
86	0xbd7e129c	-0.062029466
87	0x3f19895c	0.5997522
88	0x3f544955	0.82924396
89	0xbdbc2a74	-0.09187785
90	0xbe152603	-0.14565282
91	0x3c82a1f8	0.015946373
92	0x3c188680	0.009309411
93	0x3e458303	0.19288258
94	0xbd28b67d	-0.04118966
95	0xbc5c07a1	-0.013429553
96	0x3f51d169	0.8196016
97	0x3f766d6e	0.96260726
98	0x3e2a486d	0.1662919
99	0x3dc8576a	0.09782298
100	0xbc27cae0	-0.01024124
101	0xbda4fa24	-0.08055523
102	0xbf60577c	-0.8763349
103	0xbd7bd500	-0.06148243
104	0x3c2cae14	0.01053955
105	0x3e4a8474	0.1977709
106	0x3eea983d	0.45819274
107	0x3f065e8b	0.5248801
108	0xbd887c16	-0.066642925
109	0x3f01a300	0.50639343
110	0x3de15ee5	0.11004428
111	0x3f010a63	0.50406474
112	0xbddd46d8	-0.10804528
113	0x3f52ebf4	0.82391286
114	0xbdf3a350	-0.11896384
115	0x3da854a4	0.08219269
116	0x3e1c2d42	0.1525164
117	0x3d844810	0.06459057
118	0x3ebfec4b	0.37484965
119	0x3d99057a	0.07471748
120	0x3d1afeb8	0.037840575
121	0xbe1e4464	-0.15455776
122	0x3f00b185	0.50270873
123	0xbae5d1fe	-0.0017533896
124	0x3f2327c2	0.6373254
125	0xbcb9b190	-0.022667676
126	0x3dc5d52a	0.096597984
127	0x3f5afc9d	0.8554171
128	0xbdd51713	-0.10404792
129	0xbd96bae2	-0.07359864
130	0xbbf86843	-0.0075807883
131	0x3daa5e32	0.083187476
132	0x3dd9bcbc	0.10631701
133	0xbd73a4b4	-0.059483245
134	0xbcd91770	-0.026500434
135	0xbda2dac5	-0.07951883
136	0x3d9e1c0e	0.07720195
137	0x3b6f85a9	0.0036548174
138	0xbd9d491a	-0.07679959
139	0x3d97e0ab	0.07415899
140	0xbde21de0	-0.110408545
141	0x3d3845b3	0.044988345
142	0xbd1fae2d	-0.038984466
143	0x3dc7c0a6	0.09753542
144	0xbdd8eed5	-0.105924286
145	0xbd61de3e	-0.055143587
146	0xbd58e724	-0.052954808
147	0x3d206dd4	0.03916724
148	0x3dedb005	0.11605839
149	0x3ddd1a9d	0.10796092
150	0xbdf1152e	-0.11771618
151	0x3ce74580	0.028231382
152	0xbd01ce38	-0.031690806
153	0x3e22a7e6	0.1588436
154	0x3dbe1697	0.092816524
155	0xbd70348c	-0.058643863
156	0xba854600	-0.0010167956
157	0xbc8b0940	-0.016972184
158	0x3dc69134	0.09695664
159	0x3d93e9b9	0.072223134
160	0xbe52c6f8	-0.20583713
161	0xbd45a52a	-0.048253216
162	0xbd58d3ae	-0.05293625
163	0xbb0c6cc0	-0.0021427125
164	0x3df9214e	0.121645555
165	0x3cab23d3	0.020891106
166	0xbdc05f94	-0.0939323
167	0xbc043266	-0.008068657
168	0x3d463c93	0.04839761
169	0xbdf79ca4	-0.12090424
170	0xbcb82f2e	-0.022483435
171	0xbc5142e3	-0.012772295
172	0x3d6dca4c	0.058054253
173	0x3dcda878	0.100418985
174	0xbdd5dd62	-0.10442616
175	0xb8fb72a2	-0.00011989965
176	0xbcaf0103	-0.021362787
177	0x3dd924f2	0.1060275
178	0xbd85dc82	-0.06536199
179	0x3d9aec3e	0.07564591
180	0x3e1561be	0.14588067
181	0xbdae77fe	-0.085189804
182	0xbdb05575	-0.0861005
183	0x3ce6ba56	0.028165024
184	0x3dd702e4	0.10498598
185	0xbcaf18d2	-0.02137414
186	0x3e077c57	0.13231026
187	0xbe06aadc	-0.13151115
188	0xbd59aa67	-0.053141024
189	0xbd96063a	-0.073254064
190	0xbdde0a72	-0.10841836
191	0xbdc972e9	-0.098363705
192	0xbcd8ba65	-0.026456067
193	0xbe0b72cf	-0.13618015
194	0xbcc1db52	-0.02366415
195	0xbc58d780	-0.013234973
196	0xbd3ef23e	-0.04661774
197	0xbdcd3792	-0.10020365
198	0x3e106454	0.14100772
199	0xbc17a9c6	-0.009256786
200	0x3dc6d158	0.09707898
201	0xbce06f4a	-0.027396817
202	0xbbb4baa0	-0.0055154115
203	0x3e663f68	0.22485125
204	0xbdb6bae4	-0.08922365
205	0xbd1a819d	-0.037721265
206	0x3e602914	0.2189067
207	0x3d74c90c	0.059762046
208	0xbebc9700	-0.36833954
209	0x3e1e966a	0.15487066
210	0x3da05ba0	0.07829976
211	0xbd13f0c4	-0.036118284
212	0xbe3290cc	-0.17438048
213	0xbed243df	-0.41067407
214	0xbd09d91c	-0.033654317
215	0xbeece937	-0.4627168
216	0xbf354610	-0.7081003
217	0x3e15c0a2	0.14624265
218	0x3e288472	0.16456774
219	0xbdad74d0	-0.08469546
220	0xbdbc8634	-0.09205285
221	0xbe97e8b4	-0.29669726
222	0xbcfc2e0b	-0.030783674
223	0xbde270fa	-0.11056705
224	0xbf466aa5	-0.77506477
225	0xbf479a26	-0.77969587
226	0xbe05bde5	-0.1306072
227	0x3ddfe7d0	0.109328866
228	0xbdea5b20	-0.11443162
229	0xbe50981d	-0.20370527
230	0xbed98bc6	-0.4248945
231	0x3dca1f66	0.0986927
232	0x3d7d4683	0.061834823
233	0xbddad8fe	-0.10685919
234	0xbeb4cfb9	-0.3531473
235	0xbf0d9177	-0.55300087
236	0x3d94cd10	0.07265675
237	0xbe94d387	-0.29067633
238	0xbe36a4b7	-0.17836271
239	0xbec55ad1	-0.3854585
240	0x3cb44ca7	0.022009207
241	0xbf0676c9	-0.52525
242	0x3d953564	0.07285574
243	0xbdbd806c	-0.0925301
244	0xbd932963	-0.07185628
245	0xbc483010	-0.01221849
246	0xbeece299	-0.4626663
247	0x3d92491a	0.07142849
248	0x3d5ab2b4	0.05339308
249	0x3dc3cdb9	0.09560723
250	0xbf08aafa	-0.5338589
251	0x3e247718	0.16061056
252	0xbecee6a0	-0.40410328
253	0x3d68f054	0.05686982
254	0xbd13d909	-0.036095653
255	0xbf42007e	-0.75782

modality_encoders.stress.3.bias f4 [32]
0	0x3ca8ccd3	0.02060548
1	0xbed9cefe	-0.42540735
2	0x3d3e00b3	0.046387386
3	0x3e86574a	0.2623847
4	0xbf047a96	-0.5174955
5	0xbe965671	-0.29362825
6	0xbeb4221f	-0.35182282
7	0xbe8eed49	-0.2791541
8	0xbe935d91	-0.28782323
9	0xbe431e4a	-0.19054523
10	0xbe9ba39e	-0.30398268
11	0xbeb023dc	-0.3440236
12	0xbedbbbf3	-0.4291683
13	0x3ef8bb13	0.48580226
14	0x3e1e4e84	0.15459639
15	0xbea5fe01	-0.32420352
16	0x3dd60a53	0.10451188
17	0xbe90adf5	-0.2825772
18	0x3f19e8c9	0.60120827
19	0xbee17462	-0.44034106
20	0xbe4b3d70	-0.19847655
21	0x3ecc1f78	0.3986776
22	0xbec5a446	-0.38601893
23	0x3f03ad29	0.51436096
24	0xbea3af27	-0.31969568
25	0x3ee09029	0.43859985
26	0x3e478ed4	0.19488078
27	0xbe85ac4b	-0.26108012
28	0xbef1b417	-0.4720771
29	0x3ec9fcec	0.39450777
30	0xbeefe791	-0.4685636
31	0x3f0f7bfb	0.56048554

modality_encoders.weather.0.weight f4 [64, 5]
0	0x3d182675	0.03714605
1	0x3e9ae0d3	0.30249652
2	0xbe233d74	-0.15941411
3	0xbd897f66	-0.067137524
4	0xbe8face1	-0.28061584
5	0xbf5fec99	-0.87470394
6	0xbf32ee63	-0.69895
7	0x3dd82289	0.10553462
8	0xc049a114	-3.1504564
9	0xbe2de6ed	-0.16982622
10	0x3ecc516e	0.39905876
11	0xbed2f0ad	-0.41199246
12	0xbe4cb73a	-0.1999177
13	0x3e007690	0.12545228
14	0xbcff855f	-0.031191526
15	0xbec1511a	-0.37757188
16	0xbe7225d4	-0.23647243
17	0xbea30651	-0.31840757
18	0xbeafb01a	-0.34314042
19	0x3e0f67ae	0.14004394
20	0xbf1f9fb4	-0.6235306
21	0xbe0447f1	-0.12918068
22	0x3d35321c	0.04423724
23	0xbfecca42	-1.8499224
24	0xbea901f6	-0.3300931
25	0xbee92511	-0.45536092
26	0xbe8a2cdd	-0.26987353
27	0x3d23ceca	0.03999213
28	0xbfe5e729	-1.796117
29	0x3d66c2e4	0.056338206
30	0x3ea9ec4e	0.331881
31	0xbebb054f	-0.36527488
32	0xbcec0402	-0.028810505
33	0xbe3174b6	-0.17329678
34	0xbee1f521	-0.4413233
35	0x3e15858f	0.1460173
36	0x3c80a08c	0.015701555
37	0xbc4c04e3	-0.012452337
38	0xbf2de63e	-0.67929447
39	0xbf017d10	-0.50581455
40	0xbf1a36a2	-0.60239613
41	0xbf181246	-0.59402883
42	0x3d82e734	0.06391755
43	0xc0048858	-2.0708218
44	0xbf089834	-0.53357244
45	0x3d6d4b42	0.0579331
46	0xbd611c81	-0.054958824
47	0xbe99fe33	-0.3007675
48	0xbdc730e3	-0.09726121
49	0x3e1a4f90	0.15069413
50	0xbe08a504	-0.13344198
51	0x3ec34d08	0.38144708
52	0xbc6f4c62	-0.014605613
53	0x3dba388d	0.090928175
54	0x3e3d2479	0.18470944
55	0x3e11a2ac	0.1422221
56	0xbe1bf786	-0.15231141
57	0xbc81f015	-0.01586155
58	0xbe87fd05	-0.26560226
59	0xbe7dbd10	-0.24779153
60	0xbe36ee12	-0.17864254
61	0xbeea65a0	-0.4578066
62	0x3d06fb3c	0.03295444
63	0xbfc484b8	-1.5353003
64	0xbf3fa8af	-0.74866766
65	0x3e96c682	0.29448324
66	0x3edad742	0.42742354
67	0xbe96c371	-0.29445985
68	0xbe92ab27	-0.28646204
69	0x3ec9317c	0.39295566
70	0x3eaad084	0.3336221
71	0x3e816e12	0.2527929
72	0xbe07683d	-0.13223357
73	0xbec4bb62	-0.38424212
74	0x3e77ba13	0.24192075
75	0xbeab9f70	-0.3352008
76	0x3ea55524	0.3229152
77	0xbeaa7474	-0.33291972
78	0x3e634398	0.22193754
79	0xbec05fbe	-0.37573045
80	0xbebeb410	-0.37246752
81	0x3e0a4df6	0.13506302
82	0x3c199a11	0.009375111
83	0xbf36c0be	-0.7138785
84	0x3e30460a	0.17214218
85	0x3e5bed1c	0.21477169
86	0xbe34110a	-0.17584625
87	0xbc9229f2	-0.017842267
88	0x3e8f5c7c	0.28000247
89	0x3edf0b44	0.43563282
90	0xbe6c9b73	-0.23106174
91	0xbf395006	-0.7238773
92	0x3d40b0e8	0.04704371
93	0xbf8f1a03	-1.1179813
94	0xbe88930c	-0.26674688
95	0xbea09de2	-0.31370455
96	0x3e5f362e	0.21798012
97	0x3c05429f	0.0081335595
98	0xbfd16edf	-1.636196
99	0xbe6840ec	-0.22681016
100	0x3ed66b85	0.41878906
101	0xbec75904	-0.389351
102	0xbce36124	-0.027756281
103	0x3f538cdc	0.8263681
104	0x3f098387	0.5371632
105	0xbf5a3ac8	-0.85245943
106	0x3ded9a32	0.11601676
107	0x3d7b5fd9	0.061370704
108	0xc083e0d3	-4.1211944
109	0xbe1ea542	-0.15492728
110	0xbf5ee416	-0.8706678
111	0x3d2a2549	0.041539464
112	0x3d84ecb9	0.06490464
113	0xc070eb96	-3.764379
114	0xbcc31236	-0.023812395
115	0x3e48e7f2	0.1961973
116	0xbec51543	-0.38492784
117	0x3a558ed5	0.0008146589
118	0xbf96a082	-1.1767733
119	0xbe49d206	-0.19709024
120	0x3e00557f	0.12532614
121	0x3e4c7e77	0.19970118
122	0xbd017e9a	-0.031614877
123	0x3e67d7f5	0.22640975
124	0x3e8c3630	0.27385092
125	0xbe4ed02a	-0.20196596
126	0x3e8827db	0.26592907
127	0xbec56501	-0.38553622
128	0x3da733f5	0.08164207
129	0xbb192acb	-0.0023371454
130	0x3e11b02d	0.14227362
131	0x3ea495dd	0.32145587
132	0xbece67f6	-0.4031369
133	0x3e906e2c	0.28209054
134	0x3d9df697	0.07713049
135	0xbf0c3a2d	-0.5477627
136	0xbdeab717	-0.11460703
137	0x3d234394	0.03985937
138	0xbf4a0668	-0.78916025
139	0xbf331510	-0.69954014
140	0x3eb4cc74	0.35312235
141	0xbe945d29	-0.28977326
142	0xbe621535	-0.22078402
143	0x3ded2f6b	0.1158131
144	0x3ee31f52	0.44359833
145	0xbdc03b54	-0.09386316
146	0x3edf7ecd	0.4365143
147	0xbe33bf10	-0.17553353
148	0xbc97fff1	-0.01855466
149	0xbd0b79c2	-0.034051664
150	0xbe6a7d5e	-0.22899386
151	0xbe00aee6	-0.12566718
152	0xbea36fbf	-0.31921193
153	0x3da8dec5	0.08245615
154	0x3de60597	0.11231535
155	0xbe9658fa	-0.2936476
156	0xbebdefa2	-0.37096888
157	0x3d12b72a	0.03581921
158	0xc00c247a	-2.1897264
159	0xbeacdd69	-0.33762673
160	0xbec76910	-0.38947344
161	0xbe168286	-0.14698228
162	0xbe8c2477	-0.2737157
163	0xbe2b6790	-0.16738725
164	0xbe6793a0	-0.22614908
165	0xbea52db7	-0.3226144
166	0xbe9a7b10	-0.30172014
167	0x3d0be702	0.034155853
168	0xbfb2838f	-1.3946398
169	0xbf23ac47	-0.6393475
170	0x3e2d64a7	0.16932927
171	0xbe8309b0	-0.25593328
172	0xbb191f1b	-0.0023364488
173	0xbea603fb	-0.32424912
174	0xbe00bbb0	-0.12571597
175	0xbef1d333	-0.47231445
176	0x3def92a9	0.11697895
177	0x3c936510	0.017992526
178	0xbfff8d6b	-1.9965032
179	0x3e140b00	0.14457321
180	0xbe4ed421	-0.20198108
181	0x3d844a7f	0.064595215
182	0x3c16b584	0.00919855
183	0x3d7c8f96	0.06166037
184	0xbeb70585	-0.357464
185	0x3d0e5b6f	0.034755167
186	0xbeb1e11b	-0.34742054
187	0xbd857436	-0.06516306
188	0xbceb92a4	-0.028756447
189	0xbe754bc7	-0.23954688
190	0x3ed5db5b	0.41768917
191	0xbd0aa8e8	-0.033852488
192	0xbe0c329c	-0.13691181
193	0xbc557507	-0.01302839
194	0x3ea2e4b2	0.31815106
195	0xbf615bc3	-0.8803064
196	0xbe8ecbe8	-0.27889943
197	0x3db8cdea	0.0902365
198	0xc07bba12	-3.9332318
199	0xbe807b3a	-0.25094014
200	0xbe3094c8	-0.17244256
201	0xbec71a3c	-0.38887203
202	0xbdc2fb3e	-0.09520577
203	0x3ecafd2a	0.39646274
204	0xbedd2187	-0.43189642
205	0x3d2c4b39	0.042063925
206	0xbe199bf4	-0.15000898
207	0xbeb8f7b4	-0.36126482
208	0x3eb5d66c	0.35515153
209	0x3db13d5e	0.08654283
210	0x3d9858e9	0.07438833
211	0x3d50b9c0	0.050958395
212	0xbebbd29a	-0.36684114
213	0x3cc85db9	0.024458753
214	0xbe8ff191	-0.28113988
215	0xbdc8f81f	-0.0981295
216	0x3e0bd012	0.13653591
217	0xbebced67	-0.36899874
218	0xbda96ea9	-0.0827306
219	0xbed12410	-0.40847826
220	0xbe6e4121	-0.23267032
221	0xbdf76562	-0.12079884
222	0xbddde992	-0.108355656
223	0x3ca8419a	0.020539094
224	0x3e994c9d	0.29941264
225	0xbeeab8f2	-0.45844227
226	0x3d57b13a	0.05265925
227	0x3ccf5717	0.025310082
228	0xc0049cae	-2.072063
229	0xbec9c3b1	-0.39407113
230	0xbdfab514	-0.12241569
231	0x3e53ad19	0.206715
232	0xbc0a6061	-0.00844583
233	0xbe2dabbf	-0.16960047
234	0x3df77abb	0.12083956
235	0x3ca4682a	0.0200692
236	0x3e69b7a1	0.22823955
237	0xbeb806b6	-0.3594262
238	0xbeb81075	-0.35950056
239	0xbec2b2a2	-0.3802691
240	0xbe3bc1ea	-0.18335691
241	0xbeb9f99e	-0.36323255
242	0xbda77a73	-0.08177652
243	0x3dce35e0	0.100688696
244	0x3e5a4e9f	0.21319054
245	0x3d2ba0d6	0.041901432
246	0x3e9b87da	0.30377084
247	0xbeba4233	-0.3637863
248	0xbe1b2ade	-0.15153071
249	0x3e86c552	0.26322418
250	0xbf2dce49	-0.6789289
251	0xbec2069d	-0.3789567
252	0x3d704cb7	0.05866691
253	0xbfd1de24	-1.6395917
254	0xbd4c77a9	-0.049918804
255	0xbe316044	-0.17321879
