results/migraine/fold5_model.pth (torch, 687005 bytes, 45 tensors)

modality_encoders.eeg.0.weight f4 [64, 6]
-0.2556063 0.37667307 0.14978546 0.32561547 -0.3670083 0.04527972 0.2336232 -0.362016
0.23203969 -0.28742003 -0.3765349 -0.3235479 -0.063987404 -0.21446176 0.25397852 0.027773133
0.14973202 0.12478012 0.091668755 0.39465383 -0.2591522 -0.3070704 -0.060241703 0.38511923
0.10185816 0.23040569 -0.07365496 -0.12487346 -0.17686358 0.2058422 -0.11201954 0.10151924
0.29136646 0.23777047 -0.1588837 -0.3775368 0.22527803 -0.15035044 -0.2776417 0.06840272
-0.013783854 -0.31676716 0.23677528 -0.26022828 -0.32625023 -0.2731204 0.007667387 0.06471279
-0.2889677 0.13277173 -0.14409128 -0.13046564 0.107448004 0.12552789 -0.34093627 0.3233667
-0.1418398 0.024919543 0.059929214 0.27209365 0.2703418 0.2012583 -0.15941477 -0.21073435
0.29153395 -0.12587187 -0.29484415 0.21918985 -0.2218108 -0.01413961 -0.40188932 0.21028009
-0.26052335 0.14830351 0.16556175 0.34558985 -0.00061116007 0.084236525 -0.22716773 -0.08741127
-0.39263487 0.082276024 -0.09885429 0.23921762 -0.08735297 0.26330206 0.10339478 -0.2785208
-0.3269521 -0.29669392 -0.30697912 0.014196697 0.3176634 -0.31799284 -0.23297837 0.04458962
-0.3245714 -0.1530699 -0.2970439 0.2759085 -0.33336854 -0.13163623 -0.3472508 -0.16310094
-0.3240169 -0.39434302 0.06622828 -0.12963241 -0.16776529 -0.111409694 -0.13312076 -0.29824957
0.33750796 -0.19691321 0.22177328 -0.027275657 -0.40249255 0.0110753905 -0.05870047 0.3011242
0.1075941 0.04178942 -0.39562768 0.17833833 0.067791365 0.40599197 -0.18909778 0.366864
-0.12478781 -0.17693298 0.3209808 0.16330506 -0.35688522 0.3883177 0.30633584 -0.09887385
0.31770158 -0.055793103 -0.19511516 -0.06752667 0.3195505 0.11593752 0.113777824 0.018533316
-0.21860716 -0.26102093 -0.17360577 -0.17314878 -0.3610519 -0.39702043 0.26746333 -0.26264042
0.17798477 0.32199195 0.14581925 -0.15221444 -0.33356342 0.15533048 0.36773658 0.22987284
-0.046183903 -0.012714106 0.24896553 0.20806667 0.39335284 0.08155006 0.18702301 -0.042588774
0.33182842 -0.4081731 -0.09955261 0.21531814 0.2977759 0.39956895 -0.36939195 0.25662625
0.1419531 0.33768612 -0.156604 0.21491942 -0.17227423 -0.3307834 0.3593719 -0.17071636
0.15103513 0.33696434 0.19497885 -0.38608342 0.18675247 -0.100576274 -0.26095858 -0.22063385
-0.20995815 -0.084590964 0.30509317 -0.08812881 -0.38756514 0.30806804 -0.26878107 0.2567232
-0.34303445 -0.1292006 -0.19724512 -0.0124473125 -0.26753202 -0.327043 0.35999197 0.40266517
-0.10457295 0.15918694 -0.3789334 0.08078711 -0.047506478 -0.07499131 -0.37617266 -0.11189271
-0.28469577 0.38373327 -0.2558813 -0.12010317 0.12374171 0.19543763 -0.13080159 0.09902365
0.24590851 0.24791208 -0.2958075 -0.16842794 -0.35928342 0.14924988 0.053078752 -0.07192728
-0.21434759 0.32345936 0.40386853 0.26539302 -0.0037670198 -0.21389624 -0.20657878 -0.04251889
-0.39626125 -0.29816586 -0.035334427 -0.13175406 0.24424055 0.04686305 -0.031244451 0.07433586
0.2551441 -0.24567097 0.25697678 0.38125122 0.3531479 0.26595974 -0.35994124 0.08014709
00000000: d4de 82be 4bdb c03e 5c61 193e 12b7 a63e
00000010: 83e8 bbbe 3a77 393d ec3a 6f3e 295a b9be
00000020: d09b 6d3e b828 93be 2fc9 c0be 12a8 a5be
00000030: d40b 83bd dd9b 5bbe 7909 823e 7b84 e33c
00000040: 5a53 193e b88c ff3d d4bc bb3d 1110 ca3e
00000050: 99af 84be 5538 9dbe 01c0 76bd 592e c53e
00000060: 039b d03d 78ef 6b3e 69d8 96bd a8bd ffbd
00000070: ba1b 35be 4cc8 523e 806a e5bd 52e9 cf3d
00000080: fc2d 953e 1a7a 733e 69b2 22be 814c c1be
00000090: 49af 663e 77f5 19be 0e27 8ebe ba16 8c3d
000000a0: add5 61bc 4e2f a2be 3875 723e a43c 85be
000000b0: 450a a7be 70d6 8bbe b43e fb3b 2488 843d
000000c0: 93f3 93be 50f5 073e aa8c 13be c998 05be
000000d0: b30d dc3d 628a 003e 338f aebe 5290 a53e
000000e0: 743e 11be 1224 cc3c 5678 753d dc4f 8b3e
000000f0: 3e6a 8a3e a816 4e3e a03d 23be bfca 57be
00000100: f043 953e 8ee4 00be d0f5 96be 4e73 603e
00000110: 5f22 63be d3a9 67bc 70c4 cdbe aa53 573e
00000120: 5163 85be e0dc 173e 0589 293e 27f1 b03e
00000130: 4236 20ba 3384 ac3d a89e 68be ae04 b3bd
00000140: 7007 c9be 5580 a83d 1e74 cabd 77f5 743e
00000150: 1de6 b2bd 87cf 863e a4c0 d33d 479a 8ebe
00000160: 4466 a7be 44e8 97be 5e2c 9dbe 4399 683c
00000170: c7a4 a23e f5cf a2be e291 6ebe 9ba3 363d
00000180: 392e a6be 5bbe 1cbe 2316 98be e143 8d3e
00000190: 48af aabe a6cb 06be dbca b1be ef03 27be
000001a0: 8be5 a5be 54e7 c9be b1a2 873d 5cbe 04be
000001b0: aaca 2bbe c42a e4bd cf50 08be 2bb4 98be
000001c0: d8cd ac3e 9ea3 49be 8918 633e 3371 dfbc
000001d0: 8113 cebe 8e75 353c e76f 70bd f32c 9a3e
000001e0: 4c5a dc3d 622b 2b3d b68f cabe 539e 363e
000001f0: 33d6 8a3d 2ede cf3e d9a2 41be 99d5 bb3e
00000200: c090 ffbd eb2d 35be 9857 a43e 7139 273e
00000210: a9b9 b6be 94d1 c63e 0dd8 9c3e 607e cabd
00000220: c8a9 a23e 4f87 64bd 45cc 47be 6c4b 8abd
00000230: 209c a33e a770 ed3d 5904 e93d 2ed3 973c
00000240: 8eda 5fbe 89a4 85be b6c5 31be ea4d 31be
00000250: cbdb b8be 4346 cbbe f4f0 883e ce78 86be
00000260: a441 363e 21dc a43e a451 153e 1ade 1bbe
00000270: d3c8 aabe f40e 1f3e f847 bc3e c963 6b3e
00000280: 552b 3dbd d34e 50bc d2f0 7e3e 6e0f 553e
00000290: 8b65 c93e b803 a73d f682 3f3e 9171 2ebd
000002a0: 6ae5 a93e 11fc d0be 3de2 cbbd 5c7c 5c3e
000002b0: 1576 983e 4d94 cc3e f120 bdbe 8464 833e
000002c0: 275c 113e 32e5 ac3e cd5c 20be d613 5c3e
000002d0: a868 30be 715c a9be 98ff b73e 45d0 2ebe
000002e0: f4a8 1a3e 9786 ac3e 89a8 473e baac c5be
000002f0: 0a3c 3f3e effa cdbd 5d9c 85be d7ed 61be
00000300: 45ff 56be 073e adbd 2c35 9c3e e17c b4bd
00000310: f06e c6be 18bb 9d3e ac9d 89be 3971 833e
00000320: 36a2 afbe 294d 04be a0fa 49be d0ef 4bbc
00000330: f5f9 88be 2e72 a7be de50 b83e 212a ce3e
00000340: 582a d6bd e701 233e 8f03 c2be b673 a53d
00000350: 2796 42bd 0b95 99bd b499 c0be 0128 e5bd
00000360: a5c3 91be b078 c43e e002 83be a7f8 f5bd
00000370: 4b6c fd3d cd20 483e daf0 05be e9cc ca3d
00000380: 71cf 7b3e aadc 7d3e 1574 97be 6078 2cbe
00000390: fff3 b7be f6d4 183e 1b69 593d 9c4e 93bd
000003a0: ef7d 5bbe 779c a53e dbc7 ce3e 98e1 873e
000003b0: 1be0 76bb 9e07 5bbe 6389 53be 4a28 2ebd
000003c0: c1e2 cabe 32a9 98be d5ba 10bd 89ea 06be
000003d0: 321a 7a3e 78f3 3f3d 5df4 ffbc 663d 983d
000003e0: 3fa2 823e 2c91 7bbe 7692 833e 5c33 c33e
000003f0: cdcf b43e e02b 883e 384a b8be 2824 a43d

modality_encoders.eeg.0.bias f4 [64]
0.16766493 -0.007234932 0.23914662 -0.2204074 -0.29663715 -0.28057098 0.2138448 0.05906007
-0.0072342996 -0.03150268 0.14483885 -0.25192162 0.041385 0.22806427 -0.102278695 -0.28712142
0.12568255 0.11856895 0.23806567 0.21310307 0.3364501 -0.10932728 -0.024702877 -0.22048448
-0.33317727 -0.065821424 -0.2811223 0.08667664 0.38535327 -0.26502767 0.11933355 -0.010316088
-0.18719125 0.09849201 0.21100469 0.37216467 0.09463584 -0.24144633 -0.006435528 0.06632469
0.26836678 -0.2994336 0.16616614 -0.035517607 0.30927214 -0.16997652 0.004204925 0.14725843
-0.13225941 -0.35807654 -0.011905016 -0.1382802 -0.076043926 0.3238473 -0.36373124 -0.058250252
-0.15392458 -0.15461726 -0.24740483 0.32438335 0.3773653 -0.023375973 -0.3613638 0.019590849
00000000: 5bb0 2b3e 0213 edbb dae2 743e 7ab2 61be
00000010: d3e0 97be 00a7 8fbe 22fa 5a3e f9e8 713d
00000020: b40d edbb f408 01bd a350 143e dffb 80be
00000030: 5183 293d ae89 693e 7e77 d1bd 9401 93be
00000040: edb2 003e 47d4 f23d 7dc7 733e b137 5a3e
00000050: 3043 ac3e fbe6 dfbd b05d cabc afc6 61be
00000060: 3696 aabe 62cd 86bd 43ef 8fbe 8683 b13d
00000070: 064d c53e b5b1 87be 2665 f43d cf04 29bc
00000080: 10af 3fbe 2eb6 c93d 9d11 583e 5e8c be3e
00000090: 6fd0 c13d b53d 77be 1fe1 d2bb 3dd5 873d
000000a0: 5f67 893e 5c4f 99be 7527 2a3e e97a 11bd
000000b0: eb58 9e3e 530e 2ebe 78c9 893b eaca 163e
000000c0: 036f 07be cf55 b7be 420d 43bc 5399 0dbe
000000d0: ebbc 9bbd 50cf a53e fb3a babe d197 6ebd
000000e0: 689e 1dbe fd53 1ebe b157 7dbe 9315 a63e
000000f0: 0636 c13e f87e bfbc ad04 b9be fd7c a03c

modality_encoders.eeg.3.weight f4 [32, 64]
0.11492401 0.055824757 -0.035196424 -0.012420714 -0.015592679 0.012625203 0.071506724 -0.02338554
0.087775365 0.10235357 -0.023024097 -0.075673476 -0.011650205 0.037161604 0.1019353 0.102746725
-0.050069958 0.10396512 0.023744017 0.02076362 -0.043630958 -0.11737703 0.08478437 0.0788867
-0.07963455 -0.086224526 -0.010418966 0.012569681 0.051184833 0.059340015 0.112539575 0.030900091
-0.11354567 0.0022726506 -0.05117199 -0.11110172 0.116665766 -0.043007016 0.061747536 0.07602696
0.040582687 0.06375229 0.036237568 0.036891103 0.0450141 0.07836631 0.050889984 0.09133482
0.0055479705 0.029317781 -0.116771206 0.018942684 0.07188369 0.03592162 0.12461132 -0.061875597
-0.019647732 0.09852412 0.0023827106 -0.06277202 -0.1131012 -0.045231372 -0.037241817 -0.08548558
-0.07195541 0.11116359 -0.0901714 -0.120076075 -0.031043857 -0.024823844 -0.096300215 -0.106421635
-0.1229469 0.05229588 -0.07252504 -0.052594453 -0.024665236 -0.017149106 -0.04978992 0.07143471
0.11577439 -0.11098388 -0.091202006 -0.06360456 0.081974834 0.12396364 0.115066886 -0.07422191
0.10990907 -0.115788266 -0.05911416 -0.03553705 -0.0174613 0.029265746 -0.10960318 -0.04141955
0.02693206 0.07021797 -0.06698194 0.030557126 -0.1096582 -0.097451225 0.054687202 -0.050297856
-0.024454594 0.0049315095 0.07578236 0.07376556 -0.01219964 -0.018118724 -0.015953943 -0.0386025
0.03333427 0.0030014366 0.040838346 4.157424e-06 0.080904454 -0.024896279 0.089270234 0.052312493
0.09202716 -0.045367643 0.099372014 -0.064003706 -0.089457095 0.09970659 -0.10016595 0.10313849
-0.10203332 -0.008414879 -0.06542289 -0.08588658 -0.084028125 -0.014834106 0.10887836 0.050697744
0.05329719 -0.0013846904 0.0107792765 -0.055226862 0.08612199 -0.031485736 0.059002906 -0.041278303
-0.06820649 0.033564404 -0.017953947 0.12300466 -0.10817237 -0.12322071 0.10896513 0.046614066
-0.019074962 -0.036847606 0.1237234 0.09842712 -0.0031014234 -0.06970863 -0.08523843 0.083635256
0.058600917 0.046440914 -0.033660278 -0.08312316 -0.03359352 0.09369536 0.023988202 -0.073338374
0.00058716536 0.078614116 -0.056915596 0.096928865 0.068379715 -0.10443218 0.06611048 -0.12025392
0.0846833 -0.10241863 -0.0022796392 0.07336305 0.08324501 0.10417828 -0.063011944 -0.09838885
0.073854774 0.018535092 0.11466959 0.0069560856 0.025216222 -0.055364028 0.052340478 0.089730084
-0.11767396 0.03358455 -0.07673937 0.07670985 0.103961125 -0.091629475 0.09080915 0.06579247
-0.06561048 0.045189023 0.069128305 0.0488642 -0.12225804 -0.04539551 -0.1079323 -0.12236589
0.034364194 -0.00929293 0.04843019 0.12068345 0.01755844 -0.010365576 -0.008013055 0.058222547
-0.10613449 0.01135847 -0.058500588 -0.07412115 0.10563345 0.07820527 0.073367864 0.0065677613
-0.01981081 -0.10846795 -0.08692433 0.011373997 -0.10018146 -0.11162324 -0.11012018 -0.07410067
-0.12225604 0.12145679 -0.08200376 0.03319536 0.07046561 -0.06941022 -0.07456496 -0.014838308
0.11652127 0.026716292 0.08807747 -0.016442284 0.07774818 0.11286716 0.021261603 -0.11100659
0.011148542 -0.026905417 -0.10489184 0.002676323 -0.10056387 0.030867502 0.06900677 -0.009073526
00000000: 485d eb3d 80a8 643d 202a 10bd 4080 4bbc
00000010: 7078 7fbc f0d9 4e3c 1e72 923d 0893 bfbc
00000020: 92c3 b33d c09e d13d 089d bcbc b2fa 9abd
00000030: 80e0 3ebc c436 183d 74c3 d03d e06c d23d
00000040: 2816 4dbd aaeb d43d d082 c23c 7818 aa3c
00000050: 60b6 32bd 5e63 f0bd 6ea3 ad3d 5a8f a13d
00000060: 7017 a3bd 7c96 b0bd 50b4 2abc 10f1 4d3c
00000070: 30a7 513d 840e 733d 267b e63d 3022 fd3c
00000080: a28a e8bd c0f0 143b b899 51bd 4c89 e3bd
00000090: 76ee ee3d 2028 30bd fcea 7c3d 06b4 9b3d
000000a0: 083a 263d 9090 823d d86d 143d 201b 173d
000000b0: b460 383d 847e a03d 0472 503d c00d bb3d
000000c0: c0cb b53b d82b f03c be25 efbd b02d 9b3c
000000d0: c237 933d 8c22 133d 3834 ff3d 4471 7dbd
000000e0: 48f4 a0bc 04c7 c93d 4027 1c3b 9e8e 80bd
000000f0: 9aa1 e7bd 8844 39bd e08a 18bd 1013 afbd
00000100: 5c5d 93bd bca9 e33d c8ab b8bd 72ea f5bd
00000110: b04f febc 605b cbbc 0c39 c5bd 96f3 d9bd
00000120: 96cb fbbd 3434 563d 0288 94bd 486d 57bd
00000130: c00e cabc 487c 8cbc 84f0 4bbd 5c4c 923d
00000140: 201b ed3d 844b e3bd 1ec8 babd 1c43 82bd
00000150: 6ce2 a73d a6e0 fd3d 30a8 eb3d a801 98bd
00000160: 0218 e13d 6622 edbd b021 72bd 4c8f 11bd
00000170: 000b 8fbc b8be ef3c a277 e0bd 8ca7 29bd
00000180: a0a0 dc3c 70ce 8f3d d42d 89bd f052 fa3c
00000190: 7a94 e0bd 8294 c7bd b0ff 5f3d 2005 4ebd
000001a0: 0055 c8bc 8098 a13b c833 9b3d 6612 973d
000001b0: 00e1 47bc b86d 94bc d8b1 82bc a81d 1ebd
000001c0: 8489 083d c0b3 443b 1c46 273d 0080 8b36
000001d0: 3cb1 a53d 48f3 cbbc 50d3 b63d a045 563d
000001e0: bc78 bc3d 6cd3 39bd 8e83 cb3d 6014 83bd
000001f0: 4835 b7bd f832 cc3d ce23 cdbd 463a d33d
00000200: d8f6 d0bd 90de 09bc 70fc 85bd 4ee5 afbd
00000210: f016 acbd c00a 73bc 9efb de3d 70a8 4f3d
00000220: 284e 5a3d 807e b5ba 909b 303c 9035 62bd
00000230: ba60 b03d 30f7 00bd 08ad 713d 7013 29bd
00000240: d8af 8bbd d47a 093d 2814 93bc dee9 fb3d
00000250: 7a89 ddbd 245b fcbd 1c29 df3d 64ee 3e3d
00000260: 1843 9cbc 84ed 16bd b262 fd3d 2894 c93d
00000270: 4041 4bbb 66c3 8ebd 7c91 aebd f648 ab3d
00000280: 8407 703d d438 3e3d 5cdf 09bd 7a3c aabd
00000290: 5c99 09bd 5ae3 bf3d e882 c43c 6e32 96bd
000002a0: 00ec 193a 7000 a13d 5420 69bd a482 c63d
000002b0: aa0a 8c3d 8ae0 d5bd ee64 873d b047 f6bd
000002c0: 706e ad3d dcc0 d1bd 0066 15bb 5e3f 963d
000002d0: 5c7c aa3d 6c5b d53d 680c 81bd 1880 c9bd
000002e0: 2c41 973d e8d6 973c e4d7 ea3d e0ef e33b
000002f0: 4092 ce3c 64c5 62bd f862 563d 68c4 b73d
00000300: 0cff f0bd f48f 093d 8829 9dbd 0e1a 9d3d
00000310: 92e9 d43d 3ca8 bbbd 26fa b93d 34be 863d
00000320: ca5e 86bd 2018 393d 2493 8d3d d425 483d
00000330: 6c62 fabd a4f0 39bd 9c0b ddbd f89a fabd
00000340: 78c1 0c3d 6041 18bc bc5e 463d e228 f73d
00000350: b8d6 8f3c 60d4 29bc 3049 03bc c47a 6e3d
00000360: 0a5d d9bd e018 3a3c 509e 6fbd d4cc 97bd
00000370: 5a56 d83d 162a a03d e441 963d 6036 d73b
00000380: 484a a2bc 7224 debd 6205 b2bd 005a 3a3c
00000390: f02b cdbd ba9a e4bd b086 e1bd 18c2 97bd
000003a0: 6061 fabd 56be f83d 96f1 a7bd dcf7 073d
000003b0: 4650 903d f226 8ebd 84b5 98bd 601c 73bc
000003c0: b4a2 ee3d 20dc da3c f661 b43d f8b1 86bc
000003d0: 703a 9f3d e626 e73d d02c ae3c 6c57 e3bd
000003e0: 60a8 363c c068 dcbc 88d1 d6bd 4065 2f3b
000003f0: 6ef4 cdbd d8dd fc3c 6c53 8d3d 20a9 14bc

modality_encoders.eeg.3.bias f4 [32]
0.03986101 -0.04438831 -0.013988733 0.11099814 -0.028367043 -0.1173286 0.008472636 0.06847559
-0.07524164 -0.023915008 -0.06351367 -0.040880784 -0.07092968 -0.09107356 0.023762718 0.014194056
-0.032579914 -0.08235708 0.110712275 -0.00360246 0.1083899 -0.10992965 0.069007844 -0.12085542
0.089233086 0.09285788 -0.011916503 0.05854836 0.059919134 -0.090675905 0.11175671 0.1200576
00000000: 4c45 233d 84d0 35bd 0031 65bc fe52 e33d
00000010: 0062 e8bc fa49 f0bd d0d0 0a3c ee3c 8c3d
00000020: 4a18 9abd 68e9 c3bc 7413 82bd 9c72 27bd
00000030: 9443 91bd c684 babd 08aa c23c 308e 683c
00000040: 8472 05bd d4aa a8bd 1ebd e23d 4017 6cbb
00000050: 86fb dd3d cc22 e1bd fc53 8d3d 0c83 f7bd
00000060: d6bf b63d 462c be3d 703d 43bc 68d0 6f3d
00000070: c46d 753d 4ab4 b9bd b4e0 e43d c2e0 f53d

modality_encoders.sleep.0.weight f4 [64, 24]
0.17458466 0.18053764 0.13761349 0.064167574 0.045579337 -0.15166987 0.18616635 -0.095688425
-0.022143602 -0.05083109 0.11041141 -0.011024169 -0.1973837 -0.15729427 0.010844441 -0.08985343
-0.16627206 -0.14322422 -0.15631141 -0.11809921 -0.0961887 -0.16401732 0.048732813 0.118879445
0.18658271 0.08492156 0.08684118 -0.10294738 -0.024715384 -0.15750125 0.004281746 0.19219343
0.0066903974 -0.18227024 -0.12253007 0.10027354 0.062004205 0.17871392 0.08195908 0.15714474
0.11072028 0.20357838 0.070588596 0.13284943 0.11572911 0.1495633 0.088899165 -0.13426936
0.043280773 -0.034131426 -0.025790438 -0.112313874 -0.06509193 -0.11097232 -0.1434188 0.18030672
0.08968954 0.06513395 0.018149843 -0.09773098 -0.12856519 -0.093826115 0.12842172 -0.00881184
0.061271984 -0.18204728 -0.2032908 -0.059833873 0.06951902 -0.05009515 -0.04926511 0.18768115
-0.14973001 0.18072096 -0.0633916 0.12630147 0.086447835 0.13699225 -0.1695572 -0.047136486
0.005113976 0.14527634 0.040901687 0.19221883 -0.13242485 -0.069932446 0.13185094 -0.15784308
-0.11014511 0.06030682 -0.108895384 -0.19896248 0.15833034 0.09889157 -0.05118687 0.18920414
0.16766442 -0.011106269 -0.20082584 0.10982994 0.07116092 0.028500922 -0.021656275 0.1723596
0.10988308 0.05798757 0.13800387 -0.106544405 -0.029355636 -0.12798426 0.0045299237 0.11552373
0.17289467 0.18422028 -0.18478207 -0.17850848 -0.08127597 0.09349408 -0.12723741 -0.060326044
0.10698937 -0.16020483 0.11255052 -0.10713661 0.19550379 -0.1439472 -0.013584879 0.09754427
0.15337813 -0.042742368 -0.077495806 0.12905958 -0.04750716 0.14705184 0.14082202 0.19651371
0.18048158 -0.1364624 -0.16661468 0.09988423 -0.032012634 -0.09941812 -0.11673393 -0.079382434
0.07546077 0.026648486 -0.079055026 0.18403347 -0.045705166 -0.15219223 -0.12176602 0.13120307
0.1481477 0.032765515 -0.02157741 -0.06652831 -0.069491155 -0.17388983 -0.054929823 -0.12566394
0.00809865 -0.099328086 0.012529633 -0.09288871 -0.04327953 0.20383108 0.029853111 -0.13804597
0.1873668 -0.00296399 -0.05974778 0.1384068 -0.0418587 0.16769725 -0.18199481 -0.052742947
0.12771523 0.01683491 -0.15040149 -0.11658961 0.17281237 0.05654221 0.0649141 -0.16326356
0.09415834 -0.024669517 0.026762854 -0.19980477 0.16687612 0.1948146 0.12349443 -0.114574604
-0.09102163 0.09649119 -0.16404146 0.18628775 0.08838806 0.01819705 -0.20118941 -0.023645002
0.12209874 -0.086734235 0.04835443 -0.18585053 0.058259886 0.20179842 0.12435309 0.005623398
0.17962483 0.07211312 -0.10970647 0.16999394 -0.11233492 -0.18351735 0.19862288 -0.0036396338
-0.15044738 0.010780663 0.18402147 0.017408913 -0.08936778 -0.02606149 0.1270141 -0.037213337
0.19231251 -0.029500566 0.10442635 -0.14229272 -0.20314604 0.099335164 -0.1794038 -0.19195925
-0.1770508 0.1982772 0.07466879 0.07382469 0.094639145 0.08319196 -0.17279987 0.19551077
-0.09110818 -0.047706474 0.11495951 0.00014782598 -0.06684684 0.0743635 0.023105724 0.06556634
0.04415685 0.17333683 0.1834636 0.2038597 0.15000384 0.14438543 -0.10172192 -0.14913593
00000000: 52c6 323e dcde 383e 8dea 0c3e 4a6a 833d
00000010: 66b1 3a3d 594f 1bbe 64a2 3e3e 4bf8 c3bd
00000020: 8066 b5bc 4334 50bd 611f e23d b79e 34bc
00000030: f41e 4abe c011 21be e2ac 313c 1305 b8bd
00000040: 3943 2abe 5fa9 12be 1910 20be 00de f1bd
00000050: 95fe c4bd 28f4 27be 0f9c 473d 1177 f33d
00000060: 8a0f 3f3e 5beb ad3d cad9 b13d 13d6 d2bd
00000070: eb77 cabc 0248 21be e44d 8c3b 5bce 443e
00000080: 1f3b db3b 0da5 3abe 0cf1 fabd 375c cd3d
00000090: 1ff8 7d3d c800 373e 2ada a73d 8dea 203e
000000a0: 50c1 e23d da76 503e c190 903d ae09 083e
000000b0: 6203 ed3d 1f27 193e c410 b63d e87d 09be
000000c0: 2e47 313d 65cd 0bbd 7846 d3bc d104 e6bd
000000d0: eb4e 85bd 7545 e3bd 61dc 12be 53a2 383e
000000e0: 26af b73d f364 853d fbae 943c 2e27 c8bd
000000f0: 98a6 03be e827 c0bd fc80 033e 895f 10bc
00000100: 55f8 7a3d 9a6a 3abe 772b 50be 5d14 75bd
00000110: fd5f 8e3d 9230 4dbd 36ca 49bd 7d2f 403e
00000120: d352 19be ea0e 393e 75d3 81bd 2c55 013e
00000130: 900b b13d b247 0c3e 67a0 2dbe 3012 41bd
00000140: 2493 a73b 52c3 143e 8788 273d 03d5 443e
00000150: 619a 07be be38 8fbd ef03 073e 9ea1 21be
00000160: c293 e1bd 4904 773d 8b04 dfbd d2bc 4bbe
00000170: 5921 223e aa87 ca3d 53a9 51bd bbbe 413e
00000180: 39b0 2b3e 12f7 35bc 4aa5 4dbe 85ee e03d
00000190: d1bc 913d c47a e93c 8068 b1bc 097f 303e
000001a0: 610a e13d 6084 6d3d e350 0d3e f433 dabd
000001b0: 3b7b f0bc 4e0e 03be c16f 943b b597 ec3d
000001c0: 4d0b 313e 3ea4 3c3e 8337 3dbe edca 36be
000001d0: 0474 a6bd d379 bf3d 864a 02be 7118 77bd
000001e0: 3e1d db3d bc0c 24be e380 e63d 706a dbbd
000001f0: 2532 483e e566 13be 1d93 5ebc 4ac5 c73d
00000200: 280f 1d3e 9f12 2fbd 1fb6 9ebd 3228 043e
00000210: de96 42bd c294 163e a633 103e e43a 493e
00000220: 2ad0 383e cdbc 0bbe 0a9d 2abe 1a90 cc3d
00000230: ae1f 03bd ba9b cbbd 3312 efbd 4293 a2bd
00000240: 2d8b 9a3d ed4d da3c 9ae7 a1bd 4573 3c3e
00000250: 5735 3bbd 48d8 1bbe 7760 f9bd 195a 063e
00000260: 08b4 173e 2235 063d 1cc3 b0bc ff3f 88bd
00000270: 6151 8ebd 2d10 32be 18fe 60bd 0cae 00be
00000280: 33b0 043c 866c cbbd 1749 4d3c 703c bebd
00000290: e045 31bd 18b9 503e 838e f43c ec5b 0dbe
000002a0: 15dd 3f3e 803f 42bb 17ba 74bd 83ba 0d3e
000002b0: 0774 2bbd d4b8 2b3e d95c 3abe fd08 58bd
000002c0: c8c7 023e 5de9 893c d902 1abe 89c6 eebd
000002d0: baf5 303e ce98 673d aff1 843d 902e 27be
000002e0: 16d6 c03d ba17 cabc c63d db3c 9f99 4cbe
000002f0: 93e1 2a3e 7a7d 473e a6ea fc3d 17a6 eabd
00000300: 8c69 babd 2c9d c53d 7cfa 27be 37c2 3e3e
00000310: cd04 b53d fb11 953c 9904 4ebe 2ab3 c1bc
00000320: e70e fa3d b8a1 b1bd 4b0f 463d 9a4f 3ebe
00000330: eba1 6e3d 3fa4 4e3e d5ac fe3d 7b44 b83b
00000340: 92ef 373e 0bb0 933d c9ad e0bd e412 2e3e
00000350: da0f e6bd f9eb 3bbe cc63 4b3e ec86 6ebb
00000360: e10e 1abe 61a1 303c 2070 3c3e 239d 8e3c
00000370: 7406 b7bd e87e d5bc fc0f 023e 036d 18bd
00000380: 92ed 443e 2cab f1bc 7bdd d53d 2fb5 11be
00000390: 8405 50be 3c70 cb3d a1b5 37be f790 44be
000003a0: ce4c 35be 2e09 4b3e f3eb 983d 6631 973d
000003b0: 2bd2 c13d 8c60 aa3d 73f2 30be fa33 483e
000003c0: ed96 babd dd67 43bd e46f eb3d bc01 1b39
000003d0: ffe6 88bd e44b 983d 3748 bd3c a547 863d
000003e0: d0dd 343d 367f 313e e2dd 3b3e 99c0 503e
000003f0: 9b9a 193e c6d9 133e 9553 d0bd 17b7 18be

modality_encoders.sleep.0.bias f4 [64]
-0.18894616 -0.10012503 0.1702393 0.11511746 -0.005855101 0.07171775 0.19907656 0.08901017
-0.071646325 0.14713883 -0.082295835 0.05669753 -0.02790064 -0.13899066 0.049057566 0.13042909
0.058283005 0.18823324 -0.119433686 0.1833051 -0.15805058 0.008172404 -0.18836445 -0.100312866
-0.0024938425 -0.060342398 -0.17334472 -0.09845257 0.010356116 0.009653658 -0.13550653 0.028010944
-0.08853866 -0.1979386 0.14318354 0.06515347 0.07934749 -0.082284175 0.14744185 0.18403938
0.03269295 0.18741389 0.07270788 -0.14394562 -0.11834963 0.033943377 0.0073349914 -0.0022739652
-0.0797541 -0.118179366 0.10753271 -0.1570084 0.16447747 0.12871297 -0.075729 -0.06270732
0.13009837 0.17998017 -0.16068652 0.13327856 -0.015256201 -0.17286564 -0.12043666 -0.06760431
00000000: 1a7b 41be 5a0e cdbd 3653 2e3e b4c2 eb3d
00000010: 26dc bfbb c1e0 923d bada 4b3e f74a b63d
00000020: 4fbb 92bd 90ab 163e b88a a8bd ab3b 683d
00000030: e28f e4bc 9153 0ebe 96f0 483d 348f 053e
00000040: 29ba 6e3d 37c0 403e a699 f4bd 55b4 3b3e
00000050: 03d8 21be 8ce5 053c 9ce2 40be d570 cdbd
00000060: bc6f 23bb 9729 77bd 4781 31be 80a1 c9bd
00000070: b3ac 293c 602a 1e3c 39c2 0abe 3577 e53c
00000080: c253 b5bd 6bb0 4abe b59e 123e 2f6f 853d
00000090: f080 a23d 9b84 a8bd fffa 163e d274 3c3e
000000a0: 0be9 053d 6de9 3f3e dee7 943d 7b66 13be
000000b0: 4a61 f2bd 3608 0b3d 5e5a f03b ce06 15bb
000000c0: 1e56 a3bd 0608 f2bd 1c3a dc3d cfc6 20be
000000d0: c86c 283e 55cd 033e ce17 9bbd b26c 80bd
000000e0: 8238 053e b94c 383e 028b 24be 2d7a 083e
000000f0: 25f5 79bc b103 31be 7fa7 f6bd 2174 8abd

modality_encoders.sleep.3.weight f4 [32, 64]
-0.052049845 0.034510642 -0.070905074 -0.024923727 0.095076725 -0.08379856 -0.041297823 -0.01901117
0.06376761 -0.08822511 -0.04064229 0.046970904 0.119209185 0.080235556 -0.1037693 0.0008518547
0.0074453503 -0.1166282 -0.05997558 0.1032103 0.057383522 0.042935014 0.12402341 -0.038450137
-0.06684485 -0.06934117 -0.06280792 -0.09542264 0.053596735 0.032024875 -0.017653227 0.03585969
-0.0467097 -0.034112185 0.082670406 0.10965918 0.1244721 0.03962356 0.10198049 0.041609243
-0.06992616 -0.053351164 -0.09049353 -0.058541104 0.12220493 -0.07505311 0.099673465 -0.04277493
-0.010608047 0.051584616 0.081305325 0.09244442 0.10621004 -0.026454166 -0.09795916 -0.08888127
-0.0713287 0.018771231 -0.08118716 0.011175945 0.06400886 0.014047369 -0.08559035 -0.10756932
0.100094676 0.07236771 -0.06518401 0.12297414 0.10364339 -0.085547134 -0.10103433 -0.10472186
0.124791846 -0.037256747 0.10218552 0.09625535 0.061887532 0.053358674 0.042145684 0.009376228
0.1139065 0.015366882 0.12441984 0.025096864 -0.09763615 0.03985749 -0.066581786 -0.028704822
0.10527234 0.055282235 -0.06568836 0.08768909 0.014895141 -0.111089975 -0.114381075 0.09947692
0.01608339 0.04531239 0.092855945 -0.06057854 -0.07937509 0.064948216 -0.014882073 0.055819005
-0.1161184 -0.046627298 -0.119287565 0.034526736 -0.020244703 0.010898873 0.076278985 -0.10498114
-0.09610766 0.0694672 0.018835992 0.120830655 0.03427805 0.034862965 -0.0595109 0.077084705
0.094130546 0.0038886964 0.022603631 -0.05097747 -0.079912454 -0.081714064 0.10156773 0.09049781
0.10325399 0.00204058 -0.110185534 0.06880844 -0.024040103 -0.10167688 0.048170805 0.11995433
-0.094410285 -0.016038626 -0.0788431 -0.1213323 0.005870804 -0.0033696145 0.082943186 0.12168077
-0.021905988 -0.11696838 -0.12290569 -0.06843081 -0.12039219 0.0046943426 0.030851126 0.09170848
0.041652963 -0.03795369 0.036368906 -0.011465594 0.0867286 0.056959704 -0.0038039833 0.10825734
0.10002278 0.08005479 0.03960769 0.09965606 -0.0066171885 0.09719144 0.097910106 -0.039625153
-0.09385078 -0.017603874 -0.1106009 -0.040238664 -0.10117011 0.11031613 0.11235601 0.09970589
-0.054471046 -0.019958481 0.11533669 -0.088205576 0.08150059 0.050898433 0.06717743 -0.07563794
-0.043149427 0.07748446 -0.017145962 0.06176339 -0.070839986 -0.09379861 0.0008123666 -0.02509886
-0.024052769 0.05745536 -0.086958185 -0.0002990216 -0.049006507 0.11848813 -0.10506484 0.12355548
-0.066539034 0.11547281 -0.012616321 0.02497086 0.045792 -0.00785698 -0.08301166 0.06276859
0.10801852 0.061991334 0.005549222 -0.035872594 0.008939654 -0.041868463 0.068282366 -0.01318942
0.0103935 0.097379625 0.03865707 -0.037139773 0.07909134 -0.115009844 -0.021386147 0.020662308
0.10526033 0.08213821 0.06075251 -0.022956595 -0.08084214 0.059442148 0.06559904 -0.009625286
-0.07511333 0.09816301 -0.08161022 0.050196975 0.09456703 -0.061346218 0.051805213 0.086760476
0.08161539 -0.013733178 0.0618082 0.0833545 0.07623771 -0.06984441 0.091048345 0.056598395
-0.025568262 -0.041527823 0.11388923 0.10084212 -0.06159818 0.12164581 0.0013732016 0.015931576
00000000: 3832 55bd 085b 0d3d ae36 91bd d82c ccbc
00000010: 96b7 c23d 949e abbd e827 29bd 50bd 9bbc
00000020: 9898 823d 5eaf b4bd 8878 26bd 9064 403d
00000030: f223 f43d 8a52 a43d 0085 d4bd 004f 5f3a
00000040: 20f8 f33b c4da eebd f4a8 75bd ec5f d33d
00000050: fc0a 6b3d a0dc 2f3d fcff fd3d e47d 1dbd
00000060: f4e5 88bd be02 8ebd 70a1 80bd f26c c3bd
00000070: 4088 5b3d 842c 033d 809d 90bc 9ce1 123d
00000080: ac52 3fbd 38b9 0bbd 1a4f a93d fe94 e03d
00000090: 3aeb fe3d 504c 223d 26db d03d 746e 2a3d
000000a0: 7235 8fbd c086 5abd ac54 b9bd ccc8 6fbd
000000b0: 9446 fa3d 72b5 99bd 9a21 cc3d c434 2fbd
000000c0: 60cd 2dbc 644a 533d 6883 a63d 8053 bd3d
000000d0: a684 d93d 68b6 d8bc d09e c8bd 6207 b6bd
000000e0: c814 92bd 20c6 993c 7445 a6bd 501b 373c
000000f0: 1417 833d f026 663c fe49 afbd 4e4d dcbd
00000100: 70fe cc3d 8635 943d 327f 85bd ded9 fb3d
00000110: fc42 d43d 5633 afbd 16eb cebd 6a78 d6bd
00000120: de92 ff3d 889a 18bd a446 d13d 8621 c53d
00000130: c87d 7d3d a08e 5a3d f4a0 2c3d c09e 193c
00000140: d047 e93d 60c5 7b3c d4cf fe3d f097 cd3c
00000150: 76f5 c7bd 9c41 233d 085c 88bd 6026 ebbc
00000160: 0699 d73d a06f 623d 9e87 86bd 5696 b33d
00000170: c00a 743c 2483 e3bd a040 eabd 8eba cb3d
00000180: 50c1 833c 7c99 393d 422b be3d 3421 78bd
00000190: 688f a2bd 9203 853d f0d3 73bc 78a2 643d
000001a0: 7ccf edbd 44fc 3ebd 0a4d f4bd e86b 0d3d
000001b0: 38d8 a5bc 3091 323c 2838 9c3d 5a00 d7bd
000001c0: 18d4 c4bd d244 8e3d f04d 9a3c 1076 f73d
000001d0: 2467 0c3d 78cc 0e3d b4c1 73bd 96de 9d3d
000001e0: 84c7 c03d 80d9 7e3b 402b b93c c0cd 50bd
000001f0: 24a9 a3bd b459 a7bd be02 d03d ea56 b93d
00000200: d476 d33d 40bb 053b f4a8 e1bd 70eb 8c3d
00000210: c0ef c4bc f83b d0bd c04e 453d 9eaa f53d
00000220: 2e5a c1bd 7063 83bc 7e78 a1bd 127d f8bd
00000230: e05f c03b c0d4 5cbb 1ede a93d c433 f93d
00000240: 3074 b3bc 1e8d efbd fab5 fbbd 7425 8cbd
00000250: 2e90 f6bd 00d3 993b 80bb fc3c a8d1 bb3d
00000260: 4c9c 2a3d 5475 1bbd 90f7 143d 30da 3bbc
00000270: c49e b13d 944e 693d 404c 79bb 06b6 dd3d
00000280: bed8 cc3d c4f3 a33d ac3b 223d 7a18 cc3d
00000290: 00d5 d8bb 4e0c c73d 1885 c83d fc4d 22bd
000002a0: d634 c0bd 0036 90bc ba82 e2bd 4cd1 24bd
000002b0: 4632 cfbd 6ced e13d e81a e63d 9a32 cc3d
000002c0: 081d 5fbd f87f a3bc a435 ec3d 20a5 b4bd
000002d0: c8e9 a63d e07a 503d 5294 893d 10e8 9abd
000002e0: 74bd 30bd 2cb0 9e3d b075 8cbc 9cfb 7c3d
000002f0: 8e14 91bd 7c19 c0bd 00f5 543a 209c cdbc
00000300: 500a c5bc 5056 6b3d 2217 b2bd 00c6 9cb9
00000310: 0cbb 48bd e8a9 f23d 3c2c d7bd a80a fd3d
00000320: 9e45 88bd 027d ec3d b0b4 4ebc b08f cc3c
00000330: 6490 3b3d 90ba 00bc 0402 aabd d28c 803d
00000340: d038 dd3d a0ea 7d3d 40d6 b53b 24ef 12bd
00000350: a077 123c 447e 2bbd a0d7 8b3d 7018 58bc
00000360: 8049 2a3c f86e c73d e056 1e3d e01f 18bd
00000370: a4fa a13d 488a ebbd 0032 afbc 0044 a93c
00000380: ba92 d73d 1438 a83d a0d7 783d 780f bcbc
00000390: 9090 a5bd 9c79 733d ca58 863d 60b3 1dbc
000003a0: 04d5 99bd b009 c93d 4223 a7bd 589b 4d3d
000003b0: 5cac c13d 2c46 7bbd b431 543d 7aaf b13d
000003c0: f825 a73d 2001 61bc 982a 7d3d c4b5 aa3d
000003d0: 8422 9c3d 960a 8fbd 8e77 ba3d b8d3 673d
000003e0: 8874 d1bc 1419 2abd c23e e93d 5086 ce3d
000003f0: 604e 7cbd 7021 f93d 00fd b33a f082 823c

modality_encoders.sleep.3.bias f4 [32]
-0.10671952 0.063403204 0.1244268 -0.014233485 -0.10147707 0.06391558 0.07820521 -0.10858376
-0.066772714 -0.0021142513 0.033420265 0.06492688 -0.11797859 -0.042045936 -0.109140486 -0.006902829
-0.08796421 0.10693282 0.0038817972 0.011523321 0.10246332 -0.029514343 0.013403848 0.09898125
0.029481158 -0.05445358 -0.07137871 0.062470198 -0.040545627 -0.12266414 0.025090069 -0.096037194
00000000: c48f dabd 8ad9 813d 7ad3 fe3d 9033 69bc
00000010: 36d3 cfbd 2ce6 823d 0e2a a03d 2a61 debd
00000020: 22c0 88bd 408f 0abb b0e3 083d 62f8 843d
00000030: c29e f1bd 5c38 2cbd 0c85 dfbd 2031 e2bb
00000040: 9426 b4bd 98ff da3d c065 7e3b 50cc 3c3c
00000050: 4ad8 d13d 10c8 f1bc d09b 5b3c aeb6 ca3d
00000060: 7882 f13c b80a 5fbd 002f 92bd c0e0 7f3d
00000070: 2c13 26bd 5637 fbbd b089 cd3c 26af c4bd

modality_encoders.stress.0.weight f4 [64, 14]
-0.24564555 0.09587273 -0.1326941 0.17007619 0.21885012 0.062813215 -0.20909806 0.107472174
0.059821494 -0.24417342 -0.21266262 0.10189023 0.022720402 0.0021483214 -0.035691477 -0.18877786
-0.26148188 0.036733523 -0.055584844 -0.012852173 -0.06192693 0.08993693 -0.112704225 -0.16852173
0.13148892 0.07731191 -0.24304861 -0.2426012 -0.20977604 0.26406577 0.14620191 0.022861255
-0.2328768 0.05460779 -0.21996959 -0.2583372 -0.10663884 -0.22969891 0.17026165 0.22881956
0.13328394 -0.13263083 0.23984617 0.022588056 -0.118221745 -0.05970138 -0.15892082 0.19253853
-0.070465 -0.14732839 -0.24183537 -0.13790773 -0.045879323 -0.0955103 -0.029451532 0.24798283
0.083390705 -0.17800748 0.15988038 0.12938483 0.12222511 -0.20272762 -0.25059223 0.063684136
0.2341473 0.065532245 0.16411151 0.047585364 0.054496758 0.1421108 -0.08131595 0.20500582
-0.23433422 -0.10187277 0.045567222 -0.04661717 -0.22446328 0.14396471 -0.24128452 -0.091001175
0.15687546 -0.04963065 0.15058216 -0.15798235 -0.09757202 0.12515391 -0.018628683 0.26194242
-0.07989541 0.14763772 0.009879315 -0.051212117 0.014655674 -0.21090332 0.028615206 -0.20639454
0.19735403 -0.10037869 -0.010901225 -0.26556712 -0.015381095 -0.02983723 0.21417667 -0.09105393
0.08040249 -0.1329543 -0.14766556 -0.0029319504 0.25992242 0.032479987 -0.1674342 -0.030909447
-0.26339406 -0.038336687 -0.06338332 -0.06239489 -0.113611214 -0.2554627 -0.056113306 -0.11178684
0.092316546 0.24231538 -0.20179947 0.14840668 -0.19860938 0.2096181 -0.015210006 -0.085977264
0.19709457 -0.16102874 -0.103969574 -0.03764128 0.17174625 0.2647222 -0.13870245 -0.030971797
0.26122952 -0.09523805 0.24034694 -0.24676237 -0.08163433 0.23759398 -0.13708478 -0.110960394
0.13899441 0.19537556 -0.016629785 0.0053090267 -0.108588226 -0.14851967 -0.21446195 -0.024697794
-0.20195061 0.07988142 -0.19595012 0.12336924 0.15515319 -0.18323015 0.121818386 0.26210558
-0.17356691 -0.08266471 -0.1406781 -0.17808785 -0.08740657 -0.26019293 -0.22149499 0.046947557
-0.047113933 -0.23781942 0.14692108 0.05658509 -0.26307547 -0.08734693 0.109792635 -0.24624486
-0.1905453 -0.21501753 0.02924578 -0.23337588 -0.22451681 0.23228173 0.04114792 -0.13471702
0.005250691 -0.11290832 0.2225861 -0.017188895 0.018191658 0.15494718 0.12884483 0.2614744
0.056026835 -0.031784162 0.07622698 0.009203437 0.19672225 0.11995059 -0.1593078 0.23226163
0.08368978 0.034237258 -0.20774898 -0.1872475 0.21799627 -0.21071246 -0.22227138 0.040060155
-0.098291 -0.074920624 0.20538914 0.26119596 0.12500799 0.005576778 -0.21576165 -0.057490963
-0.18689561 -0.09973261 -0.10101201 -0.26415595 0.1597985 -0.09346287 -0.23448479 0.16493112
0.1417549 -0.0917712 -0.08004018 -0.07246944 0.10623294 0.16176021 0.01446617 0.11461618
0.16084354 -0.049201973 -0.25164375 0.052782275 -0.0802899 0.077826895 -0.10422162 0.16830334
-0.15416175 0.17208347 -0.1956083 0.080759324 -0.053332403 -0.17949529 -0.20077935 0.110279866
-0.135953 -0.08076248 -0.11141284 0.21904084 0.061667655 0.035265 -0.082515925 -0.030776814
00000000: 828a 7bbe ec58 c43d f6e0 07be 7428 2e3e
00000010: 3f1a 603e 37a4 803d cd1d 56be 5f1a dc3d
00000020: 6207 753d 9908 7abe 3bc4 59be d3ab d03d
00000030: 2320 ba3c daca 0c3b 3a31 12bd fc4e 41be
00000040: f4e0 85be e475 163d efac 63bd ec91 52bc
00000050: 18a7 7dbd da30 b83d 79d1 e6bd f690 2cbe
00000060: 08a5 063e b555 9e3d bce1 78be 736c 78be
00000070: 88cf 56be a133 873e f4b5 153e 8747 bb3c
00000080: 4177 6ebe 6bac 5f3d b53f 61be c644 84be
00000090: 7765 dabd 3136 6bbe 1259 2e3e ad4f 6a3e
000000a0: 967b 083e 60d0 07be 3c9a 753e 960a b93c
000000b0: 3e1e f2bd 6f89 74bd 24bc 22be d228 453e
000000c0: f44f 90bd 41dd 16be b1a3 77be af37 0dbe
000000d0: f5eb 3bbd e79a c3bd 5744 f1bc 36ef 7d3e
000000e0: bfc8 aa3d 9847 36be afb7 233e 757d 043e
000000f0: 2951 fa3d d497 4fbe a04d 80be d46c 823d
00000100: 4fc4 6f3e c535 863d d90c 283e dfe8 423d
00000110: fe37 5f3d 7e85 113e fa88 a6bd 0ced 513e
00000120: 4ff5 6fbe aca2 d0bd b2a4 3a3d a5f1 3ebd
00000130: b4d9 65be 7c6b 133e 4a13 77be d35e babd
00000140: f6a3 203e 8249 4bbd 3632 1a3e 20c6 21be
00000150: d7d3 c7bd 5928 003e 2e9b 98bc 511d 863e
00000160: 34a0 a3bd 582e 173e dadc 213c ccc3 51bd
00000170: 5a1e 703c 0af7 57be 706a ea3c 1759 53be
00000180: 2d17 4a3e 5893 cdbd 0d9b 32bc 6af8 87be
00000190: fd00 7cbc 356d f4bc 2151 5b3e 7c7a babd
000001a0: 10aa a43d 2c25 08be a435 17be f725 40bb
000001b0: 8d14 853e bc09 053d df73 2bbe cf35 fdbc
000001c0: 96db 86be ee06 1dbd 1dcf 81bd c991 7fbd
000001d0: ffac e8bd 02cc 82be 11d7 65bd 80f0 e4bd
000001e0: 7510 bd3d 8621 783e 85a4 4ebe ecf7 173e
000001f0: 4260 4bbe 21a6 563e 6433 79bc d914 b0bd
00000200: 29d3 493e b8e4 24be 00ee d4bd be2d 1abd
00000210: 40de 2f3e ab89 873e 0408 0ebe 91b8 fdbc
00000220: e0bf 853e 2b0c c3bd 821d 763e 46af 7cbe
00000230: e62f a7bd d64b 733e f45f 0cbe 343f e3bd
00000240: 8d54 0e3e 8810 483e 303b 88bc 58f7 ad3b
00000250: 8163 debd 8a15 18be ea9b 5bbe 0753 cabc
00000260: 24cc 4ebe df98 a33d 26a7 48be 03a9 fc3d
00000270: 7ae0 1e3e afa0 3bbe eb7b f93d b432 863e
00000280: 86bb 31be 1e4c a9bd eb0d 10be a95c 36be
00000290: 3702 b3bd 0238 85be 95cf 62be 154c 403d
000002a0: 8afa 40bd ef86 73be 7b72 163e c4c5 673d
000002b0: d4b1 86be f2e2 b2bd f6da e03d 9d27 7cbe
000002c0: 4f1e 43be 8e2d 5cbe d994 ef3c 16fa 6ebe
000002d0: bce7 65be 43db 6d3e b98a 283d 42f3 09be
000002e0: fd0d ac3b 7a3c e7bd 9ced 633e bacf 8cbc
000002f0: ac06 953c 79aa 1e3e e6ef 033e f9df 853e
00000300: 657c 653d 1c30 02bd e41c 9c3d 03ca 163c
00000310: 8f71 493e a8a8 f53d 9521 23be fed5 6d3e
00000320: 8c65 ab3d 5e3c 0c3d 26bc 54be cfbd 3fbe
00000330: 6a3a 5f3e 02c5 57be 1c9b 63be 1e16 243d
00000340: cb4c c9bd fc6f 99bd 8851 523e 7abb 853e
00000350: 1802 003e 68bd b63b 9ff0 5cbe a57b 6bbd
00000360: 9061 3fbe 9c40 ccbd 62df cebd 733f 87be
00000370: 38a2 233e 7669 bfbd c81c 70be b4e3 283e
00000380: 3228 113e 8af2 bbbd 1bec a3bd dc6a 94bd
00000390: a890 d93d 78a4 253e 8403 6d3c e3bb ea3d
000003a0: 2bb4 243e 0288 49bd 73d7 80be 3a32 583d
000003b0: 086f a4bd b563 9f3d 2572 d5bd b657 2c3e
000003c0: 94dc 1dbe a636 303e 8b4d 48be 2565 a53d
000003d0: 1473 5abd 9dcd 37be 1a99 4dbe 69da e13d
000003e0: 4337 0bbe cd66 a5bd 6a2c e4bd 3e4c 603e
000003f0: 3997 7c3d 0872 103d 1cfe a8bd a81f fcbc

modality_encoders.stress.0.bias f4 [64]
-0.20874824 0.124175966 -0.053232778 -0.013468219 0.10322344 -0.13909608 -0.016827093 0.24870612
0.17675354 -0.11292747 -0.09897561 -0.19373949 -0.20355442 0.19204348 0.1726249 0.1338529
-0.14399287 -0.22589731 0.01224951 0.020536333 0.1273821 0.17606537 0.1716761 -0.038776897
-0.029282864 0.20462367 0.009424513 -0.039638743 -0.13531072 -0.26589197 0.22706619 -0.21491414
-0.13231906 -0.2136203 0.02246842 -0.03868329 0.21113268 -0.13658455 0.11466202 -0.08937179
-0.008393809 0.23447667 0.2596123 -0.11495488 -0.172986 0.068613395 -0.19642876 0.10223891
-0.25035653 0.07898705 0.2585403 0.16768344 0.06462146 -0.092991054 -0.19543259 -0.07987311
-0.04818153 -0.0437455 -0.18450812 0.17434295 0.13165335 0.15159416 -0.11406171 -0.17657697
00000000: 19c2 55be f84f fe3d 9d0a 5abd cea9 5cbc
00000010: d066 d33d 346f 0ebe f9d8 89bc d1ac 7e3e
00000020: e1fe 343e 8446 e7bd bab3 cabd a563 46be
00000030: 9270 50be 0ca7 443e 95c4 303e bc10 093e
00000040: de72 13be a051 67be 2bb2 483c d03b a83c
00000050: 7470 023e 7b4a 343e dccb 2f3e 86d4 1ebd
00000060: 9ee2 efbc de88 513e 4669 1a3c 3c5c 22bd
00000070: e58e 0abe fe22 88be 0a84 683e 7412 5cbe
00000080: a67e 07be 48bf 5abe b10f b83c 5f72 1ebd
00000090: 2a33 583e d2dc 0bbe ecd3 ea3d 8f08 b7bd
000000a0: 3086 09bc a71a 703e e7eb 843e 776d ebbd
000000b0: 3e23 31be 2e85 8c3d 9f24 49be a262 d13d
000000c0: bb2e 80be f6c3 a13d 655f 843e 35b5 2b3e
000000d0: 4258 843d 1872 bebd 7b1f 48be 8394 a3bd
000000e0: ff59 45bd 7b2e 33bd b2ef 3cbe f586 323e
000000f0: 23d0 063e 803b 1b3e 3099 e9bd 98d0 34be

modality_encoders.stress.3.weight f4 [32, 64]
-0.102214485 -0.12030697 0.07630627 0.03209023 -0.03267193 0.026843593 0.074530035 -0.09379831
0.004211575 0.04094316 0.025825962 0.008551061 -0.098407775 0.027946353 0.118618876 -0.098009124
0.025318429 -0.061018422 -0.036174685 0.007402435 0.035290316 -0.048740804 0.07938941 -0.08308588
0.06121494 0.058984965 -0.11193527 -0.025999159 -0.048861057 -0.003669411 -0.03953412 -0.07557583
-0.07652888 -0.10098711 0.11120157 -0.017295629 -0.09452486 0.10535017 -0.014284894 -0.023392528
-0.03104034 -0.0943332 0.01324667 -0.01782602 0.10460058 0.04417038 0.09251155 -0.06540345
0.0025969893 0.082480386 -0.085719496 0.030655727 0.10264832 -0.06208989 -0.05411367 -0.048226774
-0.047699556 -0.12489712 0.053136587 -0.006987706 0.02077967 0.115614384 -0.032211155 0.004816532
0.0042708814 -0.11968924 0.04025221 -0.10400362 -0.039603353 0.112512425 0.0991441 0.07137598
-0.00794059 -0.12064928 0.06447445 -0.090676606 -0.11227967 -0.0872093 -0.027042195 -0.032360137
0.1230147 0.034436047 0.0336134 0.10716829 -0.10051893 0.0030950755 -0.016434625 0.10815181
-0.043254107 0.010959655 -0.018288702 0.04590687 0.025936112 -0.029075578 -0.06627163 -0.12100883
-0.074710324 -0.030228883 -0.07727893 -0.057053745 -0.094675094 -0.1147559 -0.06436895 0.09397097
-0.07896508 0.07163128 -0.0030204058 0.056920037 -0.09679064 -0.017368436 -0.061809957 -0.039786622
-0.03494768 0.0953023 0.0043765306 0.09121728 -0.09123476 -0.05770023 0.01809612 -0.048710465
0.05590433 -0.01623869 0.08442433 -0.067749366 0.072443426 0.08262633 -0.10270351 -0.061055556
0.0615471 0.051920995 -0.018624127 -0.12398504 0.029424652 0.06506908 -0.11995326 0.00092954934
0.036962703 0.10788828 0.094134346 0.11878838 -0.055642515 0.058415666 -0.025415227 0.07062326
-0.027937233 -0.0776362 0.11801712 0.07198146 0.12409896 -0.062144935 0.101532355 -0.045037866
-0.07628299 0.0020574182 0.02980356 0.017383888 0.06849174 0.027391493 -0.07982595 0.046840116
-0.11180763 -0.0073443204 0.09504129 -0.03142017 0.06815924 -0.030215383 0.09596418 -0.105187476
-0.08423936 -0.064271644 0.03333032 -0.04527828 0.0492467 -0.0026134402 -0.04477729 -0.07979418
-0.03851238 -0.095837176 0.033987626 -0.088845044 -0.035604447 -0.0022165477 0.07454763 0.03581278
0.10234122 0.0073619336 0.05540952 0.028788313 0.11085777 -0.069879755 0.049484655 -0.03759563
0.0521439 0.091841936 -0.06625801 -0.09650713 -0.043566957 0.05652821 -0.11165646 -0.00010661781
-0.004750356 0.057718575 -0.10134393 -0.07670918 0.10959965 0.031236216 -0.090633616 0.048220783
-0.04079576 -0.11037789 -0.031605586 -0.03648834 0.0809681 0.019488752 -0.007931635 -0.02445583
-0.11122686 0.11559358 -0.08144383 -0.048569456 -0.08192591 0.0758052 0.062318772 -0.09849323
-0.025908664 0.06284577 0.063823864 -0.020754188 0.08086981 -0.083391786 0.06893407 0.08226751
0.08612685 0.064746976 -0.023303345 -0.11615208 0.06292647 -0.099628344 0.024149075 0.026515886
-0.07164295 -0.004129827 0.048994124 -0.0416739 0.07791214 -0.036968008 0.07701737 0.03568715
-0.018398628 0.024491668 -0.067286566 -0.0158699 0.11394924 0.061962128 0.08631994 -0.12061295
00000000: d455 d1bd 8063 f6bd 7646 9c3d 0c71 033d
00000010: 00d3 05bd 18e7 db3c 34a3 983d 5419 c0bd
00000020: 4001 8a3b 04b4 273d f890 d33c c019 0c3c
00000030: 048a c9bd c0ef e43c 74ee f23d 02b9 c8bd
00000040: 9868 cf3c 74ee 79bd e82b 14bd 2090 f23b
00000050: 948c 103d 70a4 47bd ea96 a23d ee28 aabd
00000060: 84bc 7a3d 389a 713d 523e e5bd 30fc d4bc
00000070: 8822 48bd 807a 70bb 88ee 21bd 80c7 9abd
00000080: 2cbb 9cbd 54d2 cebd a6bd e33d 90af 8dbc
00000090: 4096 c1bd d4c1 d73d 300b 6abc b0a1 bfbc
000000a0: 5048 febc c431 c1bd 9008 593c e007 92bc
000000b0: d438 d63d 00ec 343d b276 bd3d 3ef2 85bd
000000c0: 4032 2a3b 7aeb a83d b48d afbd b821 fb3c
000000d0: 4839 d23d f851 7ebd 4ca6 5dbd 7089 45bd
000000e0: 9c60 43bd 10ca ffbd c0a5 593d 20f9 e4bb
000000f0: 203a aa3c 3cc7 ec3d d8ef 03bd 00d4 9d3b
00000100: c0f2 8b3b a21f f5bd 80df 243d daff d4bd
00000110: 2037 22bd ea6c e63d 100c cb3d 922d 923d
00000120: 4019 02bc f816 f7bd 2e0b 843d a8b4 b9bd
00000130: e2f2 e5bd ca9a b2bd 9887 ddbc 108c 04bd
00000140: 22ef fb3d d00c 0d3d 34ae 093d 0c7b db3d
00000150: dedc cdbd c0d6 4a3b e8a1 86bc b27e dd3d
00000160: 382b 31bd 2090 333c 30d2 95bc d808 3c3d
00000170: f877 d43c e82f eebc 6cb9 87bd 7ad3 f7bd
00000180: ba01 99bd 90a2 f7bc 6a44 9ebd 30b1 69bd
00000190: 04e5 c1bd 2405 ebbd ded3 83bd da73 c03d
000001a0: 72b8 a1bd 6cb3 923d 00f2 45bb fc24 693d
000001b0: 2c3a c6bd 4048 8ebc 702c 7dbd 4cf7 22bd
000001c0: 4c25 0fbd da2d c33d 0069 8f3b 20d0 ba3d
000001d0: 4ad9 babd 1457 6cbd 503e 943c a084 47bd
000001e0: f0fb 643d 0007 85bc aae6 ac3d 2ec0 8abd
000001f0: 385d 943d fe37 a93d 3856 d2bd 6415 7abd
00000200: d018 7c3d 1cab 543d a091 98bc deeb fdbd
00000210: f80b f13c f042 853d 0eaa f5bd 00ad 733a
00000220: 3466 173d 88f4 dc3d 82c9 c03d 5247 f33d
00000230: 68e9 63bd 4445 6f3d 9833 d0bc eea2 903d
00000240: a0dc e4bc baff 9ebd f6b2 f13d 046b 933d
00000250: 9827 fe3d b08b 7ebd 32f0 cf3d a079 38bd
00000260: 423a 9cbd c0d5 063b 9826 f43c a868 8e3c
00000270: 6645 8c3d 2064 e03c ca7b a3bd 6cdb 3f3d
00000280: 66fb e4bd a0a8 f0bb 02a5 c23d 70b2 00bd
00000290: 1297 8b3d 4086 f7bc de88 c43d 886c d7bd
000002a0: b085 acbd daa0 83bd 6085 083d b875 39bd
000002b0: e8b6 493d 4046 2bbb 6468 37bd 226b a3bd
000002c0: 28bf 1dbd 4846 c4bd 9c36 0b3d 64f4 b5bd
000002d0: f8d5 11bd 8043 11bb 6eac 983d 6cb0 123d
000002e0: 4698 d13d 603c f13b 18f5 623d 78d5 eb3c
000002f0: 6609 e33d 1e1d 8fbd 6cb0 4a3d e0fd 19bd
00000300: d894 553d a017 bc3d 48b2 87bd 88a5 c5bd
00000310: 4473 32bd 208a 673d 24ac e4bd 0098 dfb8
00000320: e0a8 9bbb 506a 6c3d 688d cfbd b419 9dbd
00000330: c875 e03d 18e3 ff3c 1e9e b9bd 2883 453d
00000340: 7419 27bd ce0d e2bd dc74 01bd cc74 15bd
00000350: 9ad2 a53d e0a6 9f3c b0f3 01bc 9857 c8bc
00000360: e8ca e3bd 54bc ec3d 06cc a6bd c4f0 46bd
00000370: c6c8 a7bd c23f 9b3d f841 7f3d d2b6 c9bd
00000380: 683e d4bc 48b5 803d 16b6 823d b004 aabc
00000390: 129f a53d 50c9 aabd 4e2d 8d3d de7b a83d
000003a0: 4663 b03d 109a 843d a8e6 bebc 24e1 edbd
000003b0: 98df 803d f209 ccbd 48d4 c53c d837 d93c
000003c0: 8ab9 92bd 8053 87bb 10ae 483d 40b2 2abd
000003d0: 6690 9f3d c46b 17bd 48bb 9d3d b02c 123d
000003e0: b8b8 96bc c0a2 c83c 8acd 89bd 9801 82bc
000003f0: 385e e93d 00cc 7d3d 82c8 b03d ec03 f7bd

modality_encoders.stress.3.bias f4 [32]
-0.092181295 -0.009929925 -0.09280646 -0.049091488 0.03399475 0.093548775 0.061228633 -0.10042286
-0.027698025 0.011415169 -0.08223359 0.10704057 0.064095095 -0.025718555 -0.0012667477 -0.02497837
0.07840441 -0.11171554 -0.029268801 -0.05932218 -0.03479837 -0.018829778 -0.07989903 -0.100814104
0.008620769 -0.096078664 -0.10458599 0.107401595 0.07594514 0.091220334 0.08696303 -0.082393795
00000000: 8cc9 bcbd 20b1 22bc 5011 bebd 2814 49bd
00000010: 143e 0b3d 8096 bf3d e0ca 7a3d 80aa cdbd
00000020: f8e6 e2bc b006 3b3c 166a a8bd 1638 db3d
00000030: 4a44 833d b8af d2bc 0009 a6ba 709f ccbc
00000040: 7e92 a03d 1ecb e4bd 20c5 efbc d0fb 72bd
00000050: bc88 0ebd e840 9abc 1aa2 a3bd a077 cebd
00000060: 203e 0d3c e4c4 c4bd 2e31 d6bd 5ef5 db3d
00000070: 2089 9b3d bad1 ba3d ac19 b23d 14be a8bd
