results/migraine/fold3_model.pth (torch, 700829 bytes, 45 tensors)

modality_encoders.eeg.0.weight f4 [64, 6]
0	0xbd19f274	-0.037584737
1	0xbe7dc2eb	-0.24781387
2	0x3eb0032d	0.34377423
3	0xbe009bc9	-0.12559427
4	0xbe931d97	-0.28733513
5	0xbead2599	-0.33817747
6	0x3d9812f7	0.07425492
7	0xbeb5756f	-0.35441157
8	0x3e4f03bf	0.20216273
9	0x3dd18d55	0.10232035
10	0x3eb79b06	0.3586046
11	0xbe99183c	-0.29901302
12	0x3c7f7270	0.015591249
13	0x3ce04b1b	0.027379563
14	0x3cfb015d	0.030640299
15	0x3e2c17b5	0.16805919
16	0xbd7256e4	-0.059164897
17	0xbe3b3033	-0.18280105
18	0x3e8df422	0.2772532
19	0xbe8fb1a7	-0.28065225
20	0xbea434d9	-0.3207157
21	0x3e3d130e	0.184643
22	0xbe1319a1	-0.14365245
23	0x3ea2b8bb	0.31781563
24	0xbe99ebe9	-0.30062798
25	0x3e8d1220	0.2755289
26	0x3d5129f3	0.051065397
27	0xbd9016ca	-0.07035597
28	0x3e975ac7	0.29561445
29	0xbe38858b	-0.18019693
30	0x3d8b7f37	0.06811374
31	0xbe0f2e5f	-0.13982533
32	0x3e143cfd	0.1447639
33	0x3e2b0a6b	0.16703193
34	0x3eafdf00	0.34349823
35	0xbe5e9c40	-0.21739292
36	0x3dd21cbb	0.10259386
37	0xbcfb77dc	-0.030696802
38	0x3e98ce02	0.2984467
39	0xbe8a2f26	-0.26989096
40	0xbe0f7497	-0.14009319
41	0x3e99255e	0.2991132
42	0x3e23172c	0.15926808
43	0xbde186e2	-0.11012055
44	0x3e02d6fd	0.12777324
45	0x3e19e818	0.15029943
46	0xbdfc90f0	-0.12332332
47	0xbea8a4e5	-0.32938305
48	0xbea14eab	-0.3150533
49	0x3e7be55c	0.24599212
50	0xbd28d97c	-0.041223034
51	0x3e5a6ac2	0.21329787
52	0xbe9eda21	-0.31025794
53	0x3eb87790	0.3602872
54	0x3e037709	0.12838377
55	0xbcc9b683	-0.024623161
56	0xbe3080e2	-0.17236665
57	0xbd8fd099	-0.07022209
58	0xbe924d41	-0.28574565
59	0xbeb11dd3	-0.34593067
60	0xbe1c360d	-0.15254994
61	0x3e7b4c23	0.24540763
62	0xbeb8016d	-0.35938588
63	0x3e9c76cf	0.30559394
64	0x3e534165	0.20630415
65	0xbe9646b4	-0.29350817
66	0x3eac180c	0.33612096
67	0x3de948bb	0.11390825
68	0xbd85578e	-0.0651084
69	0x3d33acee	0.04386609
70	0x3dc4c1ee	0.09607302
71	0x3e8668f9	0.26251963
72	0x3ed0aeed	0.40758458
73	0x3de48487	0.1115809
74	0xbce714ea	-0.028208215
75	0x3d2679b4	0.04064341
76	0x3dd77681	0.1052065
77	0xbe1358a3	-0.14389281
78	0xbe1b6655	-0.15175755
79	0xbecb21a3	-0.396741
80	0x3ec7f348	0.39052796
81	0xbe33788c	-0.17526454
82	0xbd05e524	-0.03268923
83	0xbeb2c89a	-0.34918672
84	0xbd3a00e9	-0.045411024
85	0x3ea8aacf	0.32942817
86	0xbeb0ac3b	-0.345064
87	0x3e341e17	0.17589603
88	0x3ec421cc	0.38307035
89	0xbec64601	-0.38725284
90	0x3d0ff5b2	0.035146423
91	0x3e093dd0	0.13402486
92	0x3d6114c7	0.054951455
93	0x3c402673	0.011727917
94	0x3ec20d84	0.37900937
95	0x3ebe1ca4	0.37131226
96	0x3cb98df0	0.022650689
97	0x3e36a4ec	0.1783635
98	0xbdf33499	-0.118752666
99	0xbe24a6fd	-0.16079326
100	0xbe00a5b2	-0.12563208
101	0x3e8cd4f0	0.27506208
102	0x3eb626ed	0.35576573
103	0x3e8d4f6d	0.2759966
104	0x3cc72246	0.024308335
105	0x3e061952	0.13095596
106	0xbe36c3e6	-0.17848167
107	0xbd84a935	-0.06477586
108	0xbea37cb3	-0.31931075
109	0x3e255aa8	0.16147864
110	0xbe7f81cc	-0.24951857
111	0x3eca7bc9	0.39547566
112	0x3d3f2cc1	0.04667354
113	0x3e547611	0.20748164
114	0xbd9b3019	-0.07577533
115	0x3dcb2504	0.099191695
116	0xbebd3cd1	-0.36960462
117	0xbeaa525b	-0.33265957
118	0xbe520201	-0.20508577
119	0x3ecaa81d	0.39581385
120	0x3e56d600	0.20980072
121	0x3e65485f	0.22390889
122	0x3ecae4b3	0.3962761
123	0x3e4926e9	0.1964375
124	0x3e2ede0f	0.17076896
125	0xbe0f4e2d	-0.13994665
126	0xbe122816	-0.14273104
127	0x3e959cb0	0.29221106
128	0x3eb24a30	0.34822226
129	0xbe8db234	-0.2767502
130	0x3e28cd29	0.16484512
131	0xbdb2c6c7	-0.0872932
132	0x3ecb5d73	0.39719734
133	0xbd445556	-0.047932945
134	0xbd91a248	-0.07111031
135	0xbd0baabe	-0.03409838
136	0xbd6d74c9	-0.057972703
137	0x3eb94d5d	0.36191836
138	0xbe1ef29e	-0.15522239
139	0x3e2a9ef2	0.16662195
140	0x3d36b8e3	0.044609915
141	0x3ea94612	0.33061272
142	0x3e80b451	0.2513757
143	0xbe87d461	-0.2652922
144	0xbd6c8678	-0.057745427
145	0xbc6fd371	-0.014637814
146	0xbdee3792	-0.11631693
147	0x3e97e359	0.2966564
148	0x3ecb7f30	0.39745474
149	0xbead21eb	-0.3381494
150	0xbe256b4a	-0.16154209
151	0x3ec75f01	0.3893967
152	0x3d7255d2	0.059163876
153	0xbdf00124	-0.117189676
154	0x3e946240	0.2898121
155	0xbd44ce21	-0.048048142
156	0xbe197796	-0.14987025
157	0xbeb9a561	-0.36258987
158	0x3e8ca6dd	0.27471057
159	0xbdc9a0bf	-0.09845113
160	0xbe86323c	-0.262102
161	0xbe91a1e6	-0.2844383
162	0xbe949321	-0.290185
163	0x3dff6321	0.12470079
164	0x3e0b6b5a	0.1361517
165	0x3d97a884	0.07405189
166	0xbe82c75c	-0.25542724
167	0xbebdddd4	-0.37083304
168	0xbe6f698d	-0.23380108
169	0xbe898fba	-0.26867467
170	0x3dae415e	0.085085616
171	0x3e19dcd4	0.15025645
172	0xbe1ccbf1	-0.15312172
173	0xbebef699	-0.37297514
174	0x3e8761ff	0.26441953
175	0x3e31e40c	0.17372149
176	0xbe261d33	-0.16222076
177	0xbe1aa191	-0.15100695
178	0xbc2d122b	-0.010563414
179	0xbe34ed0f	-0.17668556
180	0x3e5ec8ac	0.21756238
181	0x3d93a5c5	0.072093524
182	0xbe792cf0	-0.24333549
183	0xbeadc2b4	-0.3393761
184	0xbe226145	-0.15857418
185	0xbea6dcd7	-0.32590362
186	0xbd9ea0c4	-0.07745507
187	0xbdad1ec6	-0.08453135
188	0xbe327ddb	-0.17430823
189	0x3d5d57ff	0.054038998
190	0xbe39e7a9	-0.18154778
191	0x3e6d8eb9	0.23198976
192	0x3e72b169	0.23700489
193	0xbddc8a3d	-0.10768554
194	0xbe2e08a9	-0.16995491
195	0xbec24fbc	-0.37951458
196	0xbc1fdf81	-0.009757877
197	0xbea6d2d6	-0.3258273
198	0x3eb63641	0.35588267
199	0x3e51f1a9	0.20502342
200	0xbd0ba5cb	-0.03409366
201	0xbd29ae63	-0.041426074
202	0xbcd58b68	-0.02606745
203	0x3ec1329b	0.3773392
204	0xbd3a305e	-0.045456283
205	0x3d9693e0	0.07352424
206	0x3e674a00	0.22586823
207	0x3e4c50ed	0.19952746
208	0x3c94398f	0.018093852
209	0x3ea2c96d	0.317943
210	0xbe8ae398	-0.27126765
211	0x3df6503f	0.120270245
212	0xbec12f38	-0.37731338
213	0x3e840c60	0.2579069
214	0x3ea109a1	0.3145266
215	0xbd7bb47c	-0.06145142
216	0xbea7d869	-0.32782295
217	0xbe2d2a4b	-0.16910665
218	0x3e1053e7	0.14094506
219	0xbe97192b	-0.2951139
220	0xbdc94ad6	-0.09828727
221	0xbe0703dc	-0.13185066
222	0xbe2c5a44	-0.16831309
223	0x3e8460e2	0.25855166
224	0xbe8f42f1	-0.2798076
225	0x3e10b115	0.14130051
226	0xbe6f0caa	-0.23344675
227	0x3d2c83ff	0.04211807
228	0x3ead5bce	0.33859104
229	0xbead3d80	-0.33835983
230	0xbe9819e7	-0.29707262
231	0x3e7d9b07	0.2476617
232	0x3e62566a	0.22103277
233	0xbe95ee88	-0.29283547
234	0x3e289cc2	0.16466048
235	0xbe8d6095	-0.2761275
236	0xbeafb019	-0.3431404
237	0xbe33cb78	-0.17558086
238	0x3e8be5fc	0.27323902
239	0x3d13cb62	0.036082633
240	0x3ebfd1dc	0.37464797
241	0x3e2ea1d8	0.17053926
242	0xbd9f34c8	-0.07773739
243	0x3eb27dcf	0.3486161
244	0x3e2ec36f	0.1706674
245	0x3e09bd84	0.134512
246	0xbec122b2	-0.37721783
247	0xbe9190ba	-0.2843073
248	0x3e9b30e8	0.3031075
249	0x3ebee0ae	0.37280792
250	0x3dd80479	0.10547728
251	0x3e4469e4	0.19181019
252	0xbe9aecb6	-0.3025872
253	0xbdca2927	-0.098711304
254	0xbd27f69a	-0.041006662
255	0xbe4b5e74	-0.1986025

modality_encoders.eeg.0.bias f4 [64]
0	0x3dae06f7	0.08497422
1	0x3e9c7175	0.3055531
2	0xbe894780	-0.26812363
3	0x3db8b4fa	0.090188935
4	0x3ebdfe78	0.37108207
5	0x3e0c4e5d	0.13701768
6	0x3e075fff	0.13220213
7	0xbec2e1db	-0.3806294
8	0xbeaf174e	-0.34197468
9	0xbe8a5d5d	-0.27024356
10	0x3e91e0f6	0.28491944
11	0xbea80beb	-0.32821593
12	0x3dced855	0.10099856
13	0xbd4bdbc2	-0.049770124
14	0x3e001a44	0.1251002
15	0xbc860e2b	-0.016364178
16	0xbe4741b2	-0.19458655
17	0x3d9cd021	0.07656885
18	0xbe34d18a	-0.17658058
19	0xbe4257e2	-0.18978837
20	0x3e3b90f7	0.18317018
21	0x3ec07bf6	0.37594575
22	0xbdbfba9f	-0.09361767
23	0xbd131e22	-0.03591741
24	0x3ec2bde8	0.38035512
25	0xbe873fec	-0.26415956
26	0xbeaa98eb	-0.33319792
27	0x3e134916	0.14383349
28	0xbdde75b8	-0.10862297
29	0x3e01c5be	0.12673089
30	0xbeb0f5e8	-0.34562612
31	0x3e7dff19	0.24804343
32	0xbc954234	-0.018220045
33	0xbea1b866	-0.31585997
34	0x3ec1dc25	0.3786327
35	0xbe8afd23	-0.27146253
36	0xbe2796ba	-0.16366091
37	0xbd2348a5	-0.0398642
38	0x3e827b22	0.25484568
39	0x3e4b0d64	0.19829327
40	0xbd9c25c9	-0.076243944
41	0x3ebd9ed2	0.37035233
42	0x3e855dc6	0.26048106
43	0x3e87f51b	0.26554188
44	0x3e043d78	0.12914073
45	0xbecdebca	-0.40218955
46	0xbeae2b5d	-0.3401746
47	0x3ea2fe53	0.3183466
48	0x3e3a8dcb	0.18218152
49	0x3e378a2e	0.17923805
50	0x3e25e140	0.16199207
51	0xbcfbe8d7	-0.030750675
52	0xbed084dc	-0.40726364
53	0xba0398a6	-0.000502
54	0x3ea31201	0.31849673
55	0x3d50dfe7	0.05099478
56	0xbeb11dd1	-0.3459306
57	0x3e8a6576	0.27030534
58	0x3ebd5478	0.36978507
59	0xbe9016c4	-0.2814237
60	0x3e52b894	0.20578223
61	0xbecd4c0b	-0.4009708
62	0x3d0a4736	0.03375932
63	0x3ec443c5	0.38332954

modality_encoders.eeg.3.weight f4 [32, 64]
0	0x3c0b8f80	0.0085181
1	0xbd0e1248	-0.034685403
2	0x3d4de194	0.050263956
3	0xbb07f800	-0.0020747185
4	0x3df46c48	0.119347155
5	0x3da3dfa2	0.08001639
6	0x3dd663fc	0.10468289
7	0x3d12e7a0	0.035865426
8	0x3d2c3888	0.0420461
9	0xbd48ecec	-0.04905407
10	0xbdf396ce	-0.11893998
11	0xbda18cb4	-0.07888165
12	0x3bd74be0	0.0065703243
13	0x3d852882	0.06501867
14	0xbd3658cc	-0.044518277
15	0xbd1b5348	-0.03792122
16	0xbd97ee94	-0.07418552
17	0x3d8a082c	0.0673984
18	0x3dcff9f8	0.101551
19	0xbdd0bc00	-0.10192108
20	0xbdfaffc4	-0.12255815
21	0x3d874ebc	0.06606814
22	0x3d985cba	0.07439561
23	0xbdc442f4	-0.09583083
24	0xbde7a708	-0.113111556
25	0xbd406ca4	-0.046978608
26	0xbdc78274	-0.09741679
27	0x3df93a90	0.12169373
28	0x3d96ded2	0.07366718
29	0xbd95ebae	-0.07320343
30	0xbbb515e0	-0.0055262893
31	0x3dc9dede	0.09856962
32	0xbce06e70	-0.02739641
33	0x3d7443f8	0.059635133
34	0x3a48d300	0.0007660836
35	0x3d352e0c	0.044233367
36	0x3d8c7b66	0.06859474
37	0x3ddfa3c8	0.10919911
38	0x3aaa7e80	0.0013007671
39	0xbdc9544e	-0.09830533
40	0x3d0316d0	0.032004178
41	0x3d3d0d64	0.04615535
42	0xbd6e3078	-0.058151692
43	0xbda1aec6	-0.078946635
44	0x3cb06bc8	0.02153577
45	0xbcef6ea0	-0.029227555
46	0x3d53c984	0.051705852
47	0x3da9f99e	0.08299564
48	0xbdea69ee	-0.11445986
49	0x3d6768b4	0.056496337
50	0x3ccbd188	0.024880186
51	0x3dada8e4	0.08479479
52	0x3df10748	0.11768967
53	0x3d9c7c56	0.07640903
54	0x3df4713a	0.11935659
55	0x3d3801f8	0.044923753
56	0xbda1ac6c	-0.07894215
57	0xbcf9acc0	-0.030477881
58	0x3da2a9ee	0.07942568
59	0xbd92ba1a	-0.07164402
60	0x3daab3d8	0.08335084
61	0x3d89f3ae	0.06735931
62	0x3d8af566	0.06785087
63	0x3d9ce824	0.07661465
64	0xbdcc2c44	-0.099693805
65	0xbc894b10	-0.016759425
66	0x3dda15c2	0.10648681
67	0x3df0f2d4	0.11765066
68	0xbc9ae5a0	-0.018908322
69	0x3dbaa4a6	0.091134354
70	0xbd4b0df4	-0.049573854
71	0x3bb19620	0.0054195076
72	0x3d9f94d4	0.077920586
73	0xbd9d4d70	-0.07680786
74	0x3d07ec0c	0.033184096
75	0xbd91081e	-0.07081626
76	0xbdf6f0e8	-0.12057668
77	0xbd278834	-0.040901378
78	0xbd21be60	-0.039488196
79	0x3cb032e8	0.021508649
80	0xbdd183c0	-0.102302074
81	0xbdf0e18a	-0.11761768
82	0xbcb1bf10	-0.021697551
83	0x3d6bf188	0.05760339
84	0xbb873800	-0.0041265488
85	0x3ddaeda2	0.10689856
86	0x3d910a42	0.07082035
87	0xbda8a218	-0.08234042
88	0xbdd12206	-0.102115676
89	0x3d4ea1ac	0.05044715
90	0x3dbec1fa	0.09314342
91	0xbd0e9d4c	-0.03481798
92	0xbc6685d0	-0.014069989
93	0xbdc9ac04	-0.098472625
94	0x3ccf3288	0.02529265
95	0xbd202834	-0.03910084
96	0x3df50746	0.11964278
97	0x3d2a0b8c	0.04151492
98	0x3d00445c	0.031315193
99	0x3c67e7c0	0.014154375
100	0x3dcabde4	0.098995
101	0x3db25cfa	0.0870914
102	0xbdf37434	-0.11887398
103	0xbccae850	-0.024768978
104	0xbdd2aeae	-0.10287224
105	0xbdacff4e	-0.08447133
106	0x3ded1394	0.11576
107	0x3db9baf0	0.090688586
108	0x3d18a264	0.037264243
109	0xbd830ff8	-0.0639953
110	0x3d6a9420	0.05727017
111	0x3d57c0a4	0.05267395
112	0x3cba5ed8	0.022750303
113	0x3d26b134	0.040696338
114	0xbc00cfd0	-0.007862046
115	0x3dde7ade	0.10863279
116	0xbd6bdabc	-0.05758165
117	0x3d792598	0.060826868
118	0xbddd73d6	-0.108131096
119	0xbdeb70cc	-0.11496124
120	0xbd403984	-0.04692985
121	0xbd88548a	-0.066567495
122	0x3c6fccb0	0.014636204
123	0xbddea086	-0.10870461
124	0xbd6f8ee0	-0.058485866
125	0x3d5a907c	0.053360447
126	0x3c9c5b58	0.019086525
127	0xbdd1bea2	-0.102414384
128	0xbd9ab67c	-0.075543374
129	0xbd4d3b70	-0.050105512
130	0xbdb527be	-0.08845471
131	0xbde9ec3c	-0.11422011
132	0xbd30cf38	-0.04316637
133	0x3d4b5324	0.049639836
134	0x3cdb8808	0.026798263
135	0xbdd53bc8	-0.10411793
136	0xbc98dc80	-0.01865983
137	0x3d0e6874	0.034767583
138	0xbd47d3a4	-0.04878582
139	0xbdfa6d5a	-0.122278884
140	0xbd78fdf0	-0.06078905
141	0x3c6361b0	0.013878271
142	0x3dca45e0	0.09876609
143	0x3d22bb94	0.03972967
144	0xbd0b59ac	-0.034021065
145	0xbd93167a	-0.071820214
146	0x3c760aa0	0.015017182
147	0x3d810a9a	0.0630085
148	0xbbc51580	-0.006014526
149	0xbdf131b4	-0.11777058
150	0xbd3b8f10	-0.045790732
151	0x3d2dd578	0.042439908
152	0x3d6028ec	0.054726526
153	0x3b468b80	0.003029555
154	0x3da91620	0.08256173
155	0xbc8ea8f0	-0.01741454
156	0xbd4a95b0	-0.04945916
157	0x3ddd90be	0.10818623
158	0xbddbdd7c	-0.10735604
159	0x3d9f3428	0.0777362
160	0x3ce531e0	0.027977884
161	0x39d20e00	0.00040064752
162	0xbde6b992	-0.112658635
163	0x3df648b2	0.12025584
164	0x3d9726c4	0.07380441
165	0x3d564a60	0.052317023
166	0xbde401c6	-0.11133151
167	0x3cb7bd18	0.022429034
168	0x3c1522d0	0.009102538
169	0xbd200ca4	-0.039074555
170	0x3dc375ce	0.09543954
171	0x3d10b484	0.035328403
172	0xbcc34e10	-0.023840934
173	0xbd438be0	-0.047740817
174	0xbda673c0	-0.08127546
175	0xbd8cf974	-0.06883517
176	0x3daf7326	0.08566885
177	0xbc8f5f10	-0.017501384
178	0xbdc45ffc	-0.0958862
179	0x3d851adc	0.06499264
180	0x3d9f5700	0.07780266
181	0x3ccd7878	0.025081858
182	0xbda9d4ae	-0.082925186
183	0x3d4f5b7c	0.050624356
184	0x3ddc87b6	0.10768072
185	0x3dd3adf6	0.10335915
186	0x3d60489c	0.054756746
187	0xbbcfe360	-0.006344244
188	0x3d882180	0.066470146
189	0x3d97c15a	0.07409926
190	0xbd39bce4	-0.045346156
191	0x3d8ea3fc	0.06964871
192	0xbcc21198	-0.02369003
193	0xbdcce188	-0.10003954
194	0xbd36db14	-0.044642523
195	0x3db610ea	0.08889945
196	0x3d1ddafc	0.038538918
197	0xbd0be3fc	-0.03415297
198	0xbdfcf3a0	-0.12351155
199	0xbdbcb9c0	-0.092151165
200	0x3dd0c0fc	0.10193059
201	0x3d9d6ab6	0.07686369
202	0x3ca58a50	0.020207554
203	0x3dc8b6d0	0.09800494
204	0xbceb5ad0	-0.028729826
205	0xbde6bef6	-0.11266892
206	0x3dc0449c	0.09388086
207	0xbddc08d4	-0.10743871
208	0x3decc514	0.11561027
209	0x3d4298d8	0.047509044
210	0xbdc00f3c	-0.09377906
211	0xbd9bebf4	-0.07613364
212	0xbd878f8c	-0.06619176
213	0xbcf570a0	-0.02996093
214	0xbdf635ac	-0.12021956
215	0x3d4c80dc	0.049927577
216	0x3d833058	0.06405705
217	0xbcd3b458	-0.02584283
218	0x3d9f6ffa	0.0778503
219	0xbdea1b36	-0.11430971
220	0x3da088a0	0.07838559
221	0x3b8e5d60	0.0043446273
222	0xbb0a5d40	-0.002111271
223	0xbdae307c	-0.085053414
224	0xbd4e25fc	-0.050329193
225	0x3cca6820	0.024707854
226	0xbde48a80	-0.11159229
227	0xbd9bf32a	-0.07614739
228	0x3d536bdc	0.051616535
229	0x3c7cf8c0	0.015440166
230	0xbdc2d232	-0.09512748
231	0x3de5b5dc	0.112163275
232	0xbc32e930	-0.010919854
233	0xbc20da00	-0.0098176
234	0xbbca9fe0	-0.0061836094
235	0xbdbf38b4	-0.09336987
236	0x3da1f9aa	0.07908948
237	0x3db40a7c	0.08791062
238	0x3dea3732	0.11436309
239	0xbd824118	-0.06360072
240	0xbd8a2dc2	-0.06747009
241	0x3de42656	0.111401245
242	0x3c810258	0.015748188
243	0x3d95c19c	0.07312319
244	0x3d8cac34	0.06868783
245	0x3d396344	0.045260683
246	0xbde48f1e	-0.1116011
247	0xbc477770	-0.012174472
248	0xbd515e54	-0.05111535
249	0x3d21c2b0	0.03949231
250	0x3b9069e0	0.0044071525
251	0x3c8cc7b8	0.017185077
252	0x3d3b4378	0.04571864
253	0x3db5ffda	0.088866904
254	0x3d6b3104	0.05741979
255	0x3d20e364	0.039279357

modality_encoders.eeg.3.bias f4 [32]
0	0xbdfff97e	-0.12498759
1	0xbd50be54	-0.05096276
2	0xbda07d30	-0.078363776
3	0x3d5cd5c8	0.053914815
4	0xbdf12208	-0.11774069
5	0x3d15c778	0.03656718
6	0x3d3f8e6c	0.046766683
7	0x3da079a4	0.07835701
8	0xbd8d4734	-0.068983465
9	0xbc8184b0	-0.01581034
10	0xbcdbf0d8	-0.026848242
11	0x3dc19cea	0.09453757
12	0xbdb41460	-0.08792949
13	0xbdebbb94	-0.11510387
14	0xbdc812f0	-0.09769237
15	0x3c803660	0.015650928
16	0xbceab088	-0.02864863
17	0x3d922886	0.071366355
18	0x3dfd6272	0.123722926
19	0x3d65bba0	0.056087136
20	0xbdb65150	-0.08902228
21	0x3c4b01f0	0.012390599
22	0xbdfd6f4c	-0.12374744
23	0xbdd4535e	-0.103674635
24	0x3d9232b8	0.0713858
25	0xbd1defa0	-0.038558602
26	0x3a5b8200	0.00083735585
27	0x3dcf1764	0.10111883
28	0x3dab8e46	0.08376746
29	0x3c180e80	0.009280801
30	0x3d0c5ccc	0.034268185
31	0xbd8ecca8	-0.06972629

modality_encoders.sleep.0.weight f4 [64, 24]
0	0xbe4ca4e7	-0.1998478
1	0xbd6d583c	-0.057945475
2	0x3e4ecd3b	0.20195477
3	0x3d82ddf1	0.06389988
4	0xbd4ee003	-0.050506603
5	0xbe039d7c	-0.12853044
6	0x3dfb0154	0.12256113
7	0x3dea14be	0.114297375
8	0xbd3435a4	-0.04399647
9	0xbd41b3c1	-0.047290567
10	0xbd4e42b5	-0.050356586
11	0xbd1701c6	-0.036866926
12	0x3d21c396	0.039493166
13	0xbe17b34d	-0.14814492
14	0x3e30f634	0.17281419
15	0xbe442fd3	-0.19158868
16	0xbe44d712	-0.19222668
17	0x3d01ad3f	0.03165936
18	0x3c360adf	0.01111099
19	0x3e167ab6	0.14695248
20	0x3dfbde9f	0.12298321
21	0x3e343d9f	0.17601632
22	0x3c8d0f25	0.017219136
23	0xbd51ec95	-0.051251013
24	0xbe3b72f7	-0.18305574
25	0x3d0993e3	0.0335883
26	0x3e49ce3a	0.19707575
27	0xbdbda902	-0.09260751
28	0x3e0f0923	0.13968329
29	0x3e0d43bb	0.13795368
30	0xbd7f4b32	-0.06232757
31	0xbdbb1841	-0.091354854
32	0xbdfd5191	-0.12369073
33	0x3e1b4d2c	0.15166157
34	0x3dfce506	0.1234837
35	0xbdab73cf	-0.08371698
36	0xbb163eb5	-0.002292556
37	0x3da09350	0.07840598
38	0x3e1c48d3	0.15262155
39	0x3e018ba6	0.12650928
40	0x3e4d9129	0.20074905
41	0x3e0ff8ba	0.14059725
42	0xbdfd7077	-0.123749666
43	0xbe11a605	-0.14223488
44	0x3de778e2	0.113023534
45	0x3e0c0c9a	0.13676682
46	0x3e40e472	0.18837145
47	0xbdaad576	-0.08341496
48	0xbd785a0a	-0.060632743
49	0x3e375973	0.17905216
50	0xbd94f7ea	-0.07273848
51	0x3e3519df	0.1768565
52	0x3e1c4d0e	0.15263769
53	0xbddfa55e	-0.10920213
54	0x3d48b1cb	0.04899768
55	0xbe4dd421	-0.20100452
56	0x3df4a79b	0.11946031
57	0x3d239b23	0.03994287
58	0xbe18e01e	-0.14929244
59	0xbd47bcf9	-0.048764203
60	0x3d9a5ff1	0.075378306
61	0x3e3c58b5	0.18393214
62	0xbdc47b47	-0.09593826
63	0x3dd06edf	0.10177397
64	0x3d086ebd	0.033308733
65	0xbd7e077b	-0.062018853
66	0x3df6eb8c	0.12056646
67	0xbd50b6bf	-0.05095553
68	0x3db03be4	0.08605173
69	0xbde89b54	-0.113577515
70	0xbe4b817a	-0.1987361
71	0xbd89fd1d	-0.06737731
72	0xbdaab365	-0.08334998
73	0x3ddedbdc	0.108817786
74	0xbe30fe8b	-0.172846
75	0x3ba4dc19	0.0050311205
76	0x3e47f10b	0.19525544
77	0x3b3d89f2	0.0028921333
78	0x3e28e52a	0.16493669
79	0xbdf40801	-0.11915589
80	0xbdea68dd	-0.11445782
81	0x3cf4b1c6	0.029869925
82	0x3de7b255	0.11313311
83	0x3e1a9bdc	0.15098518
84	0x3c00462b	0.007829229
85	0x3e032d7f	0.12810324
86	0x3e084a60	0.13309622
87	0x3e4ef080	0.20208931
88	0x3e47bda8	0.19505942
89	0x3db98c0f	0.09059917
90	0x3c567f3c	0.0130918585
91	0x3e323a64	0.17405087
92	0x3d8645ae	0.06556259
93	0xbdf31254	-0.1186873
94	0x3e4577ea	0.19284025
95	0xbe0173b7	-0.12641798
96	0xbdb3db68	-0.08782083
97	0x3df1547c	0.11783692
98	0x3ce66b2f	0.028127281
99	0xbdccda26	-0.10002546
100	0x3c0719e1	0.008245916
101	0xbe2f2f4b	-0.17107885
102	0x3e3be45c	0.18348831
103	0x3e1e0f04	0.15435416
104	0xbe3aad50	-0.18230176
105	0x3e452ea2	0.1925607
106	0xbe4c51dd	-0.19953103
107	0xbb8d8fcb	-0.00432012
108	0x3df524af	0.119698875
109	0xbe49a040	-0.19690037
110	0x3e01f15b	0.12689726
111	0x3d53d803	0.051719677
112	0xbe34c70f	-0.1765406
113	0x3e3d959e	0.18514106
114	0xbe1ab45a	-0.15107861
115	0xbc2cc312	-0.010544555
116	0x3c40aece	0.011760427
117	0xbe12c78b	-0.14333932
118	0xbe1c2739	-0.15249337
119	0x3d6bb0b3	0.05754156
120	0xbe3020f0	-0.17200065
121	0xbde71814	-0.112838894
122	0x3da2606b	0.079285465
123	0x3c00d1ca	0.007862518
124	0x3e4f2dcd	0.20232315
125	0x3d2b2021	0.041778687
126	0xbc5a91b2	-0.0133404005
127	0xbd5e79f5	-0.054315526
128	0x3a4dffe2	0.0007858259
129	0x3e3a6285	0.18201645
130	0x3dbad679	0.09122939
131	0x3deaa100	0.114564896
132	0x3e0b14a1	0.13582088
133	0xbc33c242	-0.010971608
134	0xbdc9e91f	-0.098589174
135	0x3e224c2f	0.15849374
136	0x3e40bc13	0.18821745
137	0x3d6b8736	0.057501994
138	0xbdb5460f	-0.08851253
139	0xbd833803	-0.06407168
140	0xbd67ecd4	-0.05662234
141	0xbdc92a34	-0.09822503
142	0xbe4d4cfa	-0.20048895
143	0xbcf1bb81	-0.029508354
144	0xbca77f16	-0.020446341
145	0xbd9f7021	-0.07785059
146	0xbd8275e0	-0.06370139
147	0x3d859e3c	0.065243214
148	0x3d558d2b	0.05213658
149	0xbe2afc6a	-0.16697851
150	0x3d9ea8c0	0.0774703
151	0xbda29d1e	-0.07940124
152	0x3d93c25d	0.07214806
153	0xbe3143ce	-0.17311022
154	0x3e37b7f1	0.17941262
155	0xbe2844c4	-0.16432482
156	0xbdeaefbd	-0.11471508
157	0xbd226414	-0.039646223
158	0x3d5bb1eb	0.053636473
159	0x3c131216	0.00897648
160	0x3d2be6b1	0.04196805
161	0xbe13f561	-0.14449073
162	0xbdfc3a88	-0.123158514
163	0x3e21f27a	0.15815154
164	0xbcfd1782	-0.030894998
165	0xbdbf6e48	-0.09347206
166	0x3d99af11	0.075040944
167	0x3e2c8bd4	0.16850215
168	0xbdaad006	-0.083404586
169	0xbc0d2aa6	-0.008616125
170	0xbd18d6d9	-0.03731427
171	0x3e1354af	0.14387773
172	0x3e3dccf8	0.1853522
173	0x3d5bb894	0.053642824
174	0xbe248d00	-0.16069412
175	0xbc8d38e3	-0.01723904
176	0x3dd9b344	0.10629895
177	0x3d505d09	0.050869975
178	0xbdf629ae	-0.120196685
179	0xbd847c50	-0.06469023
180	0x3ccabcd0	0.024748236
181	0x3c38d605	0.011281495
182	0x3e2d8598	0.16945493
183	0xbdc06f25	-0.09396199
184	0x3de0b5f0	0.10972202
185	0x3d38ae3e	0.045088045
186	0xbdca065a	-0.09864493
187	0x3e1ba976	0.15201363
188	0xbe2fc25f	-0.1716399
189	0xbe0bf32f	-0.13666986
190	0xbe090c18	-0.1338352
191	0xbe4d8093	-0.20068578
192	0x3df96c2e	0.12178837
193	0x3e3af672	0.18258074
194	0x3e27c019	0.16381873
195	0x3d98d3a9	0.07462246
196	0x3e011e5f	0.12609242
197	0x3bba4d9c	0.0056855213
198	0xbda6b00d	-0.08139048
199	0xbc4e5cdd	-0.0125953825
200	0x3c8917bb	0.016734948
201	0x3d9001f8	0.070316255
202	0x3e374238	0.17896354
203	0x3e2cf030	0.168885
204	0xbd15dc5e	-0.03658711
205	0xbe361f70	-0.1778543
206	0xbdfb9b71	-0.122855075
207	0xbe2b6c2c	-0.16740483
208	0xbd2b91ad	-0.041886974
209	0x3dceb702	0.100935
210	0x3dcefaba	0.10106416
211	0x3d48eb76	0.049052678
212	0xbdde588b	-0.10856732
213	0xbe174392	-0.1477187
214	0xbe360644	-0.17775828
215	0x3d901556	0.070353195
216	0x3e0609a4	0.13089615
217	0x3e128e60	0.14312124
218	0xbbf76531	-0.0075499048
219	0x3d118ff6	0.035537682
220	0xbe49b567	-0.19698106
221	0x3de326a9	0.11091358
222	0xbdc3b25f	-0.09555506
223	0xbe01eebf	-0.1268873
224	0xbd00e6c9	-0.031470094
225	0xbe0596f8	-0.13045871
226	0xbe125d80	-0.1429348
227	0xbd97bc20	-0.07408929
228	0xbe2fd9f5	-0.17172988
229	0x3ddbfe2f	0.10741841
230	0x3d180734	0.037116244
231	0xbdc681ce	-0.09692727
232	0xbe234ff6	-0.15948471
233	0x3da76d74	0.081751734
234	0x3e2b66b8	0.16738403
235	0x3e3189bb	0.17337696
236	0x3da38d63	0.07985952
237	0xbdde5ad4	-0.10857168
238	0x3d66e2d4	0.056368664
239	0xbe0c3072	-0.13690355
240	0x3e493f85	0.19653137
241	0xbb6b14b3	-0.0035870492
242	0xbd947268	-0.07248384
243	0xbc8e983d	-0.017406577
244	0xbe16d913	-0.14731245
245	0x3cd0aa94	0.025471963
246	0xbe047047	-0.12933455
247	0xbd9a6975	-0.075396456
248	0x3d9b3e83	0.075802825
249	0x3c21ec69	0.009883025
250	0x3d83263d	0.06403778
251	0x3e194543	0.14967827
252	0x3c36fc25	0.011168514
253	0x3d971fdb	0.07379123
254	0x3e310c58	0.17289865
255	0x3e38465c	0.1799559

modality_encoders.sleep.0.bias f4 [64]
0	0xbbf1437a	-0.00736278
1	0x3c12ee44	0.00896794
2	0x3e111815	0.14169343
3	0xbdc61611	-0.096721776
4	0xbd40a26e	-0.047029905
5	0x3e2f3b41	0.17112447
6	0x3da94036	0.082642004
7	0xbe04a2fe	-0.12952802
8	0x3e46f2e9	0.194286
9	0x3ddf5074	0.10904017
10	0x3cb19f35	0.021682361
11	0x3dc8f273	0.098118685
12	0x3dcbfcb0	0.09960306
13	0x3d360e64	0.044447318
14	0xbbc89e0c	-0.0061223563
15	0xbe1236fb	-0.14278786
16	0x3dcb7986	0.09935288
17	0xbe1ce4a3	-0.15321593
18	0xbe02f725	-0.1278959
19	0x3cf5be25	0.029997895
20	0xbdca51c3	-0.09878876
21	0x3d8afa37	0.06786006
22	0xbe50b1cc	-0.20380324
23	0xbe0241b2	-0.12720373
24	0xbe3c3696	-0.18380198
25	0x3c12e9ac	0.0089668445
26	0x3df2e579	0.11860175
27	0xbd07431c	-0.033022985
28	0xbe431762	-0.19051889
29	0xbe42e37a	-0.19032088
30	0x3e009c05	0.12559517
31	0xbe2b4a92	-0.16727665
32	0xbd2b0ec1	-0.041762117
33	0xbdb1983e	-0.08671616
34	0xbe46f091	-0.19427706
35	0x3d6fb182	0.058518894
36	0xbe084d83	-0.13310818
37	0xbdd75eb3	-0.10516109
38	0xbe068bdf	-0.13139294
39	0xbe501249	-0.20319475
40	0xbdc78511	-0.09742177
41	0x3df49535	0.119425215
42	0xbe1d406c	-0.15356606
43	0x3e2ab466	0.16670379
44	0xbe02e01a	-0.127808
45	0x3e29e18b	0.16589944
46	0x3dcaf101	0.09909249
47	0xbddd350a	-0.10801132
48	0xbdbff0db	-0.093721114
49	0x3e36d8bb	0.17856114
50	0x3d7a2010	0.061065733
51	0x3d44c785	0.04804184
52	0x3e34d0d0	0.1765778
53	0xbe03d19f	-0.12872933
54	0xbd2d9cff	-0.04238605
55	0x3d502675	0.050817925
56	0x3e19a024	0.15002495
57	0xbde06c8b	-0.10958203
58	0xbe36d75a	-0.17855588
59	0x3db2bdcf	0.08727609
60	0x3e500084	0.20312697
61	0xbda86eb0	-0.08224237
62	0x3da0ac51	0.07845367
63	0x3dedf05f	0.11618113

modality_encoders.sleep.3.weight f4 [32, 64]
0	0x3d351520	0.0442096
1	0xbb8af620	-0.004240766
2	0xbdc811be	-0.09769009
3	0xbd0ab37c	-0.033862576
4	0xbcca5d30	-0.024702638
5	0xbda9749c	-0.082741946
6	0xbd9c94da	-0.07645579
7	0x3d91d16a	0.07120021
8	0x3d754b80	0.059886456
9	0x3dccdf86	0.10003571
10	0x3d8970d0	0.067109704
11	0x3b5d8b80	0.0033805072
12	0x3d24d888	0.040245563
13	0xbdd10f74	-0.102080256
14	0x3dedbb08	0.11607939
15	0x3dae2c04	0.08504489
16	0xba2d6c00	-0.00066155195
17	0x3df1bbb4	0.1180338
18	0x3d970704	0.07374385
19	0x3c176ce0	0.009242266
20	0xbd7bf27c	-0.061510548
21	0x3cd2cca0	0.025732338
22	0x3d066994	0.03281553
23	0x3d0adc38	0.033901423
24	0x3cb6df58	0.022323295
25	0xbc803e00	-0.015654564
26	0x3d4e20cc	0.050324246
27	0xbd0014c0	-0.03126979
28	0xbdb2682e	-0.08711277
29	0x3da969a8	0.082721055
30	0xbdac0c84	-0.08400825
31	0xbded7b40	-0.11595774
32	0xbdf1773c	-0.1179032
33	0x3d3afa78	0.045649022
34	0x3c007500	0.007840395
35	0xbdcf15ec	-0.10111603
36	0xbdd0f0ce	-0.1020218
37	0x3bdf27e0	0.0068101734
38	0xbd45dc68	-0.0483059
39	0xbd80da26	-0.062916085
40	0x3c737a40	0.01486069
41	0x3d791ae4	0.06081666
42	0xbb8e48a0	-0.0043421537
43	0x3cc89318	0.024484202
44	0xbdf2437a	-0.118292764
45	0xbc31d330	-0.010853574
46	0xbd2dcfd8	-0.042434543
47	0xbd87d6f8	-0.06632799
48	0x3cad3098	0.021141335
49	0xbddedcf8	-0.1088199
50	0x3d916e6c	0.071011394
51	0x3d64ca10	0.055856764
52	0x3d8aad68	0.06771356
53	0xbd2ada7c	-0.04171227
54	0xbc9bcb98	-0.01901798
55	0x3d5c6e88	0.05381635
56	0xbdb45c1c	-0.08806631
57	0x3da4fcea	0.08056052
58	0xbdd910a2	-0.105988756
59	0xbd23db14	-0.04000385
60	0x3de79a12	0.113086835
61	0xbcadee88	-0.021231905
62	0xbdcaee96	-0.09908788
63	0x3daa04d8	0.08301705
64	0x3d92109a	0.07132073
65	0x3dc107e0	0.0942533
66	0xbdc04746	-0.09388594
67	0xbcb84170	-0.02249214
68	0xbda7fc0e	-0.082023725
69	0xbd8ae6ec	-0.06782326
70	0x3cb79a50	0.02241245
71	0x3bdc9380	0.0067314506
72	0xbd81fe3c	-0.063473195
73	0x3c8c1ee0	0.017104566
74	0xbd90449a	-0.07044335
75	0xbd3586a0	-0.04431784
76	0xbd3cc234	-0.046083644
77	0x3d85c774	0.06532183
78	0x3d95b962	0.073107496
79	0xbcb32f98	-0.02187328
80	0x3df37df8	0.11889261
81	0xbdc0fc74	-0.094231516
82	0xbdbf33b6	-0.09336035
83	0xbd7e295c	-0.062051162
84	0x3dd7995e	0.10527299
85	0x3c1f0b20	0.009707242
86	0x3d4e12d0	0.05031091
87	0x3dc1d3ce	0.09464227
88	0x3d8a8404	0.06763461
89	0x3bf3c9e0	0.007439837
90	0xbce86940	-0.0283705
91	0x3d361a3c	0.044458613
92	0xbd3aa21c	-0.045564756
93	0x3c8246f8	0.015902981
94	0xbd5ab878	-0.05339858
95	0xbdc55894	-0.096360356
96	0xbd06cd3c	-0.03291057
97	0xbc8896f0	-0.016673535
98	0x3cf28f68	0.029609397
99	0x3db0ad66	0.08626823
100	0x3d7c827c	0.061647877
101	0xbdff7a52	-0.124745026
102	0x3ccca048	0.024978772
103	0xbdb484b2	-0.08814372
104	0x3ddfa788	0.10920626
105	0x3da90c2a	0.08254273
106	0xbdf55d1a	-0.11980648
107	0xbd680970	-0.056649625
108	0xbd119664	-0.035543814
109	0x3dbd9b4a	0.09258135
110	0xbd5158c4	-0.051110044
111	0xbd01321c	-0.03154193
112	0x3d6b2b30	0.057414234
113	0xbcd23cd0	-0.025663763
114	0x3d85d4de	0.06534742
115	0x3db2c0bc	0.087281674
116	0xbd8eb1c8	-0.06967503
117	0x3dbff1c6	0.093722865
118	0xbdcd2fca	-0.10018881
119	0xbd6bbcb8	-0.057553023
120	0x3ca16060	0.019699275
121	0xbd4addbc	-0.04952787
122	0xbdd9bcf6	-0.106317446
123	0x3dbef756	0.09324519
124	0xbd87be60	-0.06628108
125	0xbd151bb0	-0.036403358
126	0x3d9dc3c0	0.07703352
127	0x3c184e20	0.00929597
128	0xbdf26ac8	-0.11836773
129	0x3cb6bcd0	0.02230683
130	0xbd58a5e4	-0.05289258
131	0xbdeba6ce	-0.11506425
132	0x3dc774dc	0.09739086
133	0x3dfe5f20	0.124204874
134	0xbda9753a	-0.08274312
135	0x3de194e2	0.11014725
136	0x3de0003e	0.10937546
137	0xbd241fc0	-0.04006934
138	0xbc846508	-0.016161457
139	0x3be3e2c0	0.006954521
140	0xbd1fe5cc	-0.03903751
141	0x3d216e28	0.039411694
142	0xbdd796ce	-0.105268106
143	0x3deaa77a	0.11457725
144	0xbda3065c	-0.07960197
145	0x3db4884a	0.088150576
146	0x3d6ec05c	0.058288917
147	0x3dee9726	0.11649923
148	0x3cc257a0	0.023723423
149	0x3d5993b0	0.05311936
150	0xbdeae8dc	-0.11470196
151	0x3d5ed178	0.054398984
152	0xbaa75c80	-0.0012768656
153	0x3d21e474	0.03952451
154	0x3d9ef368	0.0776127
155	0x3dba5ec4	0.09100106
156	0xbd54113c	-0.05177425
157	0xbc81cd70	-0.01584503
158	0xbd6da6f4	-0.058020547
159	0xbc51c050	-0.0128021985
160	0x3dae5f24	0.085142404
161	0xbc341e30	-0.010993525
162	0xbdf8d99a	-0.12150879
163	0x3df80896	0.12111013
164	0x3d36c344	0.044619814
165	0xbda61b94	-0.08110729
166	0xbd553914	-0.052056387
167	0xbdb3bda2	-0.08776404
168	0xbdb5f668	-0.08884889
169	0xbbe0cf40	-0.0068606436
170	0x3b66db80	0.0035226047
171	0x3dd0730e	0.10178195
172	0x3ddfe82e	0.10932957
173	0xbb6b1c00	-0.0035874844
174	0x3d851d32	0.06499709
175	0x3c2c0310	0.010498777
176	0x3dcf7e5a	0.101315215
177	0x3bbebd20	0.0058208853
178	0xbc166050	-0.009178236
179	0xbdcf5a82	-0.10124685
180	0x3d3a4600	0.045476913
181	0x3ce9d438	0.028543577
182	0xba8edb80	-0.0010899156
183	0xbd62b1cc	-0.05534534
184	0xbbb4d580	-0.0055186152
185	0xbdcb2480	-0.09919071
186	0x3db80f72	0.08987321
187	0x3c24bbf0	0.010054573
188	0xbdaaf388	-0.08347231
189	0xbdf75a82	-0.1207781
190	0xbda790bc	-0.08181903
191	0x3d2ba0f4	0.041901544
192	0x3d9443ba	0.0723948
193	0xbd3ee770	-0.046607435
194	0xbdacf876	-0.08445828
195	0x3db92ccc	0.090417475
196	0xbd6bd324	-0.057574406
197	0xbd00aac0	-0.03141284
198	0x3dd039f2	0.10167302
199	0xbde8231e	-0.11334823
200	0xbc592450	-0.0132532865
201	0x3da30426	0.079597756
202	0x3d512dcc	0.051069066
203	0x3d0f5c3c	0.03500007
204	0xbd2f0360	-0.042727828
205	0xbcdb05a0	-0.02673608
206	0xbbc968e0	-0.0061465353
207	0xbd5aab40	-0.053385973
208	0x3cdbefb0	0.02684769
209	0xbd747180	-0.059678555
210	0xbd8e1012	-0.06936659
211	0xbd6afa6c	-0.057367727
212	0x3d33ed10	0.043927252
213	0xbcb04010	-0.021514922
214	0xbbf25ae0	-0.007396087
215	0x3dbe4670	0.09290779
216	0xbd7b9850	-0.061424553
217	0x3dbeebea	0.09322341
218	0x3d212af0	0.03934759
219	0x3dcf9da6	0.10137491
220	0xbd88ef22	-0.06686236
221	0xbd04dd74	-0.032437757
222	0xbd9e4fbc	-0.07730052
223	0xbb8f5d80	-0.0043751597
224	0x3df8fe84	0.1215792
225	0x3d2476d4	0.040152386
226	0xba884880	-0.0010397583
227	0x3d7f6548	0.06235245
228	0xbd1e8348	-0.03869942
229	0x3d298dc4	0.041394964
230	0x3c75e510	0.015008226
231	0x3df7b1b8	0.12094444
232	0x3dd5958e	0.10428916
233	0x3c3d1240	0.011539996
234	0xbcb353d0	-0.02189055
235	0x3ca8aa50	0.020589024
236	0x3dddc850	0.10829222
237	0x3d2a8970	0.041634977
238	0xbddccf68	-0.10781747
239	0x3c18cee0	0.009326667
240	0xbdff501e	-0.12466453
241	0x3c08b410	0.0083437115
242	0xbcb7a9e0	-0.02241987
243	0x3b746dc0	0.0037296861
244	0x3d649d2c	0.055813953
245	0xbd94eaa0	-0.07271314
246	0x3d284cd8	0.04108891
247	0xbd5e1b94	-0.05422552
248	0x3dab19ec	0.083545536
249	0x3d0f7eb4	0.035032943
250	0xbcc75d38	-0.024336442
251	0xbdc58158	-0.09643811
252	0x3ddd361a	0.10801335
253	0xbdabc898	-0.083878696
254	0x3c7ca500	0.015420198
255	0xbdb42f72	-0.08798112

modality_encoders.sleep.3.bias f4 [32]
0	0xbd35c41c	-0.044376478
1	0x3d0876a0	0.033316255
2	0x3d2c52f8	0.042071313
3	0xbdfbcb26	-0.12294607
4	0xbd4a632c	-0.049410984
5	0xbd1dff48	-0.038573533
6	0x3d7dff18	0.062010854
7	0xbdca98d4	-0.09892431
8	0x3de42000	0.11138916
9	0x3ddf984a	0.10917719
10	0x3d8c0d16	0.068384334
11	0xbdbcdbba	-0.09221597
12	0x3d88b1c0	0.06674528
13	0x3c694880	0.014238477
14	0x3daa67ae	0.083205566
15	0x3d320104	0.043458
16	0xbd049cc8	-0.03237608
17	0x3d534134	0.051575854
18	0x3c7ad8e0	0.015310496
19	0x39a92600	0.00032262504
20	0x3ded6430	0.11591375
21	0xbd7be624	-0.061498776
22	0x3ddfdd2e	0.109308586
23	0xbdf0cc08	-0.11757666
24	0x3d909664	0.07059935
25	0xbc29ba30	-0.010359332
26	0xbc9fbc40	-0.019498944
27	0x3da060aa	0.07830937
28	0xbdd3014e	-0.10302983
29	0x3dfc8626	0.12330274
30	0xbce40f48	-0.027839318
31	0x3d13c59c	0.036077127

modality_encoders.stress.0.weight f4 [64, 14]
0	0xbd5a9be7	-0.053371336
1	0xbdda82ea	-0.10669501
2	0xbe1c1694	-0.15242988
3	0x3e620ca8	0.2207514
4	0xbdb2bd90	-0.087275624
5	0x3e0d976c	0.13827294
6	0xbc6ed203	-0.014576438
7	0x3e03bb9e	0.12864539
8	0xbc97c760	-0.018527687
9	0x39d606b1	0.00040822246
10	0x3e27ab11	0.1637385
11	0xbc06de47	-0.008231706
12	0xbe37fb1d	-0.17966886
13	0x3dc6df03	0.09710505
14	0xbe702475	-0.23451407
15	0x3da73465	0.0816429
16	0xbe47b57f	-0.19502829
17	0xbd904096	-0.07043569
18	0x3d3d4618	0.046209425
19	0x3db291cc	0.08719215
20	0xbe587a68	-0.21140444
21	0x3e3b4ed5	0.18291791
22	0x3c6ead66	0.014567709
23	0x3e356edd	0.17718072
24	0xbe7e49c8	-0.24832833
25	0xbe6f9e06	-0.23400125
26	0xbdcaf865	-0.09910659
27	0x3e6f94a7	0.2339655
28	0x3aafd200	0.0013414025
29	0xbe131021	-0.14361621
30	0x3cc640e9	0.024200873
31	0x3e2070be	0.15668008
32	0x3e6257b0	0.22103763
33	0x3e1fc1b3	0.15601234
34	0x3d9d8c42	0.07692768
35	0xbe5b400b	-0.21411149
36	0xbe5e623c	-0.21717161
37	0xbd58bf35	-0.052916724
38	0xbde41c7f	-0.11138248
39	0x3e6b262c	0.2296378
40	0x3e840857	0.25787613
41	0xbe818cee	-0.25302833
42	0xbc9db415	-0.019250909
43	0x3cd33c3c	0.025785558
44	0xbd46c89c	-0.04853116
45	0x3e63daab	0.22251384
46	0x3e162690	0.14663148
47	0xbe17daed	-0.14829607
48	0x3d9c10c8	0.07620388
49	0x3c003ff9	0.007827752
50	0x3e826ada	0.25472146
51	0x3e70686f	0.23477338
52	0xbe85b9b6	-0.2611825
53	0xbe15d620	-0.14632463
54	0x3e7a551e	0.24446532
55	0x3e7ba44e	0.24574396
56	0x3e5a8031	0.21337964
57	0xbe54ae44	-0.20769602
58	0xbe0c55ec	-0.13704652
59	0xbe23159f	-0.15926217
60	0xbe6e496f	-0.232702
61	0xbe778589	-0.24172033
62	0x3cf474b0	0.029840797
63	0x3c0b2c98	0.008494519
64	0xbe6c95c4	-0.23104006
65	0x3e095b96	0.13413844
66	0x3e7d6646	0.24746045
67	0xbcb46bd2	-0.022024069
68	0x3e62980d	0.22128315
69	0x3b589a4b	0.003305095
70	0xbdbed7e3	-0.09318521
71	0x3b15e91c	0.002287454
72	0xbd8ebab0	-0.069692016
73	0xbe5c5b21	-0.21519138
74	0x3c79c9ba	0.015245849
75	0x3e2a5b9b	0.16636507
76	0x3e57ffe8	0.21093714
77	0x3e037ea1	0.12841274
78	0x3ce67c11	0.028135331
79	0xbe590291	-0.21192385
80	0xbd630f3f	-0.05543446
81	0x3e56eaed	0.20988055
82	0x3e18e8f6	0.14932618
83	0x3c8809e0	0.016606271
84	0xbdfe6fb5	-0.1242365
85	0x3e615e2f	0.22008584
86	0xbccfd4d5	-0.02537004
87	0xbd7a20f4	-0.061066583
88	0xbd2a811b	-0.04162703
89	0x3c4c7560	0.012479156
90	0x3e4a12e2	0.19733766
91	0xbe60643f	-0.21913241
92	0xbd0e7c59	-0.034786556
93	0xbc7aca6e	-0.015307052
94	0xbe27b1bb	-0.16376393
95	0xbe86cbf3	-0.26327476
96	0xbe146ab1	-0.14493825
97	0xbe43b9ad	-0.19113798
98	0x3d2a15bc	0.041524634
99	0x3e7e823b	0.24854366
100	0x3cf57fd1	0.029968174
101	0x3cfe02dd	0.031007225
102	0xbe36ea5e	-0.17862841
103	0xbd4cb8a9	-0.049980793
104	0x3e439724	0.19100624
105	0xbe6b54b7	-0.22981535
106	0x3e47a9ba	0.1949834
107	0xbe7fc401	-0.24977113
108	0x3cb7fb95	0.02245883
109	0xbe793a86	-0.24338731
110	0x3e4e6f07	0.20159541
111	0xbe536645	-0.20644481
112	0x3e88001a	0.26562577
113	0xbe333afa	-0.17502967
114	0x3e01af00	0.12664413
115	0xbe42e86c	-0.19033974
116	0x3e05817c	0.13037676
117	0xbe21307e	-0.15741155
118	0x3ca1af8d	0.01973703
119	0xbe28651d	-0.16444822
120	0x3dce1e30	0.100643516
121	0xbcdc7908	-0.026913181
122	0xbe7fe4e3	-0.24989657
123	0xbe838495	-0.2568709
124	0xbde934ea	-0.11387046
125	0xbdcabf38	-0.09899753
126	0x3d4c4d16	0.049878202
127	0x3e077565	0.13228376
128	0xbdc7c255	-0.09753863
129	0x3e768b09	0.24076475
130	0x3e88292a	0.26593906
131	0xbe074876	-0.13211235
132	0x3e4f0c15	0.20219453
133	0xbe0faeff	-0.140316
134	0xbe80f1b5	-0.25184408
135	0xbc4fc0fc	-0.012680288
136	0xbe6ac08a	-0.2292501
137	0xbe815660	-0.2526121
138	0x3e393874	0.18087941
139	0x3de6a96f	0.11262786
140	0x3d50eb73	0.051005792
141	0xbd99a93f	-0.07502984
142	0xbe1e15f1	-0.15438057
143	0xbdf385e8	-0.11890775
144	0x3da14c72	0.07875909
145	0x3cfa7d64	0.030577369
146	0xbda94530	-0.082651496
147	0x3d77b9fc	0.060480103
148	0x3e52e2d8	0.20594347
149	0xbe68d677	-0.22738062
150	0x3c5a03c3	0.013306561
151	0xbdfe62be	-0.12421177
152	0xbe5de370	-0.21668792
153	0xbd8516e1	-0.064985044
154	0x3e8058e3	0.25067815
155	0xbdfc248d	-0.12311659
156	0x3e164ef8	0.14678562
157	0xbdd26eff	-0.10275077
158	0x3e828281	0.25490192
159	0x3e4c56b1	0.19954945
160	0xbe0a1ef2	-0.13488367
161	0x3e2b6c09	0.16740431
162	0xbe2bb8fe	-0.16769788
163	0x3e2e8ec8	0.17046654
164	0x3e32330c	0.17402285
165	0x3e58747c	0.21138185
166	0xbd957319	-0.07297344
167	0xbe44ef9a	-0.19232026
168	0xbe807f46	-0.25097102
169	0x3e056e46	0.13030347
170	0x3c46ea7c	0.012140866
171	0x3d4a62d4	0.049410656
172	0x3d9d9174	0.076937586
173	0x3dd81335	0.105505385
174	0xbe13df7e	-0.14440724
175	0x3ce3f3b0	0.02782616
176	0xbd144905	-0.03620245
177	0xbd620184	-0.055177227
178	0x3dc35cb2	0.095391646
179	0x3e5e5b76	0.21714577
180	0x3e65460b	0.2239
181	0x3e206dc0	0.15666866
182	0xbdd84147	-0.10559326
183	0x3dfe19c4	0.12407258
184	0x3db63c34	0.088982016
185	0xba79121e	-0.0009501296
186	0x3d804b4d	0.062643625
187	0x3de66a82	0.112507835
188	0x3d941fed	0.07232652
189	0x3e844834	0.25836337
190	0x3e3ed7a3	0.18636946
191	0xbdc91e93	-0.09820285
192	0xbe34dc69	-0.17662205
193	0xbe0a8c82	-0.13530162
194	0x3dbf0f54	0.093290955
195	0xbe460cc9	-0.19340815
196	0x3d1f3679	0.03887031
197	0x3d89db4c	0.06731281
198	0x3d17e256	0.037081085
199	0xbe849ad7	-0.25899383
200	0xbe1926db	-0.14956228
201	0x3d81c34d	0.06336079
202	0xbe449ce4	-0.19200474
203	0x3e8454d8	0.2584598
204	0xbe53fd15	-0.20702012
205	0x3dd4ba7c	0.103871316
206	0x3c4b5835	0.012411167
207	0xbe7defce	-0.2479851
208	0x3e03a7a1	0.12856914
209	0xbe0c6797	-0.13711391
210	0x3dab1a2e	0.08354603
211	0x3e636450	0.22206235
212	0x3e375fed	0.17907687
213	0xbb87cfbf	-0.0041446383
214	0xbe1a452f	-0.15065454
215	0x3e8772e8	0.26454854
216	0xbe0e73e5	-0.13911398
217	0x3e22721b	0.1586384
218	0xbde12c57	-0.10994785
219	0xbe1524b3	-0.14564781
220	0x3c1aa278	0.00943815
221	0x3c1a0a87	0.009401924
222	0x3cdec646	0.027194154
223	0x3dabd0af	0.083894126
224	0x3e40324f	0.18769191
225	0xbcb5abdd	-0.022176677
226	0xbd82e224	-0.06390789
227	0x3e7939ae	0.2433841
228	0xbd8eee51	-0.06979049
229	0x3e29e491	0.16591097
230	0xbe857960	-0.26069164
231	0x3dc4837c	0.09595391
232	0x3dc4b56e	0.096049175
233	0x3dde0d32	0.108423606
234	0x3e36cd1a	0.17851678
235	0xbc8c4c81	-0.017126324
236	0xbdc1f9b0	-0.09471452
237	0xbe06ae32	-0.13152388
238	0xbe343cd3	-0.17601328
239	0x3e414606	0.18874368
240	0xbdb0516f	-0.08609282
241	0x3dc60189	0.096682616
242	0xbe7318bd	-0.23739906
243	0x3d9772da	0.07394953
244	0xbe348082	-0.17627147
245	0xbdc6de13	-0.09710326
246	0x3d4375d1	0.04771978
247	0xbce7404d	-0.028228903
248	0xbd4785b3	-0.04871149
249	0xbe753dba	-0.23949328
250	0xbdfbc999	-0.12294311
251	0xbe6d760e	-0.23189566
252	0x3e030475	0.12794669
253	0xbe86e278	-0.26344657
254	0xbe207c2a	-0.15672365
255	0xbe3c7c72	-0.18406847

modality_encoders.stress.0.bias f4 [64]
0	0xbdc320c7	-0.09527736
1	0xbe5a97b6	-0.21346936
2	0xbd9fd543	-0.07804348
3	0x3d78fd23	0.060788285
4	0x3d6afa39	0.057367537
5	0x3e83f03e	0.25769228
6	0x3df40f43	0.119169734
7	0xbd417c29	-0.04723755
8	0xbe1e2f4e	-0.15447733
9	0x3dfea48a	0.12433727
10	0xbe41cd08	-0.1892587
11	0xbde3c505	-0.11121563
12	0xbe2347a2	-0.15945294
13	0x3b5a5234	0.0033313157
14	0x3d9e5546	0.07731108
15	0xbc8ce3c6	-0.017198455
16	0xbe68e941	-0.2274523
17	0x3bd60f83	0.006532611
18	0xbe825806	-0.25457782
19	0xbe30c5f8	-0.17263019
20	0xbe6275d1	-0.22115256
21	0xbe85256e	-0.2600512
22	0xbe45bf0c	-0.1931116
23	0xbe23b357	-0.15986381
24	0xbdadcfdb	-0.08486911
25	0x3e7f5c88	0.24937642
26	0xbde50678	-0.111828744
27	0xbe652c6f	-0.22380231
28	0xbe205378	-0.15656841
29	0xbe4bf1b7	-0.19916426
30	0x3d324dc8	0.04353121
31	0xbe263bcc	-0.16233748
32	0xbde8e657	-0.11372059
33	0x3d8a18bb	0.06742998
34	0x3e6eae9e	0.23308799
35	0x3e4f70c8	0.20257866
36	0xbe36f501	-0.17866899
37	0x3e45eb2f	0.19327997
38	0xbe0cf40b	-0.1376497
39	0x3e40c554	0.18825275
40	0xbd4e09e9	-0.05030242
41	0x3e727fb9	0.23681535
42	0x3da8a8c1	0.08235312
43	0xbd7235b6	-0.059133254
44	0x3e690223	0.22754721
45	0x3dd11618	0.10209292
46	0xbde73e95	-0.112912335
47	0xbe15fa97	-0.14646374
48	0xbde951d0	-0.113925576
49	0xbd2ab41e	-0.04167568
50	0xbd138e2b	-0.036024254
51	0xbdfb1293	-0.12259402
52	0xbe7e3aa3	-0.24827056
53	0x3e1bf992	0.15231922
54	0xbdfbc12e	-0.122927055
55	0x3d6f94a5	0.058491368
56	0x3e1be869	0.15225376
57	0xbd02257d	-0.031774033
58	0x3d007980	0.03136587
59	0x3d759767	0.05995884
60	0x3e1a418b	0.15064065
61	0x3e4a9321	0.19782688
62	0x3e8864b6	0.26639336
63	0x3cedd797	0.029033465

modality_encoders.stress.3.weight f4 [32, 64]
0	0x3c03d790	0.008047
1	0xbd761cb8	-0.060085982
2	0x3df53364	0.119726926
3	0xb6160000	-2.2351742e-06
4	0xbbc6ba60	-0.006064698
5	0xbde6c906	-0.11268811
6	0x3c21eaa0	0.009882599
7	0xbc10bbf0	-0.00883387
8	0x3b066400	0.0020506382
9	0xbd76dbe4	-0.060268298
10	0xbdafbb2a	-0.085806206
11	0x3da71b42	0.08159496
12	0xbcc99178	-0.024605498
13	0xbdc34140	-0.0953393
14	0xbc7e0bf0	-0.015505776
15	0xbdb516c6	-0.08842234
16	0x3ce36870	0.02775976
17	0xbdc4ead6	-0.09615104
18	0xbd12dbdc	-0.035854205
19	0xbd2221fc	-0.03958319
20	0xbd9f2c16	-0.077720806
21	0x3dfea3f2	0.12433614
22	0xbdcd29c8	-0.10017735
23	0x3d9cc4d0	0.076547265
24	0x3d5a0fb4	0.053237632
25	0xbde24f98	-0.110503376
26	0x3d36796c	0.04454939
27	0xbc841350	-0.01612249
28	0x3cf86318	0.03032069
29	0x3d6f999c	0.058496103
30	0x3db8dc98	0.0902645
31	0xbdae4a7a	-0.08510299
32	0x3bf5b740	0.0074986517
33	0x3d2ca114	0.042145804
34	0xbddf80bc	-0.10913226
35	0x3b4e6800	0.0031495094
36	0xbde52b2c	-0.11189875
37	0x3cf4d268	0.029885486
38	0x3cc0d2a0	0.023537934
39	0x3d35d3d4	0.04439147
40	0x3d15f4a8	0.036610276
41	0xbd8bbe74	-0.068234354
42	0xbc967050	-0.018364102
43	0x3b8f3980	0.004370868
44	0x3d3144f4	0.04327865
45	0x3d5aab80	0.05338621
46	0x3df37550	0.1188761
47	0x3ce38b60	0.02777642
48	0x3d1599a8	0.03652349
49	0x3d8eaac6	0.06966166
50	0x3df5a6dc	0.119947165
51	0x3de32b88	0.11092287
52	0x3af1cb80	0.0018447489
53	0x3b9c93a0	0.0047783405
54	0xbc180260	-0.00927791
55	0xbca0e418	-0.019640014
56	0x3df855ce	0.12125741
57	0xbc781810	-0.015142456
58	0x3d8e3f16	0.069456264
59	0xbd0d4df0	-0.034498155
60	0xbd82cca8	-0.06386691
61	0xbd92e7c6	-0.071731135
62	0xbc063b00	-0.008192778
63	0xbd509920	-0.05092728
64	0xbd8a489a	-0.06752129
65	0x3ddac464	0.1068199
66	0x3d81e510	0.06342518
67	0x3db5f05a	0.08883734
68	0xbd4e6ff4	-0.050399736
69	0x3d143f4c	0.036193177
70	0xbdbe6afe	-0.09297751
71	0xbd021c5c	-0.031765327
72	0x3dcfe59a	0.10151215
73	0xbd2484cc	-0.040165707
74	0xbdc3d7ee	-0.0956267
75	0x3cb3d2b8	0.021951064
76	0xbd98f548	-0.07468659
77	0x3d770b20	0.060313344
78	0xbdc9473c	-0.0982804
79	0xbcb075f8	-0.021540627
80	0xbde0a592	-0.1096908
81	0x3b785400	0.0037891865
82	0x3cf43390	0.029809743
83	0x3d2f7f28	0.042845875
84	0xbcb9aaf0	-0.022664517
85	0xbcbb83e0	-0.022890031
86	0x3dbd38d2	0.09239353
87	0xbd366c68	-0.044536978
88	0xbcb16318	-0.021653697
89	0xbba18320	-0.0049289614
90	0x3d006720	0.031348348
91	0x3dfbff10	0.12304509
92	0x3b09fa00	0.0021053553
93	0x3d0caaf0	0.034342706
94	0xbd31f6c4	-0.043448225
95	0xbdb30370	-0.0874089
96	0xbde24498	-0.110482395
97	0xbca01890	-0.019542962
98	0x3d842160	0.06451678
99	0x3dd62d7c	0.10457894
100	0x3d9138de	0.07090925
101	0xbd5633d8	-0.052295536
102	0x3d9b99fa	0.07597728
103	0x3cb6d160	0.022316635
104	0xbd56a2bc	-0.05240129
105	0xbcf820d0	-0.030289084
106	0xbdc5bfde	-0.096557364
107	0xbdce7234	-0.10080376
108	0x3d3fddc0	0.046842337
109	0x3df81e4c	0.12115154
110	0xbc76d380	-0.015065074
111	0x3dfaab3a	0.1223969
112	0xbde87fce	-0.11352502
113	0x3d4c821c	0.04992877
114	0x3df5c72c	0.1200088
115	0xbb8fd880	-0.0043898225
116	0x3dd3ce5c	0.10342094
117	0xbcdfaa30	-0.027302831
118	0xbc4cb3d0	-0.0124940425
119	0xbd4c6da0	-0.049909234
120	0xbc3d1510	-0.011540666
121	0x3d0dbfd0	0.034606755
122	0x3d8dd04c	0.06924495
123	0xbdc1f650	-0.094708085
124	0xbdf24dc2	-0.118312374
125	0xbd9b8b86	-0.07594971
126	0x3d409428	0.047016293
127	0x3d11add4	0.035566166
128	0x3d440dd4	0.04786475
129	0x3d50a58c	0.050939128
130	0x3d8eaf80	0.06967068
131	0x3dc1146a	0.09427722
132	0x3dca9c04	0.09893039
133	0x3d5baa38	0.05362913
134	0x3d7e37b8	0.062064856
135	0xbdeabc12	-0.11461653
136	0xbd580b10	-0.052744925
137	0xbdeee96e	-0.11665617
138	0xbda640bc	-0.08117816
139	0x3df84b28	0.1212371
140	0x3c3e2540	0.011605561
141	0xbde2e93c	-0.11079642
142	0xbd9ed3ac	-0.07755217
143	0xbdeeb43c	-0.11655471
144	0xbc3780c0	-0.01120013
145	0xbdd6aef0	-0.104825854
146	0x3d8cddbc	0.0687823
147	0xbd638934	-0.05555077
148	0x3db11970	0.0864743
149	0xbda0dcb2	-0.07854594
150	0xbdfbb2da	-0.122899726
151	0x3b849920	0.0040465742
152	0xbd334d0c	-0.04377465
153	0xbdfff3ca	-0.12497671
154	0xbcd15580	-0.025553465
155	0xbd55e000	-0.052215576
156	0xbde2181a	-0.11039753
157	0x3d90687e	0.0705118
158	0xbd8dd2b2	-0.069249526
159	0xbdb8b354	-0.09018579
160	0xbd13d7cc	-0.03609447
161	0xbd9f5092	-0.077790394
162	0x3ded6f1e	0.115934595
163	0xbd119e10	-0.03555113
164	0x3d8992c6	0.06717448
165	0xbd899e54	-0.06719652
166	0xbdc7c350	-0.0975405
167	0x3daa25e2	0.08308007
168	0x3cf592a8	0.029977158
169	0xbd837582	-0.06418897
170	0xbdb263e2	-0.087104574
171	0xbcdcc2c0	-0.026948333
172	0x3dd46eb2	0.10372676
173	0x3d22baec	0.039729044
174	0x3d48dce4	0.049038783
175	0x3d897b62	0.067129865
176	0x3cf056f8	0.029338345
177	0x3d84fea2	0.0649388
178	0xbd382774	-0.0449595
179	0x3c6639a0	0.014051825
180	0x3d24a14c	0.040192887
181	0xbdc4dd2e	-0.09612499
182	0xbdadc96e	-0.08485685
183	0xbde6b14c	-0.112642854
184	0xbdc2d9f0	-0.095142245
185	0xbdc1f566	-0.09470634
186	0xbd43fa9c	-0.04784642
187	0x3d5a4aec	0.053294107
188	0xbc914d10	-0.017736942
189	0x3b838fc0	0.004014939
190	0x3ccfe040	0.025375485
191	0xbdf4973a	-0.11942907
192	0x3d95dc0c	0.07317361
193	0xbde6cdb6	-0.11269705
194	0xbdc8238e	-0.097724065
195	0x3c1cbd90	0.00956668
196	0xbcb467e8	-0.022022203
197	0x3cbdc480	0.023164988
198	0x3d93ba2e	0.07213245
199	0x3d8a48be	0.06752156
200	0xbd15118c	-0.036393687
201	0xbdddae64	-0.10824278
202	0x3dd5dc5e	0.10442422
203	0x3c8f8c38	0.017522916
204	0xbd98cd52	-0.07461037
205	0x3cef9c58	0.029249355
206	0xbd565ddc	-0.052335605
207	0x3d3e3d30	0.04644507
208	0x3df26b90	0.11836922
209	0x3d97a488	0.07404429
210	0xbaad8a00	-0.001323998
211	0x3cc34b98	0.023839757
212	0x3da8bd76	0.08239262
213	0x3cc0b120	0.02352196
214	0x3dc15bd2	0.094413415
215	0x3dc87542	0.0978799
216	0xbde3f4e6	-0.11130695
217	0x3dcc2e88	0.09969813
218	0x3dd36290	0.10321534
219	0xbdb55a70	-0.0885514
220	0x3d23f4c0	0.040028334
221	0x3d984144	0.074343234
222	0xbdeb6516	-0.1149389
223	0x3dfa50b0	0.12222421
224	0xbb9f7040	-0.004865676
225	0xbb832080	-0.004001677
226	0x3ca3c3a8	0.019990757
227	0xbd326edc	-0.043562755
228	0xbdb1f36a	-0.08689006
229	0xbd384dfc	-0.044996247
230	0xbdd2d8ba	-0.102952436
231	0x3dfbf708	0.12302977
232	0xbd9bf430	-0.076149344
233	0x3d6c7d58	0.057736725
234	0xbda78d1a	-0.0818121
235	0xbd9c14bc	-0.07621142
236	0x3def45ac	0.11683211
237	0x3c4acc30	0.012377784
238	0x3dd5a5aa	0.104319885
239	0x3cd0c440	0.025484204
240	0x3cfe4a28	0.03104122
241	0xbdcbdf2a	-0.099546745
242	0x3db744c8	0.08948666
243	0x3db28f6a	0.0871876
244	0x3d91a9ea	0.07112487
245	0xbdfd1eb4	-0.12359372
246	0x3d1c4148	0.038148195
247	0x3d78ab1c	0.060710058
248	0x3df9a782	0.12190153
249	0xbce16e08	-0.027518287
250	0x3dd75aa4	0.10515335
251	0x3d9d17ba	0.07670541
252	0x3de64c46	0.11245017
253	0xbc5a4830	-0.013322875
254	0xbd124a44	-0.035715356
255	0x3da0e75e	0.0785663

modality_encoders.stress.3.bias f4 [32]
0	0x3d800e4e	0.062527284
1	0x3d518400	0.051151276
2	0x3de8e078	0.11370939
3	0xbceca410	-0.028886825
4	0x3cb07b78	0.02154325
5	0x3cbf02d8	0.023316786
6	0xbdbd121c	-0.0923197
7	0xbd53de58	-0.051725715
8	0x3d8cbcc2	0.0687194
9	0xbd73dc68	-0.059536368
10	0xbb046d40	-0.002020672
11	0x3de64fbe	0.11245678
12	0x3b2a5a00	0.0025993586
13	0x3de39484	0.111123115
14	0x3da580a6	0.08081178
15	0x3cfa9d70	0.03059265
16	0xbdbccb84	-0.09218505
17	0xbd0d479c	-0.03449212
18	0x3df17144	0.11789182
19	0xbdc22442	-0.09479572
20	0xbcbbca20	-0.02292353
21	0xbda37a5e	-0.07982324
22	0xbdf439b4	-0.119250685
23	0xbdb344ba	-0.08753343
24	0x3d5750ac	0.05256717
25	0x3b7feb40	0.0039050132
26	0xbbdb8280	-0.0066989064
27	0xbc991500	-0.018686771
28	0x3de2a19a	0.11065979
29	0xbdd3c44a	-0.103401735
30	0x3ddadb46	0.10686354
31	0x3cbfd268	0.02341576
