results/migraine/fold3_model.pth (torch, 625050 bytes, 44 tensors)

modality_encoders.eeg.0.weight f4 [64, 6]
00000000: 0465 04be f15d 84be a54d 5b3d 8deb 5a3e
00000010: e6c2 cebe e407 923e 105d b9be 8432 b2be
00000020: 30f0 d8bd 09d3 b3be cda9 4b3d 58a7 b0be
00000030: dd25 d1be 6c0b 943d 848b 863e 89be b63e
00000040: 0637 57bd 8735 64bd 46fc 3ebd b8af 8cbe
00000050: 6607 25be 60bc 363e c03c f23d 53ad c6be
00000060: 8ab5 d4be 1fc2 9fbd eba6 023e a8cb 573e
00000070: 2570 1b3e 3abc 773e a23a 7bbe 40e4 1b3e
00000080: c707 c1be 82ad 0c3e 46cd 64bd 29c1 06be
00000090: 9f79 98be 8e45 453e 1617 9f3e 3764 84be
000000a0: 9261 c9be 453f 833d 2648 48be 268a cf3c
000000b0: 2842 6b3e 529f 3f3e 1dd2 b2be ecb1 033e
000000c0: 43bd 8cbd bea0 31be 53b9 8c3e 0297 003e
000000d0: bca3 513d 42bd a83f dab6 883e 4be9 c3be
000000e0: 3740 923e 4036 873d f0c9 cfbc f343 8a3e
000000f0: 69d2 9cbe 09de 0f3e 93b6 aabe 6962 e03d
00000100: 7bbe 1f3e 617f 8e3e a51d 1d3c 5fe3 08bd
00000110: 0711 0fbe 56ce 033d b723 14bd 63ee 8abc
00000120: 3355 88be 9518 173e df3c 4cbd 5f63 68bd
00000130: c6a8 08be 4f0a a63e 01f8 8a3e 98a2 8c3e
00000140: b73d dc3e 39f5 093e 183b 5bbe 91f7 263f
00000150: 6ae4 c5be 3700 b0be fdf3 aa3d d54c c7bb
00000160: 47ab 273e 5ecb 0b3e c751 8fbe 74f4 b1bd
00000170: 0bd2 9c3e 08bf b7bd 70d2 09be 3313 b23e
00000180: deab a0bd 08e8 893e d11e 86be 0f4d 65be
00000190: 2bdb ecbd ab7f b7bd df36 cfbe fb43 e2bd
000001a0: a8b9 a4be 7ff7 923e 2d90 103e 3d8c eebe
000001b0: 56e6 83be 640c 803c 02c7 e03e 5851 0b3d
000001c0: 40ba f43c fe6e a63f d5fd b5bd d778 b7be
000001d0: eba0 30bd a61b 953e b426 01be ee72 023e
000001e0: 7aa4 233e 0588 9dbd 9c7f a63e e9d5 a9be
000001f0: b319 19be 35fe c1be 46c5 29be 9010 a1be
00000200: a6ec 55be fb56 013d cd10 173e d646 6b3e
00000210: 6727 f33d 3a73 803e 975a ba3e 37a3 d5bd
00000220: 5220 00be 723b 8d3f a27e f7bd 509f a03e
00000230: 2dbf 563e 2118 433d 71b5 cdbe e846 603e
00000240: edbc 863e 6e59 b3be a297 a7bb dc7a ad3d
00000250: 3edb 8dbe 0852 25bd ec94 b6be 57df febc
00000260: 924d 893d 09f6 b6bd ccff 823d a88d 223f
00000270: 1c87 a93e 8745 bc3e 4574 f13e 6e99 f13d
00000280: 8491 c2be 14e5 f33d 2160 b2bd 0f24 be3c
00000290: b1ba 94be 1715 0d3e 8e50 acbe 7ca2 6d3e
000002a0: 0ac7 9cbe 01f3 2fbe c38a 983e 149a 2cbe
000002b0: 05d0 e7bd be9b ab3e bb51 643e 8dd1 fc3d
000002c0: 779d 413e ebd9 abbc f1f8 afbd af31 8e3e
000002d0: 8468 c33e 4370 f93d 4a33 11be 28a5 6b3e
000002e0: 120d 5dbe 9968 57be df58 64bc 49b2 ea3d
000002f0: f19a 0ebd 1b8b 2fbd 5fb8 cabd 1c84 8a3e
00000300: 01a4 f6bc a326 42bd 4b29 fabd a1ba 913d
00000310: 7df5 1e3d 3159 563e 363f c5bc 7932 febd
00000320: 1018 7a3e 11ee bbbe 5816 67bd d3c1 983d
00000330: e2ee 59be 5c46 943e 57cd a5be 4c5b 633e
00000340: 5221 6ebe c8c0 053e 77f6 7a3d eedf c0be
00000350: 39be 1d3d 4dff c3be b1b2 6b3e 1720 153f
00000360: 4f11 1d3e 17c6 febc a4f9 393d d09f ffbe
00000370: f1d1 2ebb 8308 1f3e 578b b33e e2c3 d83c
00000380: 6d2a 73be 36ad 673e e719 b7bc 1cfd a93d
00000390: 157b 8b3d ca63 33be c6a4 1dbe 0bb3 9b3e
000003a0: 1ab4 e9bd 8d88 a53e c17d 453e 70d9 98be
000003b0: bb02 b23e 7a92 cd3e 8ce4 803d b1e0 d33e
000003c0: e7c2 55be 2601 94be 1ed6 c03e 5d8c b63e
000003d0: 0ca9 19be f940 2e3e 60b4 6f3d 38ee 28be
000003e0: 75e1 ccbe 7e88 c2be d2a6 da3d 7004 45be
000003f0: 2632 0a3e faa7 78be a9d3 3c3d 63b4 2bbe
-0.1292916 -0.25852922 0.053540844 0.21378918 -0.4038307 0.28521645 -0.36203814 -0.34804165
-0.10592687 -0.35121945 0.04972248 -0.34502673 -0.408492 0.07228741 0.26278317 0.35692242
-0.05254271 -0.05571511 -0.046627305 -0.27477813 -0.16116104 0.17845297 0.118279934 -0.3880411
-0.41544753 -0.078006975 0.12758987 0.21073782 0.15179498 0.24192896 -0.24534085 0.15223789
-0.37701246 0.13738063 -0.055859827 -0.13159622 -0.2978029 0.19264814 0.310723 -0.25857708
-0.39332253 0.06408552 -0.19558772 0.025334429 0.22974455 0.1871312 -0.3492593 0.1286084
-0.06872036 -0.17346475 0.2748514 0.12557605 0.05118154 1.3182757 0.26702005 -0.38263926
0.28564617 0.06602144 -0.025364846 0.27004966 -0.3062928 0.14049543 -0.33342418 0.1095627
0.15600006 0.27831557 0.009589587 -0.033419963 -0.13971339 0.0321792 -0.036166873 -0.016959375
-0.26627502 0.14755471 -0.04986274 -0.056735393 -0.13345632 0.3242974 0.27142337 0.274678
0.43015835 0.13472451 -0.21409261 0.65221506 -0.3865083 -0.34375164 0.08347318 -0.006082157
0.16373931 0.13651797 -0.2799208 -0.08689204 0.30629 -0.08971983 -0.13459182 0.34780273
-0.07845281 0.26934838 -0.26195386 -0.22392677 -0.115652405 -0.089598976 -0.4047155 -0.110481225
-0.32172894 0.2870445 0.14117499 -0.46591368 -0.2576167 0.015630908 0.4390183 0.034013122
0.029873967 1.3002622 -0.08886305 -0.3583438 -0.043122213 0.29122657 -0.1261242 0.12739155
0.15980712 -0.07691959 0.32519233 -0.33171013 -0.1495121 -0.37889257 -0.1657916 -0.3145795
-0.20891055 0.03157709 0.14752503 0.2297624 0.1187275 0.2508791 0.3639724 -0.104315214
-0.12512329 1.1033766 -0.120847 0.31371546 0.20971365 0.047630433 -0.4017749 0.21902049
0.26316014 -0.35029167 -0.0051145116 0.08470699 -0.2770633 -0.040361434 -0.35660493 -0.031112356
0.067042485 -0.08933646 0.06396446 0.634974 0.33110893 0.36771795 0.4715902 0.117968425
-0.38001645 0.119089276 -0.087097414 0.023210553 -0.29048684 0.13777576 -0.33655208 0.23206514
-0.30620605 -0.17182542 0.29793367 -0.16855651 -0.113189735 0.3351726 0.22296803 0.12344656
0.18907724 -0.020977935 -0.08592404 0.2777228 0.38165677 0.12179615 -0.14179721 0.23012221
-0.21587017 -0.21035995 -0.013937204 0.114597864 -0.034815732 -0.04285727 -0.09898447 0.27053916
-0.0301075 -0.047400128 -0.12214907 0.07115675 0.038808335 0.20932461 -0.024077993 -0.12411971
0.24423242 -0.36705068 -0.056417793 0.07458844 -0.21282533 0.2895993 -0.32383224 0.22202796
-0.23254898 0.13061821 0.061270203 -0.37670845 0.03851149 -0.38280717 0.23017384 0.5825209
0.15338634 -0.031100316 0.04540409 -0.49926615 -0.0026675428 0.1553059 0.35067245 0.026460592
-0.23746653 0.22624668 -0.022351218 0.0830023 0.068105854 -0.17518535 -0.15394887 0.30410036
-0.11411305 0.32330742 0.19286253 -0.29853392 0.34767708 0.40150815 0.06293592 0.41382363
-0.2087513 -0.28907126 0.37663358 0.35653964 -0.15005893 0.17016973 0.05852163 -0.16497123
-0.4001576 -0.3799476 0.1067635 -0.19239974 0.13495693 -0.24282828 0.046100292 -0.16768031

modality_encoders.eeg.0.bias f4 [64]
00000000: 76e4 493d 21ae f3bd 3962 2fba e353 b4be
00000010: 1700 0b3c 04dd c8be 1e02 bebe 48c5 94be
00000020: baa1 babe b043 a9be f5b8 f2be 717f 4f3e
00000030: 89c1 edbd 26ad 093e b2cf 6dbe 6fb9 133d
00000040: 28c9 0dbb 284c 10bd 7eed 8fbe ddca 503e
00000050: c67c 8cba 12b8 a0ba a290 f6bd 3c42 2fbd
00000060: 74b8 533e 1e91 95be 0d9d 573e 302a b3bc
00000070: 7bec 993d 3353 a0be 608b 9cbe b2ae c8b9
00000080: cca3 96be ffbf 8cbc 4382 483d 1500 debe
00000090: 3914 06bf e623 023e a7de 2bba e07b 6fbe
000000a0: 7346 d4ba 6946 26be 2b32 07bd d447 73bd
000000b0: 5ba8 6a3e 30d3 b0ba a56c b6be b493 f83b
000000c0: 4272 b03e 8fd5 f0bc 1c63 13bb ef89 0ebb
000000d0: 56e8 debd 7684 18be e6c7 98bd dbb9 85be
000000e0: 71fc d7b9 95b6 ceba d08e cfbe f6b4 fb3d
000000f0: 1ed6 0abe b6b6 1cba 609f 2bba 82ad d4be
0.049290143 -0.11898447 -0.00066903565 -0.3522025 0.008483908 -0.39231122 -0.3711099 -0.29056764
-0.36451513 -0.33059454 -0.47406736 0.20263459 -0.116091795 0.13444957 -0.2322376 0.036065515
-0.002163479 -0.03522888 -0.2811088 0.20389886 -0.0010718338 -0.0012261888 -0.12039305 -0.042787775
0.20675832 -0.29212278 0.21056004 -0.021870703 0.07515808 -0.31313476 -0.30575085 -0.0003827713
-0.29421842 -0.017181395 0.048952352 -0.43359438 -0.5237461 0.12709007 -0.000655631 -0.23387098
-0.0016195312 -0.16237797 -0.03300683 -0.059394673 0.22915785 -0.0013490673 -0.35629764 0.007585967
0.34462172 -0.029398708 -0.0022489494 -0.0021749695 -0.10884158 -0.1489428 -0.074600026 -0.2611836
-0.0004119608 -0.0015770966 -0.40538645 0.12290375 -0.13558242 -0.0005978154 -0.0006546881 -0.41538626

modality_encoders.eeg.3.weight f4 [32, 64]
00000000: 65eb 38bd 7457 29bd 3db5 82bd 7322 94bd
00000010: 245a 80bd 2813 5c3d 6eda f23d 84d9 733d
00000020: 9a54 533b 7694 c23d 5599 333b aa34 89bd
00000030: 08ce 883d c52c 863c 008d 883c 8fdb b73a
00000040: 46d9 153d eba7 80be 5810 ddbd 9e9a 8bbd
00000050: ac39 f03d 0c10 fcbc a98e 243d a896 813c
00000060: 5539 15be 5c08 0dbd 51d2 d73c 86cc 963d
00000070: 5a63 69bd ea60 c73c c0e1 563c 689b d2bc
00000080: 9f78 843d bcaf 593d 988c c33c 5bd7 cebc
00000090: 38b7 09be e31a 183d 72a5 b93d 1129 cf3c
000000a0: 7a62 493e c134 a33d 1aa6 ffbd ca2f 4a3c
000000b0: 5c0b 00bd 2814 8dbc 5093 9f3d f33e b4bd
000000c0: 5f03 8fbd fa65 c23d 5fd9 a2bd c96b 0dbe
000000d0: c2be bb3d c0a9 f1bc 3018 7ebc 2f00 983d
000000e0: 1726 87bb 1cae 5c3b a9f0 1abe 1743 1fbe
000000f0: 0eb5 df3c 2cc1 bf3c 1c6a 3bbc 0009 ef3c
00000100: 27ae 173e 2cef 1c3d c7a9 703b 9ec6 b6bd
00000110: 58e8 f43c b0df 8bbc d0fc b53d 9019 b93d
00000120: dab9 833c d04a 7ebd 3672 7a3d 848c d83d
00000130: c85b 4c3d 36d6 b3bd 0808 a63d 1c1e 873d
00000140: 9ecc 0c3d 9cd7 373e 57cc 553e 84bc edbd
00000150: 5e40 e7bd 5d25 90bd d956 a23d 7c2b 383d
00000160: 9bf0 c13d 1683 0a3d a134 aabd 64ba 46bd
00000170: e67d ff3d f9a1 89bd 508c 1fbc 301f 593c
00000180: c93e 19bd ce7e a03d 282e af3d b849 2cbd
00000190: 3006 173d 3930 863d 1837 ec3d 791b ec3d
000001a0: 40d6 2f3d fafe e33d 90d0 04bd 5a3a e1bb
000001b0: 17b9 efbd 9461 393d 6c9c d13d 1879 8c3d
000001c0: caeb 7cbd 286f ae3d fbd7 42bd a94e f43c
000001d0: 748b 3d3d bc62 b7bd 28eb dfbc 9b86 543b
000001e0: 5de6 883d 7a4c 2abd 3ed0 213e 5424 54bd
000001f0: 9cc1 433c 6c40 ccbd 4e1e 49bd a391 22bd
00000200: 4f4d a7bd 40b9 30bd cce7 bfba d080 49bd
00000210: 6043 a83c c0ed e33b 90e1 0f3c ee28 df3d
00000220: d14d 803c c80d aebc bd32 5d3d 34d0 6fbd
00000230: 141a 41bd a8bc 313d 904e d33d 825a 9e3d
00000240: 03ea 06bc af8f ed3b 0ff2 36bd 6364 cd3d
00000250: ef3e e2bd 532a c93b 6b63 6c3d 1c82 9abd
00000260: c8a9 be3d ca2d 2ebd 6da6 6cbe 4417 a2bd
00000270: 3281 d23d 1606 00bd f04b 503d 178d e2bd
00000280: 8f28 8dbc 00b0 5aba bf2f 473d dc4c 0f3d
00000290: f52e 31bc 5c0b 8e3d bf6f 8b3d 9ddb 1cbd
000002a0: 936a f93d a0e5 9bbd e0bd 0bbd 0626 f43d
000002b0: 977f cabc c5dd 21bd 8040 e2bb 0223 193b
000002c0: 2abe 093c d4f7 abbd 079d 73ba 1ce8 5e3c
000002d0: c003 873c 529d e8bd 1c29 6c3d 3f3b 163d
000002e0: 965a 8b3d 3e56 07bd d444 a9bc 334e 2dbe
000002f0: 0000 1e3d a321 ca3c d6aa 6f3d 8e8a 19bb
00000300: d3d7 da3d 941c 393d 9445 3cbd fd18 c13b
00000310: 1cf4 a83d 5023 4fbc 2ae6 d6bd b821 b33d
00000320: dc7e 7c3d a463 463d 2621 97bd 9e0b 9a3d
00000330: 4425 4a3d 72ad dbbd 3eb6 aebd a6db 7c3d
00000340: 1d53 d13c 7df6 33bd 2a76 153c 7040 803d
00000350: 2feb c63d 8788 f0bd a90b e3bc 3080 73bd
00000360: 5129 993d ac34 80bc f097 c2bc 84ab 3ebd
00000370: 5977 343e 0b0b adbb dc9e e3bd d92c acbd
00000380: 4798 d03c e84b c1bc d4b0 d33d 22f1 f63d
00000390: ea3c 003c 1f91 4cbd d6a8 883d 908e 293d
000003a0: e51e f53d 4493 a93c 9019 ac3d 63b8 d43d
000003b0: f761 52bd 2eef 923d 0ebf bdbd eb52 343d
000003c0: 9f16 1d3d 340c 36bd e7aa 83bc 7b46 b33d
000003d0: 466f f5bd 4cab 203d 12f6 c83d e4c7 2ebd
000003e0: 8169 5dbd 0349 093d e7a9 e83d 3fc8 8b3e
000003f0: 9ffe 36bd 4031 a83d bc85 cbbd 3d5f adbd
-0.045146365 -0.041343167 -0.06382225 -0.07233133 -0.06267193 0.053729206 0.118580684 0.05953361
0.0032246471 0.09500973 0.0027404625 -0.06699498 0.06679922 0.01637877 0.016668797 0.0014027226
0.03658416 -0.2512811 -0.10794133 -0.068166 0.1172975 -0.03076937 0.040175114 0.015818909
-0.14572652 -0.0344318 0.026345404 0.073632285 -0.056979515 0.024338204 0.013115346 -0.02570887
0.06468319 0.05314611 0.023870751 -0.025249174 -0.13448799 0.037135016 0.09064759 0.025288137
0.19666472 0.079690464 -0.12482853 0.012340495 -0.031260833 -0.017221525 0.077917695 -0.08801069
-0.06983065 0.09492107 -0.079516165 -0.13810648 0.091672435 -0.029499888 -0.015508696 0.0742191
-0.0041244137 0.0033673113 -0.15130867 -0.15552936 0.027308013 0.023407541 -0.011438873 0.029179096
0.14812528 0.03831403 0.003672229 -0.08924602 0.029895946 -0.017074436 0.08886111 0.09038079
0.016079832 -0.062083066 0.061144076 0.10573676 0.049892217 -0.08781092 0.081070006 0.0659754
0.034374826 0.17953342 0.2087873 -0.11608222 -0.11291574 -0.070383765 0.07926721 0.044963345
0.0946972 0.03381642 -0.083108194 -0.0485176 0.12475185 -0.06720347 -0.009738043 0.013252065
-0.037413392 0.07836686 0.085537255 -0.04206249 0.036871135 0.065521665 0.11533946 0.115286775
0.042928934 0.11132617 -0.032425463 -0.006873411 -0.11705225 0.045259073 0.10234913 0.06859034
-0.061748303 0.08517295 -0.047569256 0.029822664 0.04627557 -0.08954379 -0.02733381 0.0032428864
0.06684563 -0.04157684 0.15802094 -0.051792458 0.011948016 -0.09973225 -0.049101166 -0.03968967
-0.08169042 -0.04314542 -0.0014641224 -0.04919511 0.02053994 0.0069558322 0.008781806 0.108964786
0.015662106 -0.021246806 0.054003466 -0.058548167 -0.04714401 0.043392807 0.10317719 0.07732107
-0.008234504 0.0072497944 -0.04466444 0.10028913 -0.1104716 0.0061390786 0.057712 -0.07544348
0.09309727 -0.042524137 -0.23110361 -0.07914594 0.10278548 -0.031255804 0.05085367 -0.11062067
-0.017231254 -0.0008342266 0.04862952 0.03498541 -0.010814418 0.069357604 0.06808423 -0.038295377
0.121785305 -0.07612157 -0.034116626 0.11921315 -0.024719043 -0.039518137 -0.0069046617 0.0023366814
0.008407155 -0.08396879 -0.0009293113 0.013605144 0.01648128 -0.113581315 0.057656392 0.036677595
0.06804387 -0.03304123 -0.020662703 -0.16924362 0.03857422 0.024674242 0.05851253 -0.0023428532
0.106856965 0.04519327 -0.045964792 0.0058928714 0.08249685 -0.0126426965 -0.10493119 0.08746666
0.06164442 0.04843487 -0.073793694 0.07521747 0.049351946 -0.107264414 -0.08530854 0.06173291
0.025552327 -0.04393624 0.009122411 0.062622905 0.097128265 -0.117447905 -0.027715521 -0.05944842
0.074785836 -0.015650116 -0.02375409 -0.04655029 0.17623653 -0.0052808574 -0.111142844 -0.084069915
0.025463236 -0.023595765 0.10336462 0.12057711 0.007827023 -0.049943086 0.06672828 0.041395724
0.11968783 0.020700105 0.08403313 0.103867315 -0.051362958 0.07174526 -0.092649564 0.04402439
0.03835165 -0.04444523 -0.016072704 0.087536775 -0.11984114 0.03922586 0.09812559 -0.0426711
-0.054055694 0.033516895 0.11360531 0.27301213 -0.04467642 0.08212519 -0.09937617 -0.08465431

modality_encoders.eeg.3.bias f4 [32]
00000000: c2ae 213e 4b68 07be 91b4 e6bd b607 34bd
00000010: 7439 c4bd d8b6 4d3e 5f02 0a3e 97ea 033e
00000020: 98a4 893d fef8 e13a 9c90 a63e 4229 70be
00000030: d9c2 a83a d063 46bc e293 3dbe c2f7 1cbe
00000040: e7fb 2cbd 5eec 8d3d f560 853c 63c0 12be
00000050: 6322 3cbe d901 77bd af06 4a3e a7b7 503e
00000060: c172 fe3b 5f6d 9bbd 6cc2 a9be a52d 28be
00000070: 73e7 4fbe aac6 e9bd 3dc6 a7bb ef8e 02bd
0.15789321 -0.13223378 -0.11264909 -0.043952666 -0.09581271 0.2008928 0.13477467 0.12882458
0.06720847 0.0017240343 0.32532203 -0.23453239 0.0012875452 -0.012108758 -0.18513444 -0.15328887
-0.04223242 0.06929849 0.016281584 -0.14331202 -0.18372492 -0.060304496 0.19729112 0.20382558
0.0077651446 -0.0758922 -0.33156145 -0.16423662 -0.20303135 -0.11414845 -0.0051200674 -0.031874593

modality_encoders.sleep.0.weight f4 [64, 7]
00000000: 9631 933e 49bc 2cbe 9825 acbe ea0d 81be
00000010: 4883 31be 5dbb b1bb 5ec8 39be acdc e33d
00000020: 642a 633e a93c 02be ca06 07be 15dc cc3d
00000030: aee3 703e ec47 833e 61ec a0bd 342b 953e
00000040: a3a9 583e a0ee a2bd 9977 193e 6605 dcbd
00000050: 68ef 4fbe 5f37 593e 6774 d13c 3cf4 4bbe
00000060: 3f14 62be 038e 8d3e 323e 82be 7e94 323e
00000070: 29b4 f2bc d021 13bd 1bea 933e a38f a0bd
00000080: fce7 a5be 30b5 93be e684 32be 6490 0d3e
00000090: 0fb4 bd3e a947 873e 8f96 173d 91aa 903e
000000a0: 88cd fabd 26b5 14bc 6c4a 42be 2994 383e
000000b0: 0250 283e cd3a 91be feb3 313c 876a 61bd
000000c0: 32c4 a73e f6e7 a1bb d1a7 353e 4517 51be
000000d0: 0a80 babe 15e6 123e 5cdf ba3e b2b3 80be
000000e0: 9270 a6be c933 a03e 72ba e4bd 618f c03d
000000f0: f232 7e3e 49ac 7bbe eab7 5a3e 88eb e63b
00000100: b4d4 b33e 39af 713d cdb0 223e 121b a63e
00000110: a1a5 9b3e 425e b73e 6fa9 2fbe 58ba 8f3d
00000120: 01e6 f03d 1ee6 81be 585f 8f3e 2f46 6fbe
00000130: 6c20 b43b d1a2 813d 5cd6 06bd 5ecb a23e
00000140: c82f ac3e 1eff a2be fefa 3cbe a85f 01bd
00000150: e652 053e 7e44 c1bc 731f 15bd 3ea5 87be
00000160: 694f 943e a66e b13e 19a0 b23e de97 0dbe
00000170: dde6 0a3e 1fdd 3cbd 1e5c bdbd a935 49bd
00000180: c2f2 183e 0d13 ba3d ba4e ab3e 0c1c 0fbd
00000190: a793 8d3e 891b a7be b4fc bb3e 1054 cc3d
000001a0: f3e9 3cbe 48cd b4be 34ac 7fbe 522d 663e
000001b0: 4bbb 28bc 1623 af3e 7b9d 3b3e 6213 88be
000001c0: f048 7fbe aef7 853e 102a 60be 949c 02be
000001d0: 8435 4a3e 0783 a03e 7fad 293e e6ec 8b3e
000001e0: b1d7 90be ef09 323e 3ff1 abbd 2360 6f3d
000001f0: 029a c33d c08a 7abe 9144 5c3e caac 5c3e
00000200: d59d 263e cf4f 44bd 4bad 0fbe 8951 59bc
00000210: 0bf9 bf3d b396 1cbe 071b 763e f35e 0f3e
00000220: c36d b2bc e997 f6bc 839f 58bd 2faa b0be
00000230: d279 ab3e 5de1 a8be 144e 9dbe b761 c93d
00000240: 2275 ba3c c07e 523e 4692 733e ac68 533e
00000250: a8e7 42be 8977 70be 6d1a 6cbd c982 94be
00000260: 5718 923d 6018 923e db8c 9bbe 0f83 30be
00000270: c4b3 2d3e ef72 8bbd 48c4 ba3e 4bfd 203e
00000280: a948 063e f750 113c dcb2 273e 87f7 00bd
00000290: fda0 b8be 1285 9f3e 26d7 bfbe d40a a3be
000002a0: f8c5 be3e a948 1a3e c922 3c3e fff5 d7bc
000002b0: a654 073d 050c 02be d533 afbe e1da 51be
000002c0: de1e afbe 91d0 50be d704 3bbe e7c2 633e
000002d0: b166 63be aef3 33be 1f55 0e3e f5bb 5cbd
000002e0: 0e73 6abc 9d4a d63d fcd7 4f3e a169 553d
000002f0: 41b7 663e 1ba9 e33d 534b ee3d 1b45 2abe
00000300: 10f0 893e 7bc4 acbd cd8e 843e 4298 22be
00000310: dc76 d53d 6f8c a0be 1119 7dbe 08cf 7c3e
00000320: d86f 4cbe fdf0 b63e 0d37 863d bae0 993e
00000330: 36bc 9f3d e244 4dbe cd02 453e 0bbd 983e
00000340: ae99 54be 0309 d73d 4207 80bd 5a8b 87be
00000350: 78f3 babd 4448 c13e a59d 3fbe 6ab7 803c
00000360: 3f20 61be a6eb 633d c5a7 bcbe 21aa adbe
00000370: 7ac3 2c3e 1f42 743e 897b aebd 3be1 2a3d
00000380: 45be c83d 9719 01bc 2697 40be 76c8 9b3e
00000390: 7a40 cb3d 8c29 0abe f09f aabe d5fc bc3e
000003a0: edcf 40be 87eb 113e ed61 23bd 4e86 87bc
000003b0: f5be 873e 9ce8 9ebe b113 e9bd 23b5 05be
000003c0: 760d 923e 111d 52bc dd86 bcbe 88ac dabd
000003d0: f64a 863d ad25 3f3e 6fa3 5ebd 6a7e 173e
000003e0: d625 ae3e 7585 63bc 862e cf3c 04a0 84be
000003f0: 338f c0be 0d07 433e 998e bfbe bf03 e0bd
0.2874877 -0.168687 -0.33622432 -0.25205928 -0.17335236 -0.005423947 -0.1814284 0.11126074
0.2218414 -0.12718453 -0.13186184 0.10002915 0.23524353 0.2564081 -0.07857586 0.29134524
0.21158461 -0.0795567 0.14987029 -0.10743217 -0.2030617 0.21212529 0.0255682 -0.19917387
-0.22078036 0.2764741 -0.25438076 0.17439458 -0.029626923 -0.035920918 0.28889546 -0.078398965
-0.32403553 -0.28849173 -0.17433509 0.13824612 0.37051436 0.2642186 0.03700882 0.28255132
-0.12246233 -0.009076392 -0.18973702 0.18025269 0.1643677 -0.28365174 0.010846136 -0.055033233
0.32766873 -0.004940982 0.17739798 -0.20419033 -0.3642581 0.14345582 0.36498535 -0.25137097
-0.3250776 0.3128951 -0.11168374 0.09402347 0.24824122 -0.2457744 0.2135922 0.0070471205
0.35123217 0.059004996 0.15887757 0.32442528 0.30399802 0.358141 -0.17154478 0.07017964
0.1176262 -0.25370878 0.2800243 -0.23366617 0.005497029 0.06329883 -0.032919273 0.31795782
0.33630204 -0.31835264 -0.18455121 -0.031585366 0.13019904 -0.02359223 -0.036406945 -0.26493257
0.28966835 0.3465473 0.3488777 -0.13827464 0.1356463 -0.046109315 -0.092460856 -0.04912344
0.14936355 0.09085665 0.334585 -0.034938857 0.27651712 -0.32638195 0.36716235 0.09976971
-0.1844862 -0.35312867 -0.24968034 0.22478226 -0.01029856 0.34206456 0.18321793 -0.26577288
-0.24930167 0.26165527 -0.21891046 -0.12755042 0.19746977 0.31349966 0.1657009 0.27329177
-0.2828956 0.17386602 -0.083956234 0.058441292 0.09550859 -0.24466991 0.21510531 0.21550289
0.16271146 -0.047927674 -0.1403095 -0.013264068 0.09373673 -0.15291862 0.24033748 0.14001064
-0.021780854 -0.030101733 -0.052886497 -0.3450484 0.3349138 -0.3298444 -0.3072363 0.09833091
0.022760931 0.20556164 0.23786268 0.20645398 -0.19033682 -0.23483099 -0.05764239 -0.2900603
0.07133549 0.28534222 -0.30380902 -0.17237495 0.16963106 -0.06809031 0.36477876 0.15721624
0.13113655 0.008869401 0.16376823 -0.03148606 -0.36060324 0.31156212 -0.37468833 -0.318442
0.37260413 0.1506678 0.18372644 -0.026362417 0.03303971 -0.12699898 -0.34219232 -0.20493652
-0.34203237 -0.20392062 -0.18263565 0.22242318 -0.22207142 -0.17573425 0.13899659 -0.053890187
-0.014309658 0.1046345 0.20297235 0.05210269 0.22530843 0.11116239 0.11635461 -0.16627924
0.26940966 -0.08435913 0.25890198 -0.15878394 0.10423061 -0.31357142 -0.24716593 0.24688351
-0.1996454 0.35730734 0.06553469 0.30054265 0.0779957 -0.20045808 0.1923935 0.29831728
-0.20761749 0.10499766 -0.06251384 -0.26473504 -0.09128469 0.37750447 -0.1871248 0.015712459
-0.21984957 0.055644654 -0.36846748 -0.3391886 0.16871443 0.23853348 -0.08519656 0.041718703
0.09801916 -0.007879636 -0.18807659 0.30426377 0.09924407 -0.13492411 -0.33325148 0.36911646
-0.18829317 0.14250003 -0.03988831 -0.016543534 0.26512876 -0.31036842 -0.11380709 -0.1305738
0.28525895 -0.012824313 -0.36821643 -0.10677439 0.065572664 0.18666716 -0.05435508 0.14794317
0.34013242 -0.013886799 0.025290739 -0.25903332 -0.37609252 0.19045658 -0.3741348 -0.109382145

modality_encoders.sleep.0.bias f4 [64]
00000000: bb71 aaba 401b 6bbd ec56 59be a1d4 bcbe
00000010: d75f 77b9 fb5c 4ebb 46ec 93be 8a83 d13c
00000020: 81db 303e 7304 a8b9 e2b8 40bd d96e 89be
00000030: 32da 91be 03a8 c43d c9ac 9fbe 5cb4 163e
00000040: 376f 763b f3d4 6abd 646f b9bc 7154 8abe
00000050: 3488 c6b9 5115 9abe 84a4 84be 5913 f4b9
00000060: f4c3 5bbe 1189 02ba 590d 4fbe 862a d13d
00000070: 8d1a a3be 6c0c 11be ea09 783d 7a0d 64be
00000080: 38dc e13d 3976 90be 297a c53d a71e 193e
00000090: 32f1 7c3d 47b4 31be 1780 07bc 5ab7 95be
000000a0: c002 a0b9 3b35 a1bd 3ee6 f3ba 527e bebe
000000b0: 8566 30be b2fc afbe 7afc 103d 3906 baba
000000c0: 019c 97bb 034f f7b9 0960 9dbd edc7 0bbd
000000d0: 1d17 b8be 7b49 eabd e8ff 3dbe 81eb 51b9
000000e0: a321 19ba 886c adbe 2dd3 6eba a140 05be
000000f0: 0dbf ffbd 4fbb c7b8 6a4b 28bd 7129 0a3e
-0.0013003865 -0.057399035 -0.21224564 -0.36880973 -0.00023591459 -0.0031488526 -0.288912 0.025575418
0.17271234 -0.00032046772 -0.047051318 -0.26842383 -0.28486782 0.09602358 -0.31186512 0.14717239
0.003760291 -0.05733199 -0.022636123 -0.2701755 -0.00037866982 -0.30094388 -0.25906765 -0.00046553722
-0.21461469 -0.0004979531 -0.20219935 0.10213189 -0.31856194 -0.14164895 0.06055633 -0.22270766
0.110283315 -0.28215197 0.09642441 0.14953099 0.06175346 -0.17353927 -0.008270285 -0.2924145
-0.00030519627 -0.07871481 -0.0018608046 -0.3720575 -0.17226608 -0.3437248 0.03539703 -0.0014192528
-0.0046267514 -0.0004717038 -0.07684333 -0.03412621 -0.35955134 -0.114397965 -0.18554652 -0.00020019525
-0.0005841499 -0.33871865 -0.0009110447 -0.13012935 -0.12487612 -9.5239484e-05 -0.041087545 0.13492371

modality_encoders.sleep.3.weight f4 [32, 64]
00000000: 6e28 f7bd 1272 a2bd cad5 e93d 807e 823c
00000010: d949 463d 4c56 5b3d 2437 6b3d 12ff 02bc
00000020: 704d 673d 6db4 c13d d40e 4abd 40bf ccbd
00000030: a0ac a4bc 970b d5bd da5d a73d 3202 dc3d
00000040: b6bd 85bc 40ea 223d 7c4e 5f3d 2c15 c53d
00000050: a970 80bc 528c 973d f8a5 dbbc dcd8 fd3d
00000060: 5034 23bd a219 2d3d a461 783d ecfc df3d
00000070: a891 31bd 087c 96bc 14d3 0f3e c839 043d
00000080: 26df 0a3b 4807 abbc 3a2e ea3d c280 8bbd
00000090: 63d1 703d 2877 4dbd 9d87 8dbd 2cd2 68bd
000000a0: 5abf c63d e09b b73c 3364 a8bd 7211 cf3d
000000b0: 60c9 973b 8686 fe3d 955d ac3d d75d 76bd
000000c0: 0617 913d 9012 ce3c 8c55 a5bd 643d b23d
000000d0: 22e2 9f3d 5050 ecbc 3425 28bd df0d 7bbb
000000e0: 062b 003e 2c38 663d e245 023d 8c2c 9ebd
000000f0: bc65 8d3d 0d9f 99bd faba ecbd 5434 103e
00000100: 344f 08bd 1a51 a63d 0efb a43d a258 843d
00000110: 9c36 2d3d d45f 5bbb d2ec f93d 9da5 3dbe
00000120: a774 23be fa53 68be 90ee 0a3c 800c f43c
00000130: 20e7 b83d 69a5 2e3c b0a4 04bd ecd0 b5bd
00000140: a432 03bd 00d0 80bb 7019 2a3c 40ba 8d3b
00000150: 10f6 c03c 0ef1 d9bd 2eae c7bd 9513 99bc
00000160: b019 3f3d 31ee e4bc 5c06 bdbd 8cd2 f9bd
00000170: 40b0 ae3b 3e84 f9bd 5313 34bd 28c5 cd3c
00000180: 7eb0 ffbd 4ce9 66bd 1be0 08be 8708 19bc
00000190: 6740 0fbe 5a2d c33d 5572 2f3d d4d4 fc3d
000001a0: 6a1c b13b bc17 dc3d 874e 0abe 0c87 ab3d
000001b0: b045 75bc 5833 65bd a7d0 babc 142a 04be
000001c0: dc15 3bbe e86a 49be 58b9 163d 4881 e63d
000001d0: 14db 39bd a000 703c f6a3 ed3d f57f 3fbd
000001e0: b375 6cbe 0a62 a7bd 8489 4ebe 50a7 5e3d
000001f0: 2ad9 b6bd bf99 34bc 5aa2 e13d 5fe4 49bd
00000200: c0ae 0bbd a4b8 2abd 542b 60bd f08d 953d
00000210: aab5 3abd 1f6b c13d 443c b9bd f3a4 633d
00000220: 8de4 31bd 80fb 013d 3a06 d2bd 6c88 ab3d
00000230: 3442 233d 79f1 133d 4609 d1bd f474 413d
00000240: 50d3 42bd f2e4 8abd f073 be3d 3ccf 7bbd
00000250: 8125 3d3c 3881 25bd f0fe 003d c694 423d
00000260: 5acb be3d 2f88 903d 96d2 8dbd 7910 8dbc
00000270: 00b0 98bb 9e0d 9c3d 4ba1 123e 328d d1bd
00000280: c5da b43d 0c4e 253d 451a 92bd aa33 323e
00000290: 14f5 993c 542b 953d b26e af3d 00f3 be3b
000002a0: 29ca 623c c043 00bd 4ea1 753d 0230 f2bd
000002b0: 0c34 8cbd d8b4 95bd 47e1 0e3e 23f4 3e3d
000002c0: d6a3 ab3b c59e 243e ac41 4d3d 1247 aabd
000002d0: 486b 9abd e093 ddbd ec6c a7bd bc56 593d
000002e0: 3ecc 0f3e bca1 30bd 9411 d7bc cc0b 303d
000002f0: 6471 933d 3cc1 423d 70f9 fdbd 731f 52bc
00000300: 3651 9ebd 90f5 47bc b0d5 5a3c 8c23 10bd
00000310: 67e7 ab3c 302c 99bc 10c2 07bc 03c8 483c
00000320: fa72 48bd be8c 8cbc fce2 afbd 8c0b 7ebd
00000330: b4e6 8fbd 4ab7 16bd 6e24 bfbd 5311 953c
00000340: 7aad a8bd e452 e83d 54d2 44bd 1c58 12bd
00000350: 535a c8bd fc8c 72bd 8cb2 923d c0bb b83d
00000360: 9094 0fbc e559 833d 30d5 68bc 4eb2 3e3d
00000370: 26c9 edbd 0c68 96bd 824a cb3d 701c d93c
00000380: 643a b53d 0ed1 8f3d 36d1 3e3e 0f9f 56bd
00000390: f9ad c9bd ac68 173d edf9 b0bd c8f9 18bd
000003a0: e860 993d 0002 bd39 0268 15bd f494 cfbd
000003b0: b050 25bc a048 51bd 6e63 a33b e4b4 45bc
000003c0: 9131 53bd a17d 4f3b 90b8 8f3d 2604 9c3d
000003d0: fc42 443d 326d afbd 5663 bb3d ac76 703c
000003e0: 9279 ce3d 08bb fb3c 5931 5f3d c82f 07bd
000003f0: 78eb c23c cf80 f1bd d0db 933c a99a d33d
-0.12068258 -0.079319134 0.1141773 0.01592946 0.04841027 0.053549096 0.057425633 -0.007995384
0.056470335 0.094582416 -0.049330547 -0.099974155 -0.020101845 -0.10402601 0.08172198 0.10742606
-0.016325813 0.03977418 0.054518208 0.09623179 -0.01567872 0.07399811 -0.026812539 0.12394878
-0.03984481 0.042260773 0.060639992 0.10936913 -0.0433518 -0.01836969 0.14045364 0.032281667
0.0021190136 -0.020877495 0.11434598 -0.06811668 0.058793437 -0.050162464 -0.06910632 -0.05684106
0.09704466 0.022413194 -0.082222365 0.10110749 0.00463216 0.12428002 0.08416287 -0.060148086
0.070844695 0.025155336 -0.080729574 0.087031156 0.07806803 -0.02884689 -0.041051105 -0.0038307828
0.12516412 0.056205913 0.031804927 -0.077233404 0.0690417 -0.0750104 -0.115591004 0.14082462
-0.03327866 0.08120938 0.080556974 0.06462218 0.042288408 -0.0033473866 0.12203373 -0.18520208
-0.15962468 -0.22688285 0.008479729 0.029791117 0.090284586 0.010659554 -0.03238362 -0.08877739
-0.032030717 -0.0039310455 0.010382041 0.0043251812 0.023554832 -0.10641681 -0.09750019 -0.018686095
0.046655357 -0.02794561 -0.092297286 -0.12198362 0.005331069 -0.12183426 -0.04396374 0.025118425
-0.12484835 -0.056374833 -0.1336674 -0.009340412 -0.13989411 0.095301345 0.042833645 0.12345281
0.0054049985 0.107467145 -0.13506518 0.083753675 -0.014970228 -0.05595717 -0.022804571 -0.12906677
-0.18270057 -0.19669688 0.03679785 0.11255127 -0.045374945 0.0146485865 0.11603539 -0.04675289
-0.23091774 -0.08172996 -0.20169646 0.05435878 -0.089281395 -0.011022984 0.11017294 -0.049290057
-0.0341022 -0.041679993 -0.05472882 0.07302463 -0.045583405 0.0944426 -0.09044698 0.05557723
-0.043430854 0.03173399 -0.10255094 0.0837563 0.039858058 0.03611896 -0.10206847 0.047230676
-0.047564805 -0.06781949 0.09299457 -0.06147693 0.011544586 -0.040406436 0.031493127 0.047505163
0.0931613 0.07057225 -0.06924932 -0.017219769 -0.0046596527 0.07619785 0.14319341 -0.10232009
0.088307895 0.040357634 -0.07133917 0.17402521 0.01879362 0.07283655 0.08566035 0.0058273077
0.013842144 -0.03131461 0.059968285 -0.11825563 -0.06845865 -0.07309884 0.13953124 0.046619546
0.0052380366 0.16076191 0.050111458 -0.08314337 -0.075399935 -0.108192205 -0.08175072 0.053061232
0.14042756 -0.043122992 -0.0262535 0.04298 0.07199362 0.047547564 -0.12401092 -0.012824881
-0.077303335 -0.012204543 0.013356611 -0.03519015 0.020984365 -0.018697828 -0.008286014 0.012254718
-0.048937775 -0.017156955 -0.08588216 -0.06202273 -0.07026425 -0.03679589 -0.0933312 0.018196737
-0.08236213 0.11343935 -0.048052147 -0.03572856 -0.09782853 -0.059216484 0.07162961 0.090201855
-0.008763447 0.064136304 -0.014210984 0.046556763 -0.11610632 -0.07344064 0.099263206 0.026502818
0.08849028 0.07022296 0.18634495 -0.052397784 -0.09847636 0.036965057 -0.086414196 -0.037347585
0.074891865 0.0003605038 -0.036476143 -0.101358324 -0.010090038 -0.05109465 0.004986218 -0.0120670535
-0.051560942 0.0031660574 0.070176244 0.07617979 0.047915444 -0.08565749 0.09149806 0.014676731
0.100817814 0.030728832 0.05449042 -0.033004552 0.02379392 -0.117921464 0.01804915 0.103322335

modality_encoders.sleep.3.bias f4 [32]
00000000: 03bc 053e 40e2 ec3d d124 83bd 8ccf 553e
00000010: c1d4 24be fd05 47bd 464d 85bc c51d 473e
00000020: 18b4 013e e7d7 8cbe 8722 de3d 017e e4bc
00000030: e296 6abc 8852 5c3e 755d 34be 6fe5 b2bd
00000040: 8ecc ca3d 0e1f 4cbd d38a 88bd 0e85 9b3e
00000050: cee9 e53d f0b8 1b3e 14f9 803e 69ba 913c
00000060: 09ae 43be 89bf e03d 9d3a 9a3e 1ddd 79be
00000070: d98b d7bd b76f 15be cfed 65be 9728 1bbe
0.13060002 0.11566591 -0.064035065 0.20879954 -0.16096784 -0.048589695 -0.016272198 0.1944495
0.12666357 -0.2750847 0.10846429 -0.027892115 -0.0143182 0.21515858 -0.17613776 -0.08735167
0.09902297 -0.049834304 -0.066671036 0.3037495 0.11226235 0.15207267 0.25190032 0.017789083
-0.19109358 0.109740324 0.30122843 -0.24400754 -0.10524721 -0.14593397 -0.22453998 -0.15152203

modality_encoders.stress.0.weight f4 [64, 1]
00000000: a34d 4d3e 1b79 8d3e 2a2a 74bf 98ee 64bf
00000010: d650 62bf 390f 523e dab1 3bbe 8aed 2c3e
00000020: 4802 2ebf c00d 9bbe 54bc d1be 79bb 7e3e
00000030: 0db8 09be 4c0b 683e 66e9 1c3d a859 2abf
00000040: 379c 523e f03f 39be 55f8 043e 1b8f 69bf
00000050: 7425 6fbf d661 fa3e 961f a23e 9611 e93d
00000060: d834 4ebf 79ca 573e 0079 05bc 1b7c 743e
00000070: 6424 a63e 6ac3 66bf f45c a6bd 7b91 513e
00000080: 212a 263f a858 843e bf48 df3d e2eb 12bf
00000090: d040 ccbd 70a1 e63e 66d6 f33d 3478 abbe
000000a0: d723 62bf babf 893e a715 fa3e a0da d3bd
000000b0: 584b 0a3e 3644 173e c21a 85be d0b2 a2be
000000c0: 5c98 62bf a166 cebe c584 4a3e 9852 f6be
000000d0: caf8 7e3e 3e49 41bf deb3 113e 91a9 34be
000000e0: 3e37 24bf ad1b e63e abc5 f43d 62c7 773e
000000f0: 7892 48be 00de 163d 1e9d 3ebf 9b8f 21bf
0.20049147 0.2763146 -0.9537684 -0.89426565 -0.88404596 0.2051362 -0.18329564 0.16887489
-0.6797223 -0.30283928 -0.40963995 0.24876203 -0.13449116 0.2266056 0.038308524 -0.66543055
0.20567404 -0.18090796 0.12985356 -0.91233987 -0.93416524 0.48902768 0.31664723 0.113803074
-0.80549383 0.21073331 -0.008146524 0.23875467 0.3244964 -0.9014193 -0.08123198 0.20465653
0.64908034 0.2584889 0.10902547 -0.5739118 -0.099732995 0.45045042 0.11906128 -0.33490145
-0.8833594 0.26904088 0.48844644 -0.10344434 0.13505304 0.14772114 -0.25996977 -0.31777048
-0.8851373 -0.40312675 0.1977721 -0.4810989 0.24899593 -0.75502384 0.1422877 -0.1764281
-0.6414679 0.4494299 0.11951765 0.24197152 -0.19587123 0.03683281 -0.7445849 -0.6310975

modality_encoders.stress.0.bias f4 [64]
00000000: 7de7 8ebf d6d4 a5bd 7c0e 90be 201a 68be
00000010: 0155 c43f 52b4 8abf 7332 563f fd23 bbbe
00000020: 93b2 943f 70db 02be 660a 393f 4bf1 163f
00000030: f627 513f 7cea 993c d441 b63e 35b4 a13f
00000040: 7625 9bbf 08b1 6ebf 5b61 35bf 8310 c23f
00000050: 46d8 21bf 3cad 8dbf f3db 48bf 0e89 d83d
00000060: d453 3bbf fa3c c6be 100d 0fbf 1d10 7fbf
00000070: 6187 51bf 04e9 32bf cae6 5c3f 0472 89bf
00000080: 11c2 a3bf d46d 8ebf 4889 eabe b86a c1be
00000090: c0e2 d4be c5f8 2cbe 655b f4be 841e 08bf
000000a0: bf46 cb3f 85c5 bebc 5888 0d3d 14cb ffbe
000000b0: 3fe0 f0be 6394 7cbe 26bf 2d3f b827 ebbe
000000c0: 609d 3bbd 06e7 563f ff62 d53e e281 6abf
000000d0: e2b4 15bf 84c2 a8be a0f7 8cbe cdb6 1b3f
000000e0: 0f9a a03f 112d 5ebf e49a d13e cf70 9abf
000000f0: 5c8f 25bf 0456 0fbf 10ed 0bbe c2d2 a33f
-1.1164395 -0.08097236 -0.2813605 -0.22666216 1.5338441 -1.0836279 0.8367073 -0.36550894
1.1616997 -0.12779021 0.7228149 0.58961934 0.817016 0.018788569 0.35597098 1.263312
-1.2120807 -0.9323888 -0.7085168 1.5161289 -0.6322063 -1.1068492 -0.78460616 0.10573016
-0.73174787 -0.38718396 -0.55879307 -0.9963396 -0.81847197 -0.69886804 0.86289656 -1.073792
-1.2793599 -1.1127267 -0.45807862 -0.37776732 -0.41579247 -0.16891773 -0.47725978 -0.53171563
1.5880965 -0.023287544 0.034553856 -0.49959624 -0.47046086 -0.2466598 0.67869794 -0.4592874
-0.04580438 0.83946264 0.4167709 -0.91604435 -0.5847913 -0.32960904 -0.27532673 0.60825807
1.2547015 -0.86787516 0.40938485 -1.2065676 -0.64671874 -0.55990624 -0.13664651 1.2798693

modality_encoders.stress.3.weight f4 [32, 64]
00000000: dc63 01bf b9a9 cabc 00ac 2839 b04b 05bd
00000010: c814 8cbf f2b4 00bf a913 d43d b1e2 763d
00000020: 921c 2abf 82dd 87bd c0b8 31bf a553 9abc
00000030: 930b 9e3e f458 e7bc 844e 843d 3263 70bf
00000040: 7f27 d7be 3c32 ab3d 8c09 f5be 83d8 4fbf
00000050: 20bd ebbc e4e4 863c a978 203d 70b2 0d3e
00000060: e840 2abd ab1c 68bc a8fd 16bd 3b28 8ebd
00000070: a2a2 18bd e0a6 b53c 2c53 753c 6b14 f6be
00000080: 4987 61bd bf5e 1fbe 4795 80be 6213 eb3d
00000090: d01a e2bd 70ca db3d 41f6 3dbd d40b 77bd
000000a0: a093 46bf 7761 643b e680 243d 92a2 87bd
000000b0: 800d 653c 4aa8 87bc 3992 6f3e 884c 883d
000000c0: 7cb4 7b3d 0cae 813d 7dbb 8ebd c0bb 1ebb
000000d0: 3f5c 10be d813 e1bd 5837 983d 9843 153e
000000e0: 264f 46bf 65ad f53c a316 253d c321 7bbe
000000f0: 3850 e9bc be7c 9dbd 5883 663d d9a2 f8be
00000100: f38a 523d 0ae9 503d 5acf a03d 7a24 e33d
00000110: 613a a0be 93d7 bc3c 89d4 ca3c 4d76 6e3c
00000120: ed6b 10bc a0da 1fbd fa54 1fbd c73a aebd
00000130: 0684 903d c325 c1bd f223 933d 3ed2 0dbe
00000140: 8215 68be 9004 a3bd 9305 77be 14b8 47be
00000150: 447f dd3d a085 e7bc 62f1 983c 105f 81bd
00000160: 86df b5bd 8fcb 35bd 30a8 b4bd e474 93bd
00000170: b9c6 c53d 54aa 763d 2e9b 1d3e b3fc 493e
00000180: d348 31bd 9076 44bc 72a4 39be 00b4 a13d
00000190: 2004 ea3c 84c2 523d 4c53 16bd 60e8 a93d
000001a0: e22f 65be 2502 5dbc 8266 063d f4d9 953d
000001b0: 2fa6 10be ac34 39bd b980 343e 003b adbc
000001c0: 38b3 bc3c a55b 8d3d 5d01 473c f86b c63c
000001d0: 9202 fc3c 80a3 0d3b 8ba0 aabd dffb 033e
000001e0: 6684 d5bc a76d da3c f7f1 c4bd 8b2e 0e3e
000001f0: 9823 fcbc 7ce8 04bd e64d be3d da80 d43d
00000200: 3347 363f 3abb aa3d e03a fbbb 4c95 07bd
00000210: d997 bdbf 0ab6 653f e0cd f9bc 8bfe 2b3d
00000220: 3e3a a9bf 12e8 943d fba2 48bf a534 363e
00000230: c278 283e b495 8f3d 718d 9a3c 7c3a aabf
00000240: 83f4 973f 0e64 c23d a521 293f d0e4 9bbf
00000250: 04f7 c2bd 90e9 263d 90c6 a53d dd3e 5e3d
00000260: f09f 59bc ec45 993d c274 a0bd f6d1 0cbd
00000270: 3096 73bc 2853 f13d a7f3 443e ea42 603f
00000280: ebcd 143d b7fa 2f3e 35d5 a23e 207e 1c3d
00000290: d8df 4cbd 0acb dc3d 1200 de3d d0f9 76bd
000002a0: 77a5 8abf 2671 8bbd 1975 9a3d b022 a03d
000002b0: 36a2 b43d b700 41bc 1bb0 a03e e039 d13d
000002c0: 0033 d23d 9819 883d a432 79bc 3c9a 4c3d
000002d0: aaa8 e13d b45f 1b3d 6fa7 213e 9be7 7e3e
000002e0: 6015 97bf afea 473d 754e 3f3e 5346 193e
000002f0: 38b4 f7bd e088 a13b 10df 633d dd17 55bf
00000300: 7b83 ce3e 0946 41bd 40bd 32bb eed1 f53d
00000310: 1915 9fbf a920 bc3e 1f9a 943d a8b6 e33c
00000320: 3b12 7bbf 40b7 75bb 93a2 5cbf 2424 523d
00000330: a29e c7bc 04da d8bb 3975 a9bc 0144 9cbf
00000340: df46 1c3f ee49 e1bd 8843 c03e 0357 85bf
00000350: 5c2b 333d 6aa2 e8bd f25a f5bc f3e7 373d
00000360: c833 e73d 1feb 68be 4abb ec3d 4b58 72bd
00000370: a655 0fbe 466f b43d 035d 823d f2f5 283f
00000380: 3fa1 bebd 21cc be3b 28fb bf3d 0c9a 293d
00000390: 3485 813d 5558 fb3c bab7 eabd 809a 5f3d
000003a0: a492 97bf bc70 04be 4e19 723c a6fa a0bd
000003b0: c589 013e 1007 433d 2017 963e 3884 6fbd
000003c0: 10ed 5dbc 3878 513d de9f f13d 7019 3dbc
000003d0: aded babc 50dd a3bc 0e27 a5bc e932 3e3e
000003e0: b20d 91bf bdd1 56bc 395a 893d 092d b13d
000003f0: e0b3 9f3b b0aa 77bd e4fb d83d 0a18 2bbf
-0.50543 -0.024739133 0.00016085804 -0.032542884 -1.0943842 -0.502761 0.103553124 0.060274784
-0.66449845 -0.06634046 -0.6942253 -0.018838713 0.30868205 -0.028240658 0.06460288 -0.9390136
-0.4202232 0.08359191 -0.47858846 -0.81189746 -0.028776705 0.016466565 0.03917757 0.138376
-0.041565806 -0.014166991 -0.036863 -0.06941267 -0.037264474 0.022174299 0.014973443 -0.48062453
-0.05506066 -0.15563487 -0.2511389 0.11478306 -0.1104027 0.10731971 -0.046377424 -0.060314015
-0.7756901 0.0034848133 0.04016199 -0.06622805 0.013980269 -0.016559739 0.23395623 0.06655222
0.06145142 0.06332025 -0.06969354 -0.0024220794 -0.14097689 -0.10990113 0.07432431 0.14576566
-0.7746452 0.029989908 0.04030479 -0.24524598 -0.028480634 -0.07689808 0.056277603 -0.48561743
0.051402044 0.051003493 0.07852049 0.11090942 -0.3129454 0.023052013 0.024759548 0.014554572
-0.008814794 -0.039026856 -0.0388994 -0.08507305 0.070564315 -0.094310306 0.071845904 -0.13849732
-0.22664455 -0.079598546 -0.2412322 -0.19503814 0.108152896 -0.02826196 0.018669788 -0.0631696
-0.08880524 -0.04438358 -0.08821142 -0.072000295 0.09657044 0.06022103 0.15391228 0.19725303
-0.04328234 -0.011991158 -0.18129137 0.078956604 0.02856642 0.051455036 -0.03670053 0.08296275
-0.22381547 -0.013489281 0.032812603 0.07316962 -0.14125894 -0.045216247 0.17627229 -0.021146297
0.023034677 0.069022454 0.012146321 0.024221405 0.030762944 0.0021612346 -0.083314024 0.1288905
-0.026064109 0.026663614 -0.09616464 0.13884942 -0.030778691 -0.032448277 0.09292202 0.10376139
0.7120239 0.08336492 -0.0076669306 -0.033101365 -1.4811965 0.89730895 -0.030493677 0.041990798
-1.3220899 0.072708264 -0.7837369 0.1779352 0.16452315 0.070109755 0.018866273 -1.3299098
1.1871494 0.0949174 0.6606696 -1.2179203 -0.09519771 0.040750086 0.080945134 0.05425917
-0.013282761 0.0748404 -0.0783477 -0.03437992 -0.01486735 0.11783439 0.19233571 0.876021
0.03632919 0.17185484 0.3180329 0.03820622 -0.05001816 0.10780914 0.10839857 -0.060296834
-1.0831746 -0.06808691 0.07541866 0.07819116 0.08820002 -0.011779956 0.31384358 0.10216117
0.10263634 0.066455066 -0.015209828 0.049951777 0.11018498 0.037933066 0.15786527 0.24893038
-1.1803398 0.048807796 0.18682273 0.14968233 -0.12094921 0.004929647 0.05563265 -0.8323954
0.40334687 -0.04718593 -0.0027273446 0.120029315 -1.2428313 0.36743668 0.07255959 0.027797058
-0.9807469 -0.0037493259 -0.8618557 0.051303998 -0.024367634 -0.0066177864 -0.020685779 -1.2208253
0.6104564 -0.11000429 0.37551522 -1.0417179 0.043742523 -0.11359103 -0.029950593 0.04489894
0.11289173 -0.22745942 0.1155916 -0.059166234 -0.13997516 0.08810286 0.06365397 0.6600028
-0.09308099 0.005822674 0.09374076 0.041406676 0.063242346 0.030681768 -0.11460824 0.054590702
-1.1841626 -0.1293363 0.014776541 -0.078603074 0.12650211 0.047614157 0.29314518 -0.058475703
-0.01354529 0.05114004 0.1179807 -0.011541709 -0.02281841 -0.020002991 -0.020160224 0.18574108
-1.1332304 -0.013111529 0.06706662 0.08651168 0.0048737377 -0.060465515 0.10594919 -0.66833556

modality_encoders.stress.3.bias f4 [32]
00000000: 4906 9f3d 4762 e73d 11a2 b83e f237 9d3e
00000010: 8321 9a3e baba 81be 9712 94be 69c8 a83e
00000020: c886 f0be 0de4 aebe 2397 e4be 7faf a7be
00000030: b0d4 75bd 6e88 99be 5677 a8be da2f 83be
00000040: 7c2c b1be 50af 483e 35f8 333e c11f 323e
00000050: c78a 71be b7c8 63be 8287 223e 763b db3d
00000060: 8786 93be 80b7 2e3e 1bf9 15be 6aad 49be
00000070: e02b c03e df26 f6bd bbc8 6b3e 8d54 9d3e
0.07764871 0.11298042 0.36061147 0.30706745 0.30103692 -0.25337774 -0.28920433 0.329654
-0.4697783 -0.34158364 -0.44646558 -0.3275108 -0.060017288 -0.299869 -0.32903546 -0.25622445
-0.3460425 0.19598126 0.17575152 0.17394926 -0.23588096 -0.22244535 0.15872005 0.10704701
-0.28813574 0.17062187 -0.14645807 -0.19695058 0.37533474 -0.12019133 0.23025791 0.3072857

modality_encoders.weather.0.weight f4 [64, 5]
00000000: f77b 41be 767c 4c3e 10a5 d8be f74b e33c
00000010: 8289 76be 72fe 34bf 9a4f 0dbf 5636 913d
00000020: e65b 07c0 d283 23bf 18d0 74bd 8d6d 953d
00000030: ae6f 4ab9 1454 8abf f81e 37bc fe31 4f3c
00000040: 4d83 5fbd 79e1 b4bd 8ebe cf3e 6a21 1f3d
00000050: a179 db3e aefd 843e 0566 acbe ab4f 0dbe
00000060: 7e2f d83e 44ab 08bf bf14 96be 2083 353d
00000070: b254 fbbf 2ba3 6e3e 5bc5 c8be 96f5 cd3d
00000080: 32c1 d1be 0c23 9abe 42cb 56bd fb2e a6bc
00000090: b5da a7be 786a 873c b7e8 33bf 7eb6 2abf
000000a0: d1f2 9cbd 0108 0f3d 4c21 c3be defc b2be
000000b0: 95b7 d23e cb27 c93e c59e c7be 5c89 aabc
000000c0: a213 5f3f 5f8f 683c cadc 933e f68b ecbd
000000d0: 2611 91be ed8a e4be 4468 dbbd 0ce6 36be
000000e0: d703 fabd 2efd 3fbe 31c2 a6be f6d7 743e
000000f0: 39dc bdbe eec0 9d3e a936 39be 7c0e 8d3e
00000100: c2ba febd b433 46bf a3d4 b9bd 775a 8a3d
00000110: 70de 47c0 c7e6 703d de46 a43e c4d6 b8bc
00000120: 8dba ffbc b2b7 e63e 6562 2d3d bb7e b8be
00000130: 43e0 bd3e 5066 94be 0baf a53e 8eea a83e
00000140: 12c8 ebbd 60e4 b9be dc4a ac3c b41e eabe
00000150: 40f0 d8be feba 763d e86a 8ebe 57a0 5ebe
00000160: 63d6 503e a6a0 30bc 2b94 d8bd ffa8 bcbd
00000170: a3d1 3b3c 9101 8abf 935b 2cbf 79f9 273e
00000180: b607 883e f12e d5be 517b a6bd eedd b8b9
00000190: 16c6 383e b9bc 913e ee7d 2ebd 451f 503f
000001a0: 995a 013f b033 9d3d 2fcc d73e bc17 9fbe
000001b0: a1d4 e83d 9020 943e 1524 b73b a90f 243e
000001c0: 4469 b1be 97ec bebe fb3c ef3d b259 74be
000001d0: f924 a43d 962b cdbd 8856 9dbe cb9c 7e3e
000001e0: 9fad 04be 1846 cebe 1959 d0be 0b2b 18be
000001f0: 7f19 93be abff 8dbd a894 5bbe 1f37 313c
00000200: 6259 f3be 418a 883e 984f d23d 73c0 01bf
00000210: 1afb 733c c5f0 b2bf 0cb5 edbe e767 5bbd
00000220: 688c cf3e 0aba 97bd 840f 9b3e 0112 dfbe
00000230: 46b8 47bf 5948 7cbe 494b 9c3d 35b7 04c0
00000240: 5edf d6be ce16 6abf ff6d 9ebd 5075 af3d
00000250: 7149 1dc0 c8b0 c7be c594 16bf 0734 193e
00000260: 5f15 e33c 4667 c8bf 4f5c 26be d505 25bf
00000270: 4652 35be 67d4 423d c37f dcbf 8844 f4ba
00000280: 079d 30bf b3b2 993d ed6b 603d 8083 2bc0
00000290: 6606 5cbd 42e3 c13d 969a 813e 05b6 50be
000002a0: 3990 d8be 1398 a0be b538 ad3e 04d8 e4bd
000002b0: 3ba6 f8bc 9d64 b33d 2bf1 6e3e b358 15bf
000002c0: ef97 453e 3b18 d23c 4f1c 06c0 2c7a e0be
000002d0: 6ff5 66bf 16d2 63be 6adf b73d 4af2 33c0
000002e0: d968 71be 32d6 9dbd 80ce 2fbe 2514 98be
000002f0: 89a3 793e b078 b5be aa17 abbe 9865 e1be
00000300: ece6 9dbe cef7 1dbe e463 e3bc b7e7 c8be
00000310: 9ba3 25be 1b75 94bd deca d63d 3968 4a3e
00000320: d545 6b3d 9108 afbe 88af cebe ee77 a0be
00000330: fd3d 893e 0a74 28be cb93 b83e fb16 cdbe
00000340: 7b90 d8bd 2c4e 443d ad9d ca3e 38d0 943e
00000350: 6195 debe 85a7 0e3d 1738 153e bfba d2be
00000360: 6424 d0bd e510 f73c 9e65 a2bf 9353 84be
00000370: 9b39 c7bd 8238 babe d146 d8be 3ef2 c9be
00000380: e646 373e 87e8 d0be 51f2 dc3e 96dd efbd
00000390: 25c4 013d 3af5 e23e 4825 15bf 6508 dd3d
000003a0: f85a f33c 92eb bcbf 75e9 adbe 652e 633e
000003b0: 58f0 debe 091b e8bd e455 973d 0fc5 e83d
000003c0: 256d a63b 007c 6bbe 698f a2be 60f1 b63e
000003d0: 6398 45be 70de ab3c 5a46 bfbe 8f6d bdbe
000003e0: 979d b5be ddea 623d 0bba a93e 05c4 75bc
000003f0: 58ac dabe f02c 4bbe f207 983e d115 20be
-0.18894945 0.19969353 -0.42313433 0.027746184 -0.24075893 -0.7070075 -0.5519959 0.07090442
-2.114984 -0.63873017 -0.059768766 0.07296286 -0.00019305825 -1.0806909 -0.011176817 0.012646196
-0.054568578 -0.08832068 0.4057507 0.038850226 0.42866233 0.25974792 -0.33671585 -0.13799922
0.42223734 -0.5338633 -0.29312703 0.044314504 -1.9635222 0.23304431 -0.3921307 0.100566074
-0.4096771 -0.30104864 -0.052439936 -0.020286074 -0.32784048 0.01653026 -0.7027697 -0.6668471
-0.07663501 0.034919742 -0.3811134 -0.34958547 0.41155687 0.39288172 -0.3898832 -0.020817451
0.8713933 0.014194339 0.28879386 -0.11550133 -0.28333396 -0.44637242 -0.107132465 -0.17861193
-0.12207764 -0.18748924 -0.3257003 0.23910508 -0.3708208 0.30811256 -0.18087257 0.27550113
-0.12437965 -0.7742264 -0.0907376 0.06755536 -3.1229515 0.058813836 0.32085317 -0.022563346
-0.031216884 0.45062023 0.042330164 -0.36034188 0.3708516 -0.28984308 0.3236011 0.3299145
-0.1151277 -0.3630705 0.02103179 -0.4572655 -0.42370796 0.060236923 -0.27815938 -0.21740852
0.20394282 -0.010780489 -0.10575136 -0.09211921 0.0114635555 -1.0781728 -0.6732723 0.1640376
0.26568383 -0.41637376 -0.081289895 -0.00035260565 0.18044314 0.28464296 -0.042600565 0.81297714
0.50528866 0.07675874 0.42147967 -0.31072795 0.11368681 0.28931093 0.005589018 0.16021599
-0.34650624 -0.3728988 0.11681553 -0.23862341 0.080148645 -0.10018079 -0.3073008 0.248645
-0.12956856 -0.40287852 -0.40692976 -0.1486017 -0.2873039 -0.069335304 -0.21443427 0.010816365
-0.4752913 0.2666798 0.102690876 -0.5068428 0.01489141 -1.3979727 -0.4642719 -0.053565886
0.4053681 -0.07408531 0.30285275 -0.43568423 -0.78015554 -0.24636973 0.07631547 -2.073682
-0.4196729 -0.9144105 -0.07735824 0.085672975 -2.4576075 -0.3900206 -0.58820754 0.14961253
0.027720151 -1.5656517 -0.1624615 -0.64462024 -0.17707166 0.047565844 -1.722649 -0.0018636147
-0.68989605 0.07504787 0.054790426 -2.6799011 -0.05371704 0.09467174 0.25313252 -0.20381935
-0.42297533 -0.31366023 0.33832327 -0.11174014 -0.030352702 0.08759425 0.23334186 -0.5833847
0.1929624 0.02564632 -2.0954778 -0.4384321 -0.9021825 -0.2224811 0.0897816 -2.8116632
-0.23575152 -0.0770687 -0.17168617 -0.2970287 0.2437879 -0.3544364 -0.33416492 -0.44022822
-0.30840242 -0.15426561 -0.027757592 -0.39239284 -0.16175692 -0.072488986 0.104879126 0.1976632
0.057439644 -0.34186223 -0.40368295 -0.313415 0.26805106 -0.16450515 0.36050257 -0.40056595
-0.105744325 0.047926113 0.39573422 0.29065108 -0.43473342 0.034827728 0.14572178 -0.411581
-0.10163191 0.030159423 -1.2687261 -0.25845012 -0.09727784 -0.36371237 -0.4224153 -0.3944263
0.1789814 -0.40802404 0.43153623 -0.11712186 0.0316812 0.44327718 -0.5826001 0.10792617
0.029706463 -1.475939 -0.33967176 0.22185667 -0.43542743 -0.113332815 0.07389429 0.11365711
0.005078929 -0.22996521 -0.31750038 0.3573103 -0.19296412 0.02098009 -0.3735836 -0.3699765
-0.35471794 0.055399764 0.33149752 -0.015000348 -0.42709613 -0.19841361 0.29693562 -0.15633322

modality_encoders.weather.0.bias f4 [64]
00000000: 1424 c63e 9044 35bf ca3e 20be 834b 1e3f
00000010: 45df 103f 5cb7 b5be 3fa5 d73e 389f 9fbd
00000020: c0ff 02be 5b87 163e 23b2 61be 0d5c b83e
00000030: 5416 933e baa5 27be 8ebb b3bc 563d 0d3f
00000040: 7efa 7f3e abb6 eb3e 752e cbbe 113a 74be
00000050: 121c 523e 2ca2 c73e 3455 0a3f 27e3 63be
00000060: 3958 c4be 32f1 ef3d 3037 1fbe 7949 0c3f
00000070: b051 8dbe fd68 15bf 01ec 5abe cdb8 95be
00000080: a31b 10bf a144 9dbc b194 e13c 9e08 d33d
00000090: acc9 013e 9983 823e 16d7 883e 1bb1 60b6
000000a0: 6cbb 20be 5a94 103f 895d 823e bc48 0c3e
000000b0: 3edb 013f abc5 d6bd c23e 783e 1d94 7cbe
000000c0: fe56 b03e 2f77 82be 9362 85bd 2732 29bf
000000d0: 68c8 0dbf 4029 81be b8be 4f3c 3fa3 76be
000000e0: 8229 11bf df68 b63e 6d7f 0fbf 96aa 97bd
000000f0: 5ca2 7bbe 51a6 82be e275 ce3d bed8 a7bb
0.386994 -0.70807743 -0.15648952 0.6183397 0.5659068 -0.35491455 0.4211826 -0.077940404
-0.12792873 0.14700072 -0.2204061 0.3600773 0.28727973 -0.16371813 -0.021940019 0.55171716
0.24997899 0.46037802 -0.3968388 -0.23850276 0.2051852 0.38990915 0.5403626 -0.2225462
-0.3834856 0.11715926 -0.15548396 0.5479961 -0.27601385 -0.58363324 -0.21379091 -0.29242554
-0.5629217 -0.019197764 0.027536722 0.10304378 0.12674588 0.25491026 0.26726598 -3.348169e-06
-0.15696496 0.56476367 0.25461987 0.13699621 0.5072516 -0.10486921 0.2424269 -0.24665876
0.3444137 -0.25481555 -0.06512942 -0.6609215 -0.5538392 -0.25226784 0.012679748 -0.24085711
-0.5670396 0.35626885 -0.5605381 -0.074055836 -0.24573654 -0.25517514 0.10081078 -0.005122273
