results/migraine/model.pth (torch, 205499 bytes, 44 tensors)

modality_encoders.eeg.0.weight f4 [32, 6]
0.07449476 0.28353623 0.19002163 0.2869075 -0.24329573 0.38087225 0.025414633 0.12122485
0.044003427 -0.1013383 0.33505353 0.25186458 0.17050885 -0.15297145 0.13102166 0.39801514
0.09914756 0.30764988 -0.2678217 0.2657875 -0.08905144 0.3407853 0.21423039 -0.13024206
0.1720363 0.14192837 -0.050334077 -0.03376355 0.22337204 0.38517222 0.3728505 -0.11759585
-0.03870359 -0.34649083 -0.23202217 -0.335764 -0.19945776 0.29666707 -0.23397367 -0.28450373
0.029793007 -0.2719349 0.2552301 0.25262177 0.18375842 0.009808637 -0.16897626 0.23261502
0.13246205 -0.16973636 -0.19073246 0.30160457 0.3987184 0.36400533 -0.12129099 -0.08721134
0.0012694298 -0.002865123 -0.26962233 0.23500443 -0.062417217 -0.02852601 -0.006855427 0.0762692
-0.039041635 -0.02205768 0.40735322 -0.1164347 0.06304015 0.30546945 -0.16072775 0.007847552
-0.21705273 -0.25072372 0.30517298 -0.37755573 -0.15557212 0.27798307 0.23424134 0.13734098
0.37364268 0.34818876 -0.38064867 -0.2637789 -0.16825113 -0.17019863 -0.09808895 0.22994949
0.34708384 0.03869853 -0.29372028 -0.24117526 0.08246646 0.14517227 0.33112153 0.21416001
0.10637086 0.19588974 -0.16420992 -0.22172321 0.07548085 0.17689238 0.09659945 -0.05446727
0.24734205 -0.17386633 0.35062674 -0.38377663 0.1272858 0.042034995 0.039681554 -0.27314216
-0.17597234 -0.17464758 -0.28987724 0.3882103 0.3326267 0.10478042 0.17692494 0.35406336
-0.04921177 0.0081770765 -0.07198685 0.3041462 -0.22761211 -0.13587609 0.17204258 -0.1315953
-0.31902322 0.31003857 0.3892789 0.25232837 0.1476919 0.3242255 0.21064524 -0.33269703
-0.31175855 0.03963294 -0.14534046 -0.39221454 -0.26937467 -0.22647992 0.397813 0.38662338
-0.050932147 0.010608869 -0.20752092 0.36106688 0.20365374 0.39752647 0.188657 0.030982623
-0.1869737 0.23708425 0.23454258 -0.114124045 -0.04541214 -0.05307476 -0.3312986 0.075058565
-0.31699604 -0.026534751 -0.07874261 0.3461887 0.3421655 0.3260591 -0.37302417 0.03749154
0.09168136 0.3962572 -0.40580794 -0.332852 0.046954643 -0.021263143 0.36064708 0.36289933
0.037385836 0.36635825 -0.36970764 0.023214739 -0.23578529 -0.2855256 0.37437496 -0.3243276
0.29583174 -0.3677131 0.39763656 -0.2609661 0.35583884 -0.030862221 -0.12039698 0.18596417
00000000: b590 983d a92b 913e 0895 423e 8ae5 923e
00000010: 8422 79be b001 c33e 5932 d03c bc44 f83d
00000020: f03c 343d 748a cfbd 238c ab3e 65f4 803e
00000030: df99 2e3e 8ca4 1cbe 8b2a 063e a4c8 cb3e
00000040: e00d cb3d 4984 9d3e ed1f 89be 4d15 883e
00000050: 9a60 b6bd 697b ae3e 365f 5b3e 2d5e 05be
00000060: 492a 303e ac55 113e 1b2b 4ebd a64b 0abd
00000070: a4bb 643e 4b35 c53e 43e6 be3e 18d6 f0bd
00000080: a887 1ebd 3f67 b1be 3897 6dbe 42e9 abbe
00000090: a83e 4cbe bfe4 973e cb96 6fbe 79aa 91be
000000a0: 7710 f43c 0d3b 8bbe 85ad 823e a457 813e
000000b0: 2b2b 3c3e 68b4 203c 1d08 2dbe a232 6e3e
000000c0: 22a4 073e 5ecf 2dbe 5f4f 43be ea6b 9a3e
000000d0: d124 cc3e e85e ba3e 6967 f8bd dc9b b2bd
000000e0: ff62 a63a cac4 3bbb f00b 8abe 00a5 703e
000000f0: 32a9 7fbd 61af e9bc 7da3 e0bb 0733 9c3d
00000100: 1fea 1fbd 4fb2 b4bc 9a90 d03e 5175 eebd
00000110: 321b 813d 7e66 9c3e d195 24be 0593 003c
00000120: 1243 5ebe dc5e 80be a23f 9c3e fc4e c1be
00000130: 4c4e 1fbe cc53 8e3e f6dc 6f3e 1da3 0c3e
00000140: 184e bf3e cc45 b23e 62e4 c2be 070e 87be
00000150: 064a 2cbe 8d48 2ebe dce2 c8bd e177 6b3e
00000160: f9b4 b13e 5a82 1e3d 8162 96be a6f6 76be
00000170: 2de4 a83d 0aa8 143e c388 a93e c34c 5b3e
00000180: f7d8 d93d 5297 483e a526 28be 690b 63be
00000190: b495 9a3d 4723 353e efd5 c53d 1219 5fbd
000001a0: 3c47 7d3e 040a 32be 5985 b33e 5f7e c4be
000001b0: 3557 023e e32c 2c3d 2089 223d 4ad9 8bbe
000001c0: 1832 34be d1d6 32be ca6a 94be 80c3 c63e
000001d0: 0c4e aa3e 1e97 d63d d02b 353e cb47 b53e
000001e0: 4892 49bd 25f9 053c d76d 93bd 0db9 9b3e
000001f0: 2613 69be 1a23 0bbe ee2b 303e ebc0 06be
00000200: 0357 a3be 60bd 9e3e 904f c73e 2f31 813e
00000210: 8c3c 173e e200 a63e 63b3 573e 4457 aabe
00000220: d19e 9fbe 2656 223d 21d4 14be 58d0 c8be
00000230: 7aeb 89be 5aea 67be 25ae cb3e 80f3 c53e
00000240: 3a9e 50bd d2d0 2d3c 5d80 54be c2dd b83e
00000250: 9b8a 503e 9788 cb3e 4d2f 413e 45cf fd3c
00000260: 0976 3fbe 37c6 723e ee2b 703e deb9 e9bd
00000270: 1502 3abd eb64 59bd f89f a9be 4eb8 993d
00000280: 4e4d a2be 685f d9bc ce43 a1bd a53f b13e
00000290: 5130 af3e 38f1 a63e 06fd bebe bb90 193d
000002a0: 70c3 bb3d 39e2 ca3e 0fc6 cfbe 946b aabe
000002b0: 8353 403d 0b30 aebc bca6 b83e f1cd b93e
000002c0: e421 193d 4f93 bb3e 524a bdbe d62c be3c
000002d0: b371 71be 6930 92be 13ae bf3e 440e a6be
000002e0: 4277 973e e444 bcbe 0597 cb3e 599d 85be
000002f0: 8230 b63e c5d2 fcbc b192 f6bd 646d 3e3e

modality_encoders.eeg.0.bias f4 [32]
-0.15585491 -0.35359645 0.027362918 -0.39782038 0.22021516 -0.004915123 0.20238377 0.27547896
-0.0694768 0.29349115 -0.12849142 -0.3018961 0.08404692 -0.03663987 0.0057308786 0.35939133
-0.20901012 -0.030999705 -0.21646002 0.39464614 0.28368294 0.31506753 -0.15440036 0.1446254
0.019184187 -0.34798115 -0.29562753 -0.35700503 0.30175602 0.2618798 -0.28806302 0.13301165
00000000: 6e98 1fbe 980a b5be 3328 e03c 1daf cbbe
00000010: 1580 613e 0a0f a1bb b13d 4f3e 940b 8d3e
00000020: da49 8ebd 7944 963e 4193 03be 2092 9abe
00000030: cb20 ac3d b013 16bd 18ca bb3b 2402 b83e
00000040: c006 56be 18f3 fdbc b2a7 5dbe 0f0f ca3e
00000050: e43e 913e 8850 a13e 211b 1ebe ae18 143e
00000060: 2828 9d3c 962a b2be 7e5c 97be 5dc9 b6be
00000070: c47f 9a3e 1c15 863e ff7c 93be 3534 083e

modality_encoders.eeg.3.weight f4 [16, 32]
0.08241983 0.0316954 -0.14870642 0.052459635 -0.030906558 0.16460758 0.031046716 0.106158786
-0.17675574 -0.17101416 -0.08054216 -0.12262263 -0.021488085 0.041033056 -0.03599853 -0.15147954
-0.098269336 0.14657569 -0.10059708 -0.14114866 0.15233685 -0.16463357 -0.06110193 0.06385389
0.08479476 -0.03891785 -0.030745283 0.09194248 -0.058818836 -0.12579964 0.14694622 -0.070020795
0.15376237 -0.019804846 -0.03074229 0.08048636 0.122319594 0.13296284 0.07295392 -0.14601445
0.14709873 0.121846914 -0.06881052 0.16343525 -0.15949625 0.14552721 -0.13446525 -0.10692963
-0.08033958 0.012060194 0.056841347 0.059229955 0.043740273 -0.11726631 0.11457486 0.16538373
0.0017380306 -0.11587256 0.10287163 0.024596522 -0.15132524 0.12370612 0.0015866181 -0.057804402
-0.13312083 -0.048601955 0.082728885 -0.14511977 -0.16752642 -0.1030631 0.08729609 -0.14421427
-0.17212126 0.07092235 -0.094391175 0.011215908 0.0045919833 0.10841686 0.108307034 0.036098838
-0.08578877 0.17587732 -0.024801208 -0.081551306 0.062083002 -0.15116997 -0.07987567 0.031356853
-0.06899934 -0.038503062 0.17426978 0.054528687 -0.15132207 -0.037228394 0.018900037 0.16142121
-0.14013296 -0.12609869 0.11328683 0.10104517 -0.02766871 -0.089710556 -0.057083502 -0.07099898
0.050635412 0.08450616 0.10867699 -0.046441212 -0.0852719 -0.034103017 -0.024596836 -0.07771177
0.036155295 0.042757787 -0.007389923 0.09043259 -0.1393468 -0.11471512 0.12113082 0.14078626
-0.114051834 -0.037908413 -0.12611544 0.057456397 -0.17046015 0.08060954 0.17561139 -0.1181837
-0.108440235 0.12397057 -0.0063180234 -0.043034375 -0.1271936 -0.011540798 0.041971706 0.062254287
0.16077615 -0.13989228 -0.10011164 0.060818892 0.08645842 -0.054366484 0.13156259 -0.1028118
0.08383678 0.024671795 -0.13699934 -0.13225155 0.099695 -0.122041084 -0.0010324713 -0.05839545
-0.029075235 0.0551085 0.08348306 -0.15570417 0.060820978 0.16545796 -0.00829294 -0.14335737
-0.055630047 -0.024800027 -0.06664654 0.028641796 -0.040897172 0.15865757 0.086319104 0.105814
-0.0053250645 0.05034363 -0.1558741 0.11944699 0.041257825 -0.008606892 0.10722677 0.064350225
-0.11013182 -0.16411431 -0.06283653 -0.026541451 -0.14351901 0.047198255 0.14167018 -0.068620294
-0.0017937067 0.018296873 -0.116683334 0.15011291 0.021892484 -0.09182515 -0.13016249 0.13307741
-0.055353835 -0.03905744 -0.16422077 0.10561804 -0.121546745 0.09249035 0.104905024 -0.17146541
-0.14016227 0.10128846 0.02741878 0.14278416 0.03910692 0.036606643 0.101972654 0.08868281
0.06567851 0.15120196 -0.14098428 -0.03542373 -0.030793013 0.07728876 0.099897094 -0.13656756
0.13319652 -0.09938682 -0.031182008 -0.08143098 0.120640695 0.090319455 -0.09142893 0.12943055
-0.15423548 0.15494378 -0.15131749 0.054044396 -0.012679057 -0.17403494 -0.16585566 0.008733438
0.11086777 0.070704326 -0.17217493 -0.16300017 0.12739523 -0.123141855 0.12831244 -0.09693234
0.078217044 0.14041454 0.11209199 0.021052372 0.008710257 -0.038255766 0.12338302 0.006055554
-0.11050413 0.004901257 0.12769924 -0.11471502 -0.10471439 0.1359639 0.1676019 0.11178817
00000000: bacb a83d 09d3 013d 7f46 18be eadf 563d
00000010: c02f fdbc e48e 283e af55 fe3c c769 d93d
00000020: 75ff 34be 561e 2fbe 4af3 a4bd 9321 fbbd
00000030: c807 b0bc 4712 283d 3273 13bd 741d 1bbe
00000040: 6f41 c9bd f017 163e d805 cebd 4689 10be
00000050: 31fe 1b3e b495 28be 0446 7abd d4c5 823d
00000060: e0a8 ad3d 5368 1fbd 88dd fbbc 574c bc3d
00000070: 05ec 70bd 9fd1 00be 1279 163e 1067 8fbd
00000080: e273 1d3e c63d a2bc 41d7 fbbc 08d6 a43d
00000090: b282 fa3d 6927 083e dd68 953d d084 15be
000000a0: 0da1 163e e08a f93d 88ec 8cbd 925b 273e
000000b0: fc52 23be 1605 153e 42b1 09be ecfd dabd
000000c0: 1489 a4bd 1f98 453c 79d2 683d 1c9b 723d
000000d0: 0029 333d 5229 f0bd 39a6 ea3d 5a5a 293e
000000e0: a1ce e33a 984e edbd 5cae d23d a57e c93c
000000f0: 01f5 1abe a259 fd3d 12f6 cf3a 4fc4 6cbd
00000100: d450 08be d812 47bd c36d a93d 479a 14be
00000110: 0c8c 2bbe bf12 d3bd 4bc8 b23d e8ac 13be
00000120: 8e40 30be bd3f 913d 2950 c1bd eec2 373c
00000130: 5978 963b a909 de3d 14d0 dd3d 60dc 133d
00000140: 06b2 afbd 2f19 343e e72b cbbc 5f04 a7bd
00000150: bf4a 7e3d 4dcc 1abe db95 a3bd 0b70 003d
00000160: 874f 8dbd 63b5 1dbd c773 323e 7959 5f3d
00000170: 2cf4 1abe cd7c 18bd 40d4 9a3c 9a4b 253e
00000180: 047f 0fbe 0420 01be ed02 e83d c5f0 ce3d
00000190: 7ea9 e2bc 2bba b7bd 64d0 69bd ea67 91bd
000001a0: 1467 4f3d 9111 ad3d 0b92 de3d 2439 3ebd
000001b0: 09a3 aebd 9baf 0bbd 4e7f c9bc 5927 9fbd
000001c0: 9317 143d ca22 2f3d 2b27 f2bb b934 b93d
000001d0: edb0 0ebe c3ef eabd 6f13 f83d 462a 103e
000001e0: 0294 e9bd da45 1bbd 6824 01be 6657 6b3d
000001f0: 1b8d 2ebe 9d16 a53d 79d3 333e 4c0a f2bd
00000200: ea15 debd 48e4 fd3d 6c07 cfbb d044 30bd
00000210: 0a3f 02be 9d15 3dbc 86ea 2b3d 5afe 7e3d
00000220: 81a2 243e ec3f 0fbe 5507 cdbd 3b1d 793d
00000230: 1d11 b13d 64af 5ebd 58b8 063e fe8e d2bd
00000240: 9eb2 ab3d 811c ca3c 8e49 0cbe f36c 07be
00000250: e42c cc3d adf0 f9bd fd53 87ba 1130 6fbd
00000260: 302f eebc 73b9 613d 2bf9 aa3d ea70 1fbe
00000270: 6b1f 793d d06d 293e 1ddf 07bc 46cc 12be
00000280: 55dc 63bd 6d29 cbbc fb7d 88bd 33a2 ea3c
00000290: cb83 27bd 2177 223e 12c8 b03d 03b5 d83d
000002a0: e17d aebb 1f35 4e3d 769d 1fbe a0a0 f43d
000002b0: f7fd 283d ec03 0dbc b599 db3d 0dca 833d
000002c0: cb8c e1bd 950d 28be 70b0 80bd 756d d9bc
000002d0: a6f6 12be f552 413d fd11 113e cc88 8cbd
000002e0: cf1a ebba 53e3 953c acf7 eebd 33b7 193e
000002f0: de57 b33c d30e bcbd 5149 05be 7245 083e
00000300: b4ba 62bd b2fa 1fbd 7d29 28be 454e d83d
00000310: 80ed f8bd 956b bd3d 72d8 d63d a194 2fbe
00000320: b386 0fbe 5370 cf3d 599d e03c 0336 123e
00000330: 942e 203d d9f0 153d 0ad7 d03d 559f b53d
00000340: 7482 863d b0d4 1a3e 2f5e 10be 7918 11bd
00000350: a141 fcbc 9249 9e3d d996 cc3d 5ed8 0bbe
00000360: ab64 083e 518b cbbd 6971 ffbc 49c5 a6bd
00000370: 7812 f73d 68f9 b83d 173f bbbd 7189 043e
00000380: e8ef 1dbe 95a9 1e3e f9f2 1abe a85d 5d3d
00000390: d2bb 4fbc 3736 32be 11d6 29be b216 0f3c
000003a0: a40e e33d 6ecd 903d a04e 30be 84e9 26be
000003b0: e573 023e cc31 fcbd 5664 033e 7684 c6bd
000003c0: 4230 a03d d4c8 0f3e 7c90 e53d 0676 ac3c
000003d0: 77b5 0e3c 14b2 1cbd 3db0 fc3d ab6d c63b
000003e0: fd4f e2bd b99a a03b 97c3 023e b5ef eabd
000003f0: 8074 d6bd 1f3a 0b3e d59f 2b3e 32f1 e43d

modality_encoders.eeg.3.bias f4 [16]
-0.10364879 0.1440442 -0.073678255 0.14014533 -0.030713314 -0.15624543 -0.14233269 -0.16948405
-0.008662906 -0.15569565 -0.05005461 -0.099611275 -0.0949615 -0.15994497 0.07952497 0.023941306
00000000: d145 d4bd 5380 133e a0e4 96bd 4282 0f3e
00000010: 7d9a fbbc cdfe 1fbe a9bf 11be 3a8d 2dbe
00000020: dcee 0dbc ae6e 1fbe 1006 4dbd ff00 ccbd
00000030: 2d7b c2bd 9dc8 23be fddd a23d 8f20 c43c

modality_encoders.weather.0.weight f4 [32, 12]
0.15290989 -0.26512972 0.059286986 0.26932392 -0.041532584 -0.04185228 -0.2643205 0.05111891
0.031989306 0.085272506 -0.07318413 -0.24589993 0.269533 0.2623848 0.16896774 0.22754985
-0.18667999 0.20885862 -0.16559023 0.2641452 -0.2841367 -0.255935 0.1624916 0.06651515
0.15068944 0.2840001 -0.24031915 0.13056561 -0.14190279 -0.023836168 -0.044434957 -0.21491888
-0.10967587 -0.09046666 0.22950208 -0.059838552 -0.21918431 -0.16691436 0.27712503 -0.16603196
-0.07973426 0.040284194 0.25465858 -0.08250871 -0.08967562 0.16755717 0.26741144 0.03490338
-0.21890365 -0.1464288 -0.27369735 -0.0554554 0.12102805 0.15895136 0.19035564 0.26149645
-0.06387785 -0.21561919 -0.14810954 -0.2752782 -0.13091952 -0.23686776 -0.19071415 0.14554827
0.14144081 -0.09437055 0.27459416 0.016354043 -0.24214625 0.1797613 -0.07200986 -0.27616194
0.1511805 0.2228245 0.05363063 -1.1149733e-05 -0.16257773 -0.09706658 0.039777603 0.116908774
-0.07408784 -0.23744696 -0.22813372 0.19032374 -0.17386825 0.21243435 0.14642745 -0.20781155
0.24829447 0.18749894 -0.0497465 0.1707592 0.2160796 0.08850951 -0.2205738 -0.23226371
0.18624443 -0.14640835 0.15195607 0.15732236 -0.050370537 -0.006228537 0.087902635 -0.04945261
0.108754635 0.15328419 -0.09332165 -0.13760619 -0.20294002 0.26436913 -0.0800386 0.217678
0.124880284 0.13400179 0.10032754 0.044574432 0.19070573 -0.22692199 -0.2083179 0.10291235
-0.27047062 -0.13486886 0.26055837 -0.14755237 -0.13987498 -0.08314903 -0.21485856 0.064959
0.04689268 -0.14158224 0.031938754 0.10017973 -0.057266716 0.28483704 -0.22802962 -0.26641983
0.07421473 0.11603483 0.14961362 0.053962644 0.13635163 0.11460787 -0.14661634 -0.050805617
-0.028362926 -0.0011888919 0.11032231 -0.06224084 -0.10315303 0.11198638 0.16313279 -0.2694023
0.08904724 -0.003936475 -0.20486437 -0.2529676 -0.15009072 -0.08677156 -0.1366213 0.13717379
-0.16500439 0.2854383 -0.046453815 0.22530892 -0.01953657 -0.17501932 0.15226474 0.10084679
0.28811526 -0.28226745 -0.030739505 -0.2427928 0.23419768 -0.07996275 0.25574192 -0.053912643
-0.107645445 0.257738 0.2547371 0.27606395 0.14852174 0.23749788 0.060100883 -0.06398371
0.2734044 0.07380511 -0.108379915 0.079724 0.16267605 -0.18985249 -0.22381967 0.24555993
0.04625047 -0.16542415 -0.19307363 -0.0094151925 0.18645878 -0.23286228 0.13887323 0.09933931
0.19217065 0.07903062 -0.12130979 -0.1068418 -0.13682127 -0.09357393 0.17847592 -0.022016834
0.08321497 -0.05612497 -0.25753188 0.02519327 -0.16254872 0.016528688 -0.2548425 -0.037393317
0.28034487 -0.08878295 0.1773245 0.2237674 0.16618492 0.116774425 -0.026874334 0.21380402
-0.18601193 0.026734307 0.016956542 -0.04126458 0.025869893 0.09895092 -0.017284082 -0.26540917
-0.15181817 -0.26384643 0.17584161 -0.035140656 -0.12534717 0.18340619 -0.056489952 0.044332854
-0.0003320487 -0.1572899 -0.17847788 -0.2370112 -0.10165766 -0.17347822 -0.0075095175 -0.024876742
-0.14900899 0.2299926 0.2839844 0.09261065 -0.09271306 -0.17790508 0.21212202 -0.0061693126
00000000: 6994 1c3e 15bf 87be e9d6 723d d3e4 893e
00000010: 121e 2abd 4c6d 2bbd 0455 87be 1062 513d
00000020: 3807 033d 5aa3 ae3d 90e1 95bd 31cd 7bbe
00000030: 3b00 8a3e 4d57 863e e105 2d3e d402 693e
00000040: 0a29 3fbe 09df 553e 7c90 29be 0a3e 873e
00000050: 5e7a 91be ea09 83be 3364 263e 1839 883d
00000060: 554e 1a3e 7668 913e 3916 76be feb2 053e
00000070: f74e 11be 1144 c3bc 6e01 36bd b213 5cbe
00000080: be9d e0bd 9646 b9bd 9802 6b3e 4519 75bd
00000090: da71 60be 99eb 2abe 55e3 8d3e 4804 2abe
000000a0: b74b a3bd 0a01 253d 9c62 823e 54fa a8bd
000000b0: daa7 b7bd 1b94 2b3e 27ea 883e d9f6 0e3d
000000c0: 4728 60be 6ef1 15be 0f22 8cbe 3425 63bd
000000d0: 8edd f73d 25c4 223e 97ec 423e dde2 853e
000000e0: 64d2 82bd 47cb 5cbe 07aa 17be 44f1 8cbe
000000f0: c40f 06be 768d 72be 924a 43be 9b0a 153e
00000100: dcd5 103e 5945 c1bd 9b97 8c3e eaf8 853c
00000110: 30f5 77be 5913 383e e879 93bd 1965 8dbe
00000120: 10cf 1a3e 1b2c 643e cbab 5b3d bd0f 3bb7
00000130: c77a 26be d8ca c6bd d7ed 223d de6d ef3d
00000140: 5ebb 97bd 4c25 73be e39b 69be 3ae4 423e
00000150: 850a 32be 6488 593e 14f1 153e 8dcc 54be
00000160: e840 7e3e b9ff 3f3e fcc2 4bbd 80db 2e3e
00000170: f843 5d3e 7944 b53d 19de 61be 8ad6 6dbe
00000180: dcb6 3e3e 12ec 15be 5f9a 1b3e 1d19 213e
00000190: 5651 4ebd c118 ccbb 4c06 b43d d28e 4abd
000001a0: c0ba de3d 88f6 1c3e 6c1f bfbd a3e8 0cbe
000001b0: 82cf 4fbe 645b 873e 47eb a3bd fbe6 5e3e
000001c0: 3cc1 ff3d c437 093e 8678 cd3d ae93 363d
000001d0: 5d48 433e 3d5e 68be 4a51 55be b6c3 d23d
000001e0: 207b 8abe 101b 0abe e867 853e f817 17be
000001f0: 633b 0fbe 0a4a aabd e203 5cbe 3909 853d
00000200: 8a12 403d effa 10be 36d2 023d 082b cd3d
00000210: 8190 6abd 29d6 913e 9980 69be 2e68 88be
00000220: e4fd 973d aba3 ed3d 5034 193e ef07 5d3d
00000230: c39f 0b3e 88b7 ea3d 9822 16be 8d19 50bd
00000240: 5e59 e8bc 98d4 9bba aaf0 e13d 40f0 7ebd
00000250: e541 d3bd 1d59 e53d 480c 273e 19ef 89be
00000260: 665e b63d 8cfd 80bb f7c7 51be f884 81be
00000270: 62b1 19be 4ab5 b1bd 74e6 0bbe 4977 0c3e
00000280: e9f6 28be f824 923e 5b46 3ebd 62b7 663e
00000290: 280b a0bc 4438 33be 4aeb 1b3e c388 ce3d
000002a0: d883 933e 5c85 90be 6ad1 fbbc ad9e 78be
000002b0: 84d1 6f3e 83c3 a3bd 9bf0 823e 81d3 5cbd
000002c0: 3775 dcbd 3cf6 833e e76c 823e 4158 8d3e
000002d0: 1516 183e a532 733e 582c 763d e409 83bd
000002e0: a9fb 8b3e 2227 973d 4af6 ddbd 5646 a33d
000002f0: 8d94 263e b168 42be fc30 65be 1074 7b3e
00000300: 2271 3d3d f364 29be 18b5 45be 2e42 1abc
00000310: 0def 3e3e 7373 6ebe c934 0e3e 6872 cb3d
00000320: 62c8 443e ceda a13d 4471 f8bd e0cf dabd
00000330: e01a 0cbe b0a3 bfbd 64c2 363e a65c b4bc
00000340: 9c6c aa3d 4ce3 65bd 38db 83be 1e62 ce3c
00000350: 2c73 26be 2c67 873c b77a 82be bc29 19bd
00000360: 5d89 8f3e d6d3 b5bd 8e94 353e 4823 653e
00000370: 612c 2a3e 6e27 ef3d 9027 dcbc 71ef 5a3e
00000380: e979 3ebe e801 db3c 72e8 8a3c 0c05 29bd
00000390: 19ed d33c c8a6 ca3d 5997 8dbc b6e3 87be
000003a0: 3976 1bbe e116 87be d30f 343e a6ef 0fbd
000003b0: 025b 00be d5ce 3b3e 0262 67bd 5e96 353d
000003c0: d216 aeb9 9b10 21be e8c2 36be 10b3 72be
000003d0: e431 d0bd 46a4 31be 6612 f6bb 4fca cbbc
000003e0: d095 18be 2e83 6b3e 6766 913e a7aa bd3d
000003f0: 58e0 bdbd c02c 36be 8436 593e f227 cabb

modality_encoders.weather.0.bias f4 [32]
0.2837516 -0.16005094 0.06933224 0.1988228 0.07476343 0.12783496 -0.07268666 -0.22528408
0.09617429 -0.04068579 -0.100494474 -0.1325046 0.1207873 -0.23995373 0.091783196 0.19254926
-0.12757346 0.025698105 -0.2705617 0.023373077 0.1474523 0.1690632 0.20139034 -0.23069958
0.056349926 -0.05888408 0.15206175 -0.14305012 0.25450575 -0.20668884 -0.1576066 -0.2089842
00000000: e447 913e 65e4 23be 10fe 8d3d 3498 4b3e
00000010: 921d 993d 2be7 023e bedc 94bd dfb0 66be
00000020: 07f7 c43d 25a6 26bd 0cd0 cdbd 49af 07be
00000030: 555f f73d 6eb6 75be d4f8 bb3d a22b 453e
00000040: 9ea2 02be d584 d23c 1087 8abe e578 bf3c
00000050: bcfd 163e e71e 2d3e 4539 4e3e 833c 6cbe
00000060: 2ecf 663d 6f30 71bd 13b6 1b3e bb7b 12be
00000070: 944e 823e 3da6 53be a063 21be f4ff 55be

modality_encoders.weather.3.weight f4 [16, 32]
0.16759068 -0.10881707 0.13650382 0.16108188 0.15081392 -0.036174238 -0.15959366 -0.0133784
-0.032662228 0.029350959 0.17468533 -0.14363328 -0.1574335 0.14204946 -0.022151582 -0.120325565
-0.06564285 -0.00020487583 0.06466277 0.013979899 0.073434964 0.12865143 -0.050923444 0.105882615
-0.088477485 0.10039569 -0.004314636 -0.033873063 -0.082776874 -0.010050126 -0.009857748 -0.13141435
0.17094857 -0.070682496 0.011299907 0.113438725 -0.10015467 -0.12793027 -0.014413885 0.11953959
0.17481497 0.0044634775 0.02582883 0.002963092 0.16524866 -0.058324408 -0.112716265 0.031475835
-0.10913598 0.10862863 0.11075793 -0.025399586 0.037292205 0.08136468 -0.10816485 0.16814445
0.17431751 -0.050438523 0.031846453 0.00015800854 -0.082538344 0.040946443 0.16721387 -0.13311483
-0.08334206 0.12913065 -0.13308786 0.059906267 -0.114676476 0.047618456 0.0006495883 -0.11973786
-0.019956173 0.035621483 -0.114842914 0.0070665935 0.012274595 0.058182668 -0.16041163 -0.1601682
0.07088093 0.0105073145 0.105924346 -0.16787778 0.011702747 -0.043629363 -0.1495119 -0.12935592
-0.13925713 -0.13165699 -0.07219943 -0.15702572 0.1360078 -0.0064322413 -0.12853467 0.101622604
0.051908437 0.108079754 0.08673695 0.0014679115 -0.0703955 -0.04246375 0.024665179 -0.09697661
0.14992212 0.10050797 0.15902252 0.027353726 0.1108009 -0.15369552 0.118568584 0.08614352
-0.0030553092 0.09140256 -0.07511331 -0.10160817 -0.13996428 -0.0064004203 0.13424076 -0.11412599
0.14131212 -0.06868056 -0.1681278 -0.08223457 -0.04540994 0.17586766 0.046321936 0.044377152
-0.030427054 -0.029552717 0.070472375 -0.049284626 -0.003499811 -0.0033900607 -0.08031177 -0.13271722
-0.021530421 -0.13311061 0.10959318 -0.046176594 -0.021229621 -0.019769907 -0.17104115 0.13241819
0.05473803 -0.09519293 0.048105866 -0.02251788 -0.052545927 0.17640683 0.08806274 -0.014612207
0.04899942 -0.029721346 -0.10438628 -0.004369532 0.040995248 0.09350628 0.037063222 0.10208291
0.10144101 0.023889424 0.06418784 0.04884607 0.14148876 0.10803392 -0.00894569 -0.013335536
-0.02842318 0.10683935 0.023978101 -0.046709582 0.1516409 -0.10508383 -0.12614653 0.14771742
0.088748895 -0.008667857 -0.10464045 -0.04397288 -0.14081232 0.15548757 0.02562836 -0.06362905
0.03379069 -0.0624548 -0.12358882 -0.0941765 -0.0564651 -0.029305398 0.099746145 -0.060229637
0.071906656 0.0548871 -0.17648259 0.025152711 0.14625911 -0.06539701 0.032325137 -0.10005411
-0.15594481 -0.14799143 -0.12941463 -0.10273632 0.13408977 -0.0775266 0.1647838 -0.1087619
0.0022347944 0.036240958 -0.1080523 -0.14966792 0.0071888403 -0.08740767 -0.0281915 -0.030724525
0.072789 0.15948096 0.068231195 0.09561794 -0.07456091 -0.060673315 -0.1115684 0.021384468
-0.1349468 0.11308343 -0.0035271433 0.0668245 0.04171851 0.059610583 -0.13778533 0.14425705
-0.059401873 -0.11300476 0.14681408 0.10907153 -0.1306574 0.07318678 0.13794678 -0.09889853
0.050286647 -0.064235166 0.0796221 0.06558351 -0.087123185 0.10260555 -0.017453156 0.044057153
0.1254971 0.06652043 0.08714415 0.11360028 0.058601882 -0.020514978 -0.07896954 0.06560903
00000000: e49c 2b3e 7cdb debd a8c7 0b3e a6f2 243e
00000010: f76e 1a3e 702b 14bd 856c 23be 1431 5bbc
00000020: d4c8 05bd 6c71 f03c b6e0 323e 9a14 13be
00000030: 3f36 21be 6a75 113e 3c77 b5bc 406d f6bd
00000040: c26f 86bd f0d3 56b9 ea6d 843d f20b 653c
00000050: 1265 963d 33bd 033e 1a95 50bd fcd8 d83d
00000060: af33 b5bd 419c cd3d ca61 8dbb 7bbe 0abd
00000070: ec86 a9bd 49a9 24bc 6482 21bc 7c91 06be
00000080: 240d 2f3e fcc1 90bd 3f23 393c 9052 e83d
00000090: e41d cdbd 2700 03be 3728 6cbc 2cd1 f43d
000000a0: b202 333e 5d42 923b fc96 d33c 6f30 423b
000000b0: f236 293e 93e5 6ebd c9d7 e6bd ceec 003d
000000c0: af82 dfbd b078 de3d 0ed5 e23d cb12 d0bc
000000d0: b6bf 183d 86a2 a63d 8885 ddbd 0f2e 2c3e
000000e0: 4a80 323e a098 4ebd 6d71 023d 18af 2539
000000f0: dd09 a9bd 75b7 273d 1d3a 2b3e 414f 08be
00000100: 3eaf aabd d33a 043e 2f48 08be 4660 753d
00000110: 80db eabd 920b 433d 2249 2a3a 2039 f5bd
00000120: 217b a3bc d5e7 113d c332 ebbd e28e e73b
00000130: 621b 493c f350 6e3d f242 24be 2203 24be
00000140: 052a 913d df26 2c3c ddee d83d 27e8 2bbe
00000150: e1bc 3f3c b4b4 32bd a619 19be e175 04be
00000160: 6c99 0ebe 17d1 06be 4bdd 93bd 5acb 20be
00000170: a145 0b3e 8dc5 d2bb 989e 03be 831f d03d
00000180: f19d 543d eb58 dd3d 24a3 b13d f066 c03a
00000190: 842b 90bd 78ee 2dbd a10e ca3c ac9b c6bd
000001a0: 2f85 193e 1fd7 cd3d cdd6 223e ec14 e03c
000001b0: 95eb e23d 5c62 1dbe 16d4 f23d 046c b03d
000001c0: 953b 48bb 4431 bb3d 02d5 99bd f217 d0bd
000001d0: cc52 0fbe 9eba d1bb 6976 093e e3ba e9bd
000001e0: 20b4 103e 65a8 8cbd b229 2cbe 996a a8bd
000001f0: c6ff 39bd a716 343e 12bc 3d3d d1c4 353d
00000200: 2842 f9bc 8a18 f2bc d253 903d adde 49bd
00000210: 165d 65bb c82b 5ebb 7f7a a4bd 06e7 07be
00000220: 9160 b0bc 264e 08be 6472 e03d ab23 3dbd
00000230: bee9 adbc 80f4 a1bc 6925 2fbe a298 073e
00000240: fc34 603d 83f4 c2bd a80a 453d 6b77 b8bc
00000250: 663a 57bd fea3 343e 3d5a b43d 0a68 6fbc
00000260: 9eb3 483d 2e7a f3bc 79c8 d5bd 4b2e 8fbb
00000270: a2ea 273d 3880 bf3d 9bcf 173d d810 d13d
00000280: 4ec0 cf3d c1b3 c33c ea74 833d d112 483d
00000290: 6ee2 103e e340 dd3d f190 12bc 4b7d 5abc
000002a0: bbd7 e8bc 97ce da3d b96d c43c 8c52 3fbd
000002b0: c147 1b3e 3136 d7bd 8e2c 01be 3c43 173e
000002c0: fbc1 b53d a103 0ebc bb4d d6bd e81c 34bd
000002d0: 1b31 10be 2238 1f3e 91f2 d13c f34f 82bd
000002e0: 1b68 0a3d 9bd0 7fbd 231c fdbd 9cdf c0bd
000002f0: f347 67bd e011 f0bc b547 cc3d 5ab3 76bd
00000300: cc43 933d 4cd1 603d dab7 34be 0f0d ce3c
00000310: f3c4 153e deee 85bd 5d67 043d 2be9 ccbd
00000320: ffaf 1fbe 118b 17be 4585 04be 6b67 d2bd
00000330: d44e 093e 44c6 9ebd 16bd 283e 8fbe debd
00000340: a175 123b 6671 143d 864a ddbd 8c42 19be
00000350: 5d90 eb3b cb02 b3bd dcf1 e6bc 00b2 fbbc
00000360: 6612 953d fa4e 233e ccbc 8b3d 57d3 c33d
00000370: 64b3 98bd 9584 78bd f97d e4bd 7b2e af3c
00000380: 7e2f 0abe 4998 e73d a527 67bb 49db 883d
00000390: 07e1 2a3d 3a2a 743d 9917 0dbe 1fb8 133e
000003a0: 614f 73bd 0a6f e7bd 6e56 163e e560 df3d
000003b0: 0ecb 05be f3e2 953d ec41 0d3e 508b cabd
000003c0: 5ff9 4d3d ba8d 83bd e910 a33d a650 863d
000003d0: a46d b2bd dc22 d23d ecf9 8ebc 4675 343d
000003e0: 5082 003e dd3b 883d a278 b23d 43a7 e83d
000003f0: 8708 703d 070f a8bc c8ba a1bd 075e 863d

modality_encoders.weather.3.bias f4 [16]
-0.033180423 -0.049584333 -0.11253293 -0.03732915 0.13776258 -0.10487023 0.055716764 -0.15020409
0.13203311 0.14179839 0.17110305 0.028265467 -0.040532243 -0.048432946 0.027803602 -0.009078199
00000000: 32e8 07bd f118 4bbd aa77 e6bd 73e6 18bd
00000010: a211 0d3e 34c6 d6bd 4337 643d 1acf 19be
00000020: b033 073e 9933 113e a335 2f3e fb8c e73c
00000030: 2305 26bd a061 46bd 61c4 e33c babc 14bc

modality_encoders.sleep.0.weight f4 [32, 9]
-0.32409072 0.16480622 -0.14452288 0.19327597 0.009694855 -0.012520393 0.06567951 0.22714818
0.3316515 0.070850536 -0.29208645 0.0284851 -0.010908445 -0.09410012 0.083799765 -0.11224604
0.33223698 0.18275039 -0.03589376 -0.04869362 0.22679552 0.29703993 0.06596681 0.10420029
0.14478707 0.03249244 -0.13621902 -0.065764785 -0.2999199 0.15999043 0.20140132 -0.19627059
-0.01209414 0.22650783 0.1262949 0.14734797 -0.30207273 0.0017709732 0.3113339 0.14065957
-0.24531043 -0.09979471 -0.2754577 0.17755131 0.08145659 -0.08591839 0.22749655 -0.016857665
0.13116217 -0.07288607 0.0434618 -0.06479859 0.100220405 0.13621747 -0.2844504 0.18520086
-0.15994498 0.28906745 -0.12073815 0.14156911 0.0061164303 -0.09428179 0.16350512 -0.13275087
0.21701977 0.26670215 0.3148995 -0.08176744 0.17489052 -0.031287353 -0.22612374 0.24030757
0.16384467 -0.21382678 -0.055583082 0.06275495 0.1836178 -0.01642879 -0.022577047 0.18178582
0.042390626 0.05601458 0.33325812 0.2997195 0.27036113 0.28925058 -0.2034698 -0.17927787
0.17621171 -0.18002221 -0.15810601 0.03733957 0.3013401 -0.011871338 -0.15454018 0.002324184
-0.32909268 0.32640633 0.1933624 -0.17679386 0.19040482 0.26956043 0.16653726 0.02245458
-0.21711946 -0.29237747 0.043954533 -0.16268396 0.043514054 0.21661584 0.0343496 -0.15879747
0.19432673 -0.14033751 -0.25064644 0.3114615 0.31669152 0.044244967 -0.29660344 -0.21040039
0.21512374 0.14653318 0.09699647 -0.011066954 -0.042047422 0.062372964 -0.07486574 0.06342232
-0.15231344 -0.20737943 -0.19943058 0.1067826 0.008351048 -0.111383796 -0.114446566 0.041650455
-0.3258798 -0.036252618 0.032485567 0.1182584 0.20159698 0.09520336 0.06116756 0.28648123
-0.14765021 0.16175982 0.2134715 0.16965818 0.1319556 0.022169948 -0.06116172 0.07573017
-0.2482373 -0.08185077 0.27423868 0.20705621 0.05762609 -0.2936569 0.053314447 -0.26421475
0.041173458 -0.19828384 0.14960012 -0.1907059 -0.31040356 -0.1637598 0.014585098 0.17264907
-0.176141 0.10424356 0.22380035 0.22480083 -0.0370969 -0.30049282 0.12801743 -0.050508462
0.3227783 0.021785062 0.07276575 -0.030456703 0.0963256 0.24507663 0.06855786 -0.09537061
0.17655692 0.28862524 0.31939432 -0.19649975 0.12299669 0.23519199 0.29316303 -0.28798586
0.29451454 0.3270392 0.22109854 -0.18996632 0.27794862 0.11036619 0.05894371 -0.2872268
0.12571041 -0.2392447 -0.12665924 0.10409578 -0.00048089027 -0.00065318745 -0.13043301 -0.13989465
0.28213105 0.24304006 0.10787833 0.13952264 0.101768814 0.19317934 0.07982012 0.2346189
-0.0061057806 -0.29854402 0.09534125 -0.2756347 0.24025452 0.06620185 0.058492184 -0.17869668
-0.055393618 0.12564966 0.2511242 0.03643362 -0.28934652 0.110288545 0.05457294 0.17511722
-0.2723727 0.08941265 -0.16854453 0.30455685 -0.22097528 0.2490869 0.3188814 -0.100168705
0.052316945 0.032030027 0.08176911 -0.15561625 0.18519044 -0.16657257 0.3008756 -0.22683339
0.10883562 -0.32248926 0.29784462 0.015503725 0.12684643 0.03345319 0.14635961 0.26820087
00000000: 38ef a5be f6c2 283e cefd 13be 23ea 453e
00000010: 2bd7 1e3c 5622 4dbc fb82 863d 8899 683e
00000020: 3ace a93e 161a 913d 5b8c 95be 9659 e93c
00000030: 56b9 32bc 90b7 c0bd 369f ab3d 40e1 e5bd
00000040: f71a aa3e eb22 3b3e 5605 13bd f672 47bd
00000050: 163d 683e 9e15 983e 9b19 873d f666 d53d
00000060: 1043 143e cb16 053d 007d 0bbe b0af 86bd
00000070: 1a8f 99be 88d4 233e 263c 4e3e 28fb 48be
00000080: 8026 46bc abf1 673e 7353 013e 63e2 163e
00000090: 47a9 9abe 0020 e83a 2867 9f3e 1009 103e
000000a0: a832 7bbe 2b61 ccbd cb08 8dbe 03d0 353e
000000b0: b6d2 a63d fbf5 afbd dbf4 683e 1619 8abc
000000c0: 604f 063e 4b45 95bd 0005 323d 20b5 84bd
000000d0: 5b40 cd3d 987c 0b3e 7ca3 91be 4ba5 3d3e
000000e0: 9ec8 23be a600 943e 9045 f7bd 7ef7 103e
000000f0: 566c c83b d016 c1bd e36d 273e d8ef 07be
00000100: 6e3a 5e3e 2f8d 883e 823a a13e b075 a7bd
00000110: 8016 333e 2b27 00bd fb8c 67be 3013 763e
00000120: e6c6 273e 68f5 5abe 16ab 63bd ab85 803d
00000130: 4e06 3c3e ab95 86bc 80f3 b8bc 1026 3a3e
00000140: cba1 2d3d 8b6f 653d cfa0 aa3e d674 993e
00000150: c66c 8a3e a718 943e 635a 50be 9e94 37be
00000160: d870 343e be57 38be 8be6 21be 60f1 183d
00000170: 4049 9a3e 0080 42bc c83f 1ebe 5651 183b
00000180: d67e a8be bb1e a73e cb00 463e 7309 35be
00000190: 7bf9 423e d303 8a3e be88 2a3e abf2 b73c
000001a0: 9054 5ebe 80b2 95be ab09 343d a096 26be
000001b0: cb3b 323d 8bd0 5d3e 2bb2 0c3d ce9b 22be
000001c0: 96fd 463e a3b4 0fbe bb54 80be e277 9f3e
000001d0: 6425 a23e 363a 353d 68dc 97be 3373 57be
000001e0: 6649 5c3e cb0c 163e 16a6 c63d 2b52 35bc
000001f0: eb39 2cbd cb7a 7f3d 3653 99bd 90e3 813d
00000200: 0ef8 1bbe 465b 54be 8837 4cbe d6b0 da3d
00000210: d6d2 083c 301d e4bd f662 eabd ab99 2a3d
00000220: b8d9 a6be a07d 14bd 960f 053d 7631 f23d
00000230: 706f 4e3e fbf9 c23d d68a 7a3d abad 923e
00000240: 9e31 17be 5ea4 253e 4698 5a3e e0ba 2d3e
00000250: 5e1f 073e c09d b53c b684 7abd 6b18 9b3d
00000260: eb31 7ebe 60a1 a7bd 0369 8c3e 8b06 543e
00000270: 5609 6c3d 325a 96be 4060 5a3d 2847 87be
00000280: 80a5 283d eb0a 4bbe c630 193e 6848 43be
00000290: 37ed 9ebe a6b0 27be 56f6 6e3c ebca 303e
000002a0: 4e5e 34be a67d d53d eb2b 653e 3032 663e
000002b0: ebf2 17bd 32da 99be 0017 033e f6e1 4ebd
000002c0: 3343 a53e 9676 b23c 3606 953d 5680 f9bc
000002d0: 5b46 c53d 5ef5 7a3e 1068 8c3d ab51 c3bd
000002e0: 56cb 343e b0c6 933e a787 a33e 3b37 49be
000002f0: b0e5 fb3d 2bd6 703e 7719 963e e272 93be
00000300: 9cca 963e af71 a73e a867 623e 8886 42be
00000310: 484f 8e3e ab07 e23d f66e 713d 640f 93be
00000320: 3bba 003e 90fc 74be f6b2 01be 2b30 d53d
00000330: 0020 fcb9 ab3a 2bba 3b90 05be 8b40 0fbe
00000340: 7b73 903e 7edf 783e 50ef dc3d 06df 0e3e
00000350: 2b6c d03d ced0 453e bb78 a33d f03f 703e
00000360: 0013 c8bb c3da 98be 4642 c33d fe1f 8dbe
00000370: 4805 763e d694 873d 8095 6f3d 43fc 36be
00000380: 6be4 62bd 4eaa 003e 5a93 803e 6b3b 153d
00000390: 3a25 94be f6de e13d e087 5f3d ee51 333e
000003a0: 6f74 8bbe fb1d b73d f096 2cbe e0ee 9b3e
000003b0: 5847 62be a310 7f3e 6c44 a33e 4025 cdbd
000003c0: 4b4a 563d eb31 033d 9076 a73d de59 1fbe
000003d0: 90a2 3d3e 0092 2abe 5e0c 9a3e 0347 68be
000003e0: 36e5 de3d 501d a5be 177f 983e 5603 7e3c
000003f0: 08e4 013e 3606 093d 4bdf 153e a051 893e

modality_encoders.sleep.0.bias f4 [32]
-0.21604308 -0.16728756 0.29623318 -0.048914593 -0.33025038 -0.27031967 0.08109145 -0.1271182
-0.18851885 0.22675586 0.27175793 0.17024896 0.1447022 0.033577047 -0.040457726 0.15564327
-0.22935769 -0.019544285 -0.09840278 0.25507233 0.036821604 -0.33207953 0.031544965 0.17381486
0.22597703 -0.15006399 -0.24490015 -0.12214565 -0.19469106 -0.02891775 -0.20442538 -0.2706604
00000000: 663a 5dbe 6e4d 2bbe e0ab 973e ab5a 48bd
00000010: 9416 a9be 5767 8abe 4613 a63d 462b 02be
00000020: 160b 41be b032 683e db23 8b3e be55 2e3e
00000030: d02c 143e 1688 093d 00b7 25bd f360 1f3e
00000040: bedc 6abe 561b a0bc 6687 c9bd d798 823e
00000050: 40d2 163d 5406 aabe 4b35 013d 86fc 313e
00000060: 8666 673e 60aa 19be 1bc7 7abe 8027 fabd
00000070: 185d 47be ebe4 ecbc e354 51be 0094 8abe

modality_encoders.sleep.3.weight f4 [16, 32]
-0.04777659 0.12791964 -0.04141347 0.13767533 -0.0243358 0.16269429 0.074660905 0.05309074
0.11166535 0.06963911 0.14976014 -0.17673941 0.0080659585 0.080472596 0.15012735 -0.12602289
-0.026470222 0.13868181 -0.15763018 -0.04696931 0.0011877825 -0.14768559 0.051260073 -0.16751315
0.07800465 -0.047115497 0.16731325 -0.14319213 -0.11961855 0.018670611 -0.11583998 0.093148366
0.15075493 0.16904207 -0.13896519 -0.13054621 0.14223042 0.16531694 -0.063555256 -0.03228124
0.09519875 -0.08980056 0.03794622 -0.0992565 -0.0974072 -0.06436804 -0.16745463 0.08240902
-0.06308089 0.121844195 -0.12174981 0.064783454 0.07009145 0.019926481 0.06493818 0.036423117
0.08480985 0.16383182 -0.106804036 0.16086178 -0.14396417 -0.07313414 0.13354026 0.13203579
-0.12473971 0.054116827 0.056564104 -0.15163888 0.093806304 -0.0997088 0.17604917 0.03884736
0.10548578 -0.034955375 -0.056352105 -0.09826531 -0.14836931 -0.024838507 -0.07256718 -0.12077742
0.13890108 0.08804028 0.1533163 -0.082773164 0.10009276 0.11625711 0.015707962 -0.06746142
-0.1054205 0.010814397 -0.15776749 -0.09554832 0.1032056 0.12811501 0.1355394 0.103350416
0.10619381 0.08279972 0.14561848 -0.109524734 -0.1762629 0.14792949 0.06386748 -0.16072866
0.11865341 0.0013404384 -0.14387697 0.14705123 -0.10306938 -0.04963653 -0.0018930889 -0.027987951
-0.11937886 0.021573707 -0.15310135 0.15554725 -0.15279126 0.038901456 -0.106161505 -0.089228146
0.15431714 -0.118580915 0.019038469 -0.010206049 -0.09144178 -0.1736971 0.1090596 -0.13307673
-0.114555195 -0.016598461 0.029379135 0.03665071 0.058591705 -0.021801554 0.11418224 0.053475205
-0.17172879 -4.0397754e-05 -0.0841792 -0.16972691 0.11348983 0.1690454 0.06874781 0.08217291
0.039784055 -0.15774748 0.021227682 0.1760465 -0.10591522 0.0390727 0.14493631 0.081960276
-0.13520361 -0.06432359 0.1289893 -0.15751664 0.089920156 -0.022084927 0.17228694 -0.025200611
-0.005113719 -0.005743414 0.17278993 -0.0427246 -0.009422813 -0.113790125 0.11205393 -0.03908505
-0.007973298 -0.1674686 0.13284874 0.09103371 0.02334381 0.013535903 -0.09676537 0.13106298
-0.10734899 -0.09663292 0.17319678 -0.17344667 0.055387553 -0.08724212 -0.0054538655 0.013368601
0.056108095 -0.038039405 0.10572853 -0.048656534 -0.10778618 -0.14319988 0.0102442335 -0.08166959
0.16265653 -0.106655024 0.04918611 0.060675446 -0.15875855 -0.06511865 -0.0107879285 -0.037658103
0.030031526 0.053762183 -0.09149294 -0.08724998 0.02827512 -0.112113506 -0.09241223 -0.12314432
0.020434942 -0.13201004 -0.17328116 -0.0044996184 0.009593507 -0.047574688 0.16447747 0.14662914
0.0408561 -0.14874528 0.15442188 -0.15826531 0.14857295 -0.048932932 -0.14417855 0.014764336
-0.029080102 -0.020518202 -0.13215871 0.10692282 0.11490255 0.077293105 -0.08519547 0.16983013
-0.17665668 0.082671694 -0.09239405 0.0033139223 0.011298769 -0.039279513 -0.14904305 0.116076864
0.12879837 -0.14437403 -0.01850508 -0.031616375 -0.011286631 -0.09899039 -0.10027976 0.15635079
0.120239496 0.124169126 -0.019721668 0.06602291 0.06897513 0.17174482 0.0876347 -0.1703582
00000000: 63b1 43bd 5efd 023e 2ca1 29bd c3fa 0c3e
00000010: df5b c7bc 5599 263e d1e7 983d ad75 593d
00000020: ceb0 e43d f39e 8e3d b95a 193e 2dfb 34be
00000030: 1527 043c d1ce a43d fcba 193e 250c 01be
00000040: 14d8 d8bc 9b02 0e3e ce69 21be e462 40bd
00000050: 5eaf 9b3a e43a 17be 15f6 513d 9188 2bbe
00000060: e7c0 9f3d 2efc 40bd 2a54 2b3e f5a0 12be
00000070: 92fa f4bd 1cf3 983c 833d edbd 92c4 be3d
00000080: 805f 1a3e 5d19 2d3e e44c 0ebe e8ad 05be
00000090: daa4 113e d848 293e 4229 82bd 5539 04bd
000000a0: 90f7 c23d 5be9 b7bd 7f6d 1b3d fe46 cbbd
000000b0: 6d7d c7bd 64d3 83bd 3a79 2bbe 0fc6 a83d
000000c0: 8e30 81bd 7389 f93d f757 f9bd 30ad 843d
000000d0: 1b8c 8f3d dc3c a33c 4ffe 843d 6830 153d
000000e0: c9b0 ad3d 87c3 273e 13bc dabd f3b8 243e
000000f0: 586b 13be 5ac7 95bd c7be 083e 6434 073e
00000100: 8877 ffbd 9ba9 5d3d c3af 673d 3947 1bbe
00000110: 851d c03d 2134 ccbd 3c46 343e 691e 1f3d
00000120: ee08 d83d 5e2d 0fbd 77d1 66bd 533f c9bd
00000130: 20ee 17be 207a cbbc 1a9e 94bd 275a f7bd
00000140: 163c 0e3e 764e b43d f3fe 1c3e fa84 a9bd
00000150: 6ffd cc3d 3518 ee3d fcad 803c 3729 8abd
00000160: b4e6 d7bd de2e 313c cd8d 21be d6ae c3bd
00000170: 755d d33d 9530 033e d7ca 0a3e 62a9 d33d
00000180: 247c d93d e692 a93d 031d 153e 814e e0bd
00000190: 437e 34be d47a 173e f4cc 823d 0e96 24be
000001a0: 8f00 f33d a6b1 af3a 7c54 13be 9994 163e
000001b0: 0a16 d3bd ad4f 4bbd 8621 f8ba fd46 e5bc
000001c0: e77c f4bd 58bb b03c 9ac6 1cbe c747 1f3e
000001d0: 5075 1cbe 2257 1f3d 346b d9bd 3fbd b6bd
000001e0: 5005 1e3e 8dda f2bd 90f6 9b3c 4637 27bc
000001f0: d445 bbbd a7dd 31be a45a df3d 4445 08be
00000200: ea9b eabd 7ff9 87bc 83ac f03c 0e1f 163d
00000210: dbfd 6f3d 2c99 b2bc 61d8 e93d d108 5b3d
00000220: acd9 2fbe c270 29b8 2566 acbd e4cc 2dbe
00000230: 5b6d e83d 3d1a 2d3e a7cb 8c3d 454a a83d
00000240: 9bf4 223d 8e88 21be ade5 ad3c 8945 343e
00000250: 14ea d8bd b20a 203d 2f6a 143e cada a73d
00000260: d172 0abe 16bc 83bd c515 043e 0b4c 21be
00000270: 0f28 b83d 73eb b4bc fd6b 303e 8371 cebc
00000280: fc90 a7bb 4033 bcbb d8ef 303e fdff 2ebd
00000290: 2462 1abc cc0a e9bd 887c e53d a517 20bd
000002a0: 70a2 02bc e47c 2bbe 8009 083e e26f ba3d
000002b0: 853b bf3c b1c5 5d3c ec2c c6bd 6035 063e
000002c0: cad9 dbbd 7be7 c5bd 7f5a 313e 019c 31be
000002d0: 0fde 623d ffab b2bd 57b6 b2bb fa07 5b3c
000002e0: 9ad1 653d 35cf 1bbd 3388 d83d 134c 47bd
000002f0: 00bf dcbd fda2 12be 6ed7 273c 6342 a7bd
00000300: 6f8f 263e f36d dabd 6077 493d d186 783d
00000310: 9a91 22be ed5c 85bd dabf 30bc 623f 1abd
00000320: ad04 f63c bc35 5c3d a760 bbbd 1eb0 b2bd
00000330: 39a1 e73c c49b e5bd a042 bdbd 1733 fcbd
00000340: 2e67 a73c a42d 07be 9e70 31be 8971 93bb
00000350: 162e 1d3c addd 42bd c86c 283e f325 163e
00000360: ba58 273d af50 18be c520 1e3e 4d10 22be
00000370: 8223 183e e66d 48bd 8ba3 13be 1de6 713c
00000380: 6539 eebc ca15 a8bc 9d54 07be 5afa da3d
00000390: 0752 eb3d d94b 9e3d f67a aebd f3e7 2d3e
000003a0: 7de5 34be c74f a93d 1739 bdbd 642e 593b
000003b0: 791e 393c 8ee3 20bd be9e 18be b5b9 ed3d
000003c0: b8e3 033e c9d6 13be f797 97bc 2c80 01bd
000003d0: 90eb 38bc 79bb cabd 7a5f cdbd 6c1a 203e
000003e0: 2040 f63d 624c fe3d 568f a1bc 0537 873d
000003f0: d542 8d3d e0dd 2f3e d279 b33d 6172 2ebe

modality_encoders.sleep.3.bias f4 [16]
0.06725581 0.11832966 0.02937747 -0.015224495 0.050079685 0.0974746 0.14318523 0.1729974
-0.013565659 -0.08043513 0.056624394 -0.06925991 -0.08326626 -0.103203826 -0.10128334 0.08299481
00000000: 6abd 893d d256 f23d 05a9 f03c 2970 79bc
00000010: 5b20 4d3d c3a0 c73d 269f 123e 3b26 313e
00000020: 7f42 5ebc 2cbb a4bd fbee 673d 24d8 8dbd
00000030: 8087 aabd 875c d3bd a46d cfbd 2ff9 a93d

modality_encoders.stress.0.bias f4 [32]
0.0 0.0 0.0 0.0 0.0 0.0 0.0 0.0
0.0 0.0 0.0 0.0 0.0 0.0 0.0 0.0
0.0 0.0 0.0 0.0 0.0 0.0 0.0 0.0
0.0 0.0 0.0 0.0 0.0 0.0 0.0 0.0
00000000: 0000 0000 0000 0000 0000 0000 0000 0000
00000010: 0000 0000 0000 0000 0000 0000 0000 0000
00000020: 0000 0000 0000 0000 0000 0000 0000 0000
00000030: 0000 0000 0000 0000 0000 0000 0000 0000
00000040: 0000 0000 0000 0000 0000 0000 0000 0000
00000050: 0000 0000 0000 0000 0000 0000 0000 0000
00000060: 0000 0000 0000 0000 0000 0000 0000 0000
00000070: 0000 0000 0000 0000 0000 0000 0000 0000

modality_encoders.stress.3.weight f4 [16, 32]
-0.055725593 0.030706022 -0.107772335 0.119457506 0.013841004 0.09599419 0.14437306 -0.028379327
0.16432858 -0.112126864 0.09761944 0.11427612 0.004783562 -0.07041105 0.032831445 0.14509389
-0.0630524 0.06607445 -0.15555687 -0.11430933 -0.03824249 0.1451875 0.121723995 -0.047432482
-0.015530502 -0.006751398 -0.0049722744 -0.06954506 -0.10073246 -0.078780636 -0.074561946 -0.1236136
-0.057517212 -0.0648969 0.09107508 -0.03554874 -0.17558436 -0.043775506 -0.029876553 -0.16932814
0.03200971 0.053405534 0.14354216 0.16666116 0.020776121 -0.08999513 0.031134278 -0.15493023
0.11611724 0.1650369 -0.14548184 -0.06192076 -0.11086484 0.13567093 0.044036817 -0.06498972
-0.10313321 -0.08373108 0.07921239 -0.14824937 -0.013559231 -0.17269792 0.15142271 -0.0025151554
0.116749845 -0.059576612 -0.094789505 -0.17519121 -0.10515371 0.05809043 0.13697506 0.031858657
0.004412754 0.08657603 0.041882504 -0.12112542 -0.14591517 -0.17272174 -0.08551452 0.13269399
-0.07974656 0.087934636 0.047056977 -0.06969337 0.11710331 0.06754842 0.047730207 0.12578556
0.008722501 0.043473147 0.118146084 0.06804166 0.097597666 0.13889569 0.06730135 0.148357
0.10392325 0.009443233 0.119475126 0.1527756 0.0015751963 -0.1245625 0.11425235 0.16362958
-0.07508661 -0.11920542 -0.15965822 -0.049490348 -0.0728523 -0.1424966 -0.09871165 0.11082145
-0.12515382 0.16219132 0.03376464 -0.14479893 -0.04760617 0.1338834 -0.1320537 0.15364598
-0.085516356 -0.109102234 -0.021592483 -0.07243191 0.10827095 -0.0963762 -0.026041357 0.17468494
-0.007990916 0.08332718 -0.1735814 0.14520441 -0.05424632 0.13487719 -0.03609924 0.0062236353
0.06055897 0.027399287 -0.014377934 -0.15765937 0.117717534 0.027433615 0.12220932 -0.114208266
-0.03192449 0.032610703 0.054750334 -0.07377174 0.005115953 -0.14775473 0.15188791 -0.17217812
0.14339803 -0.054932598 0.005028077 -0.00893039 0.10764663 0.07746036 0.13689665 0.014892905
0.085650146 -0.0871727 0.025482828 0.009217621 -0.02305127 -0.14844537 0.14764056 -0.16191645
-0.06529963 0.01801331 -0.106116556 0.12780577 -0.06188548 0.013775402 -0.08106472 -0.14609139
-0.062260084 -0.13665298 0.09068482 0.02648451 -0.08579124 0.08774858 0.07598004 -0.1412726
0.026011033 -0.15927339 0.12684682 0.060080394 -0.048158716 -0.122650765 0.077825084 -0.1577047
-0.03779135 -0.07712479 -0.06283374 0.14751475 0.057936806 -0.03993806 -0.07768391 0.16777821
-0.049271416 -0.1096579 0.16724028 -0.08613667 0.010809992 0.16911077 0.014089164 -0.09931032
-0.046599556 0.06946045 0.07689307 0.026159242 0.048929688 -0.120363034 -0.14678809 0.07336913
0.042557042 0.101434715 -0.08599139 0.027416462 -0.17287183 0.0654778 0.14268786 -0.06899858
-0.10932751 -0.077563494 -0.1026131 0.12438983 0.027623085 0.037901945 -0.007111859 -0.14377075
0.026377605 -0.095834896 -0.052723493 0.024464495 -0.14147314 0.028093845 -0.07766223 0.10368508
-0.1257088 -0.05769615 -0.08380075 -0.06933913 -0.14020537 -0.06983981 -0.07617725 -0.03615892
-0.16567974 -0.10311538 0.12753005 -0.039889928 -0.15096362 -0.17646717 0.016511807 0.025844427
00000000: 8540 64bd 328b fb3c beb7 dcbd 23a6 f43d
00000010: 61c5 623c 9a98 c43d 88d6 133e c37b e8bc
00000020: c045 283e c5a2 e5bd b3ec c73d 9909 ea3d
00000030: 6dbf 9c3b ab33 90bd 447a 063d 7e93 143e
00000040: 9e21 81bd 0b52 873d 4d4a 1fbe 031b eabd
00000050: 28a4 1cbd 08ac 143e 6e4a f93d 9048 42bd
00000060: a673 7ebc d53a ddbb 76ee a2bb a46d 8ebd
00000070: d24c cebd be57 a1bd efb3 98bd 2129 fdbd
00000080: 2b97 6bbd aae8 84bd 9285 ba3d 8e9b 11bd
00000090: 63cc 33be f24d 33bd acbf f4bc 5b64 2dbe
000000a0: 9d1c 033d c3bf 5a3d b7fc 123e 39a9 2a3e
000000b0: af32 aa3c 5e4f b8bd 500d ff3c 08a6 1ebe
000000c0: e0ce ed3d 6fff 283e 31f9 14be 9fa0 7dbd
000000d0: 1b0d e3bd 52ed 0a3e f35f 343d 5519 85bd
000000e0: 8137 d3bd 337b abbd 1b3a a23d afce 17be
000000f0: 8927 5ebc b9d7 30be 8e0e 1b3e 4ed5 24bb
00000100: 8b1a ef3d 9b06 74bd 0021 c2bd 5365 33be
00000110: d45a d7bd 3bf0 6d3d 3143 0c3e 397e 023d
00000120: dd98 903b c64e b13d fd8c 2b3d 9b10 f8bd
00000130: c96a 15be f8dd 30be 3d22 afbd efe0 073e
00000140: 2a52 a3bd 1317 b43d d1be 403d 66bb 8ebd
00000150: dcd3 ef3d d356 8a3d c080 433d eecd 003e
00000160: d2e8 0e3c e610 323d 93f6 f13d 6d59 8b3d
00000170: 49e1 c73d ac3a 0e3e 4ad5 893d e6ea 173e
00000180: b7d5 d43d cab7 1a3c 60af f43d 3571 1c3e
00000190: d176 ce3a a01a ffbd 23fd e93d 838e 273e
000001a0: 02c7 99bd f921 f4bd 727d 23be 64b6 4abd
000001b0: 9633 95bd a1ea 11be 5529 cabd 5bf6 e23d
000001c0: 5328 00be 7b15 263e cb4c 0a3d 2c46 14be
000001d0: b0fe 42bd bb18 093e 1639 07be 5f55 1d3e
000001e0: 3323 afbd fe70 dfbd b8e2 b0bc 2e57 94bd
000001f0: 29bd dd3d e360 c5bd af54 d5bc 9ce0 323e
00000200: 55ec 02bc 71a7 aa3d 53bf 31be 77b0 143e
00000210: 6431 5ebd 3f1d 0a3e ccdc 13bd a3ef cb3b
00000220: af0c 783d 7874 e03c 6d91 6bbc 7571 21be
00000230: e415 f13d 76bc e03c e148 fa3d 06e6 e9bd
00000240: 41c3 02bd cd92 053d e341 603d a315 97bd
00000250: b9a3 a73b 044d 17be 8188 1b3e 764f 30be
00000260: efd6 123e 0101 61bd 91c2 a43b c550 12bc
00000270: d675 dc3d 8aa3 9e3d a32e 0c3e 5f01 743c
00000280: 5869 af3d 9a87 b2bd 5dc1 d03c 8105 173c
00000290: 04d6 bcbc 1002 18be 162f 173e 6dcd 25be
000002a0: d0bb 85bd a690 933c a353 d9bd 84df 023e
000002b0: a17b 7dbd 39b2 613c 4305 a6bd fb98 15be
000002c0: 6e04 7fbd c2ee 0bbe f7b8 b93d 0bf6 d83c
000002d0: 51b3 afbd 87b5 b33d 6c9b 9b3d c4a9 10be
000002e0: 1715 d53c 9018 23be 22e4 013e dc16 763d
000002f0: 1342 45bd 5330 fbbd c262 9f3d 577d 21be
00000300: 1acb 1abd 9af3 9dbd faae 80bd 1b0e 173e
00000310: 254f 6d3d 1796 23bd be18 9fbd 0dce 2b3e
00000320: d3d0 49bd 5294 e0bd 0941 2b3e 6c68 b0bd
00000330: 651c 313c 602b 2d3e 3dd6 663c 3663 cbbd
00000340: 2ddf 3ebd 4841 8e3d 1d7a 9d3d e84b d63c
00000350: 7f6a 483d e580 f6bd 9e4f 16be 8e42 963d
00000360: 4b50 2e3d 01bd cf3d 411c b0bd 7d98 e03c
00000370: 5005 31be 3a19 863d c41c 123e 214f 8dbd
00000380: 1ae7 dfbd 9cd9 9ebd d126 d2bd 18c0 fe3d
00000390: cf49 e23c 123f 1b3d 990a e9bb a438 13be
000003a0: d915 d83c 1645 c4bd 97f4 57bd c469 c83c
000003b0: 56de 10be 1025 e63c 600d 9fbd d858 d43d
000003c0: cfb9 00be cc52 6cbd ba9f abbd ac01 8ebd
000003d0: ff91 0fbe 2d08 8fbd d102 9cbd 601b 14bd
000003e0: f3a7 29be 282e d3bd 3d97 023e 9f63 23bd
000003f0: 3596 1abe cfb3 34be c543 873c b1b7 d33c

modality_encoders.stress.3.bias f4 [16]
-0.007620424 -0.16050278 -0.1107635 -0.096239865 -0.165676 -0.121550605 -0.093497306 -0.0863564
0.14878973 -0.075166985 -0.00339535 0.048217427 -0.0929942 -0.16769843 0.03893005 -0.021538662
00000000: c0b4 f9bb d75a 24be f9d7 e2bd 6819 c5bd
00000010: f8a6 29be 86ef f8bd 847b bfbd a0db b0bd
00000020: 565c 183e 26f1 99bd 8584 5ebb a37f 453d
00000030: be73 bebd 23b9 2bbe 1e75 1f3d d971 b0bc

gating.expert_usage f4 [8]
0.0 0.0 0.0 0.0 0.0 0.0 0.05326497 0.28451005
00000000: 0000 0000 0000 0000 0000 0000 0000 0000
00000010: 0000 0000 0000 0000 5f2c 5a3d 4dab 913e
