results/migraine/model.pth (torch, 181179 bytes, 45 tensors)

modality_encoders.eeg.0.weight f4 [32, 6]
0.036809765 -0.2986713 0.10655306 0.34708202 -0.10454297 0.16833293 0.06623772 -0.13507956
0.116004 -0.23043197 -0.029867759 -0.3780762 0.09509491 0.07339201 0.019968456 0.14787182
0.31294572 -0.13239947 0.29288018 0.40680528 -0.16960543 0.15509343 0.23633328 -0.0067568277
-0.016273463 0.3119302 -0.29686582 -0.12607715 -0.3605035 -0.3962768 -0.37641662 0.20713085
0.024024703 -0.114106424 0.370356 -0.21373807 -0.24594073 0.19314882 -0.23632564 -0.070599645
0.2970848 0.38788238 -0.34215766 0.15456451 0.17932452 0.38984317 0.40570667 0.06953496
-0.16746394 -0.077960774 -0.1691357 0.20035504 -0.38924146 -0.10665756 0.08638201 0.39267886
-0.20116681 0.056164093 0.29326636 -0.005489004 0.4045594 0.017546982 -0.27262732 0.1538079
0.04099751 0.0019077947 0.12684156 0.37707782 -0.06594562 -0.24101388 0.30367145 0.30860192
0.039198875 -0.08411773 -0.1412578 0.37306592 -0.33565322 -0.252133 0.08190114 -0.3596153
-0.2780831 0.39142063 0.14259394 -0.037255555 -0.04801816 -0.18607235 0.30485967 -0.05271248
-0.15817064 -0.36579055 -0.16858694 -0.00022182414 0.16932482 -0.024818802 -0.14885013 -0.34459242
-0.34529606 0.37307337 -0.14371824 -0.22618909 0.22964619 -0.23561233 0.2950629 0.2733318
0.21900871 -0.20991524 -0.35358852 0.13638121 -0.15495297 0.17826572 0.34147203 0.049941774
-0.11877233 0.15675025 -0.23683986 0.21661678 0.19666064 0.10090701 -0.12176204 -0.014948456
0.32393512 0.32399875 0.0983811 -0.1103945 0.0008394569 0.34029502 0.15834102 0.2937471
0.33810702 0.028845752 -0.27874506 -0.23568012 -0.13564143 0.1907934 -0.27710572 -0.26829016
0.31216556 0.2690416 -0.2394011 -0.2817749 -0.07383347 -0.39222002 0.2282112 0.112201646
0.2728576 -0.19610773 -0.288701 -0.11567871 0.1792655 0.03526882 -0.36571768 0.043768268
0.4054023 -0.29441708 -0.3960902 0.27884784 0.23260505 -0.17989227 -0.36064604 -0.20546843
-0.25376853 0.19174162 0.23023997 0.22593363 -0.107386634 0.22893478 0.30580214 -0.06132956
-0.30396935 0.19451189 -0.19594766 0.054713476 0.019609341 -0.19764249 0.2111192 -0.3234286
0.078867726 -0.27567032 -0.003807608 -0.03283338 0.18208438 -0.10445732 -0.10951397 -0.04336662
0.17129642 0.3072407 -0.3542992 0.16940477 0.3038449 0.30760518 -0.08982233 -0.027158273
00000000: d6c5 163d 72eb 98be 7e38 da3d bcb4 b13e
00000010: a01a d6bd 785f 2c3e a4a7 873d 4c52 0abe
00000020: 8193 ed3d 5cf6 6bbe 3bad f4bc 3493 c1be
00000030: 1fc1 c23d 8d4e 963d e394 a33c b66b 173e
00000040: 6c3a a03e ba93 07be 64f4 953e c848 d03e
00000050: 0cad 2dbe d0d0 1e3e 5a01 723e 6168 ddbb
00000060: ed4f 85bc 51b5 9f3e ccfe 97be 5e1a 01be
00000070: ea93 b8be cbe4 cabe aeb9 c0be 1c1a 543e
00000080: 74cf c43c a1b0 e9bd 4d9f bd3e 27de 5abe
00000090: e3d7 7bbe cec8 453e 59ff 71be 8c96 90bd
000000a0: 801b 983e 8598 c63e 4a2f afbe 2946 1e3e
000000b0: d9a0 373e 8699 c73e c9b8 cf3e 5868 8e3d
000000c0: ab7b 2bbe e6a9 9fbd e931 2dbe df29 4d3e
000000d0: a84a c7be 476f dabd 0de9 b03d 340d c93e
000000e0: acfe 4dbe 520c 663d 0227 963e 1add b3bb
000000f0: 6922 cf3e b0be 8f3c cf95 8bbe d17f 1d3e
00000100: 01ed 273d f80e fa3a c1e2 013e 5810 c13e
00000110: 7f0e 87bd 58cc 76be d37a 9b3e 1201 9e3e
00000120: 008f 203d eb45 acbd e2a5 10be 7f02 bf3e
00000130: bdda abbe 9417 81be c9bb a73d 7f1f b8be
00000140: e860 8ebe 4968 c83e 2504 123e 4899 18bd
00000150: b1ae 44bd c089 3ebe 9116 9c3e 0be9 57bd
00000160: 7cf7 21be e648 bbbe 0ea2 2cbe 7799 68b9
00000170: 7c63 2d3e cd50 cbbc 2b6c 18be 6b6e b0be
00000180: a5ca b0be 7903 bf3e e02a 13be 1d9e 67be
00000190: 5f28 6b3e 5c44 71be 7c12 973e 25f2 8b3e
000001a0: d243 603e 05f4 56be 8e09 b5be 84a7 0b3e
000001b0: feab 1ebe 4a8b 363e 6cd5 ae3e bf8f 4c3d
000001c0: e83e f3bd 2383 203e 2686 72be cad0 5d3e
000001d0: 6861 493e 56a8 ce3d 605e f9bd 5eea 74bc
000001e0: d3da a53e 2ae3 a53e 087c c93d 8316 e2bd
000001f0: 000f 5c3a 263b ae3e 2624 223e 0566 963e
00000200: 5d1c ad3e ed4d ec3c acb7 8ebe 2156 71be
00000210: 96e5 0abe 585f 433e cde0 8dbe 545d 89be
00000220: 2ad4 9f3e d2bf 893e 9025 75be cd44 90be
00000230: 0136 97bd 10d1 c8be 32b0 693e fac9 e53d
00000240: feb3 8b3e 77d0 48be 9ed0 93be f6e8 ecbd
00000250: 6091 373e 0a76 103d 593f bbbe 5b46 333d
00000260: e490 cf3e d6bd 96be 56cc cabe 25c5 8e3e
00000270: 0530 6e3e ae35 38be 99a6 b8be 5166 52be
00000280: f3ed 81be ea57 443e 07c4 6b3e 255b 673e
00000290: 86ed dbbd e16d 6a3e 1992 9c3e b434 7bbd
000002a0: dfa1 9bbe 202e 473e 81a6 48be 3d1b 603d
000002b0: c5a3 a03c cb62 4abe a22f 583e 6f98 a5be
000002c0: 6785 a13d a924 8dbe 1089 79bb 4b7c 06bd
000002d0: 5474 3a3e b8ed d5bd dc48 e0bd 32a1 31bd
000002e0: 5468 2f3e a74e 9d3e b466 b5be 7278 2d3e
000002f0: 8f91 9b3e 6d7e 9d3e c5f4 b7bd 077b debc

modality_encoders.eeg.0.bias f4 [32]
0.3891811 0.29293314 -0.34563336 -0.028980609 0.22809064 -0.08984588 -0.16502894 -0.12617944
-0.27558783 0.17011006 0.3399522 -0.13944748 0.20571147 -0.22325929 -0.030724835 0.0547345
-0.28581828 0.27972564 0.012459869 -0.13642146 -0.017480794 0.2709195 0.2037937 -0.08476368
0.2734695 0.044822153 -0.39805448 0.13401803 0.16870017 0.25210086 -0.32949898 -0.016847879
00000000: bf42 c73e 55fb 953e dbf6 b0be be68 edbc
00000010: 9890 693e 1e01 b8bd 59fd 28be 2f35 01be
00000020: d919 8dbe 5531 2e3e 370e ae3e 52cb 0ebe
00000030: 07a6 523e 159e 64be a6b2 fbbc 4831 603d
00000040: c656 92be 3338 8f3e 7a24 4c3c 11b2 0bbe
00000050: e233 8fbc f6b5 8a3e 4caf 503e 9598 adbd
00000060: 3204 8c3e 6f97 373d cccd cbbe 063c 093e
00000070: bdbf 2c3e 5d13 813e 17b4 a8be 9004 8abc

modality_encoders.eeg.3.weight f4 [16, 32]
-0.08085009 -0.11937199 -0.018207354 -0.13991468 0.0797866 0.1354713 -0.057408012 0.016585859
-0.03757029 -0.16295297 0.017862214 -0.029366639 0.16941965 0.020391403 0.16286822 -0.13015528
0.03272296 0.16104555 -0.04126939 -0.13514376 -0.019262416 0.0991764 0.029401008 0.16528977
-0.08182815 -0.13836323 -0.06100653 -0.17318363 0.07458367 0.028599797 -0.15438099 0.13192928
0.13366704 0.0069900127 -0.034451254 0.005393743 0.14749002 0.14239334 0.15408553 0.12632866
0.068956666 -0.1128839 0.13361146 -0.031678267 -0.07420216 0.10199512 -0.0014943165 0.048727278
-0.04568061 0.09893003 0.055162806 0.11311095 0.10340124 -0.028513143 -0.17154841 0.057585616
-0.00946496 -0.022121174 0.13619879 -0.05474547 0.0059140036 0.072978005 0.12840042 0.056320686
-0.009940861 0.031562172 0.1250173 -0.09497796 0.10448739 -0.1575719 0.045615196 0.015218215
-0.07404307 -0.17656913 -0.14405675 0.10360991 -0.052392073 -0.075264916 -0.041995708 0.03288274
-0.14982665 0.0054578274 -0.13676627 -0.012899886 -0.17115584 -0.02771815 -0.0646445 -0.1333188
0.06953311 0.10189978 0.11872556 0.16764164 0.06422301 0.11431272 0.098465174 0.040757626
-0.1375139 0.04089241 0.15008774 -0.092610955 -0.0104928585 -0.0012404239 -0.12411448 -0.08629546
0.10966947 -0.15706742 0.065319546 -0.16652888 -0.08447012 -0.118062235 0.12150072 -0.071702644
-0.044576928 0.07243368 -0.069134906 0.11306113 -0.01799034 0.08789841 0.0043672565 0.075280696
0.15726744 0.12460621 0.16704056 -0.12685569 0.08160401 -0.016582657 -0.12155252 -0.08654876
-0.11683443 0.17083614 -0.035428114 0.064687826 -0.032680962 -0.07685389 -0.07312636 0.032241452
-0.10849465 -0.11138986 0.09401177 -0.16737959 -0.049045466 0.06557272 0.06041051 -0.047022965
0.11815182 -0.03473602 0.074142076 0.08458059 0.119139254 -0.014564117 -0.1750523 -0.00853539
-0.030392576 0.17060009 -0.024330175 0.08689532 -0.14336121 0.16885561 -0.16422534 -0.04997141
-0.163485 0.025767129 -0.02329627 -0.027349891 -0.06489814 -0.17569232 -0.07055574 0.10622978
-0.163242 0.087360725 -0.16463315 0.16782634 -0.12926152 0.16190799 0.064321086 0.1684183
0.043762863 0.04801289 -0.16741835 0.16576193 -0.07569106 -0.10274813 0.07310084 0.12096976
-0.13596588 -0.11307877 0.10359343 -0.05415071 0.031934075 0.14888996 0.10464464 0.103098966
-0.05092905 -0.023860237 -0.11785177 0.12813134 0.03763039 -0.004357078 0.10317213 -0.073323816
-0.13849595 -0.034003172 -0.069448374 -0.15438639 -0.16793808 0.063403845 -0.12251811 0.09668618
-0.14064096 -0.061509237 0.00053741445 0.111741155 0.14279628 -0.13498537 0.11964253 0.026762763
0.122896984 -0.14325821 -0.10272135 0.012253353 0.12926185 0.053210016 -0.07384195 0.013180099
0.11443611 0.043743096 -0.05303616 -0.14848767 0.13372582 -0.034197237 -0.09125145 0.013843069
-0.09952152 -0.11051559 -0.023332706 0.015939347 -0.063518316 -0.057467796 -0.02961404 -0.048297655
-0.00544316 0.13823937 -0.12414603 0.09483848 0.013402698 -0.08555363 -0.1427513 -0.050528508
-0.0017365344 0.088981204 -0.033263724 -0.076925226 0.14803305 0.006084045 0.032279786 -0.09844912
00000000: bb94 a5bd 4d79 f4bd 9727 95bc cb45 0fbe
00000010: 2867 a33d fdb8 0a3e aa24 6bbd 11df 873c
00000020: 4ee3 19bd 25dd 26be c753 923c 4e92 f0bc
00000030: 587c 2d3e df0b a73c edc6 263e 6d47 05be
00000040: 8308 063d 20e9 243e 180a 29bd 2063 0abe
00000050: 37cc 9dbc ff1c cb3d 62da f03c b941 293e
00000060: 8495 a7bd 17af 0dbe fce1 79bd 0d57 31be
00000070: 53bf 983d 1f4a ea3c 0d16 1ebe 7818 073e
00000080: 03e0 083e 7a0c e53b c21c 0dbd ffbd b03b
00000090: a007 173e 8fcf 113e 99c8 1d3e 4d5c 013e
000000a0: 2739 8d3d ad2f e7bd 71d1 083e 12c1 01bd
000000b0: 4df7 97bd d1e2 d03d f1dc c3ba 4196 473d
000000c0: 971b 3bbd d49b ca3d 65f2 613d b7a6 e73d
000000d0: 08c4 d33d 6594 e9bc 63aa 2fbe e5de 6b3d
000000e0: eb12 1bbc 7737 b5bc b277 0b3e c93c 60bd
000000f0: 42ca c13b 7e75 953d 667b 033e 85b0 663d
00000100: fede 22bc 5647 013d 8904 003e ce83 c2bd
00000110: 7cfd d53d 875a 21be 00d7 3a3d d255 793c
00000120: e5a3 97bd 8ace 34be 9d83 13be 6f31 d43d
00000130: 1299 56bd 7e24 9abd b103 2cbd 0db0 063d
00000140: 286c 19be 93d7 b23b 750c 0cbe 0b5a 53bc
00000150: 7a43 2fbe 2c11 e3bc 5664 84bd b984 08be
00000160: 6067 8e3d d5b0 d03d 6326 f33d 40aa 2b3e
00000170: 5a87 833d ca1c ea3d 1ca8 c93d 78f1 263d
00000180: 72d0 0cbe cd7e 273d 9ab0 193e d0aa bdbd
00000190: 3dea 2bbc b895 a2ba bc2f febd adbb b0bd
000001a0: 639a e03d 48d6 20be 41c6 853d 8c86 2abe
000001b0: acfe acbd 9dca f1bd 5fd5 f83d d6d8 92bd
000001c0: 4c96 36bd 1c58 943d 9a96 8dbd 988c e73d
000001d0: 7a60 93bc 1504 b43d 341b 8f3b c42c 9a3d
000001e0: b70a 213e 8a31 ff3d ae0c 2b3e 75e6 01be
000001f0: 0120 a73d 5ad8 87bc 87f0 f8bd 7a40 b1bd
00000200: e446 efbd abef 2e3e 121d 11bd 0d7b 843d
00000210: 79dc 05bd 9365 9dbd 46c3 95bd 9d0f 043d
00000220: 7132 debd 5e20 e4bd 3e89 c03d 8e65 2bbe
00000230: e6e3 48bd fd4a 863d 0371 773d 279b 40bd
00000240: 95f9 f13d 5b47 0ebd cdd7 973d 9738 ad3d
00000250: 48ff f33d 569e 6ebc e940 33be 05d8 0bbc
00000260: daf9 f8bc cab1 2e3e 1350 c7bc 2cf6 b13d
00000270: 48cd 12be 7ce8 2c3e b02a 28be d2ae 4cbd
00000280: 9d68 27be 9615 d33c d2d7 bebc e10c e0bc
00000290: 51e9 84bd b0e8 33be 877f 90bd 008f d93d
000002a0: e928 27be 2eea b23d 9895 28be abda 2b3e
000002b0: 225d 04be 35cb 253e c6ba 833d d975 2c3e
000002c0: b040 333d 2aa9 443d b76f 2bbe 7fbd 293e
000002d0: ea03 9bbd 9d6d d2bd e5b5 953d febe f73d
000002e0: a43a 0bbe d895 e7bd cb28 d43d 23cd 5dbd
000002f0: 4ecd 023d 9c76 183e ee4f d63d 8d25 d33d
00000300: fb9a 50bd 8b76 c3bc 455c f1bd dd34 033e
00000310: 5322 1a3d d2c5 8ebb e94b d33d cc2a 96bd
00000320: e2d1 0dbe e946 0bbd f33a 8ebd 7717 1ebe
00000330: f6f7 2bbe e0d9 813d c6ea fabd 6703 c63d
00000340: 2f04 10be 1cf1 7bbd 46e1 0c3a 8cd8 e43d
00000350: 3039 123e 9b39 0abe 2507 f53d 953d db3c
00000360: 6ab1 fb3d 48b2 12be 925f d2bd 4ac2 483c
00000370: 385d 043e bff2 593d 733a 97bd 58f1 573c
00000380: 7b5d ea3d f62b 333d 723c 59bd 270d 18be
00000390: 6cef 083e 6712 0cbd 0ae2 babd 0ace 623c
000003a0: f0d1 cbbd ff55 e2bd 3b24 bfbc 3c93 823c
000003b0: e415 82bd 5a63 6bbd 2599 f2bc c3d3 45bd
000003c0: 895c b2bb 9f8e 0d3e 4640 febd ad3a c23d
000003d0: fd96 5b3c be36 afbd 662d 12be fbf6 4ebd
000003e0: 6d9c e3ba c73b b63d 8b3f 08bd f98a 9dbd
000003f0: fa95 173e ab5c c73b cf37 043d b19f c9bd

modality_encoders.eeg.3.bias f4 [16]
0.16975594 0.07344516 -0.07935897 -0.15174954 0.08221794 0.12880105 0.021948792 0.08016565
-0.031527445 -0.042355895 0.010475768 -0.0189256 0.16889389 0.14478567 0.1021028 -0.16901489
00000000: 80d4 2d3e 6b6a 963d f586 a2bd 3b64 1bbe
00000010: e161 a83d 6ce4 033e f4cd b33c e32d a43d
00000020: ec22 01bd 607d 2dbd 8ea2 2b3c dc09 9bbc
00000030: 85f2 2c3e b242 143e 461b d13d 3d12 2dbe

modality_encoders.weather.0.weight f4 [32, 12]
-0.23126622 0.27960053 0.161397 -0.06415443 -0.07993756 -0.10472442 -0.19155788 0.12987165
0.152148 -0.23855773 -0.23746699 -0.06885903 0.26186574 0.08834863 0.18094462 -0.1849166
0.20576121 0.040952798 -0.054876577 -0.1443644 -0.09861409 -0.055573333 0.04904262 0.15161078
0.12044056 -0.2468384 0.04824679 0.1056632 -0.11512313 -0.2576119 0.23405421 0.26522216
-0.28657272 -0.1195845 0.2273324 -0.10297505 0.05973497 -0.26430795 -0.014986824 0.0046862606
-0.1418257 -0.1850429 0.12100052 0.057414588 0.0065961685 -0.11098162 -0.01064421 0.15223917
0.13278373 0.004881071 -0.034937587 -0.2805214 0.15891144 0.027924197 0.02081669 0.013015868
0.21961702 0.084639795 -0.12545584 0.018912734 -0.28703073 0.20861873 -0.26705542 -0.016829042
0.009365604 -0.26261136 -0.0109631475 -0.13468423 -0.07894228 0.14631692 -0.09589714 0.031192446
0.19183354 0.127185 -0.21156605 -0.222325 -0.09882339 -0.19097383 0.26871985 0.11834761
0.1031702 0.1742522 0.0037785897 -0.2504166 0.2722218 -0.039094646 -0.23479676 -0.26189432
-0.06078074 -0.16405459 0.0151199335 0.20556316 -0.09273956 0.15193442 -0.05632229 -0.1513906
-0.18900236 0.2822911 0.12221935 0.0683999 0.15499805 0.20516366 -0.09995588 -0.032976404
0.23727785 0.2581485 0.24820648 -0.20807481 -0.14250746 0.28516972 -0.2085814 -0.02677777
-0.1140701 0.23043835 0.08568109 0.0138068115 0.039003007 0.16111505 -0.18641944 0.009371419
-0.12100448 -0.022631068 -0.19732712 -0.21790151 0.032413412 -0.15747674 -0.12622726 -0.14811698
-0.03782337 0.2609765 0.012643832 -0.17677699 0.23195536 0.23565516 -0.11614529 -0.089193426
0.0012147704 0.124332845 -0.16849796 -0.23408052 0.05304286 -0.20812584 -0.2705842 0.0878855
-0.15979433 -0.09450077 0.13044056 0.11553395 -0.26973212 0.1796764 -0.20787542 -0.060184952
0.006738844 0.17167613 0.2385885 -0.27944928 0.1275865 0.035285395 -0.23350446 0.24738485
-0.22419804 0.2783608 0.22613324 -0.14159504 0.22423878 -0.27097127 0.21677583 -0.23191525
-0.0862766 -0.28299597 -0.24037473 -0.21618535 0.04623994 -0.06504052 -0.071043275 -0.19454516
-0.038166534 0.06155957 -0.054438986 -0.13147229 0.026392555 0.111744486 0.20827928 0.17236793
0.018138757 -0.2784341 -0.10057421 0.28207532 -0.2402686 0.042670544 0.07594933 -0.011550607
0.2846773 -0.1241932 0.28860003 0.12295802 -0.052883737 -0.15876377 -0.11530538 0.029776154
0.030230368 -0.115982 0.110879965 0.041303225 0.23218367 -0.009203347 -0.21923338 -0.012146705
0.2056973 -0.14853111 -0.042080503 -0.15809847 -0.042189077 0.016884688 -0.07591798 0.23994808
-0.21347514 0.28775352 -0.22384766 -0.2738072 0.2631997 -0.18110818 0.1346801 0.03145904
0.14300095 -0.061808858 -0.18716191 -0.18308093 -0.0010402289 0.03722872 0.19877875 0.26245457
0.25747618 0.20429106 0.26851943 -0.06595666 0.15582778 -0.1451582 -0.20655738 0.23404877
0.2309894 -0.0627444 -0.13247545 -0.13340189 0.19265865 0.2795715 -0.13176507 0.065902635
0.19975686 -0.01587863 0.1216418 -0.047012817 -0.24546595 -0.08569712 -0.032757092 0.07516028
00000000: 0dd1 6cbe cd27 8f3e 4145 253e 6663 83bd
00000010: 4eb6 a3bd c279 d6bd c027 44be 13fd 043e
00000020: afcc 1b3e 7a48 74be 8c2a 73be f705 8dbd
00000030: 4413 863e 20f0 b43d 8c49 393e c75a 3dbe
00000040: 11b3 523e 1fbe 273d 43c6 60bd 43d4 13be
00000050: 2ff6 c9bd dda0 63bd eae0 483d db3f 1b3e
00000060: 8aa9 f63d 35c3 7cbe 6d9e 453d f365 d83d
00000070: adc5 ebbd b5e5 83be e8ab 6f3e 33cb 873e
00000080: a9b9 92be b8e8 f4bd d3c9 683e 95e4 d2bd
00000090: a8ac 743d 5f53 87be 4c8b 75bc 348f 993b
000000a0: c23a 11be e37b 3dbe 1fcf f73d 8f2b 6b3d
000000b0: ac24 d83b 554a e3bd 0d65 2ebc 96e4 1b3e
000000c0: 75f8 073e 64f1 9f3b b71a 0fbd 80a0 8fbe
000000d0: aeb9 223e 49c1 e43c c387 aa3c 8240 553c
000000e0: 49e3 603e a157 ad3d 7f77 00be e1ee 9a3c
000000f0: b1f5 92be 26a0 553e 7dbb 88be 0fdd 89bc
00000100: 3172 193c ff74 86be c69e 33bc aaea 09be
00000110: 7dac a1bd 1ad4 153e b865 c4bd 4d87 ff3c
00000120: 0370 443e c93c 023e c5a4 58be 2aa9 63be
00000130: eb63 cabd a58e 43be a695 893e 3b60 f23d
00000140: e64a d33d 2b6f 323e 37a2 773b 9b36 80be
00000150: a860 8b3e b521 20bd 906e 70be 0317 86be
00000160: 3af5 78bd edfd 27be 99b9 773c 267f 523e
00000170: 3dee bdbd b294 1b3e 34b2 66bd 2306 1bbe
00000180: d689 41be 7688 903e 234e fa3d 3f15 8c3d
00000190: cfb7 1e3e 6c16 523e abb5 ccbd 4412 07bd
000001a0: f7f8 723e 0a2c 843e d729 7e3e 9011 55be
000001b0: 7aed 11be c401 923e 5d96 55be 0e5d dbbc
000001c0: 969d e9bd 08f8 6b3e 9179 af3d f735 623c
000001d0: 9ec1 1f3d 58fb 243e bde4 3ebe 958a 193c
000001e0: 32d1 f7bd ca64 b9bc 1f10 4abe 9321 5fbe
000001f0: edc3 043d 9541 21be b841 01be faab 17be
00000200: aeec 1abd b69e 853e 1328 4f3c 0705 35be
00000210: b585 6d3e 964f 713e 95dd edbd 0bab b6bd
00000220: ee38 9f3a 38a2 fe3d bb8a 2cbe ceb2 6fbe
00000230: 7843 593d f11e 55be 038a 8abe 50fd b33d
00000240: 20a1 23be 9f89 c1bd 3692 053e 109d ec3d
00000250: 541a 8abe 17fd 373e 4bdd 54be 7f84 76bd
00000260: 85d1 dc3b decb 2f3e 8b50 743e fa13 8fbe
00000270: 09a6 023e 6b87 103d cb1b 6fbe 7452 7d3e
00000280: 2c94 65be 4f85 8e3e 798f 673e 4afe 10be
00000290: da9e 653e bfbc 8abe 7cfa 5d3e 317b 6dbe
000002a0: c9b1 b0bd d9e4 90be cb24 76be b15f 5dbe
000002b0: 1766 3d3d f733 85bd 237f 91bd d936 47be
000002c0: 8354 1cbd e325 7c3d 6afb 5ebd aca0 06be
000002d0: 3335 d83c 4bda e43d 2a47 553e 3881 303e
000002e0: bb97 943c ea8e 8ebe daf9 cdbd 2d6c 903e
000002f0: f908 76be 4fc7 2e3d 538b 9b3d c23e 3dbc
00000300: 39c1 913e 0159 febd 62c3 933e 6ad1 fb3d
00000310: 9e9c 58bd f892 22be 3a25 ecbd 1fed f33c
00000320: ada5 f73c f987 edbd 0915 e33d 922d 293d
00000330: 8ec1 6d3e a3c9 16bc b77e 60be f902 47bc
00000340: 50a2 523e 8a18 18be 9b5c 2cbd 91e4 21be
00000350: 74ce 2cbd c251 8a3c e37a 9bbd f3b4 753e
00000360: 3a99 5abe 6e54 933e 5238 65be 7530 8cbe
00000370: 1cc2 863e 6c74 39be 95e9 093e 32db 003d
00000380: d76e 123e 492b 7dbd 5fa7 3fbe 9179 3bbe
00000390: 4a58 88ba 247d 183d a88c 4b3e 7260 863e
000003a0: ebd3 833e ad31 513e 617b 893e 4914 87bd
000003b0: 5191 1f3e 5aa4 14be c783 53be 7baa 6f3e
000003c0: 7c88 6c3e 2380 80bd a5a7 07be 819a 08be
000003d0: 4f48 453e ff23 8f3e 6ced 06be f6f7 863d
000003e0: 108d 4c3e e713 82bc 561f f93d 8390 40bd
000003f0: 6d5b 7bbe f981 afbd 4d2c 06bd a2ed 993d

modality_encoders.weather.0.bias f4 [32]
0.24658608 -0.018316362 0.023855543 -0.21603131 -0.2226506 -0.25391355 -0.24815686 0.13395248
-0.28799364 0.07696582 0.17419162 0.041465927 -0.27244893 0.22643934 -0.26022273 0.081234686
-0.26463765 -0.052385062 -0.03630649 0.11787753 0.23535927 0.03424004 0.053209934 -0.10425713
0.22245507 0.03769236 0.24444988 0.050198544 -0.025427897 0.000593448 0.24110465 -0.24194632
00000000: 1081 7c3e 320c 96bc b36c c33c 5037 5dbe
00000010: 85fe 63be f500 82be d51c 7ebe d72a 093e
00000020: e773 93be 41a0 9d3d 4a5f 323e 2dd8 293d
00000030: 6d7e 8bbe b7df 673e ea3b 85be 5f5e a63d
00000040: 967e 87be b891 56bd 1db6 14bd c669 f13d
00000050: 0502 713e 493f 0c3d a9f2 593d c384 d5bd
00000060: 43cb 633e 4e63 1a3d 1251 7a3e fd9c 4d3d
00000070: 2a4e d0bc 9f91 1b3a 23e4 763e c7c0 77be

modality_encoders.weather.3.weight f4 [16, 32]
-0.12126993 0.1256222 0.16682765 -0.081662744 -0.08285008 -0.08276868 0.060167324 -0.123120174
-0.036796432 0.05901943 -0.101496816 0.115997925 0.11608416 -0.1670467 -0.019873818 -0.15372092
0.17103484 0.0982164 0.14429836 0.07423653 0.09217294 -0.056200337 -0.022815585 0.022173814
0.07945844 0.0009980163 -0.10911309 0.104247995 -0.11008466 0.03410306 -0.04503199 -0.15915318
-0.14551781 -0.06487405 0.03292895 -0.0832808 0.15837342 -0.005626899 -0.040594876 0.15192582
0.104973555 0.12910306 -0.17441098 -0.057882607 0.10611529 0.015174888 -0.08364512 -0.004576389
0.06194554 -0.11483465 0.12695678 0.0030610412 0.036917582 0.14823295 -0.0058138627 -0.121944904
-0.12421028 -0.12469853 0.16212721 0.17302711 -0.17627965 -0.009931525 0.04079939 -0.105871536
-0.12833521 -0.15307555 -0.1405496 -0.03087973 0.07059905 -0.080134414 0.0012259886 0.13174081
0.03522564 -0.144666 0.077134505 -0.15152374 -0.080439515 -0.12790672 -0.14158559 0.17604022
0.12687832 -0.1091384 -0.037877627 -0.11006909 0.1418475 -0.09611174 -0.13523111 -0.16829182
0.092155516 0.044889152 0.007180727 -0.09722102 0.104863994 0.02546582 -0.16292481 -0.04898233
-0.12549609 0.16851659 0.06805875 -0.02123373 -0.15724604 0.012883533 0.122705445 -0.101765394
-0.17311546 0.04113509 -0.06976359 0.0940745 0.06551359 -0.034654845 -0.14876436 -0.14390919
0.060540598 0.07659785 -0.047301766 -0.1636694 -0.14644428 0.1595495 0.17612031 0.08647275
0.078038685 -0.13676085 -0.14956047 -0.17074513 0.02337106 0.050004117 0.019885873 0.16099462
0.022372559 0.086205095 0.08943692 -0.09738781 -0.07724546 0.092117876 -0.111881234 0.038934562
0.028090306 0.016598798 0.015417148 0.16777799 -0.011347997 0.0042860606 -0.004247707 -0.17663266
0.16291021 -0.076900065 0.11718514 -0.117807776 -0.019404197 -0.13441555 -0.03951971 0.16424026
-0.14532092 0.064098865 0.14144574 0.016373312 -0.010658495 -0.13386922 0.03637235 0.085812524
0.12510678 0.14335681 0.06558947 -0.122531086 -0.12120611 0.09556511 -0.08311095 0.10208504
0.121612415 0.03904305 -0.12768053 -0.047966905 -0.15635471 0.16745299 -0.07149446 0.113852225
-0.07664651 0.05542045 -0.011587412 0.08895642 -0.07440813 0.15064521 -0.045754574 0.17177524
-0.16626763 -0.13741434 0.03403851 -0.049182862 -0.13886714 0.17240372 0.042251352 -0.09225444
0.038286176 -0.14574985 0.025286803 0.08551344 -0.051101577 -0.051295433 -0.07631312 0.14736907
-0.093451 0.12066826 0.08442424 -0.105426945 -0.015546981 0.06311434 0.13667926 0.1466435
-0.051949613 0.014547217 0.07745326 -0.16163044 -0.105185784 0.050407734 -0.036436457 0.12734185
0.087348476 -0.11539381 0.07089749 0.1599379 0.0010146011 -0.15709102 0.055711094 0.13647929
-0.13330865 -0.13223247 -0.037167344 -0.041812032 -0.17124115 0.020317415 0.08100247 0.021519337
-0.059404254 -0.11893415 0.12671469 0.11661569 0.08337826 -0.17525312 -0.08902449 -0.1446922
-0.15708238 0.14305763 -0.15013368 -0.14277972 0.17562523 0.14367552 -0.10929563 0.14928928
-0.1108032 -0.11764884 -0.0059387228 0.022697005 0.07992924 -0.12110555 0.06676312 0.08304611
00000000: 5e5c f8bd 1ba3 003e ded4 2a3e cc3e a7bd
00000010: 4ead a9bd a082 a9bd 0372 763d 6e26 fcbd
00000020: dbb7 16bd 5cbe 713d 90dd cfbd 5290 ed3d
00000030: 88bd ed3d 4a0e 2bbe 6bce a2bc 0469 1dbe
00000040: c223 2f3e ae25 c93d f3c2 133e 5209 983d
00000050: 2bc5 bc3d 5332 66bd c0e7 babc dca5 b53c
00000060: 1bbb a23d dfcf 823a af76 dfbd f97f d53d
00000070: 1174 e1bd a6af 0b3d 7773 38bd 0df9 22be
00000080: 9f02 15be b0dc 84bd 82e0 063d 208f aabd
00000090: a42c 223e da61 b8bb d046 26bd 7192 1b3e
000000a0: 60fc d63d 9833 043e cb98 32be 5016 6dbd
000000b0: f952 d93d 18a0 783c 224e abbd 89f5 95bb
000000c0: 9bba 7d3d 6e2e ebbd f500 023e c09b 483b
000000d0: e436 173d 61ca 173e 3782 bebb 40be f9bd
000000e0: f661 febd f161 ffbd ad04 263e 052e 313e
000000f0: a782 34be d6b7 22bc 431d 273d 2dd3 d8bd
00000100: 4e6a 03be d6bf 1cbe 3cec 0fbe 7df7 fcbc
00000110: 3c96 903d 831d a4bd 5ab1 a03a 10e7 063e
00000120: c348 103d 5323 14be b2f8 9d3d 0a29 1bbe
00000130: 79bd a4bd fbf9 02be d0fb 10be e343 343e
00000140: 64ec 013e f483 dfbd 9225 1bbd e76b e1bd
00000150: 7940 113e 3bd6 c4bd 067a 0abe b154 2cbe
00000160: 08bc bc3d b0dd 373d 4e4c eb3b d01b c7bd
00000170: efc2 d63d b29d d03c c3d5 26be b2a1 48bd
00000180: 0c82 00be 9d8f 2c3e 6362 8b3d 5cf2 adbc
00000190: 1b05 21be 7415 533c fe4c fb3d 606a d0bd
000001a0: 2e45 31be 457d 283d 37e0 8ebd 22aa c03d
000001b0: fd2b 863d 3df2 0dbd af55 18be ee5c 13be
000001c0: 6bf9 773d 55df 9c3d 7fbf 41bd f498 27be
000001d0: 7df5 15be f260 233e e258 343e a018 b13d
000001e0: bfd2 9f3d 090b 0cbe 6126 19be d0d7 2ebe
000001f0: aa74 bf3c 1ed1 4c3d b3e7 a23c c6db 243e
00000200: a846 b73c 4c8c b03d b42a b73d 4373 c7bd
00000210: de32 9ebd 4ca8 bc3d fd21 e5bd d979 1f3d
00000220: a41d e63c 34fa 873c 3598 7c3c fecd 2b3e
00000230: f3ec 39bc 1572 8c3b 5930 8bbb 31df 34be
00000240: efd1 263e c87d 9dbd c3fe ef3d 3445 f1bd
00000250: 8df5 9ebc 3ba4 09be 6bdf 21bd 992e 283e
00000260: 02cf 14be 4446 833d 27d7 103e 5321 863c
00000270: f8a0 2ebc 0315 09be 2cfb 143d 7abe af3d
00000280: fe1b 003e 21cc 123e c653 863d 94f1 fabd
00000290: e93a f8bd a4b7 c33d 1336 aabd f611 d13d
000002a0: ee0f f93d 9beb 1f3d afbe 02be f278 44bd
000002b0: 731b 20be cc78 2b3e b06b 92bd 5b2b e93d
000002c0: d8f8 9cbd 8e00 633d 21d9 3dbc c92e b63d
000002d0: 4a63 98bd bd42 1a3e 2669 3bbd d9e5 2f3e
000002e0: 1042 2abe 58b6 0cbe f76b 0b3d f873 49bd
000002f0: 3033 0ebe 9a8a 303e c10f 2d3d e5ef bcbd
00000300: f7d1 1c3d 733f 15be 4526 cf3c ac21 af3d
00000310: e34f 51bd 291b 52bd 0e4a 9cbd ebe7 163e
00000320: 3d63 bfbd ec20 f73d 9ee6 ac3d 15ea d7bd
00000330: c4b8 7ebc 1742 813d a6f5 0b3e b729 163e
00000340: 1ec9 54bd 7357 6e3c d19f 9e3d 7382 25be
00000350: a56b d7bd 5778 4e3d 653e 15bd e765 023e
00000360: c2e3 b23d 9753 ecbd b432 913d c3c6 233e
00000370: 5dfc 843a 78dc 20be 5131 643d 3ac1 0b3e
00000380: 1082 08be f367 07be c93c 18bd 1843 2bbd
00000390: d759 2fbe b570 a63c 9fe4 a53d 5249 b03c
000003a0: e051 73bd bf93 f3bd 7fc1 013e 35d4 ee3d
000003b0: 39c2 aa3d 8e75 33be 7952 b6bd 312a 14be
000003c0: 34da 20be b37d 123e a5bc 19be d934 12be
000003d0: 1ad7 333e ad1f 133e 63d6 dfbd 4adf 183e
000003e0: caec e2bd e0f1 f0bd 9e99 c2bb 12ef b93c
000003f0: f1b1 a33d 3006 f8bd 1abb 883d 1414 aa3d

modality_encoders.weather.3.bias f4 [16]
0.10180202 0.15953967 0.085264824 -0.07269587 0.13988811 0.16235729 -0.09223513 0.16801122
-0.14606223 0.057033535 -0.030976774 0.084541306 -0.053503104 0.044434305 -0.13622944 -0.056913394
00000000: 947d d03d 5e5e 233e 539f ae3d 93e1 94bd
00000010: d43e 0f3e fd40 263e c6e5 bcbd 220b 2c3e
00000020: 5691 15be ff9b 693d 01c3 fdbc fe23 ad3d
00000030: 1226 5bbd bf00 363d bb7f 0bbe 051e 69bd

modality_encoders.sleep.0.weight f4 [32, 9]
-0.32726103 0.027212104 -0.08139007 -0.0053144693 -0.26489258 0.10876195 -0.020207088 -0.26631826
0.32028314 -0.21582258 0.015507579 0.26976717 0.2749177 0.23391049 -0.09661059 -0.23274899
0.3265705 0.054864805 0.07989077 0.23962745 0.30378824 -0.06093673 0.20694232 0.070312664
0.28807506 0.30423206 0.14450328 0.31717145 -0.3003925 -0.11622413 0.2277147 0.32222998
0.19162464 0.02866602 0.11795481 0.27223286 -0.09468424 0.067636415 0.3067212 0.016191563
0.06946393 0.2105221 -0.12780575 -0.05255401 0.038114987 -0.19177115 -0.20142683 -0.27585512
0.10000992 -0.32495362 0.119503856 0.023916405 0.08149874 -0.3056453 0.14037573 -0.04797145
-0.31499323 -0.014825067 -0.20932317 0.14731607 0.05692526 0.2723359 -0.021118563 -0.32093805
0.20314722 -0.097357 0.18922119 -0.2852746 -0.13960397 -0.054895602 0.025779327 0.010711352
-0.22294407 0.24376564 -0.20554225 0.25644028 -0.012193124 -0.0206304 0.09354528 -0.042642318
-0.22067484 -0.28447077 0.18752277 0.14899628 0.22643463 0.116450354 0.18234198 0.05649511
-0.07238122 -0.18236224 -0.004246871 0.24547529 -0.00807333 -0.28298068 -0.13366482 0.014915745
-0.08914153 -0.16672878 -0.2762375 -0.058241926 0.2090298 0.027819078 -0.0016507705 0.019003987
0.21755087 0.16493866 0.15707092 0.2938757 0.32029852 0.19345903 0.084208295 -0.2728438
0.2866554 0.08085024 -0.04253952 -0.24539837 0.20998363 -0.07115563 0.03474804 -0.15416937
0.20346224 0.22871134 -0.207746 0.29537487 0.07688268 0.109368324 -0.08329368 0.3187439
-0.13767593 0.065172754 0.02344056 -0.28612852 0.02973934 -0.061328333 -0.17741053 0.19670138
0.2981356 -0.15026307 0.06955528 -0.052476406 0.1517323 -0.28008136 0.3042731 -0.27713773
-0.22222921 -0.1780893 0.21785232 0.16209936 0.2680219 -0.043747388 0.004939874 0.19758889
-0.028696697 0.086367056 0.25280532 -0.049283624 0.22355029 -0.03508842 0.078886434 -0.059576552
0.017374396 -0.18499593 -0.014950395 0.056800485 0.10551691 0.27350396 0.26831806 -0.21440291
-0.27515948 -0.05532193 -0.10779464 -0.2087129 -0.28491816 -0.2638137 -0.1731929 0.025234383
0.14143062 -0.06240956 0.0049854517 -0.021114787 0.1411361 -0.21367984 0.10324796 -0.04698662
0.19520473 -0.18227029 0.13453841 -0.086828396 -0.018069943 0.018120766 0.17853193 0.23211119
0.20543663 0.066627346 -0.31476054 0.13170204 -0.14820573 -0.28169072 0.20296106 -0.27270794
0.2617501 0.11438962 0.19446564 0.20963272 0.3029127 0.0124891605 -0.2242235 0.002716462
-0.14271343 -0.2226185 -0.29507673 0.23444538 -0.31348735 -0.22848181 0.085544586 0.33052632
-0.26559812 -0.029684028 0.28213608 -0.21224639 -0.10895519 -0.30846784 0.010168354 -0.23322856
-0.14808106 0.15647385 0.23061964 0.31047332 -0.21132669 0.0704368 -0.30791888 -0.10946791
0.031767726 0.18700449 -0.10659866 0.038716316 0.054717265 -0.0027648609 0.11569544 -0.21965596
-0.050786577 0.24411142 -0.1367815 -0.30991912 0.31082445 -0.14768402 0.23966667 -0.17508158
-0.084844515 0.028761268 -0.26475152 -0.3246388 0.29414934 0.3017478 -0.14510667 0.021446466
00000000: c28e a7be ebeb de3c d6af a6bd 0025 aebb
00000010: 00a0 87be 96be de3d 5689 a5bc de5a 88be
00000020: 27fc a33e 9800 5dbe 8013 7e3c ec1e 8a3e
00000030: 03c2 8c3e 3b86 6f3e c6db c5bd c055 6ebe
00000040: 4034 a73e ebb9 603d c69d a33d e660 753e
00000050: 228a 9b3e cb98 79bd b0e8 533e 1600 903d
00000060: 937e 933e 4ec4 9b3e abf8 133e 4c64 a23e
00000070: 0ccd 99be eb06 eebd 0b2e 693e 54fb a43e
00000080: 4039 443e 00d5 ea3c 4b92 f13d 1b62 8b3e
00000090: d0e9 c1bd f684 8a3d 900a 9d3e 2ba4 843c
000000a0: 1b43 8e3d 1b93 573e 83df 02be e042 57bd
000000b0: 761e 1c3d a85f 44be d642 4ebe e23c 8dbe
000000c0: 00d2 cc3d 5260 a6be 70be f43d 56ec c33c
000000d0: d0e8 a63d 8a7d 9cbe a8be 0f3e b67d 44bd
000000e0: cb46 a1be d6e4 72bc d058 56be 06da 163e
000000f0: 762a 693d 9c6f 8b3e d600 adbc fe51 a4be
00000100: d305 503e 1b63 c7bd 33c3 413e 830f 92be
00000110: 58f4 0ebe 36da 60bd 2b2f d33c ab7e 2f3c
00000120: 734b 64be b39d 793e ab79 52be 244c 833e
00000130: abc5 47bc 1601 a9bc ab94 bf3d b6a9 2ebd
00000140: 96f8 61be 27a6 91be f805 403e 7b92 183e
00000150: 7bde 673e 867d ee3d dbb7 3a3e 6b67 673d
00000160: 9b3c 94bd 2bbd 3abe 5629 8bbb e05d 7b3e
00000170: 0046 04bc d8e2 90be 6edf 08be 2b61 743c
00000180: d68f b6bd f3ba 2abe 006f 8dbe 168f 6ebd
00000190: e80b 563e d6e4 e33c ab5e d8ba 40ae 9b3c
000001a0: a8c5 5e3e aee5 283e 33d7 203e e076 963e
000001b0: 2bfe a33e 201a 463e 6675 ac3d 2fb2 8bbe
000001c0: 7fc4 923e d094 a53d eb3d 2ebd b649 7bbe
000001d0: f305 573e 0bba 91bd f653 0e3d 93de 1dbe
000001e0: 6858 503e 4e33 6a3e 5ebb 54be 603b 973e
000001f0: ab74 9d3d 80fc df3d e095 aabd 6732 a33e
00000200: ebfa 0cbe 4b79 853d 6b06 c03c 707f 92be
00000210: eb9f f33c 6b33 7bbd 1bab 35be 166c 493e
00000220: 3ba5 983e 90de 19be 0073 8e3d 80f1 56bd
00000230: b65f 1b3e d366 8fbe afc9 9b3e ffe4 8dbe
00000240: 0e90 63be 0b5d 36be ae14 5f3e 60fd 253e
00000250: 2b3a 893e 7630 33bd abde a13b be54 4a3e
00000260: 5615 ebbc 36e1 b03d b36f 813e a0dd 49bd
00000270: 5eea 643e e0b8 0fbd 368f a13d 8b06 74bd
00000280: c054 8e3c 936f 3dbe 80f2 74bc a0a7 683d
00000290: 4019 d83d b608 8c3e fc60 893e 708c 5bbe
000002a0: b4e1 8cbe 4099 62bd 70c3 dcbd d6b8 55be
000002b0: cbe0 91be 9712 87be 7b59 31be 56b8 ce3c
000002c0: 30d3 103e 2ba1 7fbd 005d a33b ebf8 acbc
000002d0: fb85 103e e3ce 5abe ab73 d33d 0b75 40bd
000002e0: c0e3 473e 10a5 3abe 70c4 093e 16d3 b1bd
000002f0: 6b07 94bc 0072 943c 13d1 363e 8eae 6d3e
00000300: fb5d 523e eb73 883d 4b28 a1be e6dc 063e
00000310: 3ec3 17be c439 90be 06d5 4f3e 60a0 8bbe
00000320: 1c04 863e 1b45 ea3d 0022 473e f6a9 563e
00000330: 6017 9b3e 569f 4c3c d89a 65be ab06 323b
00000340: 7823 12be 1bf6 63be 4c14 97be 7312 703e
00000350: 6a81 a0be 23f7 69be 0032 af3d bf3a a93e
00000360: 7afc 87be eb2b f3bc 2474 903e 1e57 59be
00000370: e623 dfbd 7fef 9dbe 2b99 263c 78d3 6ebe
00000380: 90a2 17be ae3a 203e 8e27 6c3e 5cf6 9e3e
00000390: 0666 58be 2b41 903d 8ba7 9dbe b630 e0bd
000003a0: e01e 023d 1b7e 3f3e 6650 dabd 0095 1e3d
000003b0: 361f 603d ab32 35bb bbf1 ec3d 7eed 60be
000003c0: 9605 50bd 58f8 793e 7310 0cbe b8ad 9ebe
000003d0: 6224 9f3e 7b3a 17be 2e6b 753e 9648 33be
000003e0: f6c2 adbd c09c eb3c 838d 87be 0f37 a6be
000003f0: be9a 963e b07e 9a3e d896 14be 80b0 af3c

modality_encoders.sleep.0.bias f4 [32]
0.22251451 -0.042064548 0.1235944 0.23231816 -0.114918195 0.28004795 -0.33214742 0.15441689
0.29425675 -0.026709955 0.024066925 -0.09992866 0.24082153 0.00947094 0.042195998 -0.20943964
-0.17601204 0.012692532 0.16296554 0.0027250848 -0.13533358 -0.0798231 -0.05838772 -0.24342911
0.028448105 0.07836728 -0.3200041 -0.035476726 0.15444791 -0.26658854 -0.034624618 0.32991177
00000000: d8da 633e e04b 2cbd 101f fd3d d0e4 6d3e
00000010: 3b5a ebbd 7262 8f3e 3a0f aabe 761f 1e3e
00000020: d2a8 963e d6ce dabc 0028 c53c 66a7 ccbd
00000030: eb99 763e 002c 1b3c b6d5 2c3d 5877 56be
00000040: 803c 34be 56f4 4f3c 70e0 263e 5697 323b
00000050: e394 0abe 4b7a a3bd f627 6fbd 7b45 79be
00000060: 000c e93c 067f a03d 94d7 a3be 0b50 11bd
00000070: 9827 1e3e 4b7e 88be 8bd2 0dbd 32ea a83e

modality_encoders.sleep.3.weight f4 [16, 32]
0.11680449 -0.02651492 0.0673589 -0.12029254 0.06928908 -0.16458568 -0.07479106 -0.15639082
-0.112798385 0.10217018 0.12080734 -0.0099161 0.11112012 0.11333481 0.009294412 0.04548001
0.02566566 0.11878006 0.07305819 0.11782402 -0.014193246 -0.014432683 0.026627662 -0.11219617
0.15221024 0.13730204 -0.1287072 -0.06827625 -0.049847625 0.052873496 -0.14527412 -0.1391066
-0.1717547 -0.05652769 -0.0942146 0.016530605 -0.025999064 0.10455765 0.028086027 -0.08198474
0.1276273 -0.12823628 -0.17174135 -0.054153766 -0.028372351 0.052756432 0.07980904 -0.15435304
-0.14645366 0.08153419 -0.03125442 -0.0138619505 0.08660427 0.024411201 0.15187632 -0.031706717
-0.062284507 0.094874114 -0.12646598 0.063100554 0.043706555 0.1758495 0.12855925 0.072146215
-0.008479588 0.031047728 0.11619732 -0.1002793 0.11704418 -0.058712035 -0.13374014 -0.11107028
-0.013351869 0.12076812 0.08966714 0.034432456 0.0693947 0.15395658 0.012474118 -0.09204138
-0.09469752 0.123614326 -0.12567124 0.022089774 -0.13019413 0.012510533 -0.1751126 0.17339449
-0.15134498 0.03284999 0.09808964 0.1582216 0.026058406 -0.15868472 -0.08817591 0.014736962
0.15641305 -0.17660795 0.028802818 -0.14105983 0.105449244 0.11969332 -0.0020282117 0.16714261
-0.13616796 0.107352406 -0.124089636 -0.05923512 -0.014068786 0.051698968 -0.06966963 -0.17387673
-0.1238067 -0.115516566 0.16684188 -0.0014211074 -0.13532169 0.15503581 -0.104478456 -0.15385924
-0.06777911 -0.06714431 0.097129054 0.12200739 0.038954582 0.14682719 0.025184302 0.069456995
0.10128024 0.033432163 -0.17220332 0.019957775 -0.08700165 0.1585899 -0.08514003 -0.059223697
-0.08895284 -0.11371213 -0.088156074 -0.14223653 -0.1243211 -0.083279915 -0.123603575 0.019565094
0.12022367 0.07509993 0.012139367 -0.09928 0.12192476 0.094837464 0.07375001 0.14575933
-0.051892843 -0.13258384 -0.084058516 -0.119389504 7.371484e-05 -0.095161684 -0.08484173 -0.17534183
0.10056655 -0.16861512 -0.09166314 -0.10858571 0.13307793 0.061764415 0.1164769 0.05804445
-0.012307617 -0.079265706 0.048768263 -0.035804443 -0.16518755 -0.08365359 0.03341737 -0.063223794
0.091634415 -0.121811114 -0.03992221 0.14020501 0.08231745 0.17390665 0.1365382 -0.16033538
-0.07799388 0.022437084 0.036469057 -0.0862161 -0.1020873 0.14872628 0.04338885 -0.065826274
-0.11583678 0.018841559 0.17274259 -0.033899277 -0.14021239 -0.0025425297 -0.16023438 -0.1010427
0.07976898 -0.0024081445 0.16407338 -0.031048613 -0.17062658 0.036763452 -0.09431127 -0.021138562
0.045654014 -0.072273836 0.16848858 -0.037387013 -0.14598109 0.0894605 -0.04655075 -0.089743495
-0.12632747 -0.07778136 0.048747677 0.15566675 0.07916752 -0.13877332 -0.17511857 -0.011137557
-0.03898101 0.1349959 -0.04570208 0.09338951 -0.15212998 -0.15294945 -0.0028572401 -2.8238387e-06
-0.016560107 -0.055370167 -0.101060785 0.11772814 -0.13005023 0.15305185 0.029490676 -0.0656517
-0.0678858 -0.15151428 -0.028532531 -0.050454687 0.10073569 -0.05638671 0.0867207 0.1046639
-0.11757116 -0.0913196 0.051165957 -0.032875594 -0.07953607 0.16038759 0.12256261 -0.0044419407
00000000: 3137 ef3d d135 d9bc 77f3 893d ef5b f6bd
00000010: 6fe7 8d3d 2689 28be 0e2c 99bd ea24 20be
00000020: d702 e7bd 993e d13d d769 f73d 2377 22bc
00000030: f292 e33d 151c e83d 9747 183c 3f49 3a3d
00000040: ca40 d23c f642 f33d 889f 953d b84d f13d
00000050: ca8a 68bc 0f77 6cbc 4122 da3c 1bc7 e5bd
00000060: 00dd 1b3e e898 0c3e d2cb 03be 6bd4 8bbd
00000070: 062d 4cbd e191 583d bdc2 14be f671 0ebe
00000080: 77e0 2fbe 9489 67bd 96f3 c0bd 316b 873c
00000090: fdfb d4bc 5222 d63d ab14 e63c 9ee7 a7bd
000000a0: bbb0 023e 5f50 03be f7dc 2fbe 57d0 5dbd
000000b0: 226d e8bc 2117 583d ec72 a33d b90e 1ebe
000000c0: f3f7 15be 66fb a63d a204 00bd 3c1d 63bc
000000d0: 945d b13d 00fa c73c 7785 1b3e e7de 01bd
000000e0: 0a1e 7fbd 5c4d c23d 4c80 01be dd3a 813d
000000f0: a505 333d e411 343e 09a5 033e 65c1 933d
00000100: f8ed 0abc ce57 fe3c dcf8 ed3d 3c5f cdbd
00000110: dcb4 ef3d 087c 70bd 2df3 08be d178 e3bd
00000120: ccc1 5abc 4755 f73d 68a3 b73d 0c09 0d3d
00000130: cf1e 8e3d cba6 1d3e 3e60 4c3c 3180 bcbd
00000140: c6f0 c1bd 8229 fd3d f6af 00be 9df5 b43c
00000150: 9c51 05be fbf8 4c3c b850 33be 538e 313e
00000160: 2efa 1abe b68d 063d 39e3 c83d d804 223e
00000170: 7078 d53c 3f7e 22be 9295 b4bd 4c73 713c
00000180: be2a 203e b7d8 34be e3f3 eb3c fd71 10be
00000190: c6f5 d73d c521 f53d bfeb 04bb 6f27 2b3e
000001a0: 9d6f 0bbe 94db db3d b522 febd 86a0 72bd
000001b0: c480 66bc 4cc2 533d f3ae 8ebd be0c 32be
000001c0: 5e8e fdbd f393 ecbd 99d8 2a3e 7444 baba
000001d0: c591 0abe b5c1 1e3e cdf8 d5bd 478d 1dbe
000001e0: c6cf 8abd f582 89bd 99eb c63d 03df f93d
000001f0: d78e 1f3d de59 163e 4f4f ce3c 783f 8e3d
00000200: 046c cf3d 2af0 083d 1156 30be 7d7e a33c
00000210: ec2d b2bd 6465 223e e55d aebd 8c94 72bd
00000220: e82c b6bd e8e1 e8bd 2c8b b4bd 74a6 11be
00000230: 109c febd a98e aabd df23 fdbd fa46 a03c
00000240: d437 f63d fecd 993d 32e4 463c 5053 cbbd
00000250: b0b3 f93d 253a c23d 3f0a 973d ef41 153e
00000260: 978d 54bd 0fc4 07be df26 acbd 7c82 f4bd
00000270: 5a97 9a38 21e4 c2bd 80c1 adbd cf8c 33be
00000280: d6f5 cd3d 71a9 2cbe e2b9 bbbd 2f62 debd
00000290: 9545 083e affc 7c3d 718b ee3d 04c0 6d3d
000002a0: e3a5 49bc 0f56 a2bd 3bc1 473d aea7 12bd
000002b0: ed26 29be 9352 abbd a7e0 083d 7a7b 81bd
000002c0: d3aa bb3d 1b78 f9bd 7985 23bd e791 0f3e
000002d0: 0d96 a83d 9614 323e abd0 0b3e f52e 24be
000002e0: 41bb 9fbd facd b73c 9460 153d 1192 b0bd
000002f0: 2513 d1bd b44b 183e 82b8 313d edcf 86bd
00000300: d53b edbd 9d59 9a3c 6fe3 303e f8d9 0abd
00000310: d693 0fbe 92a0 26bb 7b14 24be 7aef cebd
00000320: eb5d a33d f6d1 1dbb da02 283e a959 febc
00000330: bcb8 2ebe 4695 163d 4426 c1bd c72a adbc
00000340: b4ff 3a3d 4e04 94bd 4588 2c3e 2023 19bd
00000350: 117c 15be 1137 b73d 00ac 3ebd 70cb b7bd
00000360: fd5b 01be d54b 9fbd a5ab 473d 1b67 1f3e
00000370: 9522 a23d 981a 0ebe 4852 33be 4d7a 36bc
00000380: 8daa 1fbd 5d3c 0a3e 1b32 3bbd 0043 bf3d
00000390: f6c7 1bbe c89e 1cbe 8940 3bbb 2e81 3db6
000003a0: 10a9 87bc d4cb 62bd f5f8 cebd 731b f13d
000003b0: e32b 05be a0b9 1c3e 6e96 f13c 6674 86bd
000003c0: b607 8bbd 8f26 1bbe 0ebd e9bc 93a9 4ebd
000003d0: 834e ce3d c0f5 66bd 9f9a b13d 075a d63d
000003e0: 26c9 f0bd c505 bbbd 6593 513d 8fa8 06bd
000003f0: cfe3 a2bd a53c 243e 1b02 fb3d b38d 91bb

modality_encoders.sleep.3.bias f4 [16]
-0.14232464 -0.12632966 -0.08098854 -0.17446633 -0.16212401 -0.11534871 -9.362922e-05 0.17259572
-0.053307902 -0.14501873 -0.026069554 0.104273535 0.17396274 -0.080274194 0.021520497 -0.11739927
00000000: 8dbd 11be 905c 01be 52dd a5bd 4da7 32be
00000010: d603 26be f23b ecbd ce5a c4b8 efbc 303e
00000020: 6359 5abd ca7f 14be d18f d5bc 5d8d d53d
00000030: 4a23 323e cc66 a4bd c14b b03c 076f f0bd

modality_encoders.stress.0.weight f4 [32, 7]
0.29866046 -0.31732476 0.071605645 -0.19224313 0.13445467 -0.37684304 -0.3473762 0.23878396
-0.16420951 0.0662455 0.17233111 0.19461943 -0.22423992 -0.16055332 0.16231428 0.22750357
-0.009679749 0.13766758 -0.31778485 0.22206871 0.025974883 -0.13621064 0.30478224 -0.16488415
-0.17984429 0.0735909 -0.20500283 0.36001515 -0.12996088 0.2600977 -0.1273131 -0.2937173
-0.16842246 0.20925927 -0.24348623 0.31136212 0.20392935 0.27625692 -0.19283618 0.025820969
-0.32869828 -0.11888613 0.2433503 0.3633933 -0.22795832 -0.07618991 -0.00394482 0.1382436
0.2873516 -0.3185344 0.25505617 0.01689421 0.1671237 -0.15715572 0.1351681 0.26700696
0.35667413 -0.079399 0.06549071 0.25335428 -0.33412078 -0.0074724127 -0.29668823 -0.114455506
-0.25895822 0.11530541 -0.31533182 0.21181187 -0.17647228 -0.18380232 -0.15169609 -0.02539446
-0.18929236 -0.008101586 -0.097818345 0.016668657 0.31457525 -0.20752467 0.3691521 0.34848407
-0.2562214 -0.11514834 -0.054993134 0.3572963 0.11570538 0.14006412 -0.238223 0.143703
0.16098645 0.07068266 0.19774237 -0.053530138 0.19706602 -0.16216001 -0.24240825 -0.21903801
0.2998461 0.23747447 -0.17304102 0.33339277 -0.302774 0.24557291 0.31163427 -0.12951887
-0.13055383 0.2542182 0.097682044 -0.15014383 0.20880824 0.05287947 0.0836015 -0.10967429
0.07244055 -0.2930225 0.20349294 -0.10422701 0.119014494 0.32002065 -0.103863895 -0.06063831
-0.060181703 0.27888578 0.3478047 -0.22299264 0.20048566 0.23433942 -0.029394204 0.35884437
-0.37390846 -0.14462022 0.27339247 -0.01669961 -0.21463344 0.33344945 0.07309077 -0.31315577
0.12392452 -0.21775511 -0.105421916 0.17086644 0.2041468 0.29809913 -0.2922388 -0.007866705
0.14286512 0.054520126 -0.0684696 -0.13418514 -0.28671712 -0.21500893 0.29034397 -0.24139608
-0.20956282 0.13733917 -0.12137565 -0.22573856 0.16813202 -0.03821945 0.17736094 0.27152815
-0.36372447 -0.005840137 0.36082938 -0.12749001 0.12217257 0.24263316 0.29100725 -0.23565769
0.15698609 0.373809 -0.028391644 0.18635236 0.02727252 0.10335079 -0.11219148 0.17815872
0.23605801 0.1137249 0.19821565 -0.22416769 -0.12906253 -0.26799542 -0.03314501 -0.007565725
0.03623438 -0.19472492 -0.20175928 0.05410362 0.1308663 0.07201368 0.17376766 0.132368
-0.25129306 0.25453588 -0.2540698 0.05686885 -0.10335367 0.20239905 -0.22194926 0.053137466
-0.07960077 -0.33084634 -0.19532602 0.244562 0.26918218 0.16490623 0.015517318 0.11762237
-0.012835577 -0.376365 -0.30476615 0.074112475 0.1636061 -0.33026013 0.10387345 -0.020522054
0.30775535 0.27707806 0.36063176 -0.18025368 -0.099067815 0.32215112 0.053487692 -0.08540607
00000000: 06ea 983e 6478 a2be fba5 923d 62db 44be
00000010: 7cae 093e 92f1 c0be 4bdb b1be c883 743e
00000020: 8a26 28be b9ab 873d 9177 303e 514a 473e
00000030: 269f 65be 1768 24be b735 263e b2f6 683e
00000040: cf97 1ebc bbf8 0c3e b2b4 a2be fb65 633e
00000050: 47c9 d43c cd7a 0bbe 6b0c 9c3e 64d7 28be
00000060: 1a29 38be d3b6 963d 43ec 51be e853 b83e
00000070: 7714 05be 872b 853e 5e5e 02be 1d62 96be
00000080: f076 2cbe 1048 563e 7454 79be db6a 9f3e
00000090: dbd2 503e 8c71 8d3e d976 45be 7f86 d33c
000000a0: 244b a8be 927a f3bd d230 793e b00e ba3e
000000b0: e86d 69be 7509 9cbd 8c43 81bb bb8f 0d3e
000000c0: c01f 933e f116 a3be b996 823e ba65 8a3c
000000d0: 7a22 2b3e 6eed 20be 8269 0a3e 23b5 883e
000000e0: fe9d b63e f19b a2bd fe1f 863d a7b7 813e
000000f0: e111 abbe 24db f4bb 85e7 97be a667 eabd
00000100: 2c96 84be 3e25 ec3d 2c73 a1be 36e5 583e
00000110: 26b5 34be ad36 3cbe 3856 1bbe 0b08 d0bc
00000120: dbd5 41be 84bc 04bc fc54 c8bd b58c 883c
00000130: 0210 a13e 5981 54be 8101 bd3e 816c b23e
00000140: 742f 83be e5d2 ebbd 7b40 61bd 8aef b63e
00000150: f1f6 ec3d f86c 0f3e bbf0 73be e126 133e
00000160: a2d9 243e 12c2 903d fa7c 4a3e 6b42 5bbd
00000170: adcb 493e 460d 26be de39 78be 804b 60be
00000180: 6e85 993e 822c 733e aa31 31be 75b2 aa3e
00000190: 3205 9bbe 7777 7b3e 878e 9f3e 98a0 04be
000001a0: e7af 05be e328 823e 860d c83d 4ebf 19be
000001b0: d4d1 553e 2598 583d 4337 ab3d ea9c e0bd
000001c0: b65b 943d 0c07 96be 7460 503e f874 d5bd
000001d0: dfbd f33d bfd9 a33e 98b6 d4bd e05f 78bd
000001e0: 1781 76bd 1eca 8e3e 7513 b23e 2f58 64be
000001f0: 1d4c 4d3e acf6 6f3e 1dcc f0bc 73ba b73e
00000200: ee70 bfbe 5317 14be 19fa 8b3e 9fcd 88bc
00000210: dec8 5bbe e3b9 aa3e 9db0 953d f455 a0be
00000220: 24cc fd3d 32fb 5ebe 72e7 d7bd 9df7 2e3e
00000230: dc0b 513e 73a0 983e 53a0 95be 5ae3 00bc
00000240: 3c4b 123e 7f50 5f3d ca39 8cbd d467 09be
00000250: 96cc 92be 4d2b 5cbe f7a7 943e 8930 77be
00000260: a397 56be a4a2 0c3e cc93 f8bd 0228 67be
00000270: cd2a 2c3e ff8b 1cbd 1b9e 353e bd05 8b3e
00000280: 183a babe 9f5e bfbb a1be b83e be8c 02be
00000290: 9d35 fa3d d474 783e e7fe 943e 4050 71be
000002a0: f6c0 203e e563 bf3e 9895 e8bc 27d3 3e3e
000002b0: 9f6a df3c 94a9 d33d a6c4 e5bd 3d6f 363e
000002c0: 31b9 713e 9ae8 e83d 0bf9 4a3e 378c 65be
000002d0: f828 04be b236 89be 10c3 07bd e7e9 f7bb
000002e0: 806a 143d f865 47be fc99 4ebe c29b 5d3d
000002f0: d101 063e e97b 933d 26f0 313e 7a8b 073e
00000300: 7ca9 80be 8752 823e 7015 82be 50ef 683d
00000310: 17ab d3bd b241 4f3e ab46 63be aca6 593d
00000320: ba05 a3bd b164 a9be 8b03 48be 766e 7a3e
00000330: 3fd2 893e 2edd 283e 593c 7e3c ffe3 f03d
00000340: 504c 52bc eab2 c0be 4f0a 9cbe 48c8 973d
00000350: 5c88 273e db17 a9be 9abb d43d de1d a8bc
00000360: 1c92 9d3e 2ddd 8d3e baa4 b83e 6c94 38be
00000370: 11e4 cabd fef0 a43e e915 5b3d 61e9 aebd

modality_encoders.stress.0.bias f4 [32]
0.3001757 -0.26348674 0.3190703 -0.21830484 0.2596024 0.21894465 -0.13979913 0.29597342
0.07457247 0.28154975 -0.11825483 0.045902144 -0.15484056 0.3489544 0.31062278 -0.19550529
0.2205147 -0.104809634 0.1202258 0.20048949 0.16029552 0.3691864 0.27899244 0.18507148
0.06287219 -0.15083694 -0.067499526 0.28003109 0.32963926 -0.0937447 0.3387733 -0.35202226
00000000: a1b0 993e bce7 86be 2f5d a33e 4e8b 5fbe
00000010: 9bea 843e 0733 603e 8127 0fbe d489 973e
00000020: 73b9 983d 4a27 903e 972f f2bd e303 3c3d
00000030: 868e 1ebe 27aa b23e f309 9f3e 8a32 48be
00000040: 9bce 613e 6fa6 d6bd f238 f63d 1e4d 4d3e
00000050: 8224 243e 0006 bd3e 19d8 8e3e 6183 3d3e
00000060: 22c3 803d 0075 1abe 313d 8abd 3c60 8f3e
00000070: 7ac6 a83e 39fd bfbd b273 ad3e 433c b4be
