results/migraine/model.pth (torch, 180667 bytes, 44 tensors)

modality_encoders.eeg.0.weight f4 [32, 6]
00000000: 52b0 bdbc e7bb fd3d b7f5 863e 7058 763e
00000010: 1672 b0be 9d20 acbe 7195 d33d 4fce d63d
00000020: 84bb 9bbe f06f 1f3e 2af4 c93e dc5f b7bd
00000030: 2d59 9bbd 0731 d7bd 98e2 a13e 5d13 3c3e
00000040: 3ae8 ce3d e13d ca3e 26c1 26bd 9216 8f3e
00000050: 74e8 cb3e c87b 303e fa0b c73e 8111 cfbe
00000060: 1e0f 573e 1255 3a3e e6ba 37be 524d 613b
00000070: 6f06 c9be 8baf 8cbe 9390 7e3d ab53 75be
00000080: df85 a7bd e7f0 a7be 4d63 c13d 2777 94be
00000090: c851 c3be 1c91 75be ae6f babe a479 abbe
000000a0: bcc2 2dbd 5e8b 443e cd89 833e cd4b 0b3e
000000b0: 5856 003e db69 813e f914 403e 6043 88be
000000c0: 3c0d b0bd 4635 063e 9859 8d3e 4725 c2be
000000d0: 1d94 e5bd 203a 123c 3f81 a03d 2f41 30bd
000000e0: c742 083e 2a1b a33e 5892 a0be 8b52 c9bd
000000f0: a5b4 2abe 8494 4cbe dd66 733e 5277 53be
00000100: 2dcd 2cbc 8624 bc3d 49b7 34be 3dc7 e9bd
00000110: 3e08 5b3d c19a b53e 9762 493e b9d7 963d
00000120: 265a aa3e 864d cf3d 5743 923e d2e9 c83e
00000130: 4150 ab3d e11c 4f3e 3f05 1abe 7633 61be
00000140: df49 fe3d 3b71 a53e c906 493e d284 493e
00000150: 6a76 813b 548f 9abe 4475 0a3e b347 243c
00000160: 61d0 473e 3e4a 953e 75a5 6d3e 082e c23e
00000170: c449 9f3e e237 d0bd d602 cebe 75fd 333d
00000180: e618 833e cb6c 9d3d 390a 39be 9d8b ccbe
00000190: 5d91 123e bcd9 533e 95d5 873e 87cf 60bd
000001a0: 2747 e83d 9ecc 98bc bada 91be 58eb c3bd
000001b0: d645 80bd eb17 0e3e 26aa 253e 6e80 8c3e
000001c0: 6c71 3ebc e76e a03c 72b6 05bd 049c 993e
000001d0: a6ad babc 3b22 a8bc 5ddf 00bc 125f 5f3e
000001e0: f58d 283d 58e8 b03e 5f77 b8be 46e0 80be
000001f0: d876 1ebe cce3 f9bc 1e2e 5c3e 126f bfbd
00000200: ead2 63be 59bb 683d 067b f1bd 487f 4ebe
00000210: 171a c9be e458 21be 0208 65bc 1f7f 483e
00000220: 932f 7bbe 42b8 8e3e a443 ccbe eaf9 75be
00000230: 13d7 a13e beb4 47be ad39 b23d a968 65be
00000240: 0745 1d3e 066b c4bc 1810 543e 3637 c13e
00000250: 6a1d a6be ecb7 c73d a36a 223e c22d b3bd
00000260: 6985 963d f3a9 ca3e 66d8 323e 49c4 a23e
00000270: 7bcc 9e3e cb8e 013e 8418 223e 62f2 c5bd
00000280: 56ca c7be a7d8 9bbd 3932 2bbd 4496 bcbe
00000290: 3360 b6be 15a7 50be bcdc 763d 416d 933d
000002a0: a301 633e 617a 6fbe c26d d53d 4c7e ab3e
000002b0: c281 873e 0e8d a93e a19e d0be 82b8 62bd
000002c0: c0f2 963e 2356 2a3e 7f43 ea3d d3c2 49be
000002d0: 0c07 803e ffd4 f9bd 214c 9a3e cd31 4abb
000002e0: 37eb 8ebc b861 263d a790 74be d826 8fbd
000002f0: d476 1abe 8b0f b33e d9e9 4ebe 8d9c 97bd
-0.023155365 0.12389355 0.2635934 0.24057174 -0.3446204 -0.33618632 0.10331238 0.10488569
-0.304165 0.15570045 0.39444095 -0.089538306 -0.07585368 -0.10507398 0.3161819 0.18366762
0.101028875 0.39500335 -0.040711544 0.27946907 0.39825785 0.17234719 0.38876325 -0.40443042
0.2100186 0.18196514 -0.1794239 0.0034378362 -0.3926272 -0.2747768 0.062149595 -0.23957698
-0.08179831 -0.3280098 0.09442768 -0.28997156 -0.38148332 -0.23981136 -0.3641333 -0.33491242
-0.04242204 0.1919379 0.2569107 0.13603134 0.12532938 0.25276074 0.18758 -0.26613903
-0.08596274 0.1310626 0.27607417 -0.37919065 -0.11209891 0.008924991 0.07837152 -0.043030914
0.13306724 0.31856662 -0.3136165 -0.09830197 -0.16670473 -0.19978529 0.23769708 -0.20650986
-0.010546965 0.09186654 -0.17648043 -0.11414955 0.053474657 0.3546963 0.19666515 0.073653646
0.33271903 0.10122208 0.28567 0.3924089 0.083649166 0.2022586 -0.15041064 -0.21992287
0.124164335 0.3231295 0.19631495 0.19679573 0.0039508836 -0.30187476 0.13521296 0.01002686
0.19513084 0.29158205 0.23207648 0.37925744 0.31110966 -0.10166909 -0.4023654 0.043942887
0.25604934 0.07686766 -0.18070306 -0.39950266 0.14313264 0.20688528 0.26530138 -0.054885413
0.11341696 -0.018652257 -0.28487188 -0.09566373 -0.0626332 0.13876311 0.16178188 0.27441734
-0.011623722 0.019584132 -0.032644697 0.30001843 -0.02278788 -0.020524135 -0.007865754 0.2181361
0.041151006 0.34552264 -0.36028573 -0.25171107 -0.15475023 -0.03050413 0.21501967 -0.09347357
-0.22248426 0.056819294 -0.11791043 -0.20165741 -0.39277717 -0.15756565 -0.01397896 0.19579743
-0.24529867 0.27874953 -0.39895356 -0.24021116 0.316094 -0.19502541 0.08702407 -0.22403206
0.15358363 -0.023976814 0.20709264 0.37737435 -0.32444316 0.09751877 0.15860991 -0.08748962
0.07349665 0.39582786 0.17465362 0.3179038 0.3101538 0.12652127 0.15829664 -0.096653715
-0.39021558 -0.076096825 -0.041795943 -0.36833394 -0.3562027 -0.20376237 0.060269102 0.07198573
0.22168593 -0.23386528 0.10421325 0.33494794 0.26466185 0.3311543 -0.40746024 -0.05535174
0.2948208 0.16634421 0.11438655 -0.19703226 0.25005376 -0.12198829 0.30136207 -0.0030852437
-0.017446144 0.040620536 -0.23883305 -0.06989831 -0.15084392 0.34972796 -0.20206393 -0.074029066

modality_encoders.eeg.0.bias f4 [32]
00000000: de96 8b3e fafa cfbd 3ed8 803e afce 46bd
00000010: 6d5a 12be f927 8f3e 84c8 553e 0874 053e
00000020: abbd 7bbd d00a a63e 0b63 6bbe 1663 c13e
00000030: 476e 56be cce6 b33e dd67 cd3e 18e7 a5bc
00000040: e032 dc3d 74f2 a3be 9735 6a3d 5c4b a9bd
00000050: 76da 97be 13ab f0bd 52a2 9e3d 3b99 4ebe
00000060: f1b6 6fbe b4b0 6f3e 7c1d fbbd f3fa c33e
00000070: 157f c33e c9ac 303e 725c 7ebe 5257 30be
0.2726354 -0.10155292 0.2516498 -0.048536953 -0.14292307 0.27960184 0.20877272 0.13032544
-0.06146018 0.32430124 -0.22987 0.3777091 -0.20940505 0.35137022 0.40118304 -0.020251796
0.10751891 -0.32020915 0.057180014 -0.08266327 -0.2965886 -0.1175138 0.07745804 -0.2017564
-0.2340963 0.2340725 -0.12261483 0.38277397 0.38182893 0.17253412 -0.24839953 -0.1722081

modality_encoders.eeg.3.weight f4 [16, 32]
00000000: e24b 02bd f0d5 de3d 4a36 143e 927e 093e
00000010: 6943 2ebd 01db 0b3e 8ece 19be 765f cc3d
00000020: b0ed ddbd 1b2b e4bd 0711 e1bd f50a e2bd
00000030: a2c2 783d 20ca 1b3e 6a84 273e a0dc 87bd
00000040: 4d6a 08bd d119 96bd f110 2bbe 139e eb3d
00000050: 6667 f73d 67ce 47bd 7e64 813d 5af3 e4bd
00000060: f78e 3abc b97b 993d dace 78bc 7fd4 b73d
00000070: 06df 143e 12dd 0d3d 8b73 92bd 2925 043e
00000080: f277 d6bd e8eb 093e e58e 0c3b 89f3 c93d
00000090: ff4f 303e e730 213e d34a b63d 5ec5 29bd
000000a0: cfd6 28be abdd 69bd c3cd c93d 2433 273e
000000b0: a913 9f3d d4e6 ae3d bd24 153d 7c5b 28be
000000c0: 2089 61bd ecd1 39bd 8364 28be 4757 9d3b
000000d0: e99c 23be c053 2c3e 0d6a 2ebe ec6f 1c3e
000000e0: 1c6b 343e e5f4 1dbe f385 03be ced3 023d
000000f0: 5740 24be 04ae 22be ec42 e9bd e26f 08be
00000100: ea5a f7bc 6cd3 1dbe 9185 93bd 5e82 dcbc
00000110: 1d9d e5bd 3099 723a 5476 c6bb 8e75 21be
00000120: 5cd7 d2bd dd32 cd3d 4815 143e a836 613b
00000130: 0ee0 e93c 9b48 1d3c 4c30 febd 8cfc 243d
00000140: fc6c 783d a8ba 1dbe 4ccc ca3d 5cfc 103e
00000150: 9fad ed3d 03f9 24bd eb91 9cbd 7a37 0fbe
00000160: bce7 523d 8a1b 0fbe 9ea3 34be 6484 e0bd
00000170: 8a2f 01be 58f9 223e c5df 0bbe fd8e 89bd
00000180: 4015 3fbd 19cb c7bd f5f8 2a3d 2d41 76bd
00000190: 5512 293e 3f55 e8bd d0e7 97bd 15c7 b33d
000001a0: da5c 31bd 940d 8d3d 5883 30be 8a05 08be
000001b0: b9a5 be3d 4a3b a63d 7896 d9bc cfdf 893d
000001c0: d697 22be 43e6 9e3c c3e3 253e 01b1 1fbd
000001d0: 6bc9 da3d 31fc e6bd cbf4 243e 35de 35bd
000001e0: ed62 ba3d 0417 1b3e 6f1e 143e 08e9 20be
000001f0: 2089 58bd c6d6 913d 2b3e e63d 42d9 103e
00000200: c4f7 a63c 5fbf e3bd c9be 57bd 6eaf b73d
00000210: baac c5bd 4e0d 063d d131 893d 0d6e ffbd
00000220: 958b efbd 52c4 c03d 06b2 ecbd c555 c83d
00000230: fa38 0dbd 60ca 873d 3d49 ffbd e3c1 38bd
00000240: e515 2ebe ca93 7cbc 4122 1b3d 2c3b a9bd
00000250: ac20 1abe efae 303e 29b7 db3b 5df4 fc3d
00000260: 78f7 b4bc f0dd 9dbc d4f6 a13d 2760 af3c
00000270: 2fe7 a1bd 66ca 323e 1486 ac3d 40e2 c6bd
00000280: 4300 2b3e b8da 9b3d e58d ffbd 9159 a7bd
00000290: 4295 58bd fe9f c0bc af84 05be 2c31 5a3d
000002a0: b008 bdbd 90c0 7fbd 8040 2ebe fa94 313d
000002b0: db18 18bd 2c7b d03d 9208 043e 6ea7 a8bd
000002c0: 90b5 99bc 1882 9e3d 05f6 2e3e 208f 99bd
000002d0: a686 bbbd 94f4 c2bd 55ae fd3d c542 133e
000002e0: 5d64 0b3d b3f3 a83d d23f 333e cf9f 1dbe
000002f0: 272e c7bd bd51 a8bd cc2b 33be 96db 033e
00000300: 9f1d 1cbe 73ff 51bd 4dff d6bd 7fdd dc3b
00000310: 8dd8 05be bb56 f6bd 0ddd c7bd 9d8e a43d
00000320: 425f 18be b91c 3a3d a35a 0d3e 5b52 243e
00000330: 1753 493d 9c36 a5bd b01f bd3c 373f 17be
00000340: 0744 2dbe 1009 3dbd e744 1fbd f2e2 3c3d
00000350: 1edf 1bbd c806 bebc 0bba 623d ee93 15be
00000360: 95f6 28be 69bf a1bd 1e4d af3d 1d92 01bc
00000370: 617c 0cbe 7538 1b3e 42bc 07be d91b 303d
00000380: 5504 2abe f83d dd3d 5200 09be 4561 f43b
00000390: 86e6 6a3d 2a5f aebd 9f9b ae3d c385 6e3d
000003a0: 81b1 1bbe ab8e c6bd a606 1d3e 88cf a7bd
000003b0: 7b28 b1bd eb0b 9a3c 7198 0c3c c12d d6bd
000003c0: 92c3 f03d 9921 07be bf33 90bc e5e7 f5bd
000003d0: 419a 333e d239 08be 3398 21bd 6ad8 babd
000003e0: ad25 28bd 7fab 1f3e 8b0f 44bd d78a 173d
000003f0: 4326 f8bd ac88 67bd d27a 0abd b05e 863d
-0.03181065 0.10880649 0.14473835 0.13427189 -0.042544756 0.13657762 -0.150202 0.09979145
-0.10836351 -0.11141034 -0.10989576 -0.11037246 0.06073249 0.15213823 0.16359106 -0.06633878
-0.0333045 -0.07329143 -0.16705681 0.1150476 0.120802686 -0.048780825 0.063179955 -0.11179228
-0.011386625 0.07494301 -0.015186036 0.08976077 0.14538202 0.034634657 -0.07150944 0.129048
-0.104720965 0.13468897 0.0021447476 0.09860904 0.17218016 0.15741311 0.0890099 -0.04144799
-0.16488193 -0.057096165 0.09853699 0.16328102 0.07767422 0.08540121 0.03641199 -0.16441149
-0.055062413 -0.045366213 -0.16444592 0.004801664 -0.15977825 0.16828823 -0.17032643 0.1527707
0.17618984 -0.15425451 -0.12844066 0.031940274 -0.16040169 -0.15886694 -0.113897175 -0.1332393
-0.030194718 -0.15412682 -0.0720321 -0.026917633 -0.112116076 0.0009254394 -0.0060565863 -0.157675
-0.10294983 0.10019467 0.14461243 0.0034364853 0.02854922 0.00959983 -0.12411556 0.04027991
0.06065081 -0.15403235 0.09902248 0.14158767 0.11605381 -0.04027654 -0.07645019 -0.13986006
0.05149053 -0.13975349 -0.1764054 -0.109627515 -0.12615791 0.1591543 -0.1365958 -0.06716726
-0.046651125 -0.09755535 0.04174133 -0.06012075 0.165109 -0.113443844 -0.074172616 0.08778206
-0.04330144 0.068873554 -0.17237604 -0.13283363 0.09308953 0.08116777 -0.026561007 0.06732141
-0.15878233 0.019396907 0.16200165 -0.038987163 0.10682949 -0.112785704 0.16109006 -0.044401366
0.091009 0.15145499 0.14464734 -0.15713894 -0.052865148 0.07121043 0.11242326 0.14145377
0.020381816 -0.111204855 -0.05267218 0.089690074 -0.096520856 0.032727532 0.06698955 -0.124721624
-0.11696545 0.09412445 -0.11557393 0.09781984 -0.034478165 0.06630397 -0.12465141 -0.04510678
-0.1700054 -0.015416095 0.037874464 -0.08263239 -0.15051526 0.17254232 0.006705184 0.12351296
-0.022090659 -0.019270867 0.07908407 0.021408154 -0.07905423 0.17460021 0.08424011 -0.097111225
0.16699319 0.07610077 -0.12478236 -0.0817138 -0.05287672 -0.02351379 -0.13038896 0.05326955
-0.09230173 -0.0624395 -0.17016792 0.043354966 -0.03713308 0.10179743 0.12893894 -0.0823506
-0.018763334 0.07739657 0.17086037 -0.07498002 -0.091565415 -0.09519306 0.12386767 0.1438094
0.03403126 0.08249607 0.17504814 -0.15392993 -0.097256 -0.08218715 -0.17497176 0.12876734
-0.15245675 -0.051269006 -0.104979135 0.0067402716 -0.13070889 -0.12028261 -0.09758959 0.08035014
-0.14880088 0.04543755 0.13804106 0.16047041 0.049151506 -0.080670565 0.023086399 -0.14770208
-0.16920482 -0.04615122 -0.03888407 0.04611487 -0.038054578 -0.023196593 0.055353206 -0.14607212
-0.16500314 -0.07897837 0.08559631 -0.007908371 -0.13719322 0.15158255 -0.13255408 0.042995308
-0.16603215 0.10802835 -0.13379028 0.0074578845 0.05734875 -0.08514245 0.08525776 0.058233034
-0.15204431 -0.096951805 0.15334567 -0.0819388 -0.08650299 0.018804511 0.008581267 -0.104579456
0.11756052 -0.1319641 -0.0176028 -0.12007121 0.17539312 -0.13303307 -0.03945179 -0.09123309
-0.041051555 0.15592764 -0.047866385 0.036997642 -0.12116673 -0.056526825 -0.033808537 0.06561029

modality_encoders.eeg.3.bias f4 [16]
00000000: a9bc 123e 992d eebc c401 e8bd 0a56 903c
00000010: f052 273e f180 c3bd 9c13 b1bd ab05 153e
00000020: c3d7 ef3c 4be2 42bd 8fa9 1bbe 689e 7ebd
00000030: 258f 30be 016d 1fbe 496c 5dbd 0107 24bd
0.1432978 -0.029074477 -0.11328462 0.017619152 0.16340232 -0.09546078 -0.08646318 0.14552943
0.029277688 -0.04757909 -0.152014 -0.062162787 -0.17242105 -0.15568925 -0.054058347 -0.040045742

modality_encoders.weather.0.weight f4 [32, 12]
00000000: f1f1 94bb 3645 7c3e ef65 783e fbbb 94bd
00000010: 5ea8 90be 979a ce3d c304 61be 1f8b c73d
00000020: 2e47 59be 2e1a 4cbe 4715 453e ce10 0abd
00000030: dd1f 903e f023 21be c9ff 913e 7af4 ba3d
00000040: e0cb 24be b258 6f3e 33ac d03b b3e5 ea3c
00000050: 1045 14bd 955d adbd 846b 58be 9f2c 333e
00000060: ba0e 9fbd d791 38be ca67 3f3e 507a 373e
00000070: 7457 e8bd 3001 093e 8cd8 a03d 7bcc 70bd
00000080: 3c5f ef3c 5540 74bd b06c 8b3e 49f6 f1bd
00000090: ea75 a2bd 28bd 033e 0de9 873e 75f7 3c3c
000000a0: 048c 55be 9caf 1cbe 9d57 0dbe 55eb 89be
000000b0: 9998 2bbd 2d1a 2cbe ef7e 08bd b0c6 d4ba
000000c0: fd07 793d a93a 93be 93be 4dbe 90a5 09bd
000000d0: 1e49 a4bd c84d 4ebe cbec 063e 7fd8 883d
000000e0: 2b9e 283c bf5d 903e d1dd 8f3e b94f 8e3e
000000f0: 2028 613d facd 83be 3b75 57bd 581e 883e
00000100: 9df3 ecbd 1d53 3f3d 9ba0 90be 67ae 86be
00000110: b23e 4a3e 5ed5 893e 43d2 63bd b928 e83b
00000120: ace9 d6bd d747 f8bd 9186 713e 99cb 6f3e
00000130: cd8d ba3d f056 73bc 1147 603d 7986 4f3e
00000140: f50d 833e 7b6e 18be 5e82 ddbd 239b 8fbd
00000150: f1ef 7dbe 91d9 77be cfac 8abe cd3c 96bd
00000160: ae7d 903e 234d 3cbc 681f 28bd 2aeb e5bd
00000170: c831 9b3c f328 27bd 7603 21be a9eb 2a3e
00000180: e5ee c93d be0c 8c3e 6249 81be 3449 933e
00000190: 5e7b 5cbe 09c5 84be 5490 a43d bcef 7cbe
000001a0: 5101 80bc 6ff9 af3d 5700 2cbe 04db 8d3e
000001b0: fb32 7f3e cf2a 123e b009 8bbe 1e43 9abc
000001c0: a18d 16bd 9477 87be f54f 50be ac2d 86bd
000001d0: 885e bc3c 27ed 6e3e ce53 7d3e 51a3 4a3d
000001e0: 8b83 5ebc b8e1 10be 406e 50be 846f 793b
000001f0: 6141 91bd c0fd 033d b43e ecbd 61fd 4f3e
00000200: 6259 413e 4245 85be 2c94 3c3e ca3e 003e
00000210: 3695 033e 49f7 24be 93b9 dbbd 0dd3 693e
00000220: ddef 713e d03a 673e ffb8 4cbe 8b43 80be
00000230: 52be 89be feb1 2bbe b216 953d 3382 89bb
00000240: 8428 f4bd 89a1 773e c507 8d3e adee 913d
00000250: b13f 33be c243 7ebe 4679 11be eab3 3bbe
00000260: 7a17 353e afec 2bbe 54aa ef3d b8d1 613d
00000270: ca6a 96bd 6183 8f3e 07a9 8fbe c44e 5a3e
00000280: 3779 6c3e ef4c 3e3e 4134 913e be52 493e
00000290: 531f 33be 56e4 a73d f7a6 65bd df12 ca3c
000002a0: 70ac bcbd 3eee 923e debb f2bd 7cb4 4abe
000002b0: c8f6 7c3e 1cc5 47bb c7e7 bb3d c155 b2bd
000002c0: 12b2 913e 09b8 44be 60be 5d3e 705f c13d
000002d0: 28ae f53c 6cb8 423b 5390 a1bd 1293 7ebe
000002e0: dbaf 3cbe 12b0 2abd 23a4 913e fe70 f5bd
000002f0: 6ce2 8cbc 9754 703e a0fc 6e3e 0bfa 203e
00000300: fc60 253d 80d7 8d3e 2c9e 13be 3638 0abd
00000310: 5204 313e 3140 3c3e 6f31 0abe 0787 65bd
00000320: 5f4b 48be 053c 83be ca5c 5f3e 23f3 0cbe
00000330: 8cb0 10be da80 743c 7cd7 08bd 2a4f 8cbe
00000340: adc6 1e3e 0368 07be dfc2 15be 972b 3bbe
00000350: 1779 8bbe 8b36 3d3e 38d0 26bd 9941 863e
00000360: 72db 0bbe ea45 9a3d 71eb 3cbe 12cf 813d
00000370: 0938 503e ca24 30bb 6fa9 003e 8542 2e3d
00000380: 3ff4 23bd b191 803d 5810 12be fdf8 8d3e
00000390: bb2c 3838 4050 52be e5b7 923e 46e9 8cbe
000003a0: d06b a6bd d5c4 7ebe 65b9 74be 55d1 08be
000003b0: 12f8 bc3d 5c28 233e 9cbf 0bbe 716e 6bbe
000003c0: e17e bcbd 70d3 8ebe c9ec afbb 7ab7 06be
000003d0: 7175 033e 85e9 17be 27a2 703d a9bd 3f3e
000003e0: 884d 82bd 3caa 6ebc 264f 2e3e a730 4c3e
000003f0: 9f5a a8bc 3243 473e fa4d 313c df60 41be
-0.004545443 0.24635777 0.24257635 -0.07262417 -0.28253454 0.100880794 -0.21974473 0.09743332
-0.21218559 -0.19931862 0.19246398 -0.033707432 0.2814931 -0.15736365 0.2851546 0.091286615
-0.16093397 0.23373678 0.006368184 0.028673982 -0.036198676 -0.08465115 -0.21134764 0.1749749
-0.07766481 -0.18024383 0.18691936 0.17917752 -0.11344805 0.13379359 0.07853803 -0.058788758
0.029220216 -0.059631664 0.2723136 -0.11814553 -0.079326466 0.12865126 0.2654499 0.011533608
-0.20854193 -0.15301365 -0.13802953 -0.26937357 -0.041893575 -0.1680686 -0.03332418 -0.001623353
0.060798634 -0.28755692 -0.2009223 -0.03360516 -0.080217585 -0.20146859 0.13176267 0.06681918
0.010291616 0.28196523 0.2809892 0.277952 0.054969907 -0.25743085 -0.052602034 0.2658565
-0.11569903 0.046710122 -0.28247532 -0.26304933 0.19750479 0.269206 -0.055620443 0.0070849326
-0.10493788 -0.12123077 0.2358649 0.2341751 0.091090776 -0.0148522705 0.054755274 0.20266141
0.25596586 -0.14885895 -0.10815881 -0.07012012 -0.24798562 -0.24204089 -0.27084967 -0.073358156
0.28220886 -0.011493 -0.041045576 -0.112264946 0.018944636 -0.040810537 -0.15723976 0.1669146
0.09860019 0.27353472 -0.252513 0.28766787 -0.21531436 -0.25931576 0.08035341 -0.24700826
-0.015625628 0.085924976 -0.16797005 0.27706158 0.24921791 0.14274143 -0.27155828 -0.018830832
-0.03675616 -0.26458418 -0.20343001 -0.0655168 0.022994295 0.23332654 0.24739 0.049472157
-0.013581167 -0.14148605 -0.20354557 0.0038060853 -0.07092548 0.032224417 -0.11535397 0.203115
0.18881753 -0.26029402 0.18415898 0.12523952 0.12849888 -0.16109957 -0.10728755 0.22834416
0.23626657 0.22581029 -0.19992445 -0.2505153 -0.26903015 -0.16767117 0.072797194 -0.004196429
-0.1192179 0.24182715 0.2754499 0.07125602 -0.17504765 -0.24830535 -0.14206418 -0.1833035
0.17684737 -0.16789506 0.117024094 0.055131644 -0.07344587 0.28029922 -0.28058645 0.21319109
0.23093115 0.18584035 0.2836018 0.1966047 -0.17492418 0.081978485 -0.056067433 0.024667202
-0.09212577 0.2869739 -0.11852239 -0.19795412 0.24703515 -0.0030482477 0.091750674 -0.087077625
0.2845617 -0.19210829 0.21654654 0.094420314 0.02999027 0.0029711975 -0.07888856 -0.2486079
-0.18426459 -0.04167182 0.2844554 -0.11984442 -0.01719781 0.23469768 0.23338556 0.15720384
0.040375695 0.27703476 -0.14415807 -0.033745013 0.17286804 0.18383862 -0.1349542 -0.056036975
-0.19560002 -0.2563173 0.2181274 -0.13764624 -0.14129847 0.014923299 -0.033408627 -0.27404147
0.15505476 -0.13223271 -0.14625119 -0.18278347 -0.27240822 0.18477838 -0.040725917 0.26221922
-0.1365793 0.07532866 -0.18449189 0.06338324 0.20333876 -0.0026877397 0.12564634 0.042543907
-0.040027853 0.062777884 -0.14264047 0.27729025 4.3910677e-05 -0.20538425 0.28655925 -0.27521724
-0.08126032 -0.24879773 -0.23898847 -0.13361104 0.09227003 0.15933365 -0.13647312 -0.22991349
-0.09203888 -0.2789569 -0.005368803 -0.13155928 0.12837769 -0.14835174 0.05874839 0.18724693
-0.06362444 -0.014566954 0.1702238 0.19940434 -0.020551024 0.19459227 0.010821814 -0.1888461

modality_encoders.weather.0.bias f4 [32]
00000000: 203c 8d3d 0c43 803d 0c30 cabd 40a9 aabd
00000010: 4103 15be 6fa4 3c3e a483 06be 9404 f4bc
00000020: c0b5 db3c 89ba c5bd 92e8 5f3e 6916 253e
00000030: 95ec 75bc 1d54 7f3e d7f3 fb3d 19cb 603e
00000040: 6527 47be bbb5 d83d e079 66bd e1f8 79be
00000050: 19d1 ec3c c521 f63c a2ec 8b3d fe39 2b3e
00000060: 3f83 86bd 2e71 9bbd db92 a73c 3d3c 5e3d
00000070: cd29 94bd def5 5e3e 7ff3 30be 1496 693d
0.068962336 0.06262788 -0.098724455 -0.08333063 -0.14552023 0.18422101 -0.13136154 -0.02978734
0.026820064 -0.096547194 0.21866062 0.1612183 -0.015010019 0.2493443 0.12302368 0.21952476
-0.19448622 0.10581537 -0.056268573 -0.24411346 0.0289083 0.0300454 0.068322435 0.16721341
-0.06568002 -0.07589947 0.020455768 0.054256666 -0.07234535 0.21773478 -0.17280386 0.05702789

modality_encoders.weather.3.weight f4 [16, 32]
00000000: fab8 14be bd68 223e e1a3 8ebc c9ae 26be
00000010: 35ca 85bd 7da4 0abe 675e d63d 6762 eb3d
00000020: 63be afbd 1ad4 ce3d 67c5 7b3c ce6d 2d3e
00000030: bcaa 283e 8f7b 263d 24fc ac3d 425c c53d
00000040: 39c4 fcbc 4e53 b9bd 9cc3 1fbe 6a18 f7bd
00000050: 94b1 0d3e c6eb 203e cbd1 1e3e 4bf5 0ebe
00000060: d362 0abe 5000 99bd df16 63bc 4f97 0fbe
00000070: 2b67 253e 4cf2 52bd 0426 a9bd dd2f 14be
00000080: 571c 89bd 361f b7bd 9460 133e 845f bb3d
00000090: b607 103e 7fb8 bcbc d8ca dcbc ff79 2abe
000000a0: 7b89 bfbd f7e8 943d e6f9 91bd 0dd2 de3d
000000b0: e034 3abd 2b9c e8bd 8061 043e 7e30 b7bd
000000c0: 6088 bf3c 5dea bbbd e47f 2bbe 19a6 0fbe
000000d0: 3444 0dbd d051 333d 0cdb 89bd b371 1abc
000000e0: 6c22 dc3d f418 5ebc b48d 08be 942a 98bd
000000f0: 765f a63d ecbc ebbd 4708 fcbd 30df 023e
00000100: 7283 f8bd 513a 183e 21f3 533b 8e5b ad3d
00000110: e67b 14be f7e9 2b3e 55f3 5fbd ac22 6b3c
00000120: 39a5 8a3d 21a0 aebc 3000 13be c567 413d
00000130: aab3 0dbe 8cc8 433d e9a6 f6bc 7cba 4d3d
00000140: 5f1e 8d3d e738 02bd 2990 83bc 7bde 733d
00000150: a0e9 213e 225e f2bd 4d29 99bd 11c9 dc3d
00000160: 1b70 163e c414 09be 0b28 823d 4b69 8b3d
00000170: ba6d 04bd 8138 9bbd fc3d 4e3d d56c b2bd
00000180: e95c 2c3e ef10 c23d e3f0 23bd 976d 9cbd
00000190: 2e49 b0bd 2df6 863d d6ee afbd bebf 0bbe
000001a0: 27f5 2e3e 0e7d e03d 423d 2dbe 57e8 0d3e
000001b0: 1522 ec3d ebc2 b3bd fa94 c8bd d430 30be
000001c0: 8c12 f93d a74f 9f3d 686f aabc d314 eebd
000001d0: 6c06 16be c066 183d d5d8 d6bd c43d f3bb
000001e0: 991a a33d 8678 6f3d c119 093d 907a e93d
000001f0: 4cd6 4ebd e227 273e 248b f53d 4a48 f23d
00000200: eb78 2f3e 70f5 9f3c 0c51 1d3e 91f7 e73d
00000210: 724a 0a3e e43e edbd ee99 fc3d a038 ae3c
00000220: 93d4 253e ae12 cd3d 845b 22be 9865 b0bd
00000230: b8fd b5bd 51a3 093e 31c9 70bd 75da f33d
00000240: 4421 0bbe 76ea c8bd 0438 b13d 31db f2bd
00000250: c419 173d 9a69 f23d 7c30 d2bc d8cc a3bc
00000260: 457b 913d c0cf f13c bd6b c93d ac3a efbd
00000270: ad7b cabd db96 db3d 25d9 be3c 4a37 d0bd
00000280: 3203 d8bc c0f4 1bbe 694b 0cbe eba8 afbd
00000290: c7fc 153e 50f6 03bd b305 35bd f7a1 2f3e
000002a0: 8fb8 183e 943d a5bd 34ac 5b3c bbf6 a7bd
000002b0: c478 f7bd 27f9 773d 26fc c4bd 392c 66bd
000002c0: 7d5b fb3d 70ce 6abc 3e22 05be 31e8 b4bd
000002d0: e35b 4d3d 8746 753d 2901 11bc 267b b93d
000002e0: 88d0 f8bc ce8c d63d 2718 db3d 9a1d 083e
000002f0: 07bb 81bd b8ff 1e3d ba58 023e cfd3 96bd
00000300: 11ed ddbd 3e64 193e aad7 25bc f4a2 2fbd
00000310: 233f 30be dda4 bebd 67f9 acbd 632a 623d
00000320: de4f c23d 5ffe f2bd 242a f8bc 3f08 f3bd
00000330: 4c26 2bbe 3c10 b0bd 9cd8 99bb b0fe a5bd
00000340: 3ea7 48bd b81d eabd 6674 f63d f519 c73d
00000350: 43d3 3fbd 6c65 2bbe 1248 f83d 72fa e43a
00000360: 719a a7bc a5c5 92bd b1ea 07bc 46b6 21bb
00000370: f972 8dbd 4231 2bbe d35b cabd 5ca4 133d
00000380: a67b 69bd b6c5 f03d 43ac 0abe bf64 24be
00000390: c15f be3d ae85 15be 94ad 73bd 2ee9 bbba
000003a0: 9112 dabd 7cac e2bd 7fb1 373d 8587 d33d
000003b0: 41ec 803d 8592 1d3e ee25 c6bd 852c 0abe
000003c0: 6810 ecbd cd1c 043e 92c4 0f3e 9946 15be
000003d0: 855d e23b 03bf ac3d 437d 18be 5b65 e03a
000003e0: f82a 013e eff8 2fbd 012d b0bd 9e49 27be
000003f0: 1119 40bc 4f00 ee3d f78e 2ebe 68a1 c8bd
-0.14523688 0.15860267 -0.017412128 -0.16277613 -0.065327086 -0.1353931 0.104672246 0.11493378
-0.08581235 0.10099049 0.015366889 0.16936418 0.1647138 0.04064518 0.084465295 0.096367374
-0.030855285 -0.09049092 -0.15601963 -0.120652035 0.13837272 0.1571494 0.15509717 -0.1396076
-0.13514261 -0.07470763 -0.013860433 -0.14022563 0.16152637 -0.051500604 -0.08259204 -0.14471383
-0.066948585 -0.089415 0.1439231 0.091490775 0.14065441 -0.023037193 -0.026952192 -0.166481
-0.09352394 0.07270997 -0.071277425 0.10879908 -0.04546058 -0.11357912 0.12927818 -0.08944796
0.023380458 -0.091755606 -0.16748005 -0.14028205 -0.03448887 0.043779194 -0.06731233 -0.009426522
0.10748753 -0.013555754 -0.13335305 -0.07429996 0.081236765 -0.11510643 -0.12306266 0.12780452
-0.12134446 0.14865996 0.003234096 0.08464728 -0.14500389 0.1678847 -0.05467542 0.014351528
0.06769795 -0.02131659 -0.1435554 0.047218103 -0.13838068 0.04779868 -0.030108886 0.050226673
0.068905585 -0.031792548 -0.016059952 0.059538346 0.15811777 -0.11834361 -0.074785806 0.10780538
0.14691202 -0.13386828 0.06355294 0.068071924 -0.032331206 -0.07579137 0.05035208 -0.08712164
0.16832317 0.09475886 -0.04002465 -0.0763809 -0.08607708 0.06589923 -0.08590476 -0.13647363
0.17085706 0.10961352 -0.16917899 0.13858162 0.11529938 -0.08777412 -0.0979404 -0.17206126
0.12161741 0.07778864 -0.020805076 -0.11625066 -0.14650887 0.037207365 -0.10490576 -0.0074231345
0.079640575 0.05846455 0.033471826 0.1140033 -0.05049734 0.16323808 0.119894296 0.11830194
0.1713597 0.019526213 0.15362948 0.113265164 0.13504961 -0.11584261 0.12334047 0.021267235
0.16194372 0.100133285 -0.15855223 -0.086131275 -0.08886284 0.13441207 -0.05878562 0.11906902
-0.13586909 -0.09810345 0.08653262 -0.11858214 0.036889806 0.11836548 -0.025657885 -0.019995138
0.0710359 0.029518008 0.098350026 -0.11681113 -0.098868705 0.10722133 0.023296902 -0.101667956
-0.026368711 -0.15230083 -0.13700642 -0.085771404 0.14647208 -0.032217324 -0.04419489 0.17151628
0.14914154 -0.08068386 0.013407756 -0.08201357 -0.12083581 0.060540345 -0.09618406 -0.056194518
0.122733094 -0.014331445 -0.13001344 -0.088333495 0.050136458 0.059881713 -0.008850374 0.09056692
-0.030372873 0.10476075 0.10697966 0.13292542 -0.06334501 0.03881809 0.12729159 -0.07364618
-0.108362325 0.14979646 -0.010122219 -0.042880014 -0.17211585 -0.09308789 -0.08446007 0.055216204
0.0948789 -0.11864924 -0.030293532 -0.11866807 -0.16713828 -0.085968465 -0.0046950113 -0.081052184
-0.04898762 -0.1143145 0.1203392 0.09721748 -0.046832334 -0.16737908 0.12123121 0.0017469658
-0.020459386 -0.07166604 -0.008295701 -0.0024675294 -0.06906695 -0.16718009 -0.09880795 0.036045417
-0.057002686 0.1175646 -0.13542275 -0.16054057 0.09295607 -0.14601776 -0.05949171 -0.0014336461
-0.106480725 -0.11068055 0.044847008 0.10328583 0.06295062 0.15387924 -0.09675203 -0.13493545
-0.11526567 0.12901612 0.1403983 -0.14577712 0.006908121 0.0843487 -0.14891534 0.001712005
0.12614048 -0.04296201 -0.08602334 -0.16336676 -0.011724726 0.116211526 -0.17046724 -0.09796411

modality_encoders.weather.3.bias f4 [16]
00000000: eeed 1ebe a1c6 04be 5c94 703d 2efd 503d
00000010: 7e94 0a3e 4816 2fbd fc5a b73b 8cf0 2bbe
00000020: a8dd 0abe 89e6 683c e7db 7e3d 8be8 25bc
00000030: 5eab 99bd 8e60 8dba 24ae 343e a079 7c3d
-0.1552045 -0.12966396 0.058735237 0.0510227 0.13533208 -0.04274586 0.005595563 -0.1679098
-0.13561118 0.01421512 0.062221434 -0.010126243 -0.07503389 -0.0010786222 0.17644554 0.06163943

modality_encoders.sleep.0.weight f4 [32, 9]
00000000: 1a67 92be cbd3 4fbe 2be6 71bd a041 733d
00000010: 9b01 debd d01e 9bbd 6bfd 38bd 36f0 35bd
00000020: 663c 243e 1e4c 8ebe c3b9 853e d345 24be
00000030: e35c 1e3e 50fe 1fbe 1691 5f3d 2799 8fbe
00000040: 0605 99bd 163f 75be d0d8 dd3d 1064 ce3d
00000050: f2fe a13e 23d3 75be f3f1 9e3e c710 91be
00000060: f3e2 0e3e b080 193e 8b28 3abe 836e 66be
00000070: 288d 36be 40e9 0bbd 56d5 b9bd 0699 fe3d
00000080: 1668 033e 8072 f03d 66e0 903e 9bbc e7bd
00000090: af8e 983e 0acb a9be c32d 893e 98a1 7fbe
000000a0: eb08 0a3d 36ba 5c3e 0e3c 20be d62d c63d
000000b0: 704d bdbd ab1e 70bd 1058 5ebe f64d d03d
000000c0: 3b54 07be f617 1b3d 067f 813d bb20 8f3e
000000d0: b6fe 14bd 9baf 4a3e 88f4 50be f4f7 943e
000000e0: 0b44 3f3e 0602 b13d 48a5 55be b6fa 503d
000000f0: db32 70be f322 a9be 18a3 1c3e 3bb9 a03e
00000100: 635d 893e 3b99 13be 9b8d d3bd f84f 683e
00000110: 7fd9 813e 20c9 4bbe 6691 d6bd abea 5dbc
00000120: 1ef4 5ebe 30fc d7bd 06a8 42be 260f 88be
00000130: a0bc 1c3d 3bbe 483e 6063 683e 2450 9e3e
00000140: e8d2 91be e05a 09bd c8b2 96be 645a 96be
00000150: 386d 503e 7629 0dbe 9c77 96be e85c 443e
00000160: a87b 6bbe 16a1 993e 5078 173e bca3 80be
00000170: 30f2 a23e cb8a 303d 8b41 0a3e 564f 89bd
00000180: ac44 a93e 5650 303c 33e4 783e f8b4 593e
00000190: 40fa d1bd 00ad 313c 0078 b5bd e676 b0bd
000001a0: cedb 34be 547b 823e 2f2b 993e e0f2 103e
000001b0: 0b61 333e 041d 8b3e c385 a93e 4bd2 a03e
000001c0: 5bcc 013e 3e09 433e 2f19 963e 6be6 933e
000001d0: e839 5e3e 2873 1b3e a042 2a3e a6d5 aebd
000001e0: 96d1 823d 002c f13d a65d 1dbe d6da 1ebd
000001f0: 1621 de3c 808e bd3c d69e 6bbc c684 74be
00000200: dbb1 163e dbfb 843e fbdb 413e b66a 16be
00000210: 535a 96be 2b4b d33c 8fb0 8c3e 2616 20be
00000220: f67c 50bd a6f9 e8bd c68c 8b3d 28da 423e
00000230: bb48 803e c049 923c 56c0 5e3c 88db 47be
00000240: a815 93be 3674 113e 808c 65bc dbfe 37be
00000250: c826 813e 5405 a2be 80d6 62be a846 193e
00000260: 1738 98be 2baa 393e 2016 113e fb51 ecbd
00000270: c038 f8bd d663 e53c 56ec ed3d 5685 24bb
00000280: 1fbd 97be 9023 2cbe 2bca d33d 50a5 04be
00000290: ab37 13bc ab01 b6bb cfdf a9be 36a9 463e
000002a0: 6e22 40be eb47 31be 467d 94be f2ae 87be
000002b0: 5675 c139 2e11 31be abaa 9239 88e5 07be
000002c0: 337f 6a3e 5b18 353e 466d cb3d 2bb2 883c
000002d0: dfb5 83be 5634 32bd d654 46be 8472 88be
000002e0: 2b33 3c3e 9b34 233e a0d8 6dbd 36cd 0c3e
000002f0: 8b5b 8b3e a319 67be ab06 4cbd 3bfd 853d
00000300: ab75 463c 60b2 47be 885d 823e 301a 96be
00000310: d6e9 d03c 7682 43be ab80 bbbb 5086 813d
00000320: 7067 d53d 80f2 8e3d b679 b3bd d69a 6b3d
00000330: 765d 753e 530e 0b3e 3b17 a2be e8ed 20be
00000340: 1b65 a03e e09a 773d 5813 143e 0031 f3bb
00000350: 8b7e 0dbe b6f6 793d 6032 0fbe 3e02 163e
00000360: cb69 1b3d cb87 51bd 3e31 63be c025 a93d
00000370: eb2c 7a3d 4eea 893e 8028 02bd 66ea c63d
00000380: 0bcc 34bd 40d2 1abe d659 333d 7e43 6abe
00000390: 74b5 a73e cb41 923e 40eb b03c 20fe 4abe
000003a0: 10c4 70be 13c4 9fbe 5ee3 a23e fbda 9f3e
000003b0: d6cd 9dbe 4654 81be 2b8c 8ebc 5bfc 66be
000003c0: 00b3 273d 73a3 a5be d66b 9a3d f30c 423e
000003d0: 0a8f 8b3e 3e59 09be e36c 9bbe 5025 7dbe
000003e0: 93f0 6ebe d809 233e b6fb 213d e8af 213e
000003f0: c08e 1f3e 86cb e03d c092 9fbe d023 003e
-0.28594285 -0.20295636 -0.059057396 0.059388757 -0.1084015 -0.075742364 -0.045163553 -0.044418536
0.16038665 -0.27792448 0.26118287 -0.16042261 0.15465121 -0.15624356 0.054581724 -0.28046533
-0.07471661 -0.23949847 0.10832369 0.10077679 0.3163982 -0.24006324 0.31043968 -0.28333113
0.13953762 0.14990497 -0.18179528 -0.22503094 -0.17827284 -0.03415799 -0.09073894 0.12431531
0.12832674 0.11740589 0.28296202 -0.113152705 0.2979636 -0.3316272 0.26792726 -0.24963987
0.03369991 0.21555409 -0.15647909 0.09676711 -0.09243286 -0.058622997 -0.2171328 0.1017112
-0.13215725 0.037864648 0.06323056 0.2795466 -0.036375724 0.1979355 -0.20405781 0.29095423
0.186783 0.08642964 -0.20863831 0.051020347 -0.234569 -0.33034477 0.1529659 0.3139132
0.2682906 -0.14413922 -0.103297435 0.22686756 0.2536125 -0.19900942 -0.10476951 -0.013544719
-0.21772811 -0.10546148 -0.19009408 -0.26574057 0.038265824 0.19603817 0.22694159 0.30920517
-0.2848122 -0.03353393 -0.29433274 -0.29365838 0.20354164 -0.13785347 -0.2938813 0.19176066
-0.2299639 0.3000571 0.1479199 -0.2512492 0.318254 0.043101113 0.13501565 -0.06704585
0.33060205 0.010761341 0.24305801 0.2126044 -0.102528095 0.010844469 -0.08860779 -0.08616428
-0.17661974 0.25484717 0.2991576 0.1415515 0.17517488 0.27170575 0.33109865 0.3141044
0.12675612 0.19046494 0.2931609 0.28886732 0.21701777 0.15180647 0.16626978 -0.08536844
0.063876316 0.117759705 -0.15367755 -0.038782917 0.027115386 0.023139238 -0.014381131 -0.23878774
0.14716284 0.259734 0.18931572 -0.14689144 -0.29365787 0.025792679 0.27478454 -0.15633449
-0.050900422 -0.11375742 0.0681396 0.19028533 0.2505549 0.017857432 0.013595661 -0.19517338
-0.2872746 0.14204487 -0.014010549 -0.17968313 0.252249 -0.3164469 -0.22152138 0.1496836
-0.29730293 0.1813132 0.14168596 -0.11539074 -0.12120199 0.028001707 0.11617343 -0.0025103888
-0.29636475 -0.16810441 0.10341295 -0.12953687 -0.00898544 -0.005554398 -0.33178565 0.19400486
-0.18763134 -0.17312591 -0.29001826 -0.2650066 0.0003689925 -0.1729171 0.00027974448 -0.13271153
0.22900085 0.17685072 0.09932952 0.01668652 -0.25724694 -0.043506943 -0.193683 -0.26649868
0.18378894 0.15938036 -0.058067918 0.13750157 0.2721828 -0.22568373 -0.049811047 0.065424405
0.012113015 -0.19501638 0.25461984 -0.29316854 0.025502127 -0.19092736 -0.0057221255 0.06324446
0.1042012 0.06979847 -0.08763449 0.05752071 0.23961434 0.13579683 -0.31658348 -0.15715754
0.31327137 0.060450435 0.14460504 -0.0074216127 -0.13817804 0.061026298 -0.1398406 0.14649293
0.03794269 -0.051154893 -0.22186753 0.08259153 0.061077993 0.26936573 -0.031776905 0.09712677
-0.044139903 -0.15119267 0.043786846 -0.22877309 0.32755625 0.2856582 0.021596551 -0.19823503
-0.23512292 -0.3120428 0.31814092 0.31221756 -0.30821103 -0.25259608 -0.017400822 -0.22557203
0.040942192 -0.32351264 0.07540099 0.18950252 0.27257568 -0.1341295 -0.3035651 -0.24721265
-0.2333396 0.15921724 0.03954669 0.15789759 0.15581799 0.10976319 -0.3116665 0.12513661

modality_encoders.sleep.0.bias f4 [32]
00000000: 13ac 493e 9b3e 99bd 60cc 713e a436 933e
00000010: 1697 7f3d 4095 34bd 164d d5bc 163a a63c
00000020: 4b6f a3be fb4a 143e 4e0d 2cbe c01d 7fbe
00000030: ee60 6abe 2ae3 88be 9bf7 55be acf8 8f3e
00000040: c692 6f3e 70c7 df3d eb31 b7bd 88c8 43be
00000050: 2844 5fbe c6fa a8bd a37e 4bbe 4636 92be
00000060: 6e0f 5f3e 7c77 80be d29a 84be 92fc 943e
00000070: 4630 9bbd eebe 07be 4650 af3d 401a 97bc
0.19694547 -0.07482644 0.23613119 0.28752625 0.062399946 -0.04408765 -0.026037734 0.02029137
-0.31920847 0.14481728 -0.1680195 -0.24913692 -0.22888538 -0.26735812 -0.20895235 0.2811941
0.23395833 0.109267116 -0.08945068 -0.19119465 -0.21803343 -0.08250956 -0.19872527 -0.28557032
0.2178323 -0.2509116 -0.2589937 0.29098946 -0.07577567 -0.13256428 0.08560233 -0.018445134

modality_encoders.sleep.3.weight f4 [16, 32]
00000000: 3ae3 053e 4fe0 25be 09bb a7bd 46c0 e0bd
00000010: c483 29be 37e6 ea3d 7de7 8b3c 065b 66bc
00000020: a7d2 74bd eac3 80bd 3926 0cbd e981 d0bd
00000030: 715c 2fbd 09c2 d0bd a4b3 02be bac0 c93d
00000040: 5be3 2ebe afd5 92bd d2fe ec3c 43e2 093e
00000050: 80dc 5c3d 00f3 5bbd 116a fc3b 38e6 48bd
00000060: ea81 30bd 0510 5bbd 02ad 1abc af46 d1bd
00000070: 47b5 9dbc 1c16 fcbd aace c8bd 8ef7 a2bd
00000080: d007 cc3d ac63 bbbc 8feb c1bd a245 f33d
00000090: a3af 32be 0f6c 8ebc ff13 42bd 40d6 c63d
000000a0: 04a0 483d 4b57 2bbe 5e7e efbd a346 1abe
000000b0: 64ef fe3d 8218 803d 92e2 c8bd 66a5 243e
000000c0: 0cd9 893b 7b8a 033e 2b60 0d3e 456a 9fbd
000000d0: 2df7 c43d a87e 273e 16c3 ed3d 8c3b 28be
000000e0: 1fbd debd b4ba b6bd a172 c83d 75dc f33d
000000f0: 22a2 81bd 86fc 81bd 5527 193e 5fcf bb3c
00000100: 13de 703d 4fac e23d bd5e 1a3d ffdd ff3d
00000110: 0fca d43d b91c ba3d 934e e4bd abfb c93d
00000120: 922f ab3d 1591 9fbd 4a4c 2d3e c005 dabc
00000130: 7c9d e13d 32bb 203e 7f11 0c3e 0d53 c03c
00000140: 5bb7 c7bb 9957 383b 4ff8 673d 64d7 cc3d
00000150: e575 0ebd a248 ec3d 8855 113e 4f90 7a3d
00000160: 7b61 2f3c 1fd9 14bd d599 33be 4280 2b3c
00000170: ebea b63d ac1f 233e e885 b1bd 7134 1cbe
00000180: 38e1 c5bc a47f 89bd fcff e5bd 1ec2 313e
00000190: fa86 593d 98d9 0abe 8a28 30be ce8e d03b
000001a0: f1e0 dcbd 712b f0bd e654 743b a238 683d
000001b0: 245d 82bb 086a f2bc af86 c1bc 31b0 15bd
000001c0: ad8c 31be 5e1d 223e 5cae 16be e6b6 f43d
000001d0: fcc8 95ba 8e59 ba3d 8b78 fc3d 4913 e03d
000001e0: 9860 00be 4ef1 303e e5ee 2c3b c007 21be
000001f0: 4588 d93d 10cb 4c3d c18f 4c3d af2d 073e
00000200: e400 babd 4588 303e 2343 b8bc 7760 00bc
00000210: 8c8b 49bd 90e3 163d 4648 eb3d 87de 0f3e
00000220: 2835 05be 4bb8 2c3d cfb1 b63c 697e 71bd
00000230: b9eb 043e 67bd 053b fd05 d0bd 47d6 e5bd
00000240: 776d c03d 12c6 aa3d 7a14 083d b05a 213e
00000250: 3030 0abe 7487 893d da9d 48bd 56f0 14be
00000260: 768f 38ba a93a a1bd 7910 e1ba d904 c83d
00000270: 1754 05be a44c cd3c 8d8b fbbc 0597 7bbd
00000280: 7db3 6dbc 6385 c8bc 97fe 443d 4a2e 2d3e
00000290: ff65 ba3d 4d80 30bc 97f8 9c3d 01e5 d4bd
000002a0: 6441 29be 791e f0bd ad15 243d f167 d33d
000002b0: ed9d 7dbc 9bc2 9c3d b7b9 dd3d 09a6 0b3e
000002c0: 616b 303e 95ea b53c 0cb7 3e3d 722f a8bd
000002d0: 7f2c e7bd 79ac dc3d 9f1c 12bd 6ee1 153e
000002e0: 5ec1 fdbd cc66 21be 0483 cebd a7c6 093e
000002f0: ba74 e13d 3e74 cc3d 3c5d 923d e47b 2f3e
00000300: 2f07 1b3e 4c8e 193e a9dc 0dbe 6ad7 f03d
00000310: 4b62 1bbd a129 2cbe 5bfe bcbd 0e3f 003c
00000320: 4fa5 7cbd fa13 a83d 4bd3 03be 8129 0fbe
00000330: 996d eabd 38b0 3abd 78af f5bd b836 663d
00000340: 3973 bc3d 91c7 013d f60e ce3c a001 f8bd
00000350: 53e2 27bd 33ea 7a3d f838 453d 22bb 343e
00000360: f97f d9bd c32c 08bd 2d50 ab3a 6594 e33d
00000370: 649c 0dbc e0ed e1bd 3a0d aebd 6e2d 203e
00000380: d983 1dbd 5399 953d 0125 10be 924a 99bc
00000390: bfd6 2b3d a741 153e bb65 a93d 12c1 2dbe
000003a0: d058 8cbd 374b d7bc 43da cabd 55ff f0bc
000003b0: 2ca8 3f3d 0287 8a3d 01df 1c3e 29d0 8e3c
000003c0: e74e 433d baf9 2c3e 8642 25be 6fe2 9f3d
000003d0: e3d6 9bbd 54e7 92bd f45f a33c b6da 1f3e
000003e0: 7b44 15be f94e e63d fda8 11be 0398 2bbe
000003f0: 7924 c13d 5257 aa3c 1698 023e d12b 1cbc
0.13074961 -0.16198848 -0.08189971 -0.10974173 -0.16554171 0.11469691 0.017078156 -0.014059788
-0.059771206 -0.06287368 -0.03421614 -0.101810284 -0.04281277 -0.10193259 -0.1276384 0.09851213
-0.17078917 -0.07169663 0.028930102 0.13465218 0.053921223 -0.05369854 0.007703074 -0.04904768
-0.043092646 -0.053482074 -0.009440662 -0.1021856 -0.019251479 -0.123089045 -0.09805043 -0.079573736
0.099624276 -0.022874676 -0.09468757 0.11878516 -0.17449813 -0.01738551 -0.04738235 0.09708834
0.048980728 -0.16732518 -0.116940245 -0.15066008 0.12448004 0.062546745 -0.0980884 0.1607872
0.004206782 0.12845795 0.13806216 -0.07783941 0.096174575 0.1635691 0.11609475 -0.16428965
-0.10875916 -0.089223295 0.09787489 0.11907283 -0.063297525 -0.06346993 0.1495641 0.02292603
0.058805536 0.110680215 0.037688006 0.12493514 0.10390102 0.0908751 -0.11147799 0.09862455
0.08358683 -0.07791344 0.16923633 -0.02661407 0.11016366 0.1569641 0.13678549 0.023477102
-0.0060948557 0.0028128384 0.05663329 0.1000202 -0.0347804 0.11537291 0.14192784 0.06117278
0.0107043935 -0.036339875 -0.17539151 0.010467591 0.08931526 0.1593005 -0.08668119 -0.1525438
-0.024155244 -0.06713799 -0.11230466 0.17359206 0.05310724 -0.13559568 -0.17202964 0.00636468
-0.10785092 -0.11727036 0.0037282049 0.056694634 -0.0039783884 -0.029591575 -0.023623792 -0.036544982
-0.1733882 0.15831515 -0.1471495 0.119489476 -0.0011427696 0.090991125 0.12327679 0.10941178
-0.12536848 0.1727955 0.002638751 -0.15725613 0.106216945 0.049998343 0.049941782 0.1320102
-0.09082201 0.17239483 -0.02249295 -0.007835499 -0.049205348 0.036838114 0.114883944 0.14049731
-0.13008559 0.042167943 0.022301583 -0.058958445 0.12980546 0.0020407082 -0.10157392 -0.11222511
0.09395879 0.0833856 0.033222653 0.15757251 -0.13494945 0.06715289 -0.048978664 -0.14544806
-0.00070404203 -0.07872517 -0.0017171047 0.097665496 -0.13020359 0.02506096 -0.030706191 -0.06142332
-0.014508125 -0.024477666 0.04809436 0.16912189 0.091014855 -0.010772777 0.07664602 -0.103952415
-0.16528851 -0.11724562 0.040059734 0.103225596 -0.015479547 0.076543055 0.10826438 0.13637556
0.17228462 0.022206584 0.046561286 -0.082121745 -0.11287784 0.10775084 -0.035671826 0.14636776
-0.123903975 -0.1576187 -0.10083583 0.13454686 0.11008592 0.09983109 0.07146689 0.17137104
0.15139459 0.14995688 -0.13853706 0.11759837 -0.037935536 -0.16812755 -0.09228202 0.007827533
-0.061681088 0.08206935 -0.1287357 -0.13980676 -0.11446685 -0.04557821 -0.11996359 0.056204528
0.092016645 0.031684462 0.025153618 -0.12109685 -0.040987324 0.061258506 0.048150033 0.1764951
-0.10620112 -0.033245813 0.0013070159 0.111122884 -0.008643243 -0.11031699 -0.084986165 0.1564233
-0.038455818 0.07304635 -0.14076616 -0.018712316 0.041952845 0.14575826 0.08271357 -0.16968182
-0.06852877 -0.026280982 -0.09904911 -0.029418627 0.04679124 0.06764032 0.15319444 0.017433243
0.04768267 0.16892138 -0.16138658 0.07806861 -0.07609346 -0.071730286 0.019943215 0.15610775
-0.14576904 0.112455316 -0.1422462 -0.16757207 0.09430785 0.02079359 0.12753329 -0.009531931

modality_encoders.sleep.3.bias f4 [16]
00000000: 2849 193e 0f2c 5b3d bb77 81bd 631e 0a3e
00000010: fa02 58bd 7022 0c3e 50d0 3dbd 25fb d9bc
00000020: 95e0 a0bd cd20 89bd 96aa 17be 7f7b 223e
00000030: a22c d13d 7cc1 e93d e5c6 af3d c11e a53d
0.14969313 0.053508814 -0.06321665 0.13488154 -0.052737214 0.13685012 -0.04634124 -0.026609013
-0.078553356 -0.066957094 -0.14811167 0.15867423 0.10213591 0.11413857 0.08582858 0.080625065

modality_encoders.stress.0.bias f4 [32]
00000000: 0000 0000 0000 0000 0000 0000 0000 0000
00000010: 0000 0000 0000 0000 0000 0000 0000 0000
00000020: 0000 0000 0000 0000 0000 0000 0000 0000
00000030: 0000 0000 0000 0000 0000 0000 0000 0000
00000040: 0000 0000 0000 0000 0000 0000 0000 0000
00000050: 0000 0000 0000 0000 0000 0000 0000 0000
00000060: 0000 0000 0000 0000 0000 0000 0000 0000
00000070: 0000 0000 0000 0000 0000 0000 0000 0000
0.0 0.0 0.0 0.0 0.0 0.0 0.0 0.0
0.0 0.0 0.0 0.0 0.0 0.0 0.0 0.0
0.0 0.0 0.0 0.0 0.0 0.0 0.0 0.0
0.0 0.0 0.0 0.0 0.0 0.0 0.0 0.0

modality_encoders.stress.3.weight f4 [16, 32]
00000000: ae2a 1d3e 824c 01bd 69dd cf3c 1f1e 303d
00000010: dd7b e8bd dbda b2bd 6a26 043e f8ce e23c
00000020: 43e2 10be 9388 19bd 7903 19be 212c f8bc
00000030: 1158 0d3a 5a46 cb3d 382e 2dbe 55f0 453c
00000040: 088b babd e11b 07be 29d8 12bd 2196 283e
00000050: 24df b0bd f73b 04be 6647 05be a495 2ebe
00000060: 5da5 bb3d 1ff8 36bd c23f 1cbe ee4f 34bd
00000070: e507 d1bc 1043 dbbc de05 25be 8723 f5bd
00000080: 067a f33d 7a8f 5bbc db1e 26be 05d0 1bbe
00000090: eef6 533d ae5e 33be 1b2a 333d 7fe6 27be
000000a0: 5d55 edbd 05c8 753d 1a61 4dbc dbd0 5cbc
000000b0: 14d7 f53d 2268 a6bc 2a92 dabd 9aa2 e5bc
000000c0: 69ca 0f3d fd5e 993d 951f 0c3e 141e 31be
000000d0: 0104 20be 4c34 b0bd 3572 01bc 5a82 103e
000000e0: 960b 4d3d 2f99 fbbd 5da4 a5bd ea0f 2cbd
000000f0: d1ec c13d 4364 d1bc b984 d93d feee 113e
00000100: 85f4 203e 5552 02be 0154 2cbe d37a 9e3d
00000110: b5b9 9bbd 4e00 f1bd 97ad cfbb 30a9 223d
00000120: 7200 7c3c 0e80 f8bd a55a 30bb ded9 2a3e
00000130: 8f95 0fbe 49c5 043e 8a78 1bbe 8e46 0b3d
00000140: a4ae 87bd 8e46 0ebe 9b36 efbd f7f1 303b
00000150: 268b 343e 973f e63d a3de 27bd 5631 9bbd
00000160: e8fe b0bd 9708 b63c eb7a 15bd 5b9e 9c3d
00000170: 6ea4 0bbe edb1 8bba 9a60 54bd b77c c83d
00000180: 5338 5fbd b4b5 253e 3e2f 2d3b c89b 2cbe
00000190: db87 7c3d a33b fbbd 229d 13bd 4b09 043d
000001a0: c51a a4bd a3e5 2b3e 465d 6bbd e724 33be
000001b0: 61c6 123e 820b a93d 8e23 4e3c e866 13bd
000001c0: 510d 33be 2cc4 90bc bd62 3c3d 2e7d 10be
000001d0: 3584 8f3b 65d5 06be 07ce e0bd dc0a 06be
000001e0: 85f3 0d3e e5c3 b23d 30a8 04be bbc2 11bd
000001f0: 5fc2 c93d 4688 dfbd 07fe f43c fa7a dc3d
00000200: 2982 19be dfcf 02bc d4ac fd3d 3562 cdbd
00000210: 07eb b0bd a715 b1bd f0b7 193e d2fd d0ba
00000220: 0eaa 263e 7281 113e 9584 283d 9ec8 29bd
00000230: e560 d5bd 4f5c 34be 8b81 5d3d b787 883d
00000240: 3673 e63d 4620 1e3d 0b49 233e f9b0 c63c
00000250: 076f e53c 17c1 7b3d 179f ae3d d670 06be
00000260: a9a3 1ebe 7b3e ccbc 712e 1dbc f8b5 91bd
00000270: 3059 cb3d 50e5 95bd 8160 02be a410 743d
00000280: 23fd d43d 7423 ffbb 5b99 993d fc76 293e
00000290: 4b11 84bc 6fd9 20bd 986d 993d f241 b83d
000002a0: 1323 f13d ca47 213d 88bd 6f3d 716e 20be
000002b0: 62ad e83d 99ff 93bd 5308 c53d 33fe c7bc
000002c0: cc0a 05be 1afe 96bd 30f6 303e cae3 153d
000002d0: edc5 243c 5a31 1abe 21d9 063e b60a 313e
000002e0: 8734 043e cc62 2bbe 3a9c 01be 2b85 c6bd
000002f0: 4117 083e a3f9 3439 45ea 143d cef7 293e
00000300: 9c0a aa3d 8840 2dbe e2bb e93d c5ed 0a3e
00000310: af10 16be ae8f 18be 797b c73c af4e 2c3e
00000320: 7801 0f3e e9ff ebbb f862 e03d 8b7d 0dbe
00000330: 6994 16be 7d4d 2e3d 2c43 123e 87bc b23b
00000340: 0371 18be 24f5 203e 4146 e03d 1640 fe3d
00000350: 3084 153e 39c6 003d f394 1e3e 745b 9bbd
00000360: 0886 13be 2454 f9bd e0d0 653c 9f3f 1ebe
00000370: 0ef5 153e 45c8 6fbd c959 5e3d 8409 43bc
00000380: 23fd 82bd 28e8 5e3d ffbc 78bc 11dd f5bd
00000390: 1cde aabc 6be8 a23d 521e 28be 9a56 953d
000003a0: e27e c3bd 107e b3bd 1c40 d33d ab7c 043e
000003b0: d4b6 643c 9f35 843c 3f6b 09be 9e85 a93d
000003c0: d07c 1ebe 638b fdbd 9896 e93d 920e d9bc
000003d0: 5e5e c33d cd50 c13d b5f4 f13d 93d2 b93d
000003e0: aac9 cdbd 1546 fabd 0b5c fbbd c09e 383c
000003f0: 9e72 0f3c cec5 c73d 83de 103e cb85 f93d
0.15348312 -0.031567104 0.025374131 0.042997476 -0.1135175 -0.087331496 0.12905279 0.027686581
-0.14148812 -0.037483763 -0.14942731 -0.03029448 0.0005391846 0.09925528 -0.16912162 0.012081225
-0.09108549 -0.13194229 -0.035850678 0.1646352 -0.08636311 -0.129135 -0.13015518 -0.17049271
0.091624 -0.04467022 -0.15258697 -0.04402154 -0.02551646 -0.026765376 -0.1611552 -0.11969667
0.118885085 -0.013400907 -0.16222708 -0.15216072 0.051749162 -0.17516586 0.043741327 -0.16396521
-0.115885474 0.060005207 -0.012535358 -0.013477529 0.120039135 -0.020313326 -0.1067241 -0.028031636
0.035105143 0.07488821 0.13683923 -0.1729663 -0.15626527 -0.08603725 -0.007900764 0.14112225
0.050059877 -0.12285077 -0.080879904 -0.042007364 0.09468997 -0.025560504 0.10621018 0.14251325
0.15718277 -0.1272672 -0.1682892 0.077382706 -0.0760378 -0.11767636 -0.006337832 0.03971213
0.015380966 -0.121337995 -0.0026909497 0.16684672 -0.14021896 0.12965883 -0.15182701 0.034002833
-0.06625107 -0.13894102 -0.11680337 0.002699969 0.17631206 0.112425976 -0.040983807 -0.075777695
-0.086423695 0.022220893 -0.036494177 0.076473914 -0.13636944 -0.0010657884 -0.05184994 0.097894125
-0.054497074 0.16182595 0.0026425864 -0.16856301 0.061653 -0.12267234 -0.036038525 0.032235425
-0.080129184 0.16786818 -0.057462 -0.17494546 0.14333488 0.08254148 0.012581719 -0.03598681
-0.17485549 -0.017671667 0.0459926 -0.14110252 0.004379774 -0.13167341 -0.109767966 -0.1309008
0.13862427 0.0872877 -0.12954783 -0.0355861 0.098515265 -0.10914664 0.029906286 0.107656434
-0.14991058 -0.007984131 0.1238648 -0.10028497 -0.08638578 -0.08646708 0.15011573 -0.0015944785
0.16275808 0.14209536 0.041142065 -0.04145109 -0.10418872 -0.17613338 0.05407862 0.066665106
0.112524435 0.038604997 0.15945832 0.024254309 0.028007044 0.06146344 0.08526438 -0.13128981
-0.15492119 -0.024932137 -0.009593592 -0.07114786 0.099291205 -0.073191285 -0.12732126 0.059586182
0.103998445 -0.0077862088 0.07499953 0.16549295 -0.016121527 -0.03926986 0.074916065 0.08996953
0.11774268 0.039375104 0.05853036 -0.1566713 0.11361195 -0.07226486 0.09620728 -0.024413204
-0.129924 -0.07372685 0.17281413 0.03659419 0.010056955 -0.15057889 0.13168766 0.17289242
0.12910663 -0.16736907 -0.12657252 -0.096933685 0.1329012 0.00017259135 0.03635623 0.16598436
0.08302805 -0.16919148 0.11412789 0.13567264 -0.14654802 -0.1489856 0.024350869 0.1682689
0.13965404 -0.0072021377 0.10956377 -0.13817422 -0.14705051 0.042554367 0.14283437 0.005454603
-0.1488686 0.15718514 0.109509 0.12414567 0.14601207 0.03143904 0.15486507 -0.07585803
-0.14406598 -0.12174252 0.01402685 -0.15453957 0.14644262 -0.0585406 0.054284845 -0.011904124
-0.06395938 0.05442062 -0.015181779 -0.12005056 -0.020857863 0.079544865 -0.16417816 0.072919086
-0.09545685 -0.08764279 0.10314962 0.12938182 0.013959605 0.01613885 -0.13419817 0.082774386
-0.154773 -0.123801015 0.114056766 -0.026496205 0.095394835 0.0943924 0.11814252 0.09073367
-0.1004823 -0.12220398 -0.12273415 0.011268318 0.008755354 0.09754525 0.14147381 0.12183722

modality_encoders.stress.3.bias f4 [16]
00000000: c998 1d3e da98 1fbe 3391 873c 5e3f ae3d
00000010: 7f6c b1bd 56f8 f23c cbcf 713d 7723 cebc
00000020: 7728 303d 05f6 373c c68e 17bd 0914 c5bd
00000030: c0ed fbbc d8ce d4bd b37d bbba 507d 35bd
0.15390314 -0.15585652 0.016548729 0.0850818 -0.08663272 0.029659431 0.059036057 -0.025163395
0.04300734 0.011228089 -0.037001394 -0.09622962 -0.030753016 -0.10391015 -0.0014304429 -0.04430896

gating.expert_usage f4 [8]
00000000: 4beb 033d 0000 0000 0000 0000 0000 0000
00000010: 0000 0000 571b a330 0000 0000 0000 0000
0.032206815 0.0 0.0 0.0 0.0 1.1867581e-09 0.0 0.0
